Model_params/100_e_macro_best.pt (torch, 320551 bytes, 26 tensors)

encBlocks.0.conv1.weight f4 [16, 3, 15, 15]
00000000: 9b8d 773c 9d2d 67bc 41eb 3e3d 61f1 5d3d
00000010: 27e7 803d b9c5 b83c a0cd 45bc 2bd0 aabc
00000020: 3d8a 383d e663 273d eff7 19bc 5dd2 b33c
00000030: 0e83 1c3d 839b 6cbc 4358 d6bb 1a6e 983c
00000040: 2c13 8c3c f19b 2b3d 9cac 5a3c c5f4 703c
00000050: 6110 563b 397c 84bb 16bc 273d c9da 933c
00000060: d104 573d 01d7 3fbc 7a87 8d3c bf6f 90bb
00000070: 72d9 9abc 18f8 963c 7806 d43c c3cc 263c
00000080: b042 103d 5689 073d 705c 203d 982e 053d
00000090: 1d7b 2b3d 3278 f13c 4f57 dabc cfa3 ccbc
000000a0: 67da c83c 63b2 c6bc 9076 3c3d 83e3 1c3d
000000b0: 8b30 2a3d 89ea c53c 44ee 10bc d9ca 5f3d
000000c0: d21d c73c db5b b3bc c03a 13bc 22b3 5d3d
000000d0: e61c a6bc 61cd fc3c f961 d23b 2c8c 893c
000000e0: 99b8 0fba 9335 f8ba 3977 4b3d 5a0e 1cbc
000000f0: abba 5fbc eb4d 383d d317 0e3d 0826 913b
00000100: ef2a a53c 8b2f 52bc 0b7e a23c 9c2a 3e39
00000110: 4bd7 68bc e7cf a6bc a10b d03c 4fd5 383d
00000120: a705 e23c 8eb7 783b ebe5 b83c 8826 193c
00000130: aaf1 373d e205 26bb 0da3 333d fe5f 003d
00000140: cee3 093d b94c 4f3d 872b a33b 247b 05bc
00000150: 75fd 02ba 9ba8 fb3c c2e4 283d b0b3 103d
00000160: be10 283b feb6 c2bc 2cb5 3e3d 8437 0dbd
00000170: 7e85 3dbc 46fa fcb9 69b1 293d 64e2 513d
00000180: c618 3e3d 1bf9 ba3b afa9 b2bb a196 44bc
00000190: dd8f 76bc 95b9 0a3d 2a02 8d3c 2476 e8b9
000001a0: e9a0 0a3c df2a 48bc cb66 153c 7c0f 223d
000001b0: f9b6 93bc 6a11 6139 6080 3a3d 6c1f 7b3b
000001c0: 4faf cd3c 685e b63a f6fd c8bc 9850 2cbd
000001d0: 5910 8d3c 2f35 2cbc da81 fe3c 8954 e6bc
000001e0: d9d4 323d f243 9e3c 5169 4c3d 0bf0 cf3c
000001f0: d332 b03a 5eb6 883c 1e2b 5dbc 7d4a 91bb
00000200: 642f 953c 9185 d5bc 6be0 14bd d5ae 973c
00000210: 0c02 74bc 5830 0abb b407 533c c508 613c
00000220: 2fa1 323d bdb4 213d 854e 7f3c edc7 053d
00000230: 3b6d 053d e352 403c 8538 cdbc 59b9 d43b
00000240: 69a6 abbb 1bf9 dbbc 7e3f daba a1da 1abd
00000250: 8cba 033d 22dd 083d 00ba c13b 527d 8ebb
00000260: 8ea7 993b 3c5f 93bc 8240 6abb 7023 123d
00000270: 44bd 0fbd b7ef c93c 080a b63c 46a9 843c
00000280: b40d a13a 1fb7 0cbd af44 13bd 3c26 c9bc
00000290: f9e0 083c 8f42 1ebc 53d6 083d 8725 803c
000002a0: 0966 c23c 666b e63c 5009 253c 0e1b 1fbd
000002b0: 33bb c3ba 53f0 2cbc 7d48 0e3c 1b81 853c
000002c0: 13e9 f8bc e6b7 db3c 81dc 29bc 2178 843a
000002d0: d8f9 993c 361d 38bc ebb5 023d 9cd6 c4bc
000002e0: 7310 4abb a84c 81ba 6d05 50bd 1e25 9abc
000002f0: 5254 13bd d7f8 ad3c 9e25 0ebd 6c26 493b
00000300: 1afb 803b 6a04 53bc 3da8 ffbc 1a48 11bb
00000310: 25b5 dcbb 686f 0bbd c8ed 8bbc 1b5a 96bc
00000320: 6e5d 61bd c366 2f3c 3c6c 12bd 7383 3d3c
00000330: 7960 9b3c fd88 f63b 839e c93c 146f 9a3b
00000340: 77bc 4a3b ba3f 663c 1614 573c 81c7 0dbd
00000350: b4b7 64bd 24b7 13bd 33f6 96bc 3cdb fabc
00000360: afe6 efbc 4454 2dbc 8b9a 11bd e1eb e03c
00000370: 0f24 b93b 119c 5bbb 0e3b 9fbc 6846 863c
00000380: 80e9 90bc 86d3 91bc d0d7 ed3b a578 a33c
00000390: 629b 9c3b a907 cc3b f91c 2d3c bffa 63bb
000003a0: 0550 1c3d 19fd 253d 4e6a 1e3d c4d0 4438
000003b0: 9102 9a3c 5c77 88bc f87d 45bc 4a8f 80bc
000003c0: 1cc3 713b 80fc ebbb 5886 f3bb bf9a edbc
000003d0: 65ab c2bc a1d6 aabc 50f1 183d bfc3 f5bc
000003e0: 2f5a 4b3c 0880 fd3c af6b 3a3d 88c6 1e3c
000003f0: 5712 833c a22e 95bc c7a9 2bbc 727b b73c
0.015109445 -0.014109996 0.046611074 0.054185275 0.06294089 0.022555219 -0.012072951 -0.020851215
0.04505371 0.040866755 -0.009397491 0.021950895 0.03821092 -0.014441374 -0.0065412833 0.018607188
0.017098986 0.041896764 0.013346817 0.014706795 0.0032663571 -0.004043129 0.040950857 0.01804866
0.052494828 -0.011708976 0.017276514 -0.0044078524 -0.018902514 0.018428847 0.02588199 0.010180655
0.03521985 0.033089958 0.039150655 0.03251514 0.041865457 0.029476259 -0.02665296 -0.024980454
0.024518205 -0.024254983 0.046011508 0.03830291 0.0415502 0.024159687 -0.008845869 0.05463681
0.024306212 -0.021894386 -0.008986175 0.054125912 -0.020277452 0.030859651 0.0064203707 0.016790472
-0.0005482524 -0.0018936865 0.049674246 -0.009524906 -0.013655345 0.044996183 0.03469069 0.0044295825
0.020162074 -0.012828718 0.019835493 0.00018135685 -0.014211486 -0.020362807 0.02539617 0.045125302
0.027590586 0.0037951204 0.02257057 0.0093475655 0.044908203 -0.0025333096 0.04385667 0.031341545
0.033664517 0.050610278 0.004979554 -0.008147035 -0.00049968745 0.030720046 0.041233785 0.035327613
0.0025644745 -0.023768898 0.046559498 -0.034476772 -0.011567472 -0.00048251654 0.041428957 0.051241294
0.046410345 0.005705965 -0.0054523568 -0.011998803 -0.015048948 0.03386839 0.017212946 -0.0004433851
0.0084612155 -0.0122172525 0.009118746 0.03956555 -0.018031584 0.0002146416 0.045532584 0.003831829
0.025108008 0.0013913633 -0.02453516 -0.042069048 0.01721971 -0.010510727 0.031067777 -0.028116481
0.04366002 0.019319508 0.049905125 0.025383016 0.0013442881 0.016688522 -0.0134990495 -0.0044339285
0.018211074 -0.026064666 -0.036346834 0.018515984 -0.014893066 -0.0021085944 0.012880255 0.013735001
0.043610748 0.039479006 0.015582685 0.032661367 0.032574873 0.011738512 -0.025051365 0.0064918217
-0.0052383435 -0.026852181 -0.0016651002 -0.037806157 0.032160327 0.033414014 0.0059120655 -0.0043484354
0.0046891635 -0.017989747 -0.0035744016 0.035678327 -0.035092607 0.024650438 0.02222158 0.016193997
0.0012287409 -0.034354325 -0.035954174 -0.024554364 0.008354419 -0.0096594235 0.03340752 0.015642894
0.023730295 0.028127383 0.010073021 -0.03884416 -0.0014933109 -0.010555345 0.008684275 0.016296914
-0.030384576 0.026821088 -0.010367514 0.0010106602 0.018795893 -0.011237433 0.03191177 -0.024028115
-0.0030832558 -0.0009864764 -0.050786424 -0.018816527 -0.035969086 0.02123682 -0.034703843 0.0030693067
0.0039361836 -0.01287947 -0.031208152 -0.002216822 -0.0067354613 -0.034041792 -0.017081156 -0.018353513
-0.055020742 0.010705653 -0.03574775 0.0115669845 0.0189669 0.0075236545 0.024611717 0.0047129486
0.0030935088 0.0140532795 0.013127347 -0.03461409 -0.055839255 -0.03606333 -0.018427944 -0.030622117
-0.029284803 -0.0105791725 -0.035547774 0.027456226 0.0056500505 -0.003350977 -0.01943734 0.016390994
-0.017689466 -0.017801058 0.007258393 0.019954989 0.0047792653 0.006226499 0.01056599 -0.0034786907
0.03816225 0.040524576 0.0386756 4.692447e-05 0.018800052 -0.016658477 -0.012053959 -0.015693326
0.0036889976 -0.007201731 -0.0074317865 -0.029004453 -0.023763368 -0.020854296 0.03733951 -0.030000566
0.012411638 0.03094484 0.04551285 0.009690888 0.015999956 -0.018210713 -0.01047749 0.02239773

encBlocks.0.conv1.bias f4 [16]
00000000: f813 923b c343 10bd b185 01bd f49f be3c
00000010: afbe 113d d7ac b43b 7ebd 1c3a f6bd 7c3c
00000020: 883b 28bd d66f 0e3d 242a 3abc c4e8 0abd
00000030: 3591 e13c 5ae8 0c3d e8cb bb3c 8e4b 8abc
0.004457947 -0.035220873 -0.03162164 0.023269631 0.03558224 0.005513768 0.0005979164 0.01542615
-0.0410724 0.034774624 -0.011362586 -0.03391339 0.02753506 0.034401275 0.022924379 -0.01688173

encBlocks.0.conv2.weight f4 [16, 16, 3, 3]
00000000: 04a1 443c 45a2 99bc 31c4 abbd db2a 29bd
00000010: c7a9 0ebb 766a 313d dc2b b9bc db1f 84bc
00000020: 026e 163c 9b20 c43c 5220 e03c e624 d13c
00000030: 4316 bebc f910 e5bc 28c8 7cbd 6c6f 0fbd
00000040: 1142 9ebc 7230 40bd 1175 44bd 7ca8 563d
00000050: 176d 58bd 9486 f6bc e1c2 98bc 16ec 98bd
00000060: 2acc ddb9 f976 853d 4e2a 11bc 0a3a 253d
00000070: 5b08 dfbc 55ec 9a3d a444 0fbc 7367 21bd
00000080: e398 a1ba b8ce 843d 24cb 383d 4bf1 28bd
00000090: 86f3 673d 11b0 b3bd 21ff bdbc 2897 dd3c
000000a0: 1fa0 7d3d 1679 18bd 3bc0 4cbd 50f1 a03c
000000b0: 719f 153d de0a 3c3d 4944 843c 4f1c 163d
000000c0: 37c1 5cbd a65e 9a3d d75a 883d 56d4 14bd
000000d0: ec70 b83c 6d3e 613d 0cd3 9cbb 8047 eabc
000000e0: bd55 b8bb 832a 093d f375 e63c ea96 f93c
000000f0: b2c4 733d b2ae abbc d05f cb3c 3dce aebd
00000100: 58f2 653d c06e 043d d45d 0abd 6281 2cbd
00000110: 6741 833c 84bc 093d 5161 4dbd 9dac e2bc
00000120: 0e18 953d a68f 073c 37fa 663d 9b95 783d
00000130: 1736 13bd 2e93 e0bb 0e23 953d 1cab fcbc
00000140: e8ac 83bd a643 1ebd 8157 523c 4dbf afbc
00000150: bfbb 83bd c639 dd3c 29a2 5cbd e1be 93bd
00000160: e09f 573d 8b0a 3a3d 6f2d 163d 6133 45bc
00000170: 27d0 0fbd 2a55 193d 87c4 0dbd cbd2 a1bc
00000180: 9362 543d 8969 be3c 3e32 8dbd 3923 9b3d
00000190: 4c0a e33c a7d9 84bd 7633 16bd 3249 da3c
000001a0: 830b 88bd 3e59 3dbd 8768 ba3d 4ffd 3d3d
000001b0: cd13 123d 74fe 9bbd bda0 b7bd feab 51bc
000001c0: 34bc 8cbd 68ad 78bc eda2 dcbd d667 f23c
000001d0: 2326 dbbd ceb4 b8bd 2635 b83b 1ed8 b0bd
000001e0: 5e9b 0d3d b6ee e13c b0b9 033c c8af cfbb
000001f0: c6e8 9f3d 86d0 9fbd 2301 813d 7e8e 01bc
00000200: e2de 933d 1ff1 dbbc 6cdb 70bd 6360 99bc
00000210: 4725 b23d 094d 57bd 0f11 143d b92e 9f3c
00000220: 0b6b a6bd 0979 10bd 2b45 1c3d eee8 96bb
00000230: 76f0 0abd 01dd c33c 63be 4e3d fd3d 683c
00000240: fbdd 92bd 84d7 833d fc88 efbb 5764 81bb
00000250: db2d 4a3d 7652 e9bc f93a 9c3c f0fa 1e3d
00000260: 5d0c 033d 6fbf 863d 7eb7 5cbd 6ab4 00bc
00000270: 0662 acbc e446 91bd 2bc7 63ba 179d d83c
00000280: 4d03 7fbc db7c 38bd dc65 70bb e05d 3bbd
00000290: cdf4 333d 6f32 1f3d e4a1 9b3c 427f 153d
000002a0: e588 15bd 36ad 843d 51b4 a4bd e20d 9cbd
000002b0: 9e6a 8c3c 3a1a 1f3c f878 083d 056d d5bd
000002c0: ae9f abbd 90b7 a0bd 9d02 ccbd 6b1a 07bd
000002d0: dc1c 3d3c 69f6 a0bd bc0c 16bd 3822 a03d
000002e0: b2ec 1ebd 9c4c 1a3d ec92 05ba 324c f23c
000002f0: 0c7c 373d ff81 42bd 947c 9b3c 9db0 94bd
00000300: 5ee1 013d 83c8 86bd 47fe db3c d339 323c
00000310: 1dda 0c3d 4e88 8dbd 5058 adbc 9790 233d
00000320: 030a 333d d6f4 893d 3885 06bc 9829 3cbc
00000330: a586 373d 0b33 043d ecfd 93bc c6f8 70bd
00000340: 602e 8f3d c534 2f3d 8e92 233d 6f09 943d
00000350: 2bd3 17bd ee7b 81bd 97b4 d33c 4ad9 8cbd
00000360: 9bff 2abd f9ef 11bc 5aec b63d 5c4a afbc
00000370: 0ddd 58bd 054c c53d 8948 48bd 1a3b a73d
00000380: 7c79 083c f001 993d 0390 e0bc 2294 533d
00000390: eac6 d3bc ca64 943d 5d96 a4bb 0aa3 1ebd
000003a0: c6e7 95bd 5fe1 bf3c aaf9 a9bd 892a b7bd
000003b0: 52d0 d33c 450a 01bd aa13 30bd 3983 403d
000003c0: 70de c9bc 0c63 433d 4c8d 2abd 128f 50bd
000003d0: d042 34bd 7e2c 87bb 7ac2 bebc 7429 90bc
000003e0: 4075 0f3d e483 a1bc 4e18 133d 769e 1fbd
000003f0: 227c 793c 4a05 aa3c f215 ba3c acac 333b
0.01200128 -0.018754134 -0.0838703 -0.041300636 -0.0021768676 0.04331442 -0.022603922 -0.016128471
0.009181501 0.023941329 0.027359162 0.02553029 -0.023203975 -0.027962195 -0.06171432 -0.03501837
-0.019318612 -0.0469212 -0.047963206 0.052406773 -0.05283841 -0.030093469 -0.018647613 -0.07466905
-0.0004230452 0.06516833 -0.008860184 0.040338553 -0.027225664 0.07564608 -0.008744393 -0.039405297
-0.0012328889 0.06484741 0.045115605 -0.04124574 0.056628726 -0.087738164 -0.023192944 0.027049616
0.06192028 -0.03722485 -0.049988013 0.019646317 0.03652901 0.0459088 0.016145842 0.03664809
-0.0538952 0.07537584 0.06657951 -0.03633531 0.022514783 0.054991174 -0.004785901 -0.028598547
-0.005625455 0.033487808 0.028132414 0.03046747 0.059513755 -0.020957325 0.02482596 -0.085354306
0.05613932 0.032332182 -0.033780888 -0.042115577 0.016022397 0.033627048 -0.050141636 -0.027670199
0.07279979 0.008273995 0.056390967 0.06068955 -0.035940256 -0.0068534827 0.07282077 -0.03084331
-0.064294636 -0.038638733 0.012838245 -0.021453524 -0.06432294 0.027005088 -0.053865585 -0.07214142
0.052642703 0.04542021 0.036664423 -0.0120361755 -0.03511062 0.037434734 -0.03461125 -0.019753834
0.05185182 0.023243682 -0.068943486 0.075750776 0.02771487 -0.064868264 -0.03667017 0.02664623
-0.06642821 -0.046227686 0.09101968 0.046384152 0.035663415 -0.076168925 -0.08966205 -0.012797354
-0.068718344 -0.015178062 -0.10773263 0.029590528 -0.107006334 -0.09018861 0.00562157 -0.08634971
0.034571998 0.027579647 0.008039877 -0.0063380934 0.0780807 -0.078034446 0.06299045 -0.007907508
0.07220246 -0.026848374 -0.058803007 -0.018722719 0.08698516 -0.0525637 0.03614908 0.019431459
-0.081258856 -0.035271678 0.0381519 -0.004605404 -0.033920728 0.023909094 0.050474536 0.014174935
-0.07171246 0.06437591 -0.007310031 -0.003948729 0.049360137 -0.028481703 0.01907109 0.03881353
0.031994212 0.06579482 -0.05388593 -0.007855514 -0.021042835 -0.070935994 -0.0008689041 0.026442094
-0.015564752 -0.045040946 -0.0036681807 -0.045743823 0.043934632 0.038866457 0.018998094 0.036498316
-0.036507506 0.0647835 -0.08042205 -0.076198354 0.017140683 0.009710843 0.03331849 -0.104211845
-0.08380066 -0.07847512 -0.09961436 -0.03298418 0.011542525 -0.07859499 -0.03663324 0.07819027
-0.03879995 0.037670717 -0.00050954404 0.029577348 0.044796035 -0.047487255 0.018980302 -0.07260249
0.031709068 -0.06581213 0.026854647 0.010878044 0.034387697 -0.06910764 -0.021160275 0.039932813
0.04371072 0.06736152 -0.008210473 -0.011484526 0.04480614 0.03227524 -0.018065415 -0.058831
0.06991267 0.042774934 0.039934687 0.07228362 -0.03706662 -0.06322466 0.025842948 -0.06877382
-0.04174767 -0.008907312 0.08931799 -0.021397762 -0.052945185 0.0963364 -0.0488973 0.081655696
0.008329745 0.07471073 -0.02741242 0.051654942 -0.025851686 0.072457865 -0.0050228075 -0.038729705
-0.07319598 0.023422895 -0.08299573 -0.0894366 0.02585617 -0.031503934 -0.042987503 0.047000144
-0.0246422 0.04770188 -0.041638657 -0.050917692 -0.04400903 -0.004125177 -0.023286093 -0.017597891
0.035023928 -0.01971621 0.03591185 -0.03896948 0.0152273495 0.020754475 0.022715542 0.0027416153

encBlocks.0.conv2.bias f4 [16]
00000000: 8d85 093d fcc0 30bd f761 e13a af6f de3c
00000010: 11e1 863c 4836 0fbd ce48 90bd dd59 923d
00000020: 4c70 a8bd 2b16 25bd f52c d9bc df7d f13b
00000030: c2f4 80bc 0874 9cbd 83ee d8bc 9e9a 603d
0.03357463 -0.043152794 0.0017195333 0.027152864 0.016464742 -0.034963876 -0.070451364 0.07146046
-0.08224544 -0.040304344 -0.026510695 0.0073697413 -0.01574171 -0.07639319 -0.026480919 0.054834954

encBlocks.0.BN1.weight f4 [16]
00000000: b964 7f3f aef9 833f b500 7e3f 92d9 803f
00000010: 36d5 783f f65e 7e3f 1873 7c3f 8cc1 7f3f
00000020: ac26 803f 1f71 7f3f 3ea5 7c3f 6f5e 833f
00000030: ed5e 833f e1bb 7e3f ecc6 7d3f b3fd 7c3f
0.99763066 1.0310571 0.9921983 1.0066397 0.97200334 0.9936365 0.9861312 0.99904704
1.0011802 0.99781984 0.9868964 1.0263194 1.0263344 0.9950543 0.99131656 0.98824614

encBlocks.0.BN1.bias f4 [16]
00000000: e224 1bbd 8b73 acbc 10d7 09bd bb77 923c
00000010: 5fdc b9bc 9ebc e23c 35c1 ccbc 05e9 8b3c
00000020: 63f2 b23c 3c12 b5bc c844 69bd 3346 a4bc
00000030: 9665 95bc 7f85 17bd ff14 a13b 7ba7 ae3c
-0.03787697 -0.021051189 -0.033652365 0.017879358 -0.022688089 0.02767783 -0.024994472 0.017078886
0.021844095 -0.022103421 -0.05695036 -0.020053005 -0.018236917 -0.036992546 0.004915833 0.021320095

encBlocks.0.BN1.running_mean f4 [16]
00000000: a2c5 2040 1ae6 c93e 1a2b 433f 5b3e d43f
00000010: 5c32 20be 65d4 bb3f aa40 ddbf 55cc 4bbf
00000020: f373 2dbf 25da 87bf b80f 4340 1449 dcbe
00000030: 0671 c03e 7b4b 04c0 2c05 933f a95d 9cbf
2.5120625 0.39433366 0.7623764 1.6581529 -0.1564421 1.4674193 -1.7285359 -0.7960866
-0.6775505 -1.0613447 3.0478344 -0.43024504 0.3758623 -2.067107 1.1485953 -1.2216083

encBlocks.0.BN1.running_var f4 [16]
00000000: b447 ed3f 96e0 f63d 029c 8a3e 1138 5e3f
00000010: 6ae4 633e 9abc 2b3f df2f 623f 0e16 b63e
00000020: 7290 1c3e 727f ff3e 07af 2f40 8c67 233e
00000030: f0c2 dc3d 2724 a13f cca9 3b3f 64a2 f33e
1.8537507 0.12054555 0.2707215 0.868043 0.22255102 0.6708466 0.88354295 0.355637
0.15289477 0.4990192 2.7450578 0.15957469 0.10779369 1.2589158 0.73305964 0.47584832

encBlocks.0.BN2.weight f4 [16]
00000000: a0b9 833f f262 803f a1a4 823f 9522 813f
00000010: 0a75 803f 53ec 7c3f 6fc5 7f3f e61c 7c3f
00000020: 0e02 803f 44cf 7e3f 343a 803f eb56 783f
00000030: cd85 813f 8742 813f 3005 783f 54ba 813f
1.0291023 1.0030196 1.0206491 1.0088679 1.0035717 0.987981 0.99910635 0.98481596
1.0000627 0.9953501 1.0017762 0.97007626 1.0118958 1.0098428 0.96882915 1.0134988

encBlocks.0.BN2.bias f4 [16]
00000000: 9b14 343d 51c5 013e 9f27 7e3d d8c0 563d
00000010: 03af c0bc e3c3 bd3c a775 fd3a 3c8a c73d
00000020: b887 fb3d 3789 f03d 5313 733d e5ec aabd
00000030: 7a5e d73d dd41 a53d 65f2 23be ee59 9d3d
0.043964963 0.12672926 0.062049504 0.052430004 -0.023520952 0.023164695 0.0019337431 0.09743163
0.12281746 0.11744922 0.0593446 -0.08345965 0.10516067 0.08069203 -0.16010435 0.07683168

encBlocks.0.BN2.running_mean f4 [16]
00000000: 0ae6 efbd 4d95 66be ba51 733e 640d 443e
00000010: 4404 713e e821 8fbe d47d 3fbe b081 323d
00000020: 7471 d4bd 045d 53be 4fe8 c23e 5ade 94be
00000030: 9c75 be3d acfd 913d 3d89 2bbd 9f32 04be
-0.11713798 -0.22517891 0.23761645 0.19145733 0.23536783 -0.27955556 -0.18700343 0.04358071
-0.10373202 -0.20640951 0.38067862 -0.2907589 0.09299776 0.07128462 -0.041878927 -0.12909935

encBlocks.0.BN2.running_var f4 [16]
00000000: 172f 693d ba68 093e 889c ba3d b26a d63d
00000010: 4618 8d3d 5623 2c3e ce6a 073e a9bd d83d
00000020: 1cde d03d 9685 e43d 36e3 7f3e 8262 ba3e
00000030: ba10 583d 4862 143d b673 013f 0073 823d
0.056929674 0.13418856 0.09111887 0.10469569 0.068893954 0.16810355 0.13224337 0.1058305
0.10198614 0.11158292 0.24989018 0.3640328 0.052750327 0.03622654 0.50567186 0.06369591

encBlocks.1.conv1.weight f4 [16, 16, 15, 15]
00000000: d310 b6bc 6af5 92bc 4ac5 8fbc e740 123c
00000010: a143 bd3a 85fd b6bb 4bcf 403c a764 923a
00000020: 2ef8 a4bc 2e14 cabc f446 0abc 5f83 d9bc
00000030: 2906 e3bc 15f6 13bd 28b5 29bd 7272 61ba
00000040: e371 7b3b 69c6 103c 73a6 28bc c8de b0bb
00000050: 67fe cfbc 32f1 fdba 69ef 3e3b e9db 2bbc
00000060: 74e3 85bc c915 f23b 2bc8 fdbb c0e4 1fbb
00000070: 50a5 19bd 3763 bfbc 08d3 963b 7ba4 583a
00000080: b80e 63bc 8c2c a5bc 7f75 c73b a79d 46bc
00000090: 01d6 b9bb 9b69 06bd 63f2 8ebc a1f7 dabc
000000a0: 8270 bfbb cb90 d1bc 7177 83bc 5af5 a7bc
000000b0: 2822 3dbd c9fc eabc 5b2e a1bc c169 16ba
000000c0: 7ee0 583c 44fa 323c 5a24 6f3b 7df0 46bc
000000d0: bccf c6bc b9e1 2ebc 9e80 b2bb 0d23 6f3b
000000e0: 5fde f7bc 0915 80bc 61f8 02bd fd3f 33bd
000000f0: ccc6 b1ba cfa5 7a3c 3edb 54bc 33ef 7fba
00000100: 7792 a2bc e576 6bbc d0f2 d43b 30c8 37ba
00000110: f649 0ebc 5048 e1bb fc81 8fbc 9065 c3bc
00000120: 92e7 86bc 6d4f f1bc 95d9 50bd 43b4 4bbc
00000130: 0353 153c e417 4d3b 270a 49bc 0f51 cebb
00000140: dd67 8ebb a942 173c 66bd bcbc 111b 313c
00000150: 86ac f33a f9f9 08bc e40e 91ba 9216 c0bc
00000160: 7ea4 66bb 01a5 acbc 4578 4dbc e569 313c
00000170: 6edd 4e3b e2bf 2b3c c1e0 22bc fcd2 2dbc
00000180: de50 6ebc 6f19 8abc 1fe5 793b f854 2b39
00000190: 317a aeb8 b1f6 493c 389e 0ebb d946 9eb9
000001a0: 35fb b8bc 797b 1aba 6d98 973b 7785 9a3c
000001b0: e3ef 263c 7bd5 f63b 524c 613c 66e8 ec39
000001c0: e56b a4bc f3eb 1abc 0219 15bc 4f78 b43b
000001d0: 9ea1 913b 5641 82bc 1197 10bd ec22 7abc
000001e0: 82bc 823c 68a4 0b3c 953c 103c ac0c 98bb
000001f0: 86ee ad38 cd67 8b3b ed6d d03b 00ab 44ba
00000200: cd5c fc3b 5b97 a8bc 75b4 313c 710a 4c3b
00000210: e9c2 0fbc 6ec0 83bc 8ade c3bc 7f40 73bc
00000220: c881 733c 17e5 883c 5461 243c 7cb9 093b
00000230: 8000 943b 8ed0 2d3c c178 10bc ba1c fe3a
00000240: 560e 83b9 a50b 9c3c c97e e83b d058 70bc
00000250: a987 b9bc 5d7d 5abc c21f 58bb 69dd 8e3b
00000260: c04f e03b 482b e2bb 35bd bdbc 7347 07bc
00000270: 3aa9 89bc 7749 993b 167b 2dbc d5db 143c
00000280: fa56 983b 9987 673b 624c 2dbc babc 203c
00000290: 5309 bbbc 5ebf ea3a 30d5 8bbb 1772 cabc
000002a0: b780 83bc 55bf c3bb 411a b6ba 82cc 46bc
000002b0: e0a3 553c 81d5 0ebc b7e8 063c 30f4 373c
000002c0: 68f0 6fbc 6b36 84bc 3c09 9cbc 0b9f 1fbc
000002d0: 3497 4bbb 1e20 1dbb 228a e6bc f98c 6dbc
000002e0: bef1 e3bb df8f 14ba 0f69 f03b 4b98 80bc
000002f0: 52e9 093b edce 643c 75ad f3ba d07a c53b
00000300: c055 e1bb a959 423c 1c16 97bc d25a c8bc
00000310: 8797 93bc 6d53 2abb b824 80bc d128 e1bb
00000320: 9512 fcbb 349d 7d3c da5e 483c 5fe1 833c
00000330: e0ca e33b 4bdd 173b 00d4 8d3c 121c 353b
00000340: fcd5 8cbc f44f b3bc ad21 0cbc 610e ec3b
00000350: ee66 cbbc 04b9 1d3c 9af9 933b 977a 4d3c
00000360: aa22 56bc 088d 763b f3ab 44bb d7b1 8eba
00000370: e2fb 973c ba37 82bb 3ba5 0a3c dbc3 943c
00000380: 4ea3 b6bc 68b6 9fbc 91dd 33bc f619 60bc
00000390: 60fe 41b9 4199 a9bc a075 183b e33f 8bbc
000003a0: 053d 96ba f16a 64bb 85aa 883b 7a5c d6bc
000003b0: d48a babc 9926 a83a 1255 fc3a 1500 973b
000003c0: 3f0f a5bc 9d51 8bbc 88bc c2bc a21f a5bc
000003d0: b54e a6bc d2b6 b6bc 20d9 16b9 fd10 81b9
000003e0: 0d69 3039 ab99 d0bc 68bc a1bb bc68 89bb
000003f0: 5524 f6bb 574b 73bc fe00 9aba d8df 33bc
-0.02222482 -0.017939288 -0.01755013 0.008926607 0.0014439711 -0.005584421 0.0117681725 0.0011168913
-0.020137873 -0.024667826 -0.008439768 -0.0265519 -0.027712898 -0.036123354 -0.04143253 -0.00086001225
0.0038367442 0.008836367 -0.010293591 -0.0053976513 -0.025389863 -0.001937425 0.0029134399 -0.010489442
-0.01634381 0.007387851 -0.007744809 -0.002439782 -0.03751117 -0.023362739 0.0046027936 0.00082642556
-0.01385849 -0.020162843 0.0060870047 -0.012122548 -0.005671263 -0.032815557 -0.017449563 -0.026729407
-0.0058422694 -0.025581738 -0.016048165 -0.020502735 -0.046175152 -0.02868499 -0.019675424 -0.00057378045
0.013237117 0.010923926 0.0036490173 -0.012142298 -0.024268977 -0.010673934 -0.0054474613 0.0036489398
-0.030257402 -0.01563503 -0.031975154 -0.043762196 -0.0013563274 0.015298321 -0.012991725 -0.00097631215
-0.01984523 -0.014371608 0.006498672 -0.0007010726 -0.008684626 -0.0068750754 -0.017518036 -0.02385214
-0.016467843 -0.029456818 -0.050988752 -0.012433114 0.00911403 0.0031294758 -0.012270487 -0.006296284
-0.0043458776 0.009232202 -0.023039531 0.010809676 0.0018590845 -0.008360379 -0.001106706 -0.023448262
-0.003519326 -0.021074774 -0.0125408815 0.01082847 0.0031565088 0.01048276 -0.009941281 -0.010609385
-0.014545647 -0.01685783 0.0038130952 0.00016339484 -8.3197265e-05 0.012326882 -0.0021761786 -0.00030188894
-0.022580722 -0.00058930326 0.004626325 0.01886247 0.010189029 0.007532773 0.013751106 0.00045186578
-0.02007098 -0.009455669 -0.009100201 0.005507506 0.004444315 -0.015900295 -0.03530032 -0.015267115
0.015959028 0.008523084 0.008803506 -0.0046401825 8.293711e-05 0.0042543174 0.0063607604 -0.00075022876
0.0077014924 -0.020579984 0.010846247 0.0031134153 -0.008774498 -0.016082969 -0.023909826 -0.01484692
0.014862485 0.016710801 0.01003297 0.0021015098 0.004516661 0.010608805 -0.0088178525 0.0019387223
-0.00024996948 0.019048521 0.007095192 -0.014669612 -0.022647696 -0.013335553 -0.0032977914 0.0043598902
0.0068454444 -0.006902132 -0.02316151 -0.008256781 -0.016804326 0.004677947 -0.010588428 0.009085615
0.0046490403 0.0035328625 -0.010577293 0.009810621 -0.022831595 0.0017909815 -0.0042673573 -0.024712605
-0.016052587 -0.0059737363 -0.0013893322 -0.012133719 0.013039559 -0.0087178955 0.0082341945 0.011227652
-0.01464472 -0.01613923 -0.019047372 -0.009742509 -0.0031065466 -0.0023975442 -0.028142039 -0.0144989425
-0.006956308 -0.00056671904 0.0073367427 -0.015697619 0.002104361 0.013965351 -0.0018591123 0.0060266033
-0.0068766773 0.011862197 -0.01844316 -0.024457369 -0.01801659 -0.0025989667 -0.015642509 -0.006871321
-0.007692645 0.015479375 0.012229646 0.016098676 0.006951675 0.0023172672 0.017313004 0.002763514
-0.01719188 -0.02188871 -0.008552951 0.0072038625 -0.024829354 0.009626631 0.004515839 0.012541435
-0.013069788 0.0037620682 -0.0030009716 -0.0010886741 0.018552724 -0.0039739283 0.008462246 0.018159797
-0.022294667 -0.019496158 -0.0109781185 -0.013678065 -0.00018500676 -0.02070296 0.002326347 -0.016998237
-0.0011462277 -0.003485378 0.004170718 -0.026167143 -0.022771277 0.0012828886 0.0019251427 0.004608164
-0.020148871 -0.01700669 -0.02377154 -0.020156685 -0.020301202 -0.022303972 -0.00014386 -0.00024617455
0.00016823802 -0.0254639 -0.00493579 -0.0041933935 -0.0075116553 -0.014849505 -0.0011749563 -0.0109786615

encBlocks.1.conv1.bias f4 [16]
00000000: cede 8dbc 9aa0 a7bb cb3a 153c 5ea1 2f3c
00000010: 2a33 983b 0e0e 2d3c 0221 58bc d041 a7bb
00000020: 13ae 873b e3ff 15bb d2b8 373c 49da 61bc
00000030: 0e79 14bc bab1 b4bb f087 faba 49ec 633c
-0.017318156 -0.0051155807 0.009108256 0.010719625 0.004644771 0.010562433 -0.013191463 -0.005104281
0.0041406243 -0.0022888116 0.011213498 -0.013784953 -0.009062065 -0.0055143507 -0.0019113999 0.013911315

encBlocks.1.conv2.weight f4 [16, 16, 3, 3]
00000000: 0a7b 7d3d dc39 86bc 8199 3cbd c882 19bd
00000010: 7c84 da3c 2bad f0bc 7401 5a3d 29b6 a23d
00000020: b9b9 81bd 097b 223d 898c 1f3d ab09 a63b
00000030: ed24 d9bb 1db4 30bd abcd 4a3d 13e5 c9bc
00000040: 73eb 35bd e749 8d3d f012 b5bd fc01 adbd
00000050: d14a 5cbd 6cbd 8abd 6135 25bd f1f0 7e3c
00000060: 38ed 2f3d 75e8 65bb e798 6ebc 94fe b4bc
00000070: 2af8 b5bd 563f 8abd 456d 75bd aca6 17bb
00000080: 2310 cdbc 12f4 463d e66a 263c c916 3c3d
00000090: 8a83 b7bc 3262 8b3b 8812 883c 64d5 953c
000000a0: a33d a43d 9056 663c 79f7 913d 5860 a7bc
000000b0: 6c07 e8bc 5b43 8a3d da5b a6bd d26d 2f3d
000000c0: 7d79 b1bc 605f 9a3d cc7a 273d c557 6ebc
000000d0: f27e 243d 16ae 863d 0442 113d 8d02 043d
000000e0: 7ea0 b73c 17a4 84bc c2ce 0fba 1f2f a8bd
000000f0: bc8b d73c 18c4 03bd d066 56bd 3a79 4f3c
00000100: 399b f1bc 5150 1c3c d3a8 d93c 498a 8fbc
00000110: a125 543d 0161 42bb ed9e 5abd 29f2 03ba
00000120: ba8c 36bc 1842 3d3d 2b12 d4bc 9971 f9bc
00000130: a3a1 ae3b 941a a5bd 9ca7 953c 6b8b 263d
00000140: fe76 bf3c 94c7 50bd 2c85 1c3d 5268 3fba
00000150: 55c4 f03c 437f 8cbc 4681 623d 0a8c 233d
00000160: 6f62 173d 3f82 693d 69ee aabb efed 45bd
00000170: d34f af3d 1b09 a0bc 9956 853d 9e42 03bd
00000180: 499a 88bd 2017 a93d 19d9 79bd 9b70 73bd
00000190: 4126 153c 5309 6a3d b316 8d3d 7af0 05bc
000001a0: 0622 a3bc dda0 8b3d 142c 7f3d 3812 9d3c
000001b0: 826c a03d 0c7f 823d 8d8e 893d 754e 123c
000001c0: 944e 89bd 9e4e 153c a0b6 913d b209 e23b
000001d0: 5617 fabc 82c7 423d 4c84 bb3c f177 bcbd
000001e0: 1a6d 9d3d c183 7b3d e81f babd 37b0 7fbd
000001f0: f8bc 18bd a2ca 763d 2fcb b73a 84a2 a6bd
00000200: c8d3 e93c 527d 0bbd b3ea 233d 0b09 64bd
00000210: 5f74 2cbd f303 ce3c 8998 84bd 8a62 f6bc
00000220: b174 7cbd 9a8a 2b3d a020 473d f73b 113d
00000230: 6a98 5c3d fc8d 71bd cc15 14bd 7dee 6abd
00000240: f059 733d 4809 3abd c610 913a 68f8 0c3c
00000250: 909c af3d edc2 a9bc 8b5b bf3c 96c8 8a3d
00000260: d4f1 6b3d bf27 a93c a552 363d b8e3 aabd
00000270: 2fc5 8cbd e74c 0cbd f3d6 aa3d b381 c4bc
00000280: 91d0 203c f54d 043c 7580 9bbb 0b69 033d
00000290: c2b2 88bd 0723 ddbc af78 373d 6a01 943d
000002a0: 50b0 8f3d 06f7 ab3c 766e 93bd 0547 303d
000002b0: 0455 acbd c89e bdbb 1091 c5bd a95f ed3c
000002c0: 6c19 bdbd 56ac 9f3d 61d5 923c 5e5c a63c
000002d0: 85aa 85bd 74e7 183b 3c95 8e3d 8333 8cbd
000002e0: 3202 203d 403c 883d 1cb4 9d3d e24f 433d
000002f0: f466 02bd aa39 e0bc ec02 89bd 7752 dabb
00000300: d5ba 70bd bedc f73c d15f ab3d cc4d 993d
00000310: 3108 10bc 3c3a 98bd aa77 9fbd 5ac8 4c3d
00000320: eb5a fc3c faac c0b9 efee 50bd 7d56 de3c
00000330: 33ba 83bd a5cb 81bc 6d62 993d 1dbd 123d
00000340: d548 b4bd 1acc 85bd 0e04 35bc fb6a 993d
00000350: 5feb 783d 6ed4 b73c 1658 7dbd 987e 98bd
00000360: 2b1b 36bd 3a0b b1bd bc91 2ebd 6f5b 1b3d
00000370: 8df7 813d 02c4 6c3d ae8a 023d a049 3dbd
00000380: 2391 7fbc 4eac 98b8 70ad 073d 0105 9a3d
00000390: 71b1 bcbc 57d1 adbd bcbc 013d 74d5 203d
000003a0: 29ad 4abd 98da 98ba ac35 a4bc 2cfb 213d
000003b0: caa9 ab3d 671e 8b3c b6fe 59bd f82f 783d
000003c0: efe3 923d 4473 6c3c 752f 11bd 0b32 9ebc
000003d0: 74e4 27bd e935 b6bc 5922 d8bb 7067 5d3d
000003e0: 65d0 c53c 515c 753c 3f0e 0d3d 6036 cebc
000003f0: 9479 e93b 1a33 09bd 0689 0fbd a1ad 593d
0.061884917 -0.016385011 -0.04604483 -0.03747824 0.026674502 -0.029379448 0.053224042 0.079449005
-0.06334252 0.039668117 0.038952384 0.0050670705 -0.0066267163 -0.04314052 0.049512547 -0.024645364
-0.044413995 0.068988614 -0.08841503 -0.08447644 -0.053782288 -0.067744106 -0.04033411 0.015560375
0.04295084 -0.0035081182 -0.014562822 -0.022094049 -0.08885224 -0.067503616 -0.05991866 -0.0023140116
-0.025032109 0.048572607 0.0101573225 0.045920167 -0.02240159 0.004253649 0.016610399 0.01829023
0.08019569 0.014058724 0.0712728 -0.020431682 -0.028323852 0.06751128 -0.08122988 0.042829342
-0.021664375 0.075377226 0.040888593 -0.014547293 0.040160127 0.06576173 0.035463348 0.032228995
0.022415396 -0.016191525 -0.00054858264 -0.08212113 0.026311748 -0.03216943 -0.052344143 0.01266318
-0.029492961 0.009540633 0.02656976 -0.017521994 0.0517937 -0.002965987 -0.05337422 -0.0005033338
-0.01114195 0.04620561 -0.02588757 -0.030449675 0.005329327 -0.0806171 0.018268399 0.040660303
0.02337217 -0.050971583 0.03821294 -0.0007301617 0.029390493 -0.017150527 0.055299066 0.039928474
0.036959108 0.057008978 -0.005216409 -0.048322614 0.08560147 -0.019535592 0.06510658 -0.032045953
-0.066700526 0.08256364 -0.060998056 -0.05943356 0.009103359 0.0571378 0.06889095 -0.00817501
-0.019913685 0.068177916 0.062297896 0.019173726 0.07833196 0.063718885 0.067166425 0.008929838
-0.06704441 0.009112982 0.07114911 0.0068981284 -0.030528706 0.047553547 0.022890233 -0.092025645
0.07686825 0.061404947 -0.09088117 -0.06242391 -0.03728959 0.06025184 0.0014022345 -0.08136466
0.028543368 -0.03405506 0.04001875 -0.055672687 -0.042103168 0.025148368 -0.06474406 -0.030076284
-0.061634723 0.041880228 0.048615098 0.035457578 0.05385629 -0.058973297 -0.0361536 -0.057356346
0.059411943 -0.045419008 0.0011067621 0.008604147 0.08574784 -0.02072283 0.02335908 0.0677654
0.057603672 0.020648835 0.04451241 -0.08344215 -0.06873547 -0.034253027 0.083417796 -0.023987627
0.009815351 0.008075227 -0.004745538 0.0320826 -0.0667472 -0.026994241 0.044792827 0.07226832
0.07016051 0.020991813 -0.07198803 0.04303648 -0.08414653 -0.0057867505 -0.09646809 0.028976278
-0.092333645 0.07796542 0.017924013 0.020307716 -0.06526665 0.0023331316 0.06962058 -0.068457626
0.039064594 0.06652117 0.07700369 0.047683604 -0.031836465 -0.027371246 -0.066900104 -0.0066626626
-0.058771927 0.030256625 0.08367885 0.07485542 -0.0087910155 -0.07432982 -0.07786496 0.049995758
0.030805072 -0.0003674997 -0.051009115 0.02714085 -0.06431999 -0.015844176 0.07489476 0.035824884
-0.08802954 -0.0653307 -0.01104833 0.07491108 0.060771342 0.022440162 -0.061851583 -0.07446021
-0.044459503 -0.086447194 -0.042619452 0.037928995 0.06346045 0.057804115 0.031870537 -0.046212792
-0.015598568 -7.280019e-05 0.033124387 0.07520486 -0.02303383 -0.08487194 0.03167413 0.039266065
-0.049481545 -0.0011661826 -0.020045124 0.039546177 0.08381994 0.01698227 -0.053221427 0.06059262
0.07172381 0.014431778 -0.03544565 -0.019310972 -0.040989354 -0.022242503 -0.0065958914 0.054053724
0.024147222 0.014975623 0.034437414 -0.025172412 0.007125089 -0.033496 -0.035042785 0.0531441

encBlocks.1.conv2.bias f4 [16]
00000000: ea43 b63c 498d 3bbc fde8 043d 9ff9 d43c
00000010: 50c9 8abc 1491 a5bd 4edd 183d d9d6 843d
00000020: 08d0 2bbd 0619 183d 2d94 e53b 8537 823d
00000030: 7374 f93b 0662 353d b8a0 5a3c 31b2 c3bc
0.02224918 -0.011447259 0.032448757 0.025997935 -0.016941696 -0.08084312 0.037320428 0.064862914
-0.04194644 0.03713324 0.0070061893 0.06358246 0.007612759 0.044282936 0.013343982 -0.02388868

encBlocks.1.BN1.weight f4 [16]
00000000: be54 803f 9265 813f 8a94 813f 40e7 823f
00000010: f0d1 7f3f f891 7f3f fd70 743f a115 7e3f
00000020: d9f6 813f 9b24 803f 3bd5 813f 9a83 7b3f
00000030: 86db 7b3f 9bf3 7d3f cc17 7f3f 5c80 813f
1.0025861 1.0109122 1.0123456 1.0226822 0.99929714 0.99832106 0.95484906 0.99251753
1.0153457 1.0011171 1.0143198 0.98247683 0.9838184 0.9919984 0.99645686 1.0117297

encBlocks.1.BN1.bias f4 [16]
00000000: d7fd 49bd 0d98 05bd 3181 953b 084a 20bd
00000010: 7582 8cbc d484 0abd 04b6 923c a8eb 0cbd
00000020: 3986 a5bc efc7 a7bb 4919 17bd 4ca1 8c3c
00000030: ee50 4bbd f25e 3fbd cbb1 9fbc 891b 9fbc
-0.049314346 -0.03261571 0.00456252 -0.0391331 -0.01715205 -0.03381808 0.017909057 -0.034404427
-0.020205604 -0.0051202695 -0.03688935 0.017166756 -0.049637727 -0.046721406 -0.019493958 -0.01942231

encBlocks.1.BN1.running_mean f4 [16]
00000000: 5ae0 48c0 3ff2 0540 b2c8 77c0 65c5 913f
00000010: 7ad7 6540 c874 b4bf a5e5 97c0 abff 2240
00000020: 879b c4c0 a252 9e3f df97 cbbf 63dc fabf
00000030: ecc4 a1be cab6 64c0 6e8b 7940 3881 5040
-3.1386933 2.0929105 -3.8716245 1.1388365 3.5912766 -1.4098139 -4.746783 2.5468547
-6.1439853 1.2368968 -1.5905722 -1.9598507 -0.31595552 -3.5736566 3.899135 3.257887

encBlocks.1.BN1.running_var f4 [16]
00000000: 12be 0b42 74ec 5e41 fbe5 4941 8986 b440
00000010: 55f3 ed41 8deb 8d41 f6d0 4441 e0d8 6741
00000020: 5a9f 6541 2d6e d341 17a5 b541 ad12 c041
00000030: 4cc4 c341 730d 3841 68c2 ff41 19fa 9b41
34.935616 13.932728 12.618648 5.6414227 29.743814 17.740015 12.301016 14.490448
14.351404 26.428797 22.70561 24.009119 24.470848 11.5032835 31.969925 19.497118

encBlocks.1.BN2.weight f4 [16]
00000000: 17e7 7d3f d051 7d3f 4dfb 883f 23ef 7d3f
00000010: 1ab4 7d3f 0eed 7b3f e86f 823f 789e 793f
00000020: b165 7d3f e400 7a3f d4fd 853f 3105 813f
00000030: b665 803f 9b24 7c3f 3906 803f f114 7e3f
0.9918074 0.9895296 1.0701691 0.9919302 0.9910294 0.9840859 1.0190401 0.9750743
0.98983294 0.9765761 1.0468087 1.0079709 1.003104 0.98493356 1.0001899 0.99250704

encBlocks.1.BN2.bias f4 [16]
00000000: 95f2 b63d 0f6d da3d f323 94bd 3451 123d
00000010: 8bdf a83d 9659 2b3d 51e8 b63d c28a c03d
00000020: 2e13 a83d c762 d5bd 358b 543d 486a 993c
00000030: d82b e2bd 497d f53c 8c49 9f3d 38ff d43d
0.089329876 0.106653325 -0.07233419 0.035721973 0.082457624 0.041833483 0.089310296 0.09401466
0.08206783 -0.10419231 0.05189057 0.018727437 -0.11043519 0.029966967 0.077777 0.104002416

encBlocks.1.BN2.running_mean f4 [16]
00000000: 37dd 073e 5ddd 683d 92c2 27bc d6bc 65bd
00000010: 01f1 1d3e 0d74 f3bd 96e1 d33d 2810 e83e
00000020: d0d2 f1bb ef15 ecbe c2a1 2c3d f746 c2ba
00000030: 6c5b 513d f5dd e0bd ba6a 013e 0ec4 84bc
0.1326798 0.056851733 -0.01023926 -0.05608829 0.15423967 -0.11887369 0.103457615 0.45324826
-0.007379867 -0.46110484 0.04214645 -0.0014822175 0.051112577 -0.10979835 0.12638369 -0.016206767

encBlocks.1.BN2.running_var f4 [16]
00000000: a02f 923d 39d3 593d 68c5 1d3d 34c3 023d
00000010: b607 003e 0746 5b3d f7cd f23d 5353 ba3e
00000020: cdf1 013e 7331 2f3f 4c30 343d af29 a03d
00000030: 4466 8f3d 477f a83d e438 953d 7e8b 473d
0.0713799 0.053179953 0.03851834 0.03192444 0.12502941 0.05353358 0.11855691 0.36391696
0.12689896 0.6843483 0.043991372 0.078204505 0.070019275 0.08227401 0.07286242 0.048717014

encBlocks.2.conv1.weight f4 [1, 16, 15, 15]
00000000: 22fe a13b 6f5a 8638 1702 6eba 44c0 383b
00000010: 2c36 9abc 476f 4c3c 7643 32bb 3333 14bc
00000020: a4b9 863b 382c c43b 48cb 053c 6392 8b3b
00000030: 7a5d 3ebc 0f8c 7c3b 67bf 8b3b 63a3 8bbb
00000040: 811f 093c 85b9 c439 2397 b73b 3367 5fbc
00000050: f160 0c3c b3bd 5fbc ae1e ee3b 4558 d8ba
00000060: 5e95 2f3c 891c fdbb 1eca 65bc e18d d6bb
00000070: 13ea 2f3a 20e2 083c bb73 bb3b d0c8 073c
00000080: 5aa3 84bc d3fc d13b b132 8e3b 71c4 23bc
00000090: a59d 2bbc fa9d 1c3c 34db a73b d074 3dbb
000000a0: f986 d53b 7e64 61bb a7c2 cbba 9b8a 333c
000000b0: 0246 edba 0f36 5abc 5441 23bc 89fa 1e3c
000000c0: dd22 94bb 318d 1cbc a960 493b b1c0 6fbc
000000d0: 8d6a aa3b 6fd9 e53b 953e a03c c9c9 99bb
000000e0: 9063 cc3b 82e3 15bc 11a9 1b3c 38c5 a6bc
000000f0: 1545 1fbc bfde cf3b 7905 463b fd81 7a39
00000100: 9a02 8d3a 8a3b 3f3c 310d 9bbc cbef 88bc
00000110: d02f 16bc 1475 f5b9 ce82 1bbc 5ef6 24bc
00000120: b33c 41bc a856 c03b 2f4d 26bc 0320 87bc
00000130: a263 b1bb 9038 99bc e80c 033c 2951 c33b
00000140: 8669 2abc e218 79bc c5ed 78bc ff82 babb
00000150: 483e b63a 3dfc c53b c432 20bc f0de 3c3b
00000160: e352 653c d9a9 a4b9 1cf8 c0bc 87b9 cdba
00000170: 1f8e b13b 2a74 c73b 458f 03bc 417b ceba
00000180: f61a 06bd aeac bfbc 2ac4 c9bc abb0 ef3b
00000190: 3d16 e5bb 55e2 ae3b 542d 2abc 1176 5b3c
000001a0: a2da de3b 2941 8ebc e39b 8eba 1107 473b
000001b0: 6377 c9bc d377 23bc 1364 e4bc 71b1 a6bc
000001c0: c8de 3abd 35c2 51bc 9788 4ebc 16a6 a7bc
000001d0: ce81 88bc 3f29 53bc 63f3 54bc ec0b d13a
000001e0: 13e9 febb a5a2 6cbc 2a7f 093b 9813 c73b
000001f0: 92e5 6e37 e474 fb3b 3c2f 9bbb 976a cabc
00000200: 717c 29bc 6ca2 f83b 85ae 57bc 6598 15bc
00000210: e039 f3ba a960 3ebc ac5d 443b 5ebd 7e3a
00000220: 99d5 793c c83e 21b7 84bf f3bb 4941 a13c
00000230: 4ce3 a8bb 5b87 a2bb 4efc 323c 78cb a13c
00000240: 5a9b 4c3c 01c2 f1bb 440e 3e3c 3d44 fe3b
00000250: 5505 253c 4365 1f3c cd3a abbb 0b29 2e3b
00000260: 9772 acbb 2125 7dbb 6119 b4ba b0d3 063c
00000270: 3610 98bc 79a9 41bc 672e 82bc cb77 18bb
00000280: dc68 89bc c1de 68bc 1bdd 40bc 0919 80bc
00000290: 9cf1 8b38 767b cc3b b00c f63b 51d2 3abc
000002a0: 00fc c93b 5344 7dbc 864f 83bc 40b6 a8bb
000002b0: 4d05 a1bb e1a0 6d3c d243 9f3c 2d8a 1dbc
000002c0: d111 473c 1fcf 243c 5b25 00bc 97e1 17bc
000002d0: 3c89 2cbc 11f3 983c 4049 06bb 23e7 6b3b
000002e0: 3141 fabb 634b a43b 4c57 523a e3d0 97bb
000002f0: ff2f 4cbc 82c7 7ebb 9896 4fbc 4a63 033b
00000300: 2e6b 0c3c 2277 823a 5809 8d3b 5311 7fbc
00000310: e3bf 12bc 7121 5dba 12b5 6f3b a47f 66b9
00000320: a0f0 deb9 f81e f83b 8341 3cbc 7802 5b3c
00000330: b314 933c 7a09 a53a 7571 733b ce50 3c3b
00000340: be42 27bc 0bff 243c c70c e53b 7e2b 1c3c
00000350: d494 bdbb 1384 82bc 03d4 28bc a09d 2e3c
00000360: 08b3 9c3b 125f 9a3b 7fbb 2ebc ef52 f93b
00000370: 8f7b 883b 1903 ea3a 0376 123c d900 be3b
00000380: f944 033c bda4 22bb 718d 073c 3bb9 6b3b
00000390: 4c82 033c 9d8a 113c 3d5d 883b 16cb 5a3c
000003a0: 31de 3ebc 87ff c3ba f2cd 4b3b 5c0e 043c
000003b0: 9635 1a3c 6efc 693b 2a0c 1c3c e88a b53c
000003c0: 1ee2 f93a a2eb 25bc a354 abba 0018 79bc
000003d0: dd11 9c3a 9bf2 533c 06fe 39bc 14ae 23bc
000003e0: 4ac5 a7bc 89bc 38bc 05ec 22bc 574d df3b
000003f0: c2dd 7fbc 896c 0ebc d941 03bb 4fcb 3e39
0.004943625 6.4064625e-05 -0.0009079291 0.002819077 -0.01882466 0.012477702 -0.0027200854 -0.00904541
0.0041114856 0.0059867166 0.008166142 0.004259394 -0.011618966 0.003853563 0.0042647603 -0.0042614206
0.0083693275 0.00037522256 0.0056027337 -0.013635444 0.0085680345 -0.013656068 0.007266841 -0.0016505799
0.010716764 -0.007724349 -0.014025239 -0.006547675 0.00067106 0.008354694 0.0057205833 0.0082876235
-0.016191173 0.006408313 0.004339539 -0.009995566 -0.010474597 0.009559149 0.0051225666 -0.0028908737
0.006516334 -0.0034392173 -0.0015545682 0.010958339 -0.0018102529 -0.013318553 -0.009964306 0.009703287
-0.0045207576 -0.009555147 0.003072778 -0.014633344 0.00520069 0.0070144455 0.019561091 -0.004693244
0.0062374547 -0.00914848 0.009500758 -0.020357713 -0.00972106 0.006343692 0.0030215664 0.00023890282
0.0010758222 0.01167191 -0.018927189 -0.016715905 -0.009166673 -0.00046817272 -0.0094916355 -0.010068504
-0.011794257 0.005869705 -0.010150238 -0.016494757 -0.0054134885 -0.018703729 0.007998683 0.005960603
-0.010401135 -0.015203686 -0.015193407 -0.0056918855 0.0013904059 0.006042032 -0.0097777285 0.0028819405
0.0139968125 -0.00031407064 -0.023555808 -0.001569555 0.0054185535 0.006086846 -0.008029764 -0.0015753285
-0.032740556 -0.02339777 -0.024629671 0.0073147616 -0.0069911764 0.0053370395 -0.010386784 0.013394848
0.0068009654 -0.017365055 -0.0010880198 0.0030369202 -0.02459306 -0.009977299 -0.02787975 -0.020348283
-0.045622617 -0.01280265 -0.012605808 -0.020464938 -0.016663458 -0.012888252 -0.012997481 0.0015948988
-0.0077792495 -0.014443074 0.0020980337 0.006075334 1.42393565e-05 0.0076738466 -0.0047358554 -0.02470903
-0.010344611 0.0075877216 -0.013164167 -0.009130572 -0.0018556677 -0.011619725 0.002996306 0.0009717549
0.01524868 -9.610965e-06 -0.007438602 0.01968445 -0.005154049 -0.0049599833 0.010924412 0.019750342
0.012488211 -0.0073778634 0.011600081 0.0077595995 0.010072072 0.0097287325 -0.0052255155 0.0026574756
-0.0052626836 -0.0038626867 -0.0013740474 0.008229181 -0.018562417 -0.011820191 -0.015891267 -0.0023264762
-0.016773634 -0.014213265 -0.011771466 -0.015636938 6.67304e-05 0.0062403036 0.0075088367 -0.011402682
0.006164074 -0.015458184 -0.01602913 -0.005148679 -0.004913962 0.014503689 0.019441519 -0.009615463
0.012150244 0.010059147 -0.007821406 -0.009270093 -0.010530766 0.01867059 -0.0020490438 0.0035995923
-0.007637166 0.0050138696 0.00080238725 -0.0046330555 -0.012462615 -0.003887624 -0.012670182 0.0020048195
0.0085704755 0.0009953717 0.0043040924 -0.015568095 -0.008956882 -0.0008435464 0.0036576432 -0.00021982059
-0.0004252242 0.007572051 -0.011490229 0.013367288 0.017954206 0.0012591325 0.0037146483 0.0028734687
-0.010208784 0.010070573 0.0069900486 0.009531854 -0.005785564 -0.015932119 -0.010304454 0.010657698
0.0047820844 0.0047110403 -0.01066482 0.0076087634 0.00416512 0.0017853706 0.008939269 0.005798441
0.00801205 -0.002481743 0.008273468 0.003596856 0.008026671 0.008883146 0.0041615055 0.0133540835
-0.011649654 -0.0014953472 0.0031098095 0.008060064 0.00941219 0.0035703438 0.0095243845 0.022160962
0.001906458 -0.01012698 -0.0013071488 -0.015203476 0.0011907179 0.01293626 -0.011352068 -0.009990234
-0.020479817 -0.011275419 -0.009943967 0.0068146395 -0.015616836 -0.008692869 -0.0020028262 0.0001819555

encBlocks.2.conv2.weight f4 [1, 1, 3, 3]
00000000: fd31 47be f49b 953d d01f 9ebe fa82 5bbe
00000010: b259 b9be 987a 8dbd 732c c7bd 88c8 4bbe
00000020: 2612 06be
-0.19452663 0.07305136 -0.30883646 -0.21436682 -0.36201245 -0.069081485 -0.09725275 -0.19900715
-0.1309286
