Model_params/4i_100_50_macro_best.pt (torch, 322019 bytes, 26 tensors)

encBlocks.0.conv1.weight f4 [16, 3, 15, 15]
0	0xbc95a928	-0.018269137
1	0x3caaadad	0.020834768
2	0xbc8c3e81	-0.017119648
3	0x3c0f0e8c	0.008731496
4	0x3c9b5509	0.018961446
5	0xbcaabb00	-0.020841122
6	0xbc9cba8e	-0.019131925
7	0x3d23e1b3	0.040010165
8	0x3d26febf	0.04077029
9	0xbce40013	-0.027832067
10	0x3bf5f6e6	0.007506239
11	0xbc643919	-0.013929629
12	0x3cb2f433	0.021844959
13	0x3d339709	0.04384521
14	0xbb41ab9f	-0.0029551757
15	0xbc410647	-0.011781282
16	0x3bc26c63	0.005933331
17	0xbc40edc8	-0.0117754415
18	0x3d286f72	0.041121908
19	0xbc024fab	-0.007953565
20	0x3ccaa83c	0.024738424
21	0xbd32107a	-0.043472745
22	0xbd21e0a5	-0.03952088
23	0xbafa3216	-0.0019088413
24	0x3ce42422	0.02784926
25	0xbcde9381	-0.027169945
26	0xbc558173	-0.013031351
27	0xbb8ab213	-0.004232654
28	0x3bfc8605	0.007706406
29	0x3d2acd1c	0.041699514
30	0xbbb9b71a	-0.0056675794
31	0x3cb44901	0.022007467
32	0xbc873607	-0.016505254
33	0x3cb80256	0.022462051
34	0x3cb8452a	0.022493917
35	0x3ced21cc	0.02894678
36	0xbcfa0046	-0.030517709
37	0x3cee0eae	0.029059734
38	0xbd0a7ffe	-0.03381347
39	0xbc6f5c55	-0.014609416
40	0x3c3f3afd	0.011671779
41	0x3c84e484	0.016222246
42	0xbbf4b391	-0.007467695
43	0x3bf8741e	0.0075822016
44	0x3d31e323	0.043429505
45	0xbd047b9c	-0.032344446
46	0x3c80700a	0.015678424
47	0xbaba1aed	-0.0014198698
48	0x3c91d272	0.017800543
49	0xbcbf8950	-0.023380905
50	0xbcceda24	-0.025250502
51	0x3cc286a3	0.02374584
52	0xbc5c976d	-0.013463837
53	0xbca26a9e	-0.01982623
54	0xbb89dc66	-0.0042071817
55	0x3d1ed244	0.038774744
56	0xb8e7838e	-0.00011039442
57	0xbc73425c	-0.014847364
58	0x3d2cd63e	0.042196505
59	0xbd33c4af	-0.043888744
60	0x3c41fdd4	0.0118403025
61	0x3c97d6a6	0.01853497
62	0xbc29056e	-0.010316236
63	0xbd07cb70	-0.033152997
64	0xbd0ac767	-0.03388157
65	0x3cda1585	0.02662159
66	0xbc74db29	-0.01494483
67	0xbd089f7f	-0.033355232
68	0xbd143724	-0.0361854
69	0x3ba9c842	0.0051813433
70	0x3cf9c140	0.030487657
71	0xbcfd059d	-0.030886466
72	0x3d2d9818	0.042381376
73	0xbbe247a3	-0.0069055124
74	0x3d3860eb	0.045014303
75	0xbcd37536	-0.025812726
76	0xbcef594d	-0.029217387
77	0xbcc73c60	-0.024320781
78	0x3cc7b04b	0.024376055
79	0xbc4932c0	-0.012280166
80	0xbc4da72d	-0.012552065
81	0xbcc2a79c	-0.023761563
82	0x3be56ae7	0.007001269
83	0xbba85996	-0.0051376326
84	0xbc3819c7	-0.011236615
85	0x3b2b3996	0.0026126853
86	0xbb1f00c0	-0.0024261922
87	0x3a36c296	0.00069717446
88	0x3cbc6923	0.022999352
89	0xbd09840e	-0.033573203
90	0x3bdbf792	0.0067128623
91	0xbcc493a6	-0.023996186
92	0xbc5899e1	-0.013220281
93	0xbd033226	-0.032030247
94	0x3befbbfe	0.0073161116
95	0xbd1eb797	-0.038749304
96	0x3d114173	0.035462808
97	0xbd37ad1a	-0.044842817
98	0xbc73cede	-0.014880864
99	0xbca43127	-0.020042969
100	0x3c9ed112	0.019386802
101	0xbb0a5373	-0.0021106869
102	0x3bae7b57	0.005324762
103	0x3c9d040f	0.019166974
104	0xbd016127	-0.031586792
105	0xbcc7a21b	-0.02436929
106	0xbccd46b4	-0.025058128
107	0x3c90cc8e	0.017675664
108	0x3d07051c	0.032963857
109	0x3c3ea509	0.011636027
110	0xbb70c192	-0.003673647
111	0xbd0e645d	-0.034763683
112	0x3c786a99	0.015162134
113	0xbca52385	-0.020158539
114	0xba96d78c	-0.001150833
115	0x3d0d9ef2	0.03457541
116	0xbabf9e48	-0.0014619315
117	0x3d32448c	0.043522403
118	0x3c7bc47d	0.015366671
119	0xbce2fa38	-0.027707204
120	0x3c97f64e	0.018550064
121	0x3d1af485	0.03783085
122	0xbd16d5c3	-0.036824953
123	0xbd102a14	-0.03519638
124	0xbd48c7ec	-0.049018785
125	0xbc9de9be	-0.019276496
126	0x3d06a127	0.03286853
127	0xbcc05cbd	-0.023481721
128	0x3c97dcd3	0.018537914
129	0xbd1c5313	-0.038165163
130	0xbcd0a0f8	-0.02546738
131	0x3d0225f8	0.03177449
132	0xbcdce004	-0.026962288
133	0x3c13f082	0.0090295095
134	0x3b40778a	0.0029368126
135	0xbc1310d1	-0.008976177
136	0xbceca250	-0.02888599
137	0xbb27bd98	-0.0025595184
138	0xbbab65aa	-0.005230625
139	0x3c5f2de1	0.013621778
140	0x3b741af0	0.0037247501
141	0x3a5305f9	0.0008049901
142	0x3b6d39e3	0.0036197833
143	0xbcecbebc	-0.028899543
144	0x3d1d6bd6	0.03843292
145	0xbc60bdc5	-0.01371712
146	0x3ce73866	0.028225135
147	0x3cde0382	0.027101282
148	0x3cca7736	0.024715047
149	0x3bd2ce60	0.006433293
150	0x3c39179c	0.011297133
151	0x3cac7142	0.0210501
152	0x3cd0b853	0.025478518
153	0xbd513e8f	-0.05108505
154	0x3c89df8a	0.016830225
155	0xbc52c1c3	-0.012863579
156	0xbc628505	-0.01382566
157	0x3ae3621a	0.0017347962
158	0xbbe1c663	-0.0068901046
159	0xbc7356e7	-0.014852262
160	0x3cf358df	0.029705463
161	0xbd1c6041	-0.038177732
162	0xbcd1563f	-0.02555382
163	0xbc96144a	-0.018320221
164	0xbc2af386	-0.010434037
165	0x3c5dfd4d	0.013549161
166	0x3cbe9b39	0.023267375
167	0x3b226801	0.002478123
168	0xbbc9c873	-0.0061579286
169	0xbd2ef957	-0.042718258
170	0x3c92f0f3	0.01793716
171	0x3c63ac9f	0.013896137
172	0xbd3d27dd	-0.046180595
173	0xbc49ba1d	-0.012312439
174	0xbc419f5d	-0.01181778
175	0x3c9c8ba8	0.019109562
176	0xbd03bc34	-0.032161906
177	0xbc559f03	-0.0130384
178	0x3c9258b7	0.017864568
179	0xbcd72470	-0.026262492
180	0x3ca4bd12	0.020109687
181	0x3ccb29ea	0.02480026
182	0xbd1d9ed5	-0.038481552
183	0xbcec559d	-0.028849417
184	0xbce30c66	-0.027715873
185	0xbc7612ff	-0.015019177
186	0x3c26551f	0.01015213
187	0xbcf04854	-0.029331364
188	0x3c24dca8	0.010062374
189	0xbd31b426	-0.043384694
190	0x3c8a5518	0.016886279
191	0x3cea04fa	0.028566826
192	0xbb814443	-0.003944905
193	0x3cb443eb	0.022005042
194	0xbafac916	-0.0019133415
195	0x3d006e7d	0.03135537
196	0xbcc63a7d	-0.024197811
197	0x3b66055e	0.0035098414
198	0xbd4e11a0	-0.050309777
199	0xbd201e17	-0.039091196
200	0xbcd636fb	-0.026149264
201	0x3cc41fd7	0.023940964
202	0xbd280bbc	-0.041026816
203	0xbcb310fb	-0.021858683
204	0xbd216a63	-0.0394081
205	0xbd05ef1d	-0.03269874
206	0x3b8f79e0	0.0043785423
207	0x3d13b764	0.036063567
208	0x3d08f38a	0.033435382
209	0x3d16f845	0.036857862
210	0x3c68c4ce	0.014207078
211	0x3cd4f5a4	0.025996037
212	0xbd0df43c	-0.03465675
213	0x3c9d4737	0.019198997
214	0x37a78e13	1.997411e-05
215	0x3a9af0e7	0.0011821062
216	0x3caf150c	0.02137234
217	0xbc59c253	-0.013290959
218	0x3c8e0841	0.01733792
219	0xbd170605	-0.036870975
220	0x3c021045	0.007938449
221	0xbd15d905	-0.03658392
222	0x3c9a5cd3	0.01884309
223	0x3c289dfe	0.0102915745
224	0x3c66d1be	0.014088092
225	0xbd13b094	-0.03605707
226	0xbc5e6cc3	-0.0135757355
227	0xbc6aae4b	-0.014323781
228	0xbca20e58	-0.01978223
229	0xbc3e806a	-0.011627296
230	0x3d49a4b9	0.049229357
231	0x3d4edf61	0.050506
232	0xbd0808c8	-0.0332115
233	0x3cffcdc3	0.031226045
234	0x3d5d446d	0.054020334
235	0xbc888eab	-0.016669592
236	0xbbe13a0a	-0.006873374
237	0xbce91758	-0.028453514
238	0xbd01c3a9	-0.031680737
239	0xbd18aec3	-0.03727604
240	0xbc294120	-0.010330468
241	0x3cf4affd	0.029869074
242	0x3d03ad35	0.032147605
243	0xbb96d3c6	-0.004602882
244	0x3bf0c975	0.0073482343
245	0x3d087dc2	0.033323057
246	0xbcaf66a6	-0.021411251
247	0x3d053e24	0.032529965
248	0xbaa1c6a5	-0.0012342526
249	0x3cc77bdd	0.024351055
250	0x3d1365a6	0.03598561
251	0xbbc26955	-0.0059329667
252	0x3c511651	0.012761668
253	0x3c2a70c3	0.010402861
254	0x3c9230e0	0.017845571
255	0xbc4b48da	-0.012407506

encBlocks.0.conv1.bias f4 [16]
0	0x3c577af4	0.013151873
1	0xbbdc9bd7	-0.0067324447
2	0xbca28fc5	-0.019843945
3	0x3d0942b3	0.033510875
4	0x3c315128	0.010822572
5	0xbc2f5e19	-0.010703587
6	0x3ce2257f	0.02760577
7	0xbcb8124f	-0.022469668
8	0x3aeb6fed	0.0017962434
9	0x3c841abe	0.016126033
10	0xbc28e580	-0.010308623
11	0xbc160aa9	-0.009157815
12	0x3c7bfc92	0.015380042
13	0xbcde3461	-0.027124586
14	0xbc41fae9	-0.011839607
15	0x3ad53e09	0.0016269098

encBlocks.0.conv2.weight f4 [16, 16, 3, 3]
0	0xbc0b388e	-0.00849737
1	0x3d337382	0.04381133
2	0x3c71a85d	0.014749614
3	0x3d8791f2	0.06619634
4	0xbd300b15	-0.04297932
5	0x3dac75d7	0.08420914
6	0xbd8c10dc	-0.06839153
7	0xbd559652	-0.05214531
8	0x3cba9c04	0.022779472
9	0xbc883b9a	-0.016629983
10	0x3d9cfb5f	0.07665133
11	0xbd36f838	-0.044670314
12	0xbd90578e	-0.0704795
13	0x3cd200e7	0.025635196
14	0x3d552791	0.052039687
15	0xbd69e6dd	-0.057104934
16	0xbd883b55	-0.06651942
17	0x3c02abec	0.00797556
18	0xbd915405	-0.070961036
19	0xbd92d765	-0.071699895
20	0xbd04d155	-0.032426197
21	0xbc08dd32	-0.008353518
22	0x3d88b8c2	0.06675865
23	0x3c063791	0.008191959
24	0xbc011c64	-0.007880304
25	0xbd9ff38d	-0.078101255
26	0xbd35aa7b	-0.044352036
27	0x3d147dd2	0.036252804
28	0xbd827490	-0.06369889
29	0xbd16dae0	-0.03682983
30	0x3d00b4cc	0.03142242
31	0x3d91f325	0.07126454
32	0x3d8b7b75	0.06810657
33	0x3d727e94	0.059202746
34	0xbd14b46d	-0.03630488
35	0x3cc8f9bf	0.02453315
36	0x3c9580e6	0.01824994
37	0x3d860d2e	0.065454826
38	0x3b165c2f	0.002294313
39	0x3cc0b93b	0.023525825
40	0xb9dbb5d7	-0.00041906416
41	0x3d54fdfd	0.052000035
42	0xbd5dfea0	-0.054197907
43	0x3d4fc900	0.050728798
44	0xbd431cdc	-0.047634944
45	0xbd4857cb	-0.04891185
46	0x3c2c3104	0.010509733
47	0x3c2d6ba2	0.010584744
48	0x3d67aedd	0.056563247
49	0xbda32ffe	-0.07968138
50	0xbd63d8b3	-0.055626582
51	0x3c9c1109	0.019051092
52	0xbd78b0f7	-0.06071564
53	0x3d3657a3	0.04451717
54	0xbd1b10f7	-0.037857976
55	0x3da844d1	0.08216251
56	0x3ddede43	0.10882237
57	0x3abde9fd	0.001448929
58	0x3dbdaaf8	0.09261125
59	0x3d815148	0.06314331
60	0xbcaa0011	-0.020751985
61	0xbcedf33f	-0.029046653
62	0x3dac9ffb	0.08428951
63	0x3b83fe21	0.0040280973
64	0xbb853706	-0.004065397
65	0x3cba5d89	0.02274968
66	0x3da12073	0.07867517
67	0x3d8fec2b	0.07027467
68	0x3c1cef18	0.009578489
69	0x3d87f8c6	0.06639247
70	0x3d9b98ee	0.075975284
71	0x3dad2811	0.08454908
72	0x3d8a389e	0.0674908
73	0x3d5cef46	0.053939126
74	0x3d853903	0.06505015
75	0x3d03cea8	0.032179505
76	0x3d875c74	0.06609431
77	0x3d9fb331	0.0779785
78	0x3d472090	0.04861504
79	0xbc3e09b7	-0.011598996
80	0xbd1e261b	-0.03861056
81	0x3d18ddeb	0.037321012
82	0x3c92d8b9	0.017925607
83	0xbb94db8c	-0.0045427736
84	0xbcd1eb96	-0.025625031
85	0xbcfdffdf	-0.031005798
86	0xbd8ac94f	-0.06776678
87	0xbcd3e5c9	-0.025866406
88	0xbd3151dd	-0.04329096
89	0x3d66bb97	0.056331243
90	0x3db778ae	0.08958565
91	0x3b6d8a41	0.0036245736
92	0x3bbeb647	0.005820069
93	0x3d892025	0.06695584
94	0x3c219a85	0.0098635005
95	0x3d0bb8ef	0.034111913
96	0xbd759603	-0.059957515
97	0xbc4b4e2d	-0.012408775
98	0x3db38fa3	0.08767631
99	0x3c8ce290	0.017197877
100	0x3d41024a	0.047121324
101	0xbd76fcf6	-0.060299836
102	0xbd8db36d	-0.069189884
103	0x3d177045	0.036972303
104	0xbda85e03	-0.08221056
105	0x3d56dd8e	0.052457385
106	0xbd7e82bc	-0.062136397
107	0x3d9c7239	0.07638974
108	0xbcf27601	-0.029597284
109	0xbd9dedec	-0.077113956
110	0xbd2bf728	-0.041983753
111	0xbda05986	-0.07829575
112	0x3d4a70c8	0.049423963
113	0xbcbf1d9a	-0.023329545
114	0x3d4a9d50	0.04946643
115	0x3d09247f	0.03348207
116	0xbc9ca897	-0.019123359
117	0x3ac94749	0.0015356328
118	0xbd0f0f25	-0.034926552
119	0x3cc1f93f	0.02367842
120	0xbda9cb6b	-0.08290752
121	0xbca943bc	-0.020662181
122	0x3d3fb859	0.046806667
123	0x3da7c4a3	0.08191802
124	0x3d262e3b	0.040571433
125	0x3c537477	0.012906185
126	0x3c6e7ef4	0.014556635
127	0x3d9b5ef6	0.07586472
128	0x3c885545	0.016642222
129	0xbcbb9e54	-0.022902645
130	0xbc55d220	-0.013050586
131	0xbd57f128	-0.05272022
132	0xbdb58641	-0.088634975
133	0xbdb63f65	-0.0889881
134	0xbd84651a	-0.06464596
135	0x3d0c300c	0.03422551
136	0xbd30621f	-0.043062326
137	0x3d9557ee	0.07292162
138	0x3da7b2c6	0.08188395
139	0xbd91f46b	-0.07126697
140	0xbd378c26	-0.04481139
141	0xbd3021d8	-0.043001026
142	0x3d0f96ba	0.035055853
143	0x3d1c6680	0.03818369
144	0x3b1184f3	0.0022204488
145	0xbd251c2c	-0.04031007
146	0x3d74a6cc	0.059729382
147	0x3d421a41	0.04738832
148	0xbb3d93f8	-0.0028927308
149	0xbc455df4	-0.012046326
150	0xbdb540b0	-0.08850229
151	0xbda8d693	-0.08244052
152	0x3d1004b8	0.03516075
153	0xbcc8e5c3	-0.024523621
154	0xbab18737	-0.0013544325
155	0x3d86585e	0.065598235
156	0x3b6e19e5	0.0036331352
157	0x3d17ba64	0.03704299
158	0xbd90fffb	-0.070800744
159	0xbc0145a5	-0.00789014
160	0xbc3dca53	-0.011583882
161	0x3cc80cad	0.024420107
162	0xbd82b614	-0.06382385
163	0x3d825d8c	0.06365499
164	0xba8eb5e5	-0.0010887949
165	0xbb28d04a	-0.0025758916
166	0xbc17fdd7	-0.009276829
167	0xbc824ab4	-0.015904762
168	0xbd5472aa	-0.051867165
169	0xbc88018f	-0.016602306
170	0xbc191b4e	-0.009344889
171	0xbd2ffb7b	-0.04296444
172	0xbd76eead	-0.060286213
173	0x3c61bc64	0.013777826
174	0x3d0aac56	0.03385576
175	0xbd270a7e	-0.04078149
176	0xbd0028e6	-0.031289004
177	0xbd6c3695	-0.05766924
178	0xbd8ecb29	-0.069723435
179	0x3c7b54b2	0.015340017
180	0xbd662dc4	-0.05619599
181	0xbc1b5d3d	-0.009482679
182	0xbd02eb24	-0.03196253
183	0xbd18e38d	-0.037326384
184	0x3a14aa9e	0.0005671176
185	0x3d5160b1	0.051117603
186	0x3bd353ba	0.00644919
187	0xbb961284	-0.004579844
188	0x3c8345df	0.016024528
189	0xbc050656	-0.008119186
190	0x3b8aa462	0.0042310217
191	0x3cabf82b	0.02099236
192	0x3d124b98	0.035716623
193	0x3d1da31c	0.03848563
194	0xbd633a4b	-0.055475514
195	0x3dab94fb	0.08378025
196	0x3d9c3f94	0.07629314
197	0xbda77407	-0.08176427
198	0xbc0f1d3f	-0.008735
199	0x3d5b3300	0.053515434
200	0x3bceabf1	0.006307118
201	0x3d501fa3	0.05081142
202	0x3d9c4f94	0.07632366
203	0x3ab8774f	0.0014073643
204	0x3d1de92c	0.03855245
205	0xbd9e5632	-0.07731284
206	0x3ad2ad2c	0.0016073338
207	0x3db7d65a	0.08976431
208	0xbda8a683	-0.082348846
209	0xbc3c19aa	-0.011480728
210	0xbca0c1d8	-0.019623682
211	0xbdc1a920	-0.09456086
212	0xbdae6bbb	-0.08516642
213	0xbdc3e6af	-0.09565484
214	0xbcdc0144	-0.026856072
215	0xbdb197fb	-0.08671566
216	0x3d8aad51	0.06771339
217	0xbdbd0f00	-0.09231377
218	0xbde8c598	-0.11365813
219	0xbdcc74ed	-0.09983239
220	0xbc8fa0d9	-0.017532753
221	0xbc861b63	-0.01637048
222	0xbbffc8a2	-0.0078058997
223	0x3d017729	0.03160778
224	0xbdab0dc6	-0.083522364
225	0xbda3c219	-0.079960056
226	0x3d5242f7	0.051333394
227	0x3d4f139f	0.05055582
228	0xbce3b3f6	-0.027795773
229	0x3d98fb2c	0.07469782
230	0x3d8e85a2	0.06959082
231	0xbd155259	-0.036455486
232	0xbcf8dd2c	-0.0303789
233	0xbd1a1992	-0.037622042
234	0xbdb2dde6	-0.0873373
235	0x3c8ff6f4	0.017573811
236	0xbd8bb194	-0.0682098
237	0x3d33b977	0.043878045
238	0x3d6b94e0	0.057515025
239	0xbdd440e1	-0.10363937
240	0xbd4b7c95	-0.049679358
241	0xbd071e0a	-0.03298763
242	0x3b88454f	0.004158653
243	0xbd60db94	-0.054896906
244	0xbcc6f6ca	-0.0242876
245	0x3d354761	0.044257525
246	0xbc8a1ae3	-0.016858524
247	0x3db70303	0.08936121
248	0xbd738a9e	-0.059458368
249	0xbcd5c454	-0.026094593
250	0xbc0b57bf	-0.008504807
251	0x3d804eb8	0.062650144
252	0x3db07ec5	0.08617929
253	0x3cd3b175	0.025841454
254	0xbd22a648	-0.03970936
255	0xbb9bf546	-0.0047594635

encBlocks.0.conv2.bias f4 [16]
0	0xbcb9693b	-0.022633186
1	0x3cc75a48	0.024335042
2	0xbb3c4902	-0.002873004
3	0xbc0476a3	-0.008084926
4	0xbda1136f	-0.07865035
5	0xbb078cf6	-0.0020683385
6	0xbd72df9c	-0.05929528
7	0xbd46c928	-0.04853168
8	0xbd9fbabd	-0.077992894
9	0xbdb11d18	-0.08648127
10	0x3d963d5e	0.073359236
11	0xbc68ae52	-0.014201717
12	0xbd32b583	-0.043630134
13	0xbd1dd8e9	-0.03853694
14	0xbd82f61d	-0.06394599
15	0xbdade249	-0.08490426

encBlocks.0.BN1.weight f4 [16]
0	0x3f7d98ff	0.9906158
1	0x3f7be98c	0.9840324
2	0x3f7c75a4	0.98617005
3	0x3f7f0837	0.9962191
4	0x3f75edd2	0.9606601
5	0x3f7e6320	0.9937
6	0x3f781162	0.96901524
7	0x3f842166	1.0322692
8	0x3f81eb2f	1.0149897
9	0x3f7d05f9	0.9883724
10	0x3f80995d	1.0046803
11	0x3f751fee	0.95751846
12	0x3f76d8bb	0.96424454
13	0x3f7d246f	0.9888372
14	0x3f741b5e	0.9535426
15	0x3f7fc45a	0.99908984

encBlocks.0.BN1.bias f4 [16]
0	0xbdac6f06	-0.084196135
1	0xbd22fb49	-0.039790425
2	0x3d964a9f	0.073384516
3	0xbdac3354	-0.084082276
4	0xbdba0b0e	-0.0908414
5	0x3a3e426e	0.00072578236
6	0xbdd6203b	-0.10455366
7	0xbdf39a9a	-0.11894722
8	0xbe139743	-0.1441317
9	0xbc1fcbf4	-0.009753216
10	0xbd98b8cf	-0.074571244
11	0x3c58a00b	0.013221751
12	0xbd926658	-0.07148427
13	0xbd22ba56	-0.039728485
14	0x3c608483	0.013703468
15	0xbda78f74	-0.081816584

encBlocks.0.BN1.running_mean f4 [16]
0	0x403d9279	2.962065
1	0x3f456d15	0.7711957
2	0xbfbd93a3	-1.481068
3	0x3fe71d29	1.8055774
4	0x3daf073f	0.08546304
5	0xc01f8e03	-2.4930427
6	0x3eaccc09	0.33749416
7	0x3e850d3e	0.25986665
8	0x3d67b6f6	0.05657097
9	0xbfd34d07	-1.6507882
10	0xbd70c179	-0.05877826
11	0xbf507792	-0.8143245
12	0x4006deb7	2.1073434
13	0xbfd61443	-1.6724933
14	0x3fdd02db	1.7266496
15	0x3fc3ba4d	1.529123

encBlocks.0.BN1.running_var f4 [16]
0	0x40372c5f	2.8620832
1	0x3ea9190b	0.3302692
2	0x3f604792	0.8760921
3	0x3f9bb8ad	1.2165734
4	0x3ec9e99d	0.39436045
5	0x400d2fea	2.2060494
6	0x3ef1b771	0.47210267
7	0x3dd87ad5	0.10570303
8	0x3dc81d36	0.097711965
9	0x3fa0407a	1.2519677
10	0x3e1e60d9	0.15466632
11	0x3e86bc6e	0.26315635
12	0x3fd6d2a7	1.6783036
13	0x3f9d5e42	1.229439
14	0x3f938560	1.1525078
15	0x3f494bc9	0.78631264

encBlocks.0.BN2.weight f4 [16]
0	0x3f7d8685	0.99033386
1	0x3f8a1f1c	1.0790744
2	0x3f80e5fd	1.0070187
3	0x3f767011	0.9626475
4	0x3f815712	1.0104697
5	0x3f82545c	1.0181994
6	0x3f74ad24	0.9557669
7	0x3f81c038	1.0136786
8	0x3f8110dd	1.0083271
9	0x3f80816f	1.00395
10	0x3f804afc	1.0022883
11	0x3f803308	1.0015574
12	0x3f73fb99	0.9530578
13	0x3f7cd84d	0.9876755
14	0x3f7a977a	0.97887385
15	0x3f7d3050	0.98901844

encBlocks.0.BN2.bias f4 [16]
0	0xbe188755	-0.14895375
1	0x3e45559e	0.19270942
2	0xbd86703b	-0.06564375
3	0xbe47dcf9	-0.19517888
4	0x3db381c9	0.08764989
5	0x3df1b17d	0.11801431
6	0xbda8440f	-0.08216106
7	0x3df4f0ff	0.11960029
8	0x3e007f23	0.12548499
9	0xbcfc2aa8	-0.030782059
10	0x3d1ba872	0.03800244
11	0x3d203f1f	0.039122697
12	0x3d1f20aa	0.03884951
13	0xbe360a8a	-0.17777458
14	0xbcde3f3e	-0.027129766
15	0xbaa8926b	-0.0012861019

encBlocks.0.BN2.running_mean f4 [16]
0	0x3e2f24d3	0.17103891
1	0xbe9ac19d	-0.3022584
2	0xbed05b25	-0.40694538
3	0x3c0fce3c	0.008777197
4	0x3e48c22f	0.19605325
5	0x3f17ce8e	0.5929955
6	0xbdd1d970	-0.10246551
7	0x3d7a78c7	0.06115034
8	0x3f0fcae7	0.5616898
9	0xbe85797d	-0.2606925
10	0x3dafac65	0.085778035
11	0x3e29789b	0.16549914
12	0x3ea280d1	0.31738904
13	0xbf08a4a8	-0.53376245
14	0x3c8b7e85	0.017028103
15	0xbe76bfe7	-0.24096642

encBlocks.0.BN2.running_var f4 [16]
0	0x3e830c81	0.25595477
1	0x3e15866d	0.1460206
2	0x3edd349d	0.43204203
3	0x3ec97dac	0.39353693
4	0x3e368b84	0.17826658
5	0x3ec71034	0.3887955
6	0x3e52f265	0.20600279
7	0x3e47a09a	0.19494858
8	0x3ebf6dda	0.37388498
9	0x3e29ba41	0.16574956
10	0x3d535619	0.05159578
11	0x3e0a289a	0.13492051
12	0x3e4007aa	0.18752924
13	0x3e4ef21d	0.20209546
14	0x3e6c9fd1	0.2310784
15	0x3e013fa8	0.12621939

encBlocks.1.conv1.weight f4 [16, 16, 15, 15]
0	0x3b517629	0.0031961298
1	0xbc3cbc9c	-0.011519577
2	0x3ba8817b	0.0051423884
3	0xbbc4395b	-0.0059882826
4	0x3c3e60b2	0.011619734
5	0xbb020ec5	-0.001984523
6	0xbc85a8f4	-0.016315915
7	0xbca68cd3	-0.020330822
8	0xbc5b3fb1	-0.013381884
9	0xbca34485	-0.019930134
10	0xbbcf2fcc	-0.0063228365
11	0x3bf22864	0.007390069
12	0x3ba0899d	0.0048992173
13	0x3c317d04	0.010833029
14	0x3c5c65c0	0.013451993
15	0x3c34b16a	0.011028627
16	0x3b665b69	0.00351497
17	0xbb04c7e6	-0.002026075
18	0x3bbfc543	0.005852373
19	0x3ce521a6	0.027970146
20	0x3c21a4ef	0.009865983
21	0xbc4e3b7b	-0.012587423
22	0xbcae99c5	-0.021313557
23	0xbc872c24	-0.01650054
24	0xbb843e40	-0.004035741
25	0xbc20ea66	-0.00982151
26	0xbb763769	-0.0037569648
27	0x3c7fccc7	0.015612788
28	0xbb6ecde1	-0.0036438631
29	0x3cb98838	0.022647962
30	0xbbc8ea11	-0.0061314185
31	0xbb3a23a0	-0.0028402582
32	0xbbd67d73	-0.0065457164
33	0x3c20c202	0.00981188
34	0xbbbfa7b0	-0.0058488473
35	0xbaff2d4a	-0.0019468453
36	0xbc34d9ce	-0.011038257
37	0xbd17acd0	-0.03703004
38	0xbcce0a30	-0.025151342
39	0xbb9da074	-0.0048103873
40	0xbb8734ad	-0.0041261525
41	0xbcd80948	-0.026371613
42	0x3c14857a	0.009065026
43	0x3c2074e0	0.00979349
44	0xbac2b643	-0.0014855344
45	0x3c922543	0.017840033
46	0x3c3b2890	0.011423245
47	0x3cad9b48	0.021192208
48	0x3ca0f2a4	0.01964695
49	0x3cbd8f12	0.02313951
50	0x3b3f6993	0.0029207214
51	0x3c178b25	0.009249483
52	0xbc361f76	-0.011115899
53	0xbcadc7fe	-0.021213528
54	0xbce5ff43	-0.02807582
55	0xbcc577fc	-0.024105065
56	0xbcf9f907	-0.030514253
57	0x3c39c587	0.011338598
58	0x3c8c7a65	0.017148206
59	0x3c86d12c	0.016457163
60	0x3cb0d133	0.021584129
61	0x3c0d24e7	0.008614755
62	0x3d0c07a3	0.03418697
63	0x3ce41018	0.027839705
64	0x3c6e0987	0.014528639
65	0x3b2abfe8	0.0026054326
66	0x3b1f7959	0.0024333803
67	0xbc3dd30e	-0.011585964
68	0xbc32b806	-0.010908132
69	0xbcf31450	-0.029672772
70	0xbca3d7fa	-0.020000447
71	0xbc91da4b	-0.017804286
72	0x3c291c1f	0.010321646
73	0x3c031d6d	0.008002621
74	0xb8e7c0c4	-0.00011050844
75	0x3cac5c10	0.021039993
76	0x3c28105c	0.010257807
77	0x3c9bd2e7	0.019021465
78	0x3d2d0159	0.042237613
79	0x3ced6fe0	0.02898401
80	0x3bf5163e	0.007479458
81	0x3ceb38c8	0.028713599
82	0xbce73a77	-0.02822612
83	0xbcaf9331	-0.021432491
84	0xbcb85087	-0.022499336
85	0xbca936a4	-0.020655937
86	0xbcb02cff	-0.02150583
87	0xbc564b5e	-0.013079492
88	0x3cb45287	0.022012008
89	0x3cd4d279	0.025979267
90	0x3ba81822	0.00512983
91	0x3cc1d803	0.023662573
92	0x3c6b22d1	0.014351563
93	0x3cbb58b0	0.022869438
94	0x3d1247be	0.03571295
95	0x3bb01eb1	0.0053747525
96	0x3b87019b	0.0041200644
97	0xbcd26984	-0.02568508
98	0xbc36f6a0	-0.011167198
99	0xbb297331	-0.0025856013
100	0xbd188e4b	-0.037245076
101	0xbd4452d0	-0.04793054
102	0xbb8ed96b	-0.0043594143
103	0xbb840597	-0.0040289867
104	0x3c22ba54	0.009932119
105	0x3c938274	0.01800654
106	0x3c7d37e4	0.01545522
107	0x3d07f78a	0.033195056
108	0x3ce2f442	0.027704362
109	0x3ca2c4b1	0.01986918
110	0x3ce5b93a	0.028042424
111	0x3ce876ab	0.028376898
112	0xbc289512	-0.010289447
113	0xbcc355e1	-0.023844661
114	0xbc89a057	-0.016800089
115	0xbd06c79f	-0.032905217
116	0xbc8ed942	-0.017437581
117	0xbcb0db48	-0.021588936
118	0xbc61d55a	-0.013783777
119	0x3c218713	0.009858864
120	0xba9f2e3a	-0.0012144514
121	0x3bf3d0ad	0.0074406476
122	0x3ca2a704	0.01985503
123	0x3c69a85e	0.014261333
124	0x3cdf3dad	0.027251089
125	0x3cba1a38	0.02271758
126	0x3b60de1a	0.003431207
127	0xbc61f7a9	-0.013791957
128	0xbcd86129	-0.026413517
129	0xbcd8c60e	-0.026461627
130	0xbcc3b274	-0.023888804
131	0xbd042cfb	-0.03226946
132	0xbce8096a	-0.028324801
133	0xbb072a4b	-0.0020624574
134	0x38d5b414	0.000101901736
135	0xbcc7c2ae	-0.024384823
136	0xbc4becda	-0.0124466065
137	0xbc456314	-0.012047548
138	0xbb5bcbb2	-0.003353816
139	0x3c07a1fa	0.008278364
140	0x3d2c089d	0.0420004
141	0x3c28c37b	0.010300512
142	0xbc7f2069	-0.015571692
143	0xbca62e0b	-0.020285627
144	0xbd26ca89	-0.040720496
145	0xbccdb8b8	-0.025112495
146	0xbcf02577	-0.02931474
147	0xbc95b6ca	-0.018275637
148	0xbcb49fb2	-0.022048805
149	0xbba53262	-0.0050414065
150	0xbc5b6019	-0.013389611
151	0xbbc4eb59	-0.006009501
152	0xbc599013	-0.013278979
153	0x3a95d7f9	0.0011432163
154	0x3cb5f9fb	0.022213927
155	0x3c0bfa22	0.008543523
156	0x3d080433	0.03320713
157	0xbb6ada0e	-0.0035835537
158	0xbad946eb	-0.0016576921
159	0xbc67da2e	-0.014151139
160	0xbd113bc4	-0.035457388
161	0xbd4365f3	-0.04770465
162	0xbcdc56de	-0.02689689
163	0xbcc8354e	-0.02443948
164	0xbb2be5b6	-0.0026229448
165	0x3c8ef2b0	0.017449707
166	0x3cadf9c2	0.021237258
167	0x3d1535c5	0.03642823
168	0x3d07f205	0.033189792
169	0x3d0595bd	0.032613505
170	0x3ce117bf	0.027477143
171	0x3cc9df33	0.024642562
172	0x3ca940e0	0.020660818
173	0x3c957e05	0.018248567
174	0x3b9a704e	0.004713095
175	0xbb8f6734	-0.0043763164
176	0xbd013ba4	-0.03155102
177	0xbcec4103	-0.028839594
178	0x3b392400	0.0028250217
179	0x3cb1d935	0.021710018
180	0x3d009fef	0.031402525
181	0x3c64f2de	0.01397392
182	0x3c92b988	0.017910734
183	0x3c3ab8cc	0.011396598
184	0x3bd82068	0.00659566
185	0x3bc450e0	0.0059910864
186	0x3d081a3a	0.033228137
187	0x3cac835f	0.021058736
188	0x3cd2bbef	0.02572438
189	0x3bb251dc	0.0054418873
190	0xbc397ef6	-0.011321774
191	0xbc12ae01	-0.008952619
192	0xbb79c3bb	-0.003811105
193	0x3c1a6dcc	0.009425592
194	0x3c215b91	0.009848491
195	0x3ca71c46	0.020399224
196	0x3c7895a0	0.015172392
197	0x3cbff95f	0.02343434
198	0x3c2849a7	0.010271466
199	0x3c533958	0.01289209
200	0x3ca1c703	0.019748216
201	0x3c5f412e	0.01362638
202	0x3cc6eed5	0.024283806
203	0x3c3ac76f	0.011400088
204	0x3bd55ef8	0.0065115653
205	0xbc557315	-0.013027926
206	0xbb83ef46	-0.0040263264
207	0x3c54cfdb	0.01298901
208	0x3c8f381e	0.017482813
209	0xbc011270	-0.007877931
210	0x3cdf9453	0.027292406
211	0x3d30dc9d	0.043179143
212	0x3cd53b68	0.026029304
213	0x3c4a4e73	0.012347805
214	0x3bed18d4	0.0072356258
215	0x3c94ab4b	0.018148085
216	0x3c9a1555	0.018809
217	0x3cb52f93	0.022117412
218	0x3b81c1f3	0.003959888
219	0xbbddc5d5	-0.006767968
220	0x3b69e87e	0.0035691555
221	0xbc3437b7	-0.010999612
222	0xbc88d63c	-0.016703717
223	0x3b74071e	0.0037235687
224	0xb780a3a0	-1.5334983e-05
225	0xbc030ffa	-0.007999415
226	0xbc26ec85	-0.010188227
227	0xbcbbbf99	-0.02291851
228	0xbc6fd282	-0.014637591
229	0xbc5e6f46	-0.013576334
230	0x3beb5298	0.007181477
231	0x3b6f1954	0.0036483603
232	0x3c28c295	0.010300298
233	0x3d25d578	0.040486783
234	0x3d013e72	0.031553693
235	0x3cf7b0de	0.030235704
236	0x3ca570ce	0.020195391
237	0x3b9dde7a	0.004817781
238	0x3b9f90a8	0.0048695393
239	0xbb547fdf	-0.003242485
240	0xbc47aafd	-0.012186763
241	0xbd05e417	-0.032688227
242	0xbd1197b8	-0.03554508
243	0xbd41f431	-0.04735202
244	0xbcaa19d6	-0.020764273
245	0xbc76bdf7	-0.01505994
246	0x3c0362ce	0.008019162
247	0x3c962496	0.018327992
248	0x3ced70ae	0.028984394
249	0x3b8e8862	0.004349754
250	0x3cadd18b	0.021218082
251	0xbb88beae	-0.0041731214
252	0xbc411555	-0.011784871
253	0xbc4cb9a3	-0.012495431
254	0x3c38898b	0.011263262
255	0xbd012a75	-0.03153463

encBlocks.1.conv1.bias f4 [16]
0	0xbc027712	-0.007962959
1	0x3b01e5d3	0.0019820824
2	0x3b57673c	0.003286793
3	0xbbe3dfd8	-0.0069541745
4	0xbc68b11a	-0.014202381
5	0x3c2672a9	0.010159173
6	0xba11fcea	-0.0005568998
7	0x3b3a22eb	0.002840216
8	0xbbbb8ebf	-0.005723804
9	0xbc6125ac	-0.013741892
10	0x3c89d1f6	0.01682375
11	0x3b575ff6	0.0032863594
12	0x3c57a5b3	0.013162064
13	0x3bea2050	0.007144965
14	0x3be6ac5e	0.0070395907
15	0xbb8f0788	-0.0043649115

encBlocks.1.conv2.weight f4 [16, 16, 3, 3]
0	0xbc6fef97	-0.014644525
1	0x3d40f3ee	0.04710763
2	0xbcd93b04	-0.026517399
3	0xbcff3f46	-0.0311581
4	0xbd1e2926	-0.03861346
5	0xbc7e73e4	-0.01553056
6	0x3da18a56	0.078877136
7	0x3ca12df9	0.019675242
8	0xbb79dc32	-0.0038125631
9	0xbcba5c9f	-0.022749243
10	0x3d95231d	0.07282088
11	0x3d115f01	0.035490993
12	0xbd31f488	-0.043446094
13	0x3d5ae5f5	0.05344196
14	0xbc304885	-0.0107594775
15	0x3dba549f	0.090981714
16	0x3db284db	0.087167464
17	0x3c47d7f9	0.012197488
18	0xbceed761	-0.029155435
19	0x3c15f3f1	0.009152398
20	0x3d8d55ce	0.069011316
21	0xbd7173d8	-0.058948368
22	0x3c7da242	0.01548058
23	0xbd49dbad	-0.049281765
24	0xbcf892ab	-0.030343374
25	0x3d54201e	0.05178844
26	0xbdab9d90	-0.08379662
27	0xbd954a9a	-0.0728962
28	0x3d7efb54	0.062251404
29	0x3d817baf	0.06322419
30	0x3d1b48a7	0.037911084
31	0xbb951aa1	-0.0045502936
32	0xbd25f0f3	-0.04051299
33	0x3cc4e6a8	0.024035767
34	0xbce2435e	-0.027620014
35	0x3cf17cca	0.02947845
36	0x3bdaff18	0.0066832416
37	0x3d0b519f	0.034013387
38	0xbdc53bb3	-0.09630527
39	0x3d651744	0.05593039
40	0x3d43aee5	0.047774214
41	0x3d60e992	0.05491025
42	0x3c4039c5	0.011732523
43	0x3d5492c1	0.051897768
44	0xbdc51f51	-0.09625114
45	0xbd7f101a	-0.062271215
46	0x3ce3cf5c	0.027808838
47	0xbd02df81	-0.03195143
48	0xbd8a1bab	-0.067435585
49	0xbc8e0505	-0.017336378
50	0x3c98ea8d	0.01866653
51	0x3c8d0636	0.017214876
52	0x3ce52f45	0.027976641
53	0xbd2a0fb6	-0.04151889
54	0x3c198cd2	0.009371953
55	0x3d69a327	0.05704036
56	0xbd3f2188	-0.046662837
57	0xbc4fc8c7	-0.012682146
58	0x3d7b8f4e	0.061415963
59	0x3cc5c97b	0.024143925
60	0xbd9ff181	-0.07809735
61	0xbca31e6c	-0.019911967
62	0x3c24a4ac	0.010049026
63	0xbd03a450	-0.032139122
64	0xbcd8746c	-0.026422702
65	0xbcff9ffe	-0.03120422
66	0xbd859905	-0.06523327
67	0x3ced5fad	0.028976286
68	0x3c3ee660	0.011651605
69	0xbc06ee58	-0.0082355365
70	0x3acf5244	0.0015817364
71	0x3d525f13	0.0513602
72	0xbd9ff42f	-0.07810246
73	0xbd70aead	-0.058760334
74	0x3d845efd	0.0646343
75	0xbdcc5856	-0.09977786
76	0xbc9cebce	-0.01915541
77	0x3cca181f	0.024669705
78	0xbdb5486b	-0.08851703
79	0xbc05f783	-0.008176687
80	0xbd55ec6d	-0.052227426
81	0x3cce6a9b	0.025197318
82	0xbccec205	-0.025239
83	0xbd72126b	-0.059099596
84	0x3d6410ff	0.05568027
85	0x3d3e495e	0.046456687
86	0x3d505802	0.05086518
87	0xbd7671be	-0.060167067
88	0xbda91611	-0.08256162
89	0xbc2f3f6d	-0.010696274
90	0x3d846715	0.06464974
91	0x3d9bbe13	0.07604613
92	0x3d852839	0.065018125
93	0x3c10a5ff	0.008828639
94	0x3df3a531	0.11896742
95	0x3dabc1ae	0.08386551
96	0x3cefb126	0.029259276
97	0x3c6e8026	0.01455692
98	0xbca7bdad	-0.020476187
99	0xbd93d5c5	-0.07218508
100	0x3d2936b0	0.04131192
101	0xbdc2c30d	-0.09509859
102	0xbdb5d215	-0.088779606
103	0xbd435986	-0.047692798
104	0x3cc705ea	0.024294812
105	0xb8aec891	-8.334325e-05
106	0xbbfaeee6	-0.0076578734
107	0x3d644bf0	0.055736482
108	0xbd24a6e8	-0.040198237
109	0xbcff4afd	-0.031163687
110	0x3b06d2f6	0.002057252
111	0x3d23a4f8	0.03995225
112	0xbd564c0d	-0.05231862
113	0x3bb48c48	0.005509887
114	0xbddbf8fb	-0.10740849
115	0xbc0ec7e9	-0.0087146545
116	0x3b778a7a	0.0037771747
117	0x3aae3126	0.0013289794
118	0xbd960149	-0.07324464
119	0xbcdd538f	-0.027017383
120	0xbdad9ea0	-0.08477521
121	0xbd91c9af	-0.07118546
122	0xbd97bbc6	-0.07408862
123	0x3bf5c0ef	0.007499806
124	0x3cb1f053	0.02172104
125	0xbcbedbaa	-0.023298103
126	0x3ccc43f9	0.024934756
127	0x3d2b715f	0.041856166
128	0x3b3efedb	0.0029143605
129	0x3ca1780d	0.019710565
130	0x3bb9e7cb	0.005673384
131	0xba20bddd	-0.00061318075
132	0xbd1d8c45	-0.03846385
133	0xbcf3c42e	-0.029756632
134	0x3d010653	0.031500172
135	0x3d4ed4a5	0.050495762
136	0xbd875f25	-0.06609944
137	0x3d4e9adf	0.050440665
138	0x3c9e02bd	0.019288415
139	0xbc14813a	-0.009064013
140	0x3d803bfe	0.062614426
141	0x3d6c818b	0.05774073
142	0x3d5e086e	0.054207258
143	0x3c883652	0.016627464
144	0x3cd60026	0.026123118
145	0xbcb15c9f	-0.02165061
146	0x3cf620ba	0.030044902
147	0x3c23f80c	0.010007869
148	0xbc9b0337	-0.018922431
149	0x3d1db733	0.03850479
150	0xbcdd0837	-0.026981456
151	0xbd515376	-0.051104985
152	0x3817bd10	3.6177284e-05
153	0xbd05216d	-0.03250258
154	0xbcba8f67	-0.022773458
155	0x3c811cfd	0.015760893
156	0x3d0cbe7e	0.034361355
157	0x3d6f8fb1	0.058486644
158	0x3c95c52f	0.018282501
159	0x3bf995cd	0.0076167346
160	0x3c94fe6c	0.018187724
161	0x3d00d161	0.03144968
162	0xbc6414b3	-0.013920951
163	0xbd35d732	-0.04439468
164	0x3cfe25b6	0.031023841
165	0x3d63e923	0.05564226
166	0x3cfd7da4	0.0309437
167	0x3ce0807a	0.027405012
168	0x3d6aeddd	0.05735575
169	0xbc69a1de	-0.014259784
170	0x3ceb546f	0.028726785
171	0x3d9ad57b	0.075602494
172	0x3dd3837d	0.10327814
173	0xbd2e6a72	-0.042581983
174	0x3db69faa	0.08917172
175	0x3c0eb378	0.008709781
176	0x3c1f7450	0.009732321
177	0x3d87bf7a	0.06628318
178	0x3dcaa1dc	0.098941535
179	0x3de79272	0.11307229
180	0x3c892827	0.016742779
181	0xbd7926a9	-0.060827885
182	0xbd9720f8	-0.07379335
183	0xbd453981	-0.048150543
184	0xbde32bf9	-0.110923715
185	0x3ad1df06	0.0016011901
186	0xbd79ac1b	-0.06095515
187	0xbdcc397c	-0.09971902
188	0xbcb053da	-0.021524359
189	0x3c439e66	0.011939621
190	0xbdbae8d1	-0.091264375
191	0x3cd6c265	0.026215741
192	0x3d6ec9ee	0.058298044
193	0x3c541653	0.012944776
194	0xbd1dd776	-0.038535558
195	0x3d864122	0.06555392
196	0x3d603fae	0.05474823
197	0xbc1d9ed9	-0.009620392
198	0xbc564a8a	-0.013079295
199	0xbdcfb140	-0.1014123
200	0x3d986512	0.07441153
201	0xbd8424c7	-0.06452327
202	0xbc871c91	-0.016493114
203	0x3d29e776	0.041480504
204	0x3b07d2eb	0.0020725082
205	0xbdb2baf3	-0.08727064
206	0xba7f0d78	-0.0009729485
207	0xbcb20a55	-0.021733442
208	0xbc4c5047	-0.0124703115
209	0x3d4843f4	0.04889293
210	0x3d65ba83	0.056086075
211	0xbd8439a2	-0.06456305
212	0xbb426578	-0.002966253
213	0xbd9a46a6	-0.07533006
214	0x3caa3a6e	0.020779815
215	0xbc98ddd6	-0.018660467
216	0xbd722189	-0.059114013
217	0xbd92facc	-0.07176742
218	0x3cc1eca9	0.023672419
219	0xbd584d81	-0.05280829
220	0xbd9e6626	-0.07734327
221	0xbcd6794f	-0.026180891
222	0x3b06c6a3	0.0020565174
223	0xbdbb07f5	-0.09132377
224	0x3bab7a67	0.0052330974
225	0xbd93225d	-0.07184289
226	0xbca6aa6a	-0.020344932
227	0xbd5013e7	-0.05080023
228	0xbd11457a	-0.03546665
229	0xbd740e2d	-0.05958383
230	0xbd33ee15	-0.043928225
231	0x3d30f276	0.04319998
232	0x3d2a3611	0.041555468
233	0xbce3fc3f	-0.027830241
234	0x3dbfaf28	0.0935958
235	0xbc10dd3d	-0.00884181
236	0xbd7c764e	-0.06163626
237	0x3dcc0305	0.099615134
238	0x3da21e99	0.07915992
239	0xbc3851d4	-0.011249978
240	0x3dc9ee9a	0.09859963
241	0x3da6d511	0.08146108
242	0x3db46f49	0.088102885
243	0xbbd7431f	-0.0065692808
244	0x3d2430f1	0.040085737
245	0xbdd4d886	-0.10392861
246	0xbcf64118	-0.030060336
247	0xbd7fe946	-0.062478326
248	0xbd020666	-0.031744383
249	0x3cb17ad9	0.021665024
250	0x3bbe2797	0.0058030593
251	0xbd85ffed	-0.065429546
252	0xbd6b1bd5	-0.05739959
253	0x3d7e515e	0.062089317
254	0xbc60bfc6	-0.013717597
255	0xbd92097b	-0.071307145

encBlocks.1.conv2.bias f4 [16]
0	0xbd5c91bb	-0.053849917
1	0x3c8fca59	0.017552542
2	0x3d604bf9	0.054759953
3	0x3cba74b5	0.022760728
4	0x3d1ebde6	0.03875532
5	0xbc828a63	-0.015935129
6	0xbd6ace0d	-0.05732541
7	0x3ca8880f	0.02057269
8	0xbc471c3a	-0.012152726
9	0x3cc3cee3	0.023902362
10	0x3bd0614a	0.006359254
11	0x3c974ef2	0.018470261
12	0xbd4a8b5e	-0.049449317
13	0x3d83f225	0.0644267
14	0xbd341585	-0.043965835
15	0xbc9acc1b	-0.018896153

encBlocks.1.BN1.weight f4 [16]
0	0x3f8441c6	1.0332572
1	0x3f7bab2f	0.9830808
2	0x3f807608	1.003602
3	0x3f801c3b	1.0008615
4	0x3f824f4e	1.0180452
5	0x3f7b1170	0.9807348
6	0x3f82580d	1.0183121
7	0x3f7c6134	0.9858582
8	0x3f80da06	1.0066535
9	0x3f7b70ee	0.9821919
10	0x3f7c09a3	0.98452204
11	0x3f7f7856	0.99792993
12	0x3f815b8b	1.0106062
13	0x3f7d97b3	0.990596
14	0x3f7a7c83	0.9784624
15	0x3f803661	1.0016595

encBlocks.1.BN1.bias f4 [16]
0	0xbb86a41d	-0.0041089193
1	0x3cad891e	0.021183547
2	0x3c789a3b	0.01517349
3	0x3d6cac44	0.057781473
4	0x3d266fb9	0.04063389
5	0xbdb809a1	-0.089862116
6	0x3db1605b	0.086609565
7	0xbd801ecf	-0.06255876
8	0xbd95b98c	-0.07310781
9	0xbdeeddac	-0.11663374
10	0xbcdc2e68	-0.026877597
11	0xbdaeb874	-0.085312754
12	0xbd82d61e	-0.06388496
13	0x3d1032c8	0.03520468
14	0xbcb23d0a	-0.021757621
15	0x3d8aa37c	0.067694634

encBlocks.1.BN1.running_mean f4 [16]
0	0xbf6a67ec	-0.9156482
1	0xc095045e	-4.656783
2	0xc065a6f8	-3.588316
3	0xbff79abd	-1.9344097
4	0xc0a01ea9	-5.0037427
5	0x3ddaccd4	0.10683599
6	0xbe4d4f4d	-0.20049782
7	0x3f800edb	1.0004534
8	0x3eb1c740	0.34722328
9	0x3f3235dc	0.6961343
10	0x3e287393	0.16450338
11	0x3fb9e039	1.4521552
12	0x3f828db9	1.01995
13	0xc00980b9	-2.1484816
14	0x406e8762	3.727013
15	0x3c56de14	0.013114471

encBlocks.1.BN1.running_var f4 [16]
0	0x42225ec8	40.59256
1	0x42ca6fb8	101.2182
2	0x4210b840	36.17993
3	0x41787d1b	15.530543
4	0x42e311e6	113.53496
5	0x41deed35	27.865824
6	0x427a3777	62.554165
7	0x42887e08	68.246155
8	0x41fb3af1	31.40378
9	0x41ca9061	25.320498
10	0x4272ddc2	60.71656
11	0x42b484e2	90.25954
12	0x42b82210	92.06653
13	0x42813cfb	64.6191
14	0x4238b4a9	46.176426
15	0x42075dcf	33.84161

encBlocks.1.BN2.weight f4 [16]
0	0x3f7bfb89	0.9843069
1	0x3f81081b	1.0080599
2	0x3f7bc9fb	0.9835507
3	0x3f80a938	1.0051641
4	0x3f7865b1	0.9703017
5	0x3f7f0e8b	0.99631566
6	0x3f7c6055	0.9858449
7	0x3f82566d	1.0182625
8	0x3f8713d2	1.0552924
9	0x3f7debce	0.99187934
10	0x3f762230	0.96145916
11	0x3f822067	1.0166138
12	0x3f894208	1.0723276
13	0x3f7b9a76	0.98282564
14	0x3f782320	0.96928596
15	0x3f815e7d	1.010696

encBlocks.1.BN2.bias f4 [16]
0	0xbe0b8c73	-0.13627796
1	0xbd3b66f9	-0.0457525
2	0xbce877d0	-0.028377444
3	0xbe0ad0d3	-0.13556223
4	0x3e0f9206	0.14020547
5	0xbe0f7f8b	-0.14013498
6	0x3e085fa6	0.13317737
7	0x3c9f6ade	0.019460138
8	0xbd8de262	-0.06927945
9	0x3c18a48d	0.009316576
10	0x3e0b7a20	0.13620806
11	0xbc1aa6fb	-0.009439225
12	0xbd2576d9	-0.040396545
13	0x3d6db133	0.05803032
14	0xbe2cce53	-0.16875581
15	0xbdeea38c	-0.11652288

encBlocks.1.BN2.running_mean f4 [16]
0	0xbdae0e4e	-0.08498822
1	0xbe1dfd58	-0.15428674
2	0xbee58b45	-0.44832817
3	0xbf3ab58e	-0.7293328
4	0xbc3b6139	-0.011436754
5	0x3a74b14f	0.00093342824
6	0x3e831559	0.25602224
7	0xbea2fd6b	-0.31833968
8	0xbe44578e	-0.19174024
9	0xbe3a8dbe	-0.18218133
10	0x3e9819a6	0.29707068
11	0x3d52d487	0.051472213
12	0xbf7b59cf	-0.9818391
13	0xbe5bf484	-0.21479994
14	0xbe351ef7	-0.17687593
15	0xbec9c198	-0.39405513

encBlocks.1.BN2.running_var f4 [16]
0	0x3f65c3f1	0.8975211
1	0x3f1badfa	0.6081234
2	0x3d6c2b53	0.057658505
3	0x3e9adaaa	0.30244952
4	0x3e0a9e53	0.13536958
5	0x3f8658bb	1.0495828
6	0x3e9625d1	0.29325727
7	0x3d4ca16f	0.049958643
8	0x3d433f4d	0.04766779
9	0x3dc2603e	0.09491013
10	0x3ea29b3d	0.31759062
11	0x3d0cf58a	0.03441385
12	0x3e12ab06	0.14323053
13	0x3ea3dabe	0.32002825
14	0x3d69913c	0.057023272
15	0x3e0b0ffd	0.13580318

encBlocks.2.conv1.weight f4 [1, 16, 15, 15]
0	0x3c31b89b	0.010847236
1	0x3c5ebeb5	0.013595273
2	0x3c894ee5	0.016761253
3	0x3c52f3ce	0.01287551
4	0x3be83ad4	0.007087091
5	0x3c9df90c	0.019283794
6	0x3c9945a5	0.018709967
7	0x3c958c70	0.018255442
8	0x3c8b93c4	0.017038234
9	0x3c6d3379	0.014477604
10	0x3bd15460	0.006388232
11	0xba9dfac9	-0.0012052889
12	0x3bfe84ac	0.0077672806
13	0x3b4f2711	0.0031608979
14	0xba91e3cc	-0.0011130511
15	0x381287b2	3.493549e-05
16	0x3bc7a6d2	0.0060928846
17	0x3c754d97	0.014972112
18	0x3a727b1e	0.0009249913
19	0x3c1b1dd1	0.009467558
20	0x3bdccbea	0.0067381756
21	0x3c34d54c	0.011037182
22	0x3bde1d26	0.006778377
23	0x39daa7c9	0.0004170521
24	0x3ad51c91	0.0016259124
25	0xbbcd8052	-0.0062714005
26	0xbbc64511	-0.006050714
27	0xbb7c4807	-0.003849508
28	0xbc277614	-0.010221023
29	0xbc144d8b	-0.009051691
30	0x399c25b4	0.0002978273
31	0x3c0b1481	0.008488775
32	0x3c094b9c	0.008379843
33	0x38661501	5.4855835e-05
34	0x3b5f4fc8	0.0034074653
35	0x3c049f4c	0.00809462
36	0x3c7f38b1	0.015577481
37	0x3c5d2109	0.013496646
38	0x3c455d22	0.01204613
39	0xbbabbb39	-0.0052408245
40	0xbae798b5	-0.0017669412
41	0x3bad50e6	0.005289185
42	0x39eae3e4	0.0004480175
43	0x3a802aa1	0.0009778329
44	0x36f09a08	7.170489e-06
45	0xba65dff5	-0.0008769029
46	0x3a923de3	0.001115736
47	0xbb2c5eeb	-0.0026301693
48	0x3c68d0a5	0.014209901
49	0x3b074ba6	0.0020644455
50	0x3c800a31	0.01562986
51	0x3cc6872a	0.024234373
52	0x3cd12e02	0.025534634
53	0x3cc7300b	0.0243149
54	0x3b99ff19	0.0046995995
55	0xbac547cf	-0.0015051308
56	0x3bfcc0ec	0.0077134278
57	0x3c12c031	0.008956955
58	0x3bd6d48a	0.0065560983
59	0xbb13c93a	-0.002255036
60	0x3c2b7637	0.010465196
61	0x3c03d7e2	0.008047076
62	0x3c03c741	0.008043111
63	0xbb155a19	-0.0022789298
64	0x3c2ded9f	0.010615735
65	0x3c94a613	0.018145597
66	0x3caf4001	0.021392824
67	0x3cb16a0e	0.021657016
68	0x3cabaec7	0.020957364
69	0x3c9648cc	0.01834526
70	0x3b5b567e	0.0033468301
71	0x3b072aa4	0.002062478
72	0x3c2ffc24	0.010741267
73	0x3b74eb72	0.0037371782
74	0x3b80099d	0.003907396
75	0x3c255a30	0.010092303
76	0x3c83dbc0	0.016095996
77	0x3c85f8e2	0.016354028
78	0xbb4c4c92	-0.003117357
79	0x3a8f463e	0.0010930968
80	0x3c9c0c2a	0.019048769
81	0x3cbe1b9d	0.023206526
82	0x3caa7ac7	0.020810498
83	0x3ca28761	0.019839944
84	0x3c473b3c	0.012160119
85	0x3bfbde9f	0.0076864506
86	0xbb440440	-0.002990976
87	0x3b5542d8	0.0032541063
88	0x3ad6739e	0.0016361361
89	0x3b7c9463	0.0038540594
90	0xb9c00bbf	-0.00036629845
91	0x3b84a1a9	0.0040475917
92	0x3afade8a	0.0019139808
93	0x3c4bfc27	0.0124502545
94	0x3b5c6823	0.0033631406
95	0x3ca52179	0.020157563
96	0x3cde5db3	0.027144289
97	0x3cf2c226	0.029633593
98	0x3d1b371c	0.037894353
99	0x3c34db75	0.011038651
100	0x3a624e38	0.00086328713
101	0x3be4bce4	0.0069805253
102	0x3bbaa16b	0.005695512
103	0x3c25cd20	0.010119706
104	0x3b5e70f8	0.0033941846
105	0x3c7051ed	0.01466797
106	0x3c3ab8f5	0.011396636
107	0x3c6af0ad	0.014339608
108	0x3cc5f2c9	0.02416362
109	0x3d09d916	0.033654295
110	0x3d0c8869	0.03430978
111	0x3d3fb56e	0.046803884
112	0x3d6767e5	0.056495566
113	0x3d81f6d8	0.0634591
114	0x3d0ae81b	0.03391276
115	0x3bf19d86	0.0073735146
116	0x3caad783	0.020854717
117	0x3c9c04f3	0.019045329
118	0x3c8ac60e	0.016940143
119	0x3c28dcd7	0.010306559
120	0x3b9c888b	0.0047770194
121	0x39a6602f	0.0003173365
122	0xbb4f9ecf	-0.003168035
123	0x3bc0c193	0.005882451
124	0x3cc3feb6	0.023925167
125	0x3ce1af66	0.027549457
126	0x3d05539d	0.032550443
127	0x3d34f4c7	0.04417875
128	0x3d45252c	0.048131153
129	0x3cdc9041	0.026924254
130	0x3bcc4847	0.006234202
131	0x3b9b1f62	0.0047339657
132	0x3c96b4f7	0.018396838
133	0x3c13d93b	0.00902396
134	0x3c029686	0.007970458
135	0x3b49bdc6	0.003078328
136	0x3b31d26c	0.0027133478
137	0xbc091fe7	-0.0083694225
138	0xbbaa09d1	-0.0051891585
139	0x3c350d20	0.0110504925
140	0x3cd15c32	0.025556657
141	0x3c788527	0.015168465
142	0x3cbe1a3c	0.023205869
143	0x3cfad1ef	0.030617682
144	0x3c34f38a	0.011044392
145	0x3bb67905	0.005568626
146	0xbb0fbf50	-0.00219341
147	0xba98609b	-0.001162547
148	0xbb216b32	-0.0024630544
149	0xbc56bd3b	-0.0131066395
150	0xbaa522db	-0.0012598889
151	0x3bc080d2	0.0058747316
152	0x3af72a5a	0.0018857226
153	0xbaff1009	-0.0019459735
154	0x3c444e3c	0.011981543
155	0x3cce2cb4	0.0251678
156	0x3cc64a1a	0.024205256
157	0x3c87b311	0.016564878
158	0x3d02d30b	0.031939548
159	0x3c865991	0.01640013
160	0x3b891d3b	0.0041843927
161	0x3bf26544	0.0073973257
162	0xbab4a775	-0.0013782816
163	0xbbf2c492	-0.007408687
164	0xbc069158	-0.008213364
165	0x3c0ca71f	0.008584767
166	0xbab2f263	-0.0013652559
167	0xbb3b3359	-0.002856454
168	0x3b967496	0.004591535
169	0x3c28555d	0.010274258
170	0x3c9345d2	0.017977629
171	0x3ca52d78	0.020163283
172	0x3c8e9e12	0.017409358
173	0x3ca44cde	0.020056184
174	0x3c973067	0.018455697
175	0x3b0e6c3a	0.0021731989
176	0x3bbca6b5	0.0057571777
177	0x3c2049dc	0.009783234
178	0xbc1cb04c	-0.009563517
179	0xbb840683	-0.0040290966
180	0x3c3b25ee	0.011422617
181	0xb9c0f524	-0.00036803738
182	0xbbea9161	-0.007158444
183	0xbb724bfd	-0.0036971562
184	0x3c1b44b3	0.009476828
185	0x3c8a00c8	0.016846076
186	0x3bcaa343	0.006184013
187	0x3c0306b3	0.007997203
188	0x3bb5d5b1	0.0055491556
189	0x3bd79314	0.0065788124
190	0x3b2457eb	0.0025076817
191	0xba9ab614	-0.0011803531
192	0x3bc4ada4	0.006002145
193	0xbb3140fb	-0.0027046788
194	0xbc400b65	-0.011721467
195	0x3c1c3356	0.009533724
196	0x3be1fa5a	0.0068962993
197	0xbc135ef7	-0.008994809
198	0xbc8f97b2	-0.017528389
199	0x3b2302fa	0.00248736
200	0x3b15b5f2	0.0022844044
201	0xbb802234	-0.0039103273
202	0xbbbb1a71	-0.005709939
203	0xbbd66ca2	-0.0065437118
204	0xbc67de96	-0.01415219
205	0xbc272bb6	-0.010203293
206	0xbc45f8dc	-0.0120832585
207	0xbc358eef	-0.011081441
208	0xbc03ee93	-0.008052486
209	0xbbfb002c	-0.0076599326
210	0x3c4a81de	0.012360064
211	0x3c532f0e	0.012889637
212	0xbba8d97d	-0.0051528797
213	0xbb88208b	-0.00415427
214	0x3a65e502	0.00087697816
215	0x3bde6d38	0.0067879222
216	0x3bcdea2e	0.00628402
217	0x3ae9ae83	0.0017828498
218	0x3b7bedc9	0.0038441292
219	0xbb041f1f	-0.0020160151
220	0xbbb6e399	-0.005581331
221	0x3bb3eeb7	0.0054911035
222	0x3c356fc6	0.011074012
223	0x3bc3b4f0	0.005972497
224	0x3b85d10b	0.0040837578
225	0x3c9f2919	0.019428777
226	0x3bd46790	0.006482072
227	0xbb839722	-0.004015819
228	0x3c247926	0.01003865
229	0x3c0118c0	0.007879436
230	0xbb07fc52	-0.002074976
231	0x3b6c04fe	0.0036013718
232	0x3c4e5bcb	0.012595127
233	0x3c3e7205	0.011623864
234	0xbad1d31b	-0.0016008349
235	0xbc109fe6	-0.008827185
236	0x3c16a475	0.009194483
237	0x3c170c5d	0.009219256
238	0xbb3a3560	-0.0028413162
239	0x3a41d607	0.0007394258
240	0x3bc782ef	0.0060886065
241	0xbadf867d	-0.001705363
242	0xbc1bf321	-0.009518416
243	0x3b60fbca	0.0034329765
244	0xbb75b308	-0.0037490744
245	0xba3b11eb	-0.0007136154
246	0xbb5c3e22	-0.003360637
247	0x3c345f8c	0.011009108
248	0x3bf30451	0.007416286
249	0xbc39ff56	-0.011352381
250	0xbc80d4b5	-0.015726427
251	0x3b8ba61c	0.004261745
252	0x3ba71f62	0.0051001767
253	0xbc592b4b	-0.013254951
254	0xbc7c04c5	-0.0153819965
255	0x3c0b7348	0.008511372

encBlocks.2.conv2.weight f4 [1, 1, 3, 3]
0	0xbe473352	-0.19453171
1	0x3e4f9940	0.20273304
2	0xbe3af531	-0.18257596
3	0xbe55794e	-0.20847055
4	0xbe72fad0	-0.2372849
5	0xbeaf1cf6	-0.34201783
6	0xbe5f659d	-0.21816106
7	0x3e32d310	0.17463326
8	0xbda5cfc4	-0.08096269
