Model_params/calm_macro_best.pt (torch, 321223 bytes, 26 tensors)

encBlocks.0.conv1.weight f4 [16, 3, 15, 15]
-0.016898802 0.0010423566 -0.026476344 0.022818195 -0.023055652 0.017233996 0.04148037 0.022963947
-0.027987828 0.009779536 0.017067207 -0.029873498 -0.025668781 -0.030538669 0.016718632 -0.025104811
0.0002689589 0.01833714 0.028875573 0.027427085 0.041977968 -0.007871661 0.03208229 0.03350123
0.02906452 -0.02941099 -0.010250733 0.0071532167 -0.0003836927 0.010436391 -0.017373899 0.001363461
0.04446243 0.04330099 0.031867083 -0.011209815 0.000279316 0.042277455 -0.016008828 -0.01787082
-0.024459481 0.005490849 -0.0009052488 0.043549005 0.018622676 0.026538588 -0.023847356 -0.021722946
0.018454717 0.03428784 0.012182104 0.019977255 0.017445484 0.014160752 0.0062925383 0.03351388
0.008155494 0.040582824 0.039222173 0.03461542 0.03333395 -0.00097644975 0.010562831 -0.0008655138
0.036413584 0.0017430149 0.04228249 -0.017009702 0.008890404 0.04745754 0.030650238 0.0047742785
-0.014493356 0.04513046 0.029714031 0.01620108 0.03786403 -0.0001016917 -0.017352795 0.02305159
-0.027771061 -0.028867252 0.04191991 0.014574425 0.03312723 0.016016353 0.0008227404 -0.019911148
-0.008307716 0.004540417 0.0212093 0.0018470122 -0.029617656 0.0190406 0.041674107 0.023287507
-0.015421959 0.027503127 0.008832649 0.0152584165 0.00019641797 0.040343057 -0.02641354 -0.008017308
-0.031179221 -0.03130372 0.026621034 0.009771168 -0.015094461 -0.02224182 0.002113613 -0.01514348
0.029376483 -0.019106962 0.007944649 0.0287641 -0.008699705 -0.017531633 0.033055425 0.01910117
-0.028275082 0.010886971 0.0056444416 0.008191635 -0.0008268038 -0.013665846 0.0032821163 0.0077120396
0.00926864 -0.018364461 0.027905703 0.0021454638 0.013594182 0.011825725 -0.032473072 -0.00073318294
0.018763723 0.016557472 0.043676697 0.038670212 0.0031272508 0.024028629 0.026333638 0.03687885
0.03382932 -0.004695965 -0.0014886521 0.020992627 -0.013204525 0.006716647 -0.018426733 0.044314258
0.010334636 0.035576396 0.008167859 -0.016992128 0.0055878363 0.025782075 0.010551102 0.005933471
0.027982427 -0.0071537504 -0.03150533 0.017372807 0.028472146 0.04377832 0.03489906 0.005759795
-0.025576774 0.018773085 -0.014206769 0.010425113 0.02931263 -0.01091361 0.03083834 -0.027844321
-0.017098427 0.03470571 -0.01603935 -0.026468763 0.024012748 -0.017179504 -0.0015311873 -0.016993059
-0.0033454795 0.027799148 0.011030882 0.03147153 -0.0043174974 0.015381811 0.038301554 0.00850887
0.016295692 0.03700593 -0.0064981272 -0.0036015934 -0.0013081131 -0.01781397 -0.025129385 -0.00017755195
0.016726114 0.014952169 -0.026136374 -0.021737453 0.020817067 0.002911094 0.0407404 0.036397107
0.018633598 -0.011589508 0.02083678 -0.011969925 0.0065486394 0.02797192 0.027456425 0.0047115767
-0.02188772 -0.028408831 -0.0018247904 -0.012946927 -0.025908101 -0.0077191214 -0.013676493 0.0069051967
-0.0021402985 -0.012069488 -0.015320002 0.01541225 -0.04013855 -0.0003769984 0.023859156 0.0070426064
-0.016581034 0.005092869 0.018282684 0.0071732397 -0.027009774 -0.04372911 -0.005777258 -0.04744669
0.0023538955 -0.035522774 -0.008927363 0.019347858 0.020914914 0.0045863623 -0.02206092 0.043115888
-0.01212547 -0.024122955 -0.009277497 0.026691861 -0.026127627 -0.010533298 -0.024985373 0.016148968
00000000: 5b6f 8abc af9f 883a ebe4 d8bc 39ed ba3c
00000010: 35df bcbc 4f2e 8d3c 52e7 293d e31e bc3c
00000020: bb46 e5bc 593a 203c 87d0 8b3c 44b9 f4bc
00000030: 5647 d2bc 3b2c fabc 83f5 883c 9ba8 cdbc
00000040: 0d03 8d39 c537 963c 778c ec3c c4ae e03c
00000050: 17f1 2b3d 24f8 00bc b868 033d 9638 093d
00000060: b718 ee3c 51ef f0bc b1f2 27bc 8865 ea3b
00000070: 5d2a c9b9 66fd 2a3c b553 8ebc 29b6 b23a
00000080: 3d1e 363d 615c 313d 0f87 023d 5fa9 37bc
00000090: 2971 9239 202b 2d3d f224 83bc d365 92bc
000000a0: 405f c8bc 94ec b33b 384e 6dba 7160 323d
000000b0: 958e 983c 7467 d93c 885b c3bc 52f4 b1bc
000000c0: 592e 973c 6871 0c3d 7397 473c 57a7 a33c
000000d0: d5e9 8e3c 8002 683c a331 ce3b da45 093d
000000e0: 9f9e 053c 2d3a 263d 6ea7 203d e6c8 0d3d
000000f0: 2e89 083d 6ff8 7fba b90f 2d3c a6e3 62ba
00000100: 6926 153d e075 e43a 6730 2d3d ee57 8bbc
00000110: 0fa9 113c d662 423d 3516 fb3c 8d71 9c3b
00000120: 8b75 6dbc b8da 383d d76a f33c 21b8 843c
00000130: 5017 1b3d 5143 d5b8 7327 8ebc b0d6 bc3c
00000140: 2380 e3bc 047b ecbc 36b4 2b3d 92c9 6e3c
00000150: 6bb0 073d ba34 833c 2cad 573a b41c a3bc
00000160: 161d 08bc c7c7 943b 20bf ad3c 7217 f23a
00000170: baa0 f2bc 08fb 9b3c 78b2 2a3d 71c5 be3c
00000180: 62ac 7cbc 3d4e e13c d1b6 103c 70fe 793c
00000190: 8cf5 4d39 c33e 253d 3561 d8bc 075b 03bc
000001a0: 916b ffbc 5438 00bd 5b14 da3c 4017 203c
000001b0: c24e 77bc 7a34 b6bc 8b84 0a3b 5c1c 78bc
000001c0: f3a6 f03c 3486 9cbc 462a 023c b1a2 eb3c
000001d0: 3589 0ebc 809e 8fbc 2065 073d 0f7a 9c3c
000001e0: 25a1 e7bc 445f 323c 02f5 b83b 3536 063c
000001f0: ddbd 58ba b6e6 5fbc c618 573b 47b5 fc3b
00000200: 7edb 173c 1171 96bc 809a e43c e99a 0c3b
00000210: 22ba 5e3c b0c0 413c 7c02 05bd 1333 40ba
00000220: 61b6 993c 89a3 873c 56e6 323d a864 1e3d
00000230: 90f2 4c3b b0d7 c43c a4b9 d73c 470e 173d
00000240: 9d90 0a3d 9ce0 99bb e01e c3ba bbf8 ab3c
00000250: cb57 58bc 5217 dc3b a9f3 96bc de82 353d
00000260: 9b52 293c 8eb8 113d 7cd2 053c 1333 8bbc
00000270: 2b1a b73b ee34 d33c 88de 2c3c 906d c23b
00000280: 673b e53c 026a eabb bc0b 01bd 6b51 8e3c
00000290: 6b3e e93c e550 333d 51f2 0e3d aabc bc3b
000002a0: 6286 d1bc 03ca 993c 82c3 68bc 18ce 2a3c
000002b0: 0a21 f03c 00cf 32bc b0a0 fc3c c619 e4bc
000002c0: 0012 8cbc 9327 0e3d f464 83bc 05d5 d8bc
000002d0: 62b6 c43c 08bc 8cbc 1fb2 c8ba 0735 8bbc
000002e0: d53f 5bbb 0abb e33c dfba 343c 4be8 003d
000002f0: cb79 8dbb fe03 7c3c 17e2 1c3d ca68 0b3c
00000300: 8b7e 853c 8893 173d 3eee d4bb b608 6cbb
00000310: fe74 abba 9aee 91bc 24dc cdbc 3d2d 3ab9
00000320: 3405 893c f1f9 743c f31b d6bc be12 b2bc
00000330: 8e88 aa3c 0ec8 3e3b 68df 263d 2215 153d
00000340: 7da5 983c ebe1 3dbc e5b1 aa3c 811d 44bc
00000350: f895 d63b 5e25 e53c 4cec e03c 9263 9a3b
00000360: e04d b3bc a3b9 e8bc ce2d efba 591f 54bc
00000370: 3a3d d4bc aff0 fcbb 5f13 60bc fd44 e23b
00000380: 4044 0cbb 1abf 45bc bf00 7bbc a983 7c3c
00000390: 5268 24bd dea7 c5b9 4774 c33c aac5 e63b
000003a0: f3d4 87bc 15e2 a63b 91c5 953c 7f0d eb3b
000003b0: 9a43 ddbc 4c1d 33bd 274f bdbb 7657 42bd
000003c0: d043 1a3b 5480 11bd 1344 12bc 667f 9e3c
000003d0: c155 ab3c 3249 963b 1ab9 b4bc 499a 303d
000003e0: e8a9 46bc 819d c5bc a500 18bc e4a8 da3c
000003f0: 9b09 d6bc db93 2cbc 20ae ccbc d74a 843c

encBlocks.0.conv1.bias f4 [16]
-0.044411357 0.024141697 -0.036590654 -0.027760489 -0.008432202 0.03125325 0.03894459 0.020323584
0.014321864 -0.028043645 -0.008167337 -0.00056148 -0.00583538 -0.04045488 -0.01935824 0.028282981
00000000: afe8 35bd cfc4 c53c 15e0 15bd f769 e3bc
00000010: 3827 0abc 6803 003d 5d84 1f3d a57d a63c
00000020: 40a6 6a3c c9bb e5bc 4bd0 05bc 4930 13ba
00000030: b736 bfbb 04b4 25bd 2c95 9ebc b6b1 e73c

encBlocks.0.conv2.weight f4 [16, 16, 3, 3]
0.016759342 0.018766688 -0.018602537 0.03915337 -0.048968513 0.024607299 0.03920501 0.021083321
0.05793214 -0.0071148174 0.07455982 -0.017819101 0.07071082 0.004759751 0.019908687 -0.015578651
0.04727086 0.030348625 0.06814224 -0.023843603 0.05574197 -0.048110943 -0.070773326 -0.008377901
0.057212118 0.06920346 -0.0103106005 0.06517623 0.035810653 -0.03295986 0.074636 0.008072862
0.0037814805 0.07257074 0.04274204 0.0028118738 -0.019248692 0.033182096 0.04928058 0.065346666
0.0035159905 -0.029778268 -0.041077703 -0.0047788755 -0.020404533 0.052194014 -0.006826692 -0.059874866
0.008782976 0.018801669 -0.0038948804 -0.026289063 0.0041412585 -0.033179794 -0.092545845 -0.055138465
-0.0056817993 0.01715931 -0.024392338 -0.07701222 -0.02834218 0.02608024 0.015547626 -0.0058272765
0.008601356 -0.019007156 0.03493017 -0.052163333 0.01940227 0.044915922 0.021440566 0.06627854
-0.08294471 0.013715782 0.057993665 -0.04788786 0.016270543 0.07132125 -0.010803924 0.0069664516
-0.063217066 -0.027841894 0.05211809 0.09059853 0.07912733 -0.035708953 0.03677147 0.038628817
-0.051855948 -0.027738895 -0.050002635 0.011412443 0.07578398 -0.009580168 0.039097197 0.07937033
0.08649874 0.07111506 0.0041481424 -0.037792474 0.0025987208 0.002332974 -0.035548 0.087329134
0.07742969 0.03676673 -0.06798736 -0.049608774 -0.07755943 -0.042210586 0.029225085 -0.0061108842
0.00886384 0.07597743 0.050561294 0.024350097 0.008809402 0.033072267 -0.050006263 0.008420818
0.00919671 0.043982536 -0.08120349 0.02764585 -0.046253785 -0.0738152 0.034397934 -0.062040836
-0.07772501 0.059554916 -0.036643397 0.06696715 -0.033972066 0.0023973025 0.027189096 -0.037435863
-0.035186812 0.041450012 -0.081493795 -0.055996794 -0.02920925 0.06880023 0.051213305 0.0558636
0.03241911 0.063544974 0.020356653 0.015371237 0.051439032 0.034904663 0.059227277 -0.021055508
0.027110856 -0.03171661 0.06388464 -0.0024834692 -0.08073501 0.045288347 -0.025181403 -0.048967227
0.047305625 -0.07053452 0.022256656 -0.002725939 0.060605727 -0.05326078 -0.050709575 -0.068909906
-0.07981246 -0.02733264 -0.0013540327 -0.016969645 0.05108683 -0.026255285 0.012182283 -0.019014193
0.0013309402 -0.00795995 -0.06169265 -0.018515807 -0.084153116 -0.006399477 -0.06716075 -0.018513342
0.040029373 0.06731848 0.016029952 -0.064319074 0.07083458 -0.028728345 -0.060049094 -0.008884733
0.017555868 -0.05551335 -0.04045764 -0.018414147 0.059199777 0.031322833 -0.039086673 0.036291983
-0.08549419 -0.06384942 -0.083662696 -0.011199084 0.037395153 0.063455135 -0.06656827 -0.07698845
-0.041309662 -0.053844377 -0.086270936 0.028543344 0.03250445 -0.084079966 -0.02178145 0.04485694
-0.034124512 0.010797709 -0.0059004463 -0.025391202 -0.024338827 -0.01578702 -0.056005187 -0.035864223
0.030647622 0.013006701 0.08956977 -0.0036537275 0.07822891 0.027435174 0.020743936 0.032224875
-0.011147618 -0.03571745 0.08338519 0.09617061 -0.053790715 0.09718987 -0.037944887 -0.045589834
-0.04347341 0.102366336 0.07376463 0.056678306 -0.055651017 -0.013571657 0.027865836 0.057539515
-0.08356355 0.049781945 -0.06666122 -0.0091652395 -0.020434137 -0.017974488 0.05526567 -0.05751552
00000000: e34a 893c 99bc 993c 5964 98bc 495f 203d
00000010: 3593 48bd 3f95 c93c 6f95 203d eeb6 ac3c
00000020: 404a 6d3d 6a23 e9bb d2b2 983d 5df9 91bc
00000030: d6d0 903d aff7 9b3b 8b17 a33c 993d 7fbc
00000040: 179f 413d ae9d f83c 298e 8b3d a953 c3bc
00000050: b151 643d fb0f 45bd 9bf1 90bd 7743 09bc
00000060: 4157 6a3d 8bba 8d3d cbed 28bc 1e7b 853d
00000070: 31ae 123d eb00 07bd c2da 983d 0a44 043c
00000080: b7d2 773b f89f 943d 4712 2f3d 6a47 383b
00000090: 6faf 9dbc f3e9 073d 6fda 493d 79d4 853d
000000a0: 886c 663b 8ef1 f3bc 1841 28bd 1d98 9cbb
000000b0: 6827 a7bc 64c9 553d 71b2 dfbb 593f 75bd
000000c0: 79e6 0f3c f505 9a3c 4041 7fbb 295c d7bc
000000d0: 65b3 873b 89e7 07bd ad88 bdbd dfd8 61bd
000000e0: 632e babb ae91 8c3c 71d2 c7bc 95b8 9dbd
000000f0: dc2d e8bc 3aa6 d53c 78bb 7e3c bdf2 bebb
00000100: b4ec 0c3c e5b4 9bbc f012 0f3d 38a9 55bd
00000110: 82f1 9e3c c2f9 373d 20a4 af3c 0bbd 873d
00000120: ebde a9bd 29b8 603c c48a 6d3d 1026 44bd
00000130: cd49 853c e010 923d f102 31bc d546 e43b
00000140: f377 81bd af14 e4bc c779 553d b98b b93d
00000150: 820d a23d 8d43 12bd ae9d 163d 4039 1e3d
00000160: e766 54bd ae3c e3bc 90cf 4cbd 41fb 3a3c
00000170: a234 9b3d 23f6 1cbc 6224 203d e98c a23d
00000180: 4026 b13d c6a4 913d 24ed 873b 48cc 1abd
00000190: 4d4f 2a3b cfe4 183b c89a 11bd 9ed9 b23d
000001a0: 7593 9e3d b698 163d f53c 8bbd 9232 4bbd
000001b0: 7ad7 9ebd 02e5 2cbd 7269 ef3c d03d c8bb
000001c0: a439 113c 0e9a 9b3d 5c19 4f3d db79 c73c
000001d0: 4f55 103c c976 073d 5ed3 4cbd 78f7 093c
000001e0: ccad 163c 0827 343d 044e a6bd 8d79 e23c
000001f0: 9c74 3dbd 6c2c 97bd d9e4 0c3d 881e 7ebd
00000200: 4a2e 9fbd dbef 733d 6317 16bd 1326 893d
00000210: 4b26 0bbd 101c 1d3b abbb de3c 5956 19bd
00000220: 0c20 10bd 7dc7 293d 38e6 a6bd e55c 65bd
00000230: 3d48 efbc 23e7 8c3d 0bc5 513d 3bd1 643d
00000240: e7c9 043d de23 823d ffc2 a63c a4d7 7b3c
00000250: bcb1 523d 31f8 0e3d 4d98 723d 9a7c acbc
00000260: 9617 de3c 47e9 01bd f3d5 823d b3c1 22bb
00000270: 6658 a5bd 4680 393d 3b49 cebc dc91 48bd
00000280: 8bc3 413d 6774 90bd 9753 b63c aba5 32bb
00000290: b63d 783d fa27 5abd d8b4 4fbd a320 8dbd
000002a0: b774 a3bd b3e8 dfbc cc79 b1ba ed03 8bbc
000002b0: 6d40 513d 5315 d7bc 3398 473c a7c3 9bbc
000002c0: f172 ae3a 736a 02bc 6fb1 7cbd 76ae 97bc
000002d0: 7858 acbd b4b2 d1bb 938b 89bd 4ba9 97bc
000002e0: d7f5 233d 45de 893d 3f51 833c b8b9 83bd
000002f0: b811 913d b557 ebbc 0af6 75bd 4591 11bc
00000300: 53d1 8f3c f761 63bd e9b6 25bd 44d9 96bc
00000310: 777b 723d 5f4c 003d 5919 20bd e7a6 143d
00000320: 9417 afbd 7cc3 82bd 5957 abbd 5d7c 37bc
00000330: a92b 193d c4f4 813d f254 88bd 1fac 9dbd
00000340: 5234 29bd ec8b 5cbd d1ae b0bd bbd3 e93c
00000350: 6323 053d 1e32 acbd 036f b2bc e9bb 373d
00000360: 25c6 0bbd e0e8 303c 8858 c1bb 3601 d0bc
00000370: 3862 c7bc c853 81bc b265 65bd 5de6 12bd
00000380: b910 fb3c 0f1a 553c 5b70 b73d 6073 6fbb
00000390: 7b36 a03d bbbf e03c 30ef a93c 3bfe 033d
000003a0: 80a4 36bc 764c 12bd dbc5 aa3d 19f5 c43d
000003b0: a753 5cbd 7c0b c73d 196c 1bbd 68bc 3abd
000003c0: 2d11 32bd 71a5 d13d e911 973d 8327 683d
000003d0: 52f2 63bd a85b 5ebc e546 e43c 8eae 6b3d
000003e0: 5e23 abbd 27e8 4b3d ad85 88bd cd29 16bc
000003f0: 7e65 a7bc 3c3f 93bc 415e 623d 6595 6bbd

encBlocks.0.conv2.bias f4 [16]
-0.06773683 -0.047135457 0.06008713 0.048726287 -0.06301865 0.050797224 -0.029441027 -0.06106887
-0.06666353 0.0038281425 -0.027816461 -0.0001151971 0.058383744 0.050359614 0.05841578 0.008542121
00000000: 9bb9 8abd 1c11 41bd ec1d 763d 3795 473d
00000010: ec0f 81bd c010 503d 4f2e f1bc 5a23 7abd
00000020: e486 88bd 93e1 7a3b 59df e3bc f995 f1b8
00000030: cb23 6f3d e245 4e3d 6345 6f3d 41f4 0b3c

encBlocks.0.BN1.weight f4 [16]
1.0056316 1.0044378 0.9916723 0.9980577 0.9999937 0.9980772 0.99371445 0.99607915
0.99135774 1.0067425 1.0250702 0.9953664 0.99020195 1.0022225 0.9972296 1.0019082
00000000: 89b8 803f 6b91 803f 3cde 7d3f b680 7f3f
00000010: 96ff 7f3f fd81 7f3f 1264 7e3f 0bff 7e3f
00000020: 9fc9 7d3f f0dc 803f 8035 833f 55d0 7e3f
00000030: e07d 7d3f d448 803f 704a 7f3f 873e 803f

encBlocks.0.BN1.bias f4 [16]
0.009080547 0.006945174 -0.009843928 -0.004150408 0.0020721762 0.0036406983 0.00042932227 -0.006326441
-0.0077991416 0.0109580755 0.0121280495 -0.0053427736 -0.00871852 -0.0009531871 -0.015591967 0.007696855
00000000: 93c6 143c 5894 e33b 6d48 21bc 2500 88bb
00000010: 59cd 073b c898 6e3b a916 e139 094e cfbb
00000020: f18f ffbb 8089 333c bab4 463c 6f12 afbb
00000030: 20d8 0ebc 4edf 79ba 7375 7fbc e635 fc3b

encBlocks.0.BN1.running_mean f4 [16]
1.7285407 2.2771726 -1.1299088 -0.8087844 1.607189 -1.8500793 -0.19010049 -1.7465023
-2.170288 0.08400422 -0.21257849 -0.9168391 0.68989986 2.1173317 -2.40332 -0.095716275
00000000: d240 dd3f 32bd 1140 daa0 90bf 7f0c 4fbf
00000010: 5fb8 cd3f 66cf ecbf b4a9 42be 638d dfbf
00000020: 00e6 0ac0 680a ac3d 2dae 59be f8b5 6abf
00000030: 479d 303f 5d82 0740 ffcf 19c0 e506 c4bd

encBlocks.0.BN1.running_var f4 [16]
1.1318786 1.811998 0.38630232 0.2055357 0.94684017 1.2499167 0.14605328 1.1215332
1.6561544 0.11539949 0.08223136 0.32570252 0.22608782 1.5545931 1.872182 0.14530523
00000000: 66e1 903f 8def e73f 6bc9 c53e f377 523e
00000010: 1e64 723f 45fd 9f3f fe8e 153e 668e 8f3f
00000020: defc d33f 9156 ec3d ea68 a83d 7bc2 a63e
00000030: 9183 673e e8fc c63f a9a3 ef3f e5ca 143e

encBlocks.0.BN2.weight f4 [16]
1.0093807 1.0034364 1.0044494 1.0075747 0.99373937 0.9918575 0.99579054 0.9953827
1.0026615 1.0004759 1.0072424 1.0117983 1.0099726 0.99084574 0.99262106 1.0050402
00000000: 6333 813f 9b70 803f cc91 803f 35f8 803f
00000010: b465 7e3f 60ea 7d3f 21ec 7e3f 67d1 7e3f
00000020: 3657 803f 980f 803f 52ed 803f 9b82 813f
00000030: c846 813f 11a8 7d3f 6a1c 7e3f 28a5 803f

encBlocks.0.BN2.bias f4 [16]
-0.0056402776 -0.018104631 0.013379943 0.0142388055 0.0027752651 0.015785256 -0.015453829 0.04559726
0.0055321073 -0.002605833 0.033090323 -0.031125143 -0.004007793 0.0010213895 0.03082513 -0.042584162
00000000: 14d2 b8bb 2a50 94bc 8c37 5b3c e149 693c
00000010: 39e1 353b 1550 813c 0f32 7dbc 31c4 3a3d
00000020: ae46 b53b a0c6 2abb b889 073d 28fa febc
00000030: ce53 83bb 25e0 853a fc84 fc3c bb6c 2ebd

encBlocks.0.BN2.running_mean f4 [16]
0.28378624 -0.4232226 0.039388064 0.20304812 0.034555763 -0.106902525 -0.47786364 -0.13388747
0.28277496 0.15099326 0.06588125 -0.20055722 0.0036310293 0.45889783 0.10524061 -0.3776039
00000000: 6e4c 913e a2b0 d8be 6155 213d d9eb 4f3e
00000010: 588a 0d3d b6ef dabd 8baa f4be cc19 09be
00000020: e1c7 903e fa9d 1a3e c0ec 863d df5e 4dbe
00000030: 90f6 6d3b a8f4 ea3e 6488 d73d 4c55 c1be

encBlocks.0.BN2.running_var f4 [16]
0.19161321 0.62908506 0.56317884 0.061356246 0.089096434 0.15185088 0.14085592 0.034288865
0.19442353 0.27016324 0.66943204 0.1784268 0.20098814 0.14180882 0.117161214 0.277157
00000000: 4136 443e b80b 213f 7d2c 103f b050 7b3d
00000010: 3178 b63d cc7e 1b3e 893c 103e 7b72 0c3d
00000020: f616 473e d652 8a3e e65f 2b3f 84b5 363e
00000030: d6cf 4d3e 5536 113e 38f2 ef3d 86e7 8d3e

encBlocks.1.conv1.weight f4 [16, 16, 15, 15]
-0.0133271525 -0.023420388 -0.011413529 -0.020366829 0.005544274 -0.004268545 -0.017446026 -0.017110923
-0.015445889 -0.01707614 -0.01612155 0.0069552637 0.0025285578 -0.0055730315 0.006356966 -0.011089973
-0.011847427 -0.016598942 -0.02203986 0.00075876486 -0.01596646 -0.0035980775 -0.012203254 -0.01376932
0.0002942365 -0.021557825 -0.0147172585 0.0051613166 0.008408476 -0.0070653716 0.006329402 -0.0058638677
-0.009658284 0.0084600095 -0.021489529 -0.016969774 -0.012390206 -0.0016919569 -0.00988861 -0.0005769757
-0.012916544 0.0038176628 0.008047412 -0.020583533 -0.014247533 -0.02084398 -0.011226267 -0.0037527634
-0.013195555 -0.014319972 -0.014764462 -0.0052077733 -0.022369528 -0.023155369 -0.015270056 -0.0032803724
-0.022361672 -0.022529144 -0.016794728 -0.013789807 -0.021739868 -0.015937494 -0.018278394 -0.0028560043
-0.008303092 -0.016656006 -0.009567019 -0.00018353756 -0.001477257 -0.01205275 -0.015935186 0.004589546
0.0106807295 0.004988844 -0.0041266247 -0.022247264 -0.012707215 -0.021120736 -0.020636462 -0.009216575
-0.0021160494 0.0034044264 -0.020362241 -0.0005896218 -0.008590803 -0.00094024045 -0.0030242065 0.005161094
-0.0035236394 0.010755288 -0.0139856525 -0.002700919 -0.007533096 -0.00688121 -0.00020716671 -0.017723408
-0.011232776 -0.020563057 0.00083624903 -0.017501824 0.0066405702 -0.0063326405 -0.017310366 0.0035605119
-0.018309973 0.007454473 0.004004672 -0.004343127 -0.0120128 0.004540277 -0.0037669945 0.0024026437
0.00647401 0.004368742 -0.012014248 -0.01471495 0.008373282 0.0009003688 -0.012390301 -0.013501429
-0.014214267 -0.014493309 0.008831093 -0.01475206 -0.021794112 0.0050595305 -0.0013863726 -0.009727514
-0.017665373 -0.020508412 -0.010955921 -0.0022030897 0.0050862255 0.008210589 -0.005024556 -0.02389082
-0.0059149335 0.0063847816 -0.016737971 -0.011013169 -0.005034796 0.0052938587 -0.020533789 -0.014954333
-0.02202646 -0.002463781 -0.00018523276 -0.012970216 -0.014092488 -0.013045832 0.005782584 0.0014511357
-0.016305119 0.0037508472 -0.018542975 -0.008799999 -0.017533243 -0.014981925 -0.014405397 0.008581816
-0.015654493 -0.0018333425 0.004409486 -0.016270299 -0.012931231 0.0063201427 -0.020541105 -0.008793152
0.0063128322 0.009736094 0.004189263 -0.00030015034 -0.006180743 -0.0047367914 -0.012577559 -0.020146433
-0.0050469856 -0.0062172734 0.0031781015 0.005540202 -0.023251332 -0.008548408 -0.010496593 0.0092140995
0.007906297 0.0068819365 -0.007493199 -0.009198586 -0.010798156 1.3754689e-05 -0.019310119 -0.0058945697
-0.009368304 0.0059750704 0.005979336 -0.0065188874 0.0039877407 -0.016987765 0.009195581 0.00037556043
-0.016942607 -0.010063497 0.0061190007 -0.018924423 -0.016782206 -5.5647524e-05 -0.018370042 -0.010403255
6.150869e-05 0.007533625 -0.009195495 -0.021885928 -0.006111814 0.0005693294 0.0023629451 -0.003205318
-0.019300032 -0.022408556 -0.010208342 -0.009076779 0.004097142 0.0067886636 -0.002802342 -0.0013995643
-0.018120687 0.0060098353 0.009261449 0.00430627 0.0029096655 0.0023763732 0.00030143053 0.010007035
-0.002506895 -0.01569279 -0.019147012 0.0039235586 0.009700511 -0.0068401615 -0.0046013454 0.009783872
-0.015818033 -0.007055655 -0.008022054 -0.009074935 -0.019125119 0.010641273 -0.007325667 -0.0073319473
-0.020698898 -0.017948586 0.0007807163 0.010890196 -0.021809977 0.010466535 -0.010881134 0.008331974
00000000: 215a 5abc 1ddc bfbc cfff 3abc 56d8 a6bc
00000010: beac b53b 27df 8bbb f8ea 8ebc 352c 8cbc
00000020: c110 7dbc 43e3 8bbc 5711 84bc fbe8 e33b
00000030: 29b6 253b fa9d b6bb 194e d03b b8b2 35bc
00000040: b61b 42bc 81fa 87bc f08c b4bc d9e7 463a
00000050: 18cc 82bc b9cd 6bbb 28f0 47bc b798 61bc
00000060: c143 9a39 099a b0bc a820 71bc 4320 a93b
00000070: b4c3 093c a284 e7bb df66 cf3b b025 c0bb
00000080: c73d 1ebc da9b 0a3c cf0a b0bc 3204 8bbc
00000090: 4a00 4bbc a7c4 ddba d603 22bc 2f40 17ba
000000a0: ea9f 53bc c131 7a3b 4bd9 033c cc9e a8bc
000000b0: 7c6e 69bc ffc0 aabc 60ee 37bc ecf0 75bb
000000c0: 2b32 58bc 519e 6abc a4e6 71bc f8a5 aabb
000000d0: 4d40 b7bc 54b0 bdbc 422f 7abc 84fb 56bb
000000e0: d32f b7bc 0a8f b8bc 1995 89bc a5ee 61bc
000000f0: cf17 b2bc 598f 82bc 92bc 95bc cd2b 3bbb
00000100: b109 08bc 2d72 88bc fcbe 1cbc fd73 40b9
00000110: 85a0 c1ba e678 45bc 828a 82bc e763 963b
00000120: 3afe 2e3c 7579 a33b a338 87bb e53f b6bc
00000130: ec31 50bc 6505 adbc cc0d a9bc 1e01 17bc
00000140: 6bad 0abb cc1c 5f3b b7ce a6bc d990 1aba
00000150: 70c0 0cbc 787a 76ba c431 46bb 651e a93b
00000160: dcec 66bb f336 303c 1424 65bc e701 31bb
00000170: 30d8 f6bb c67b e1bb e43a 59b9 ae30 91bc
00000180: ad09 38bc db73 a8bc b937 5b3a fc5f 8fbc
00000190: 2499 d93b 0a82 cfbb 78ce 8dbc 7a57 693b
000001a0: ccfe 95bc a744 f43b a039 833b ca50 8ebb
000001b0: 56d1 44bc 9bc6 943b aedf 76bb ac75 1d3b
000001c0: ef23 d43b aa27 8f3b 69d7 44bc f916 71bc
000001d0: 1730 093c ba06 6c3a b000 4bbc 1935 5dbc
000001e0: f5e2 68bc 5875 6dbc 4ab0 103c a0b2 71bc
000001f0: 9189 b2bc 6bca a53b f2b6 b5ba 2760 1fbc
00000200: f9b6 90bc 4201 a8bc 7780 33bc b661 10bb
00000210: 5aaa a63b b585 063c 08a5 a4bb aeb6 c3bc
00000220: 0fd2 c1bb 6e37 d13b 121e 89bc 9470 34bc
00000230: eefa a4bb 1b78 ad3b 7a36 a8bc 0503 75bc
00000240: d670 b4bc 6377 21bb 0a3b 42b9 0781 54bc
00000250: 2ee4 66bc 2fbe 55bc d57b bd3b 0934 be3a
00000260: 5092 85bc c6d0 753b 70e7 97bc df2d 10bc
00000270: e0a1 8fbc bf76 75bc 9d04 6cbc bf9a 0c3c
00000280: da3d 80bc c44c f0ba 737d 903b 4a49 85bc
00000290: 84dd 53bc 3319 cf3b d245 a8bc 2711 10bc
000002a0: e0db ce3b 2384 1f3c 1646 893b 7f5d 9db9
000002b0: d587 cabb 1637 9bbb 1b12 4ebc 220a a5bc
000002c0: 2f61 a5bb 45ba cbbb b247 503b 958a b53b
000002d0: 9479 bebc 9f0e 0cbc e7f9 2bbc bcf6 163c
000002e0: 6a89 013c de81 e13b 8289 f5bb abb5 16bc
000002f0: c0ea 30bc f0c3 6637 4130 9ebc 3c27 c1bb
00000300: 847d 19bc 86ca c33b 4eee c33b 649c d5bb
00000310: 98ab 823b ed29 8bbc 10a9 163c dee6 c439
00000320: 39cb 8abc 5ee1 24bc e681 c83b 6407 9bbc
00000330: d67a 89bc 1367 69b8 c57c 96bc 6a72 2abc
00000340: 3afe 8038 a0dc f63b b4a8 16bc 1e4a b3bc
00000350: 9d45 c8bb 0d3f 153a a4db 1a3b 5010 52bb
00000360: 1a1b 9ebc 2692 b7bc e440 27bc c5b6 14bc
00000370: 5141 863b 7073 de3b 7fa7 37bb 9671 b7ba
00000380: d671 94bc 27ee c43b 55bd 173c 9c1b 8d3b
00000390: 16b0 3e3b edbc 1b3b 5209 9e39 8cf4 233c
000003a0: b84a 24bb 2a8e 80bc 32da 9cbc 3291 803b
000003b0: e4ee 1e3c 6f23 e0bb e2c6 96bb 894c 203c
000003c0: d294 81bc 2033 e7bb ef6e 03bc 09af 14bc
000003d0: 48ac 9cbc bc58 2e3c 260c f0bb d540 f0bb
000003e0: bc90 a9bc ea08 93bc fca8 4c3a cb6c 323c
000003f0: d6aa b2bc d47b 2b3c c946 32bc d582 083c

encBlocks.1.conv1.bias f4 [16]
-0.009755996 0.008136147 -0.0144682685 0.0149971675 0.013987428 -0.0018866248 -0.0027555265 0.0010888346
4.6413006e-05 -0.015398039 0.011213483 0.011617264 0.01846319 -0.0050450093 -0.0057338933 -0.003627403
00000000: 9dd7 1fbc 794d 053c 510c 6dbc aeb6 753c
00000010: 862b 653c a048 f7ba 1096 34bb 3ab7 8e3a
00000020: 96ab 4238 0e48 7cbc c2b8 373c 5656 3e3c
00000030: 1e40 973c 9b50 a5bb 62e3 bbbb b9b9 6dbb

encBlocks.1.conv2.weight f4 [16, 16, 3, 3]
-0.07541893 -0.00048710167 0.078600764 0.031623103 0.016995687 0.035616055 -0.017846653 -0.068911314
0.06251417 -0.032735642 -0.058079757 0.019132096 0.033335414 -0.040077362 0.05633081 0.07383375
0.0135251945 -0.049786866 0.051604107 0.06614826 -0.023946075 -0.012303691 0.018697841 0.09312878
0.094240196 -0.064592876 0.040431634 0.008270469 -0.002994454 0.029535197 -0.083849296 -0.013476844
0.013652438 0.036033805 0.0004225522 0.04761863 0.0146826 0.0073199496 -0.079040565 -0.0043602963
-0.059471305 0.023095224 0.072907045 0.040195253 0.06414151 0.037671782 0.04862326 0.079399
-0.027805293 -0.08162769 -0.0704776 -0.046776757 0.005389826 -0.049135968 -0.0027890038 0.011866244
-0.08718725 0.011420604 0.03240267 0.061574556 -0.042156424 -0.07466145 -0.017398069 -0.008004037
-0.08353147 0.04316259 0.002376955 -0.0664562 -0.0024579877 -0.07159038 0.017115956 0.050325934
-0.080737166 0.055055454 0.07498481 0.005013956 0.03850109 -0.0682797 0.011383027 0.07583665
0.018936286 -0.021478605 0.013405667 -0.03593775 0.055231012 -0.0052560186 -0.062440276 0.05716789
0.021287877 0.051849894 -0.062431756 0.035898317 -0.027720686 0.016505029 0.05324078 0.057782073
0.05081132 -0.031174429 -0.06622019 -0.07100502 -0.0032914279 0.08713459 0.08363806 -0.0025192092
-0.03130421 -0.041281167 -0.0041448525 -0.06028264 -0.069996856 -0.053438473 -0.07472649 -0.07759381
-0.04913911 -0.030551735 0.07033024 -0.02956304 -0.07801325 -0.05149725 0.020309445 -0.048098277
0.0110846665 -0.039716274 0.06470725 -0.010003045 0.047029216 0.06731297 -0.05557805 -0.03309285
-0.07124203 0.047469288 0.043169003 0.052436445 0.062090017 0.017600857 -0.05409831 -0.078567214
-0.031174902 0.055725377 -0.06754587 -0.028350228 -0.018174503 -0.021882605 -0.06667339 0.045069642
0.094670676 -0.03718331 0.051003277 0.035009217 -0.034886472 -0.038721204 0.013873415 0.05040224
0.017834568 -0.06468483 -0.007345081 0.0044443887 0.054649223 -0.005413432 -0.03081111 0.019066883
0.043398947 -0.02236814 0.076240964 0.07892703 0.006040881 0.023158247 0.058782373 -0.059420157
0.004907135 -0.00024593552 0.035795704 -0.07164152 -0.05621176 -0.054089956 0.040751822 -0.053253457
-0.009736934 0.021326214 0.010829025 -0.06364842 0.012383115 -0.07004211 -0.0103614945 -0.03609701
-0.021932531 -0.004853805 0.06946277 -0.05084999 0.06563758 0.060242794 -0.091175966 -0.012634231
-0.04078411 -0.03472167 0.046461467 -0.039403144 0.032774106 -0.04450399 0.014868078 0.015339508
0.011608537 -0.026312469 0.023084076 -0.0018967091 0.0010879971 -0.06989015 -0.03929652 -0.012658586
0.049840894 -0.008353202 0.06405307 0.073043525 -0.08523029 0.032517098 0.00093596516 0.022425815
0.07740277 0.04798278 0.07632598 -0.018117053 -0.05027122 0.06772345 0.019494668 0.07478775
0.04438293 -0.08827164 -0.025543055 -0.06596185 0.025215039 0.04659634 -0.0749201 -0.0132881785
-0.010681513 -0.0045059463 -0.03244941 0.0058572837 -0.065368704 0.0734983 0.06812547 -0.02796811
-0.058547955 0.060391795 0.050257396 0.035734694 0.015886907 0.0046513625 0.036402993 0.0063467445
0.052494783 0.0792923 0.031677127 0.03120919 0.03315879 -0.0188189 -0.010529352 -0.06952131
00000000: 3d75 9abd ae61 ffb9 70f9 a03d 3a87 013d
00000010: 8a3a 8b3c 24e2 113d 2533 92bc 6021 8dbd
00000020: 6e07 803d cf15 06bd 0ae5 6dbd eaba 9c3c
00000030: b78a 083d 2928 24bd 23bb 663d 2636 973d
00000040: c798 5d3c 50ed 4bbd d45e 533d bd78 873d
00000050: 8f2a c4bc 6c95 49bc 372c 993c 4dba be3d
00000060: 0101 c13d 4549 84bd a49b 253d dc80 073c
00000070: 9a3e 44bb ccf3 f13c 2eb9 abbd fbcd 5cbc
00000080: 7aae 5f3c 2f98 133d ff89 dd39 c10b 433d
00000090: 4a8f 703c 30dc ef3b 05e0 a1bd d1e0 8ebb
000000a0: 2f98 73bd 3232 bd3c 4a50 953d c7a3 243d
000000b0: a05c 833d ba4d 1a3d 2f29 473d f19b a23d
000000c0: edc7 e3bc 6b2c a7bd 8f56 90bd fc98 3fbd
000000d0: 239d b03b cc42 49bd b8c7 36bb a26a 423c
000000e0: 3b8f b2bd 7c1d 3b3c a9b8 043d 9a35 7c3d
000000f0: 37ac 2cbd 1ae8 98bd 6586 8ebc 5d23 03bc
00000100: 8c12 abbd 42cb 303d b0c6 1b3b 301a 88bd
00000110: 3116 21bb fa9d 92bd c336 8c3c 9122 4e3d
00000120: 8759 a5bd d481 613d a391 993d 1d4c a43b
00000130: 52b3 1d3d 3ad6 8bbd e07f 3a3c 3f50 9b3d
00000140: 4520 9b3c e6f3 afbc 71a3 5b3c 7633 13bd
00000150: ea39 623d ae3a acbb 60c1 7fbd e128 6a3d
00000160: ea63 ae3c 8e60 543d 71b8 7fbd 1d0a 133d
00000170: 7e16 e3bc 8e35 873c 0113 5a3d e5ac 6c3d
00000180: 881f 503d 8461 ffbc 739e 87bd 146b 91bd
00000190: ffb4 57bb 9f73 b23d 6e4a ab3d 5119 25bb
000001a0: d838 00bd 7116 29bd 8bd1 87bb eeea 76bd
000001b0: 835a 8fbd 4de2 5abd 340a 99bd 81e9 9ebd
000001c0: 1746 49bd a247 fabc 4d09 903d 302e f2bc
000001d0: 69c5 9fbd c8ee 52bd fe5f a63c b302 45bd
000001e0: 769c 353c 88ad 22bd 3c85 843d d0e3 23bc
000001f0: b5a1 403d 62db 893d cfa5 63bd 5e8c 07bd
00000200: 57e7 91bd 286f 423d fbd1 303d 99c7 563d
00000210: 1a52 7e3d ac2f 903c 3196 5dbd d9e7 a0bd
00000220: 8262 ffbc 4b40 643d 7d55 8abd bd3e e8bc
00000230: b2e2 94bc 2643 b3bc 0f8c 88bd f29a 383d
00000240: b3e2 c13d 874d 18bd d0e8 503d d365 0f3d
00000250: 1ee5 0ebd 209a 1ebd 524d 633c 9472 4e3d
00000260: cd19 923c 7b79 84bd 01af f0bb 3ca2 913b
00000270: ddd7 5f3d 2963 b1bb 9567 fcbc 2732 9c3c
00000280: 18c3 313d 643d b7bc 3924 9c3d 7fa4 a13d
00000290: 95f2 c53b 5db6 bd3c c9c5 703d 8d62 73bd
000002a0: 08cc a03b e8f0 80b9 849e 123d cab8 92bd
000002b0: 4d3e 66bd 6e8d 5dbd 62eb 263d 4c20 5abd
000002c0: a987 1fbc 50b4 ae3c 396c 313c 1a5a 82bd
000002d0: 8ce2 4a3c 3d72 8fbd 42c3 29bc 75da 13bd
000002e0: daab b3bc ab0c 9fbb 7f42 8e3d 1448 50bd
000002f0: ff6c 863d 26c1 763d 77ba babd ceff 4ebc
00000300: 3d0d 27bd 4f38 0ebd 614e 3e3d 3165 21bd
00000310: 243e 063d d149 36bd 3d99 733c 8f52 7b3c
00000320: bc31 3e3c 3f8d d7bc d11a bd3c ff9a f8ba
00000330: 209b 8e3a 9122 8fbd 63f5 20bd f565 4fbc
00000340: f725 4c3d dedb 08bc 422e 833d d897 953d
00000350: 388d aebd a630 053d 8f5b 753a 58b6 b73c
00000360: 5885 9e3d 9789 443d cc50 9c3d 376a 94bc
00000370: 32e9 4dbd 98b2 8a3d 48b3 9f3c 522a 993d
00000380: e0ca 353d c3c7 b4bd ab3f d1bc 0217 87bd
00000390: c58f ce3c cedb 3e3d b66f 99bd a9b6 59bc
000003a0: 8301 2fbc 9ea6 93bb ace9 04bd 75ee bf3b
000003b0: 07e0 85bd 4786 963d 5e85 8b3d 611d e5bc
000003c0: fbcf 6fbd 635d 773d b3da 4d3d 8b5e 123d
000003d0: 4225 823c 756a 983b 4e1b 153d 5af8 cf3b
000003e0: c504 573d 0064 a23d e0bf 013d 6aaa ff3c
000003f0: 83d1 073d 182a 9abc 4e83 2cbc 3061 8ebd

encBlocks.1.conv2.bias f4 [16]
0.043747623 0.08011971 0.040709108 0.07724756 0.083818465 -0.09096185 0.05152078 -0.026066333
0.065552264 -0.07508531 0.06753596 -0.009770599 -0.06110539 0.0036814085 -0.08021073 -0.031847782
00000000: b530 333d cd15 a43d 98be 263d f833 9e3d
00000010: 04a9 ab3d 354a babd 7407 533d 1089 d5bc
00000020: 4440 863d 54c6 99bd 4b50 8a3d dd14 20bc
00000030: a549 7abd c943 713b 8645 a4bd d272 02bd

encBlocks.1.BN1.weight f4 [16]
0.99525905 0.9952579 1.0172238 0.9958933 0.9947208 0.9932888 0.99992275 0.9871447
1.0247221 0.99201185 0.99745536 1.0086122 1.0059874 0.9971456 1.0052996 0.9829791
00000000: 4cc9 7e3f 39c9 7e3f 6434 823f ddf2 7e3f
00000010: 06a6 7e3f 2d48 7e3f f0fa 7f3f 84b5 7c3f
00000020: 182a 833f 7df4 7d3f 3c59 7f3f 341a 813f
00000030: 32c4 803f ef44 7f3f a8ad 803f 85a4 7b3f

encBlocks.1.BN1.bias f4 [16]
0.010154188 -0.003115447 0.000796488 -0.00394796 -0.008837922 -0.008542048 -0.002397029 -0.006178005
0.014078604 -0.0068424535 -0.0029970668 0.007080875 0.008017224 0.0045282915 0.0070686582 -0.0021426869
00000000: c05d 263c 872c 4cbb 68cb 503a e45d 81bb
00000010: eecc 10bc f2f3 0bbc 7917 1dbb dd70 cabb
00000020: f2a9 663c a936 e0bb 706a 44bb af06 e83b
00000030: ad5a 033c 1062 943b 34a0 e73b 526c 0cbb

encBlocks.1.BN1.running_mean f4 [16]
-2.5357842 -2.00584 -2.4367507 2.545524 2.2518275 2.4344916 -0.7418456 2.437047
-0.7712196 2.1207697 2.8562722 -1.383376 1.42456 1.6509206 1.1568685 0.32263124
00000000: 4a4a 22c0 af5f 00c0 b9f3 1bc0 dde9 2240
00000010: f11d 1040 b6ce 1b40 98e9 3dbf 94f8 1b40
00000020: a66e 45bf b1ba 0740 2acd 3640 7712 b1bf
00000030: fb57 b63f 5e51 d33f 4414 943f ec2f a53e

encBlocks.1.BN1.running_var f4 [16]
101.621475 57.39736 53.639572 63.865402 36.205357 81.041084 145.89107 91.94547
7.212196 76.82288 45.392727 36.9868 127.56691 36.012783 39.294754 42.397728
00000000: 323e cb42 e696 6542 ec8e 5642 2c76 7f42
00000010: 49d2 1042 0915 a242 1de4 1143 15e4 b742
00000020: 4fca e640 51a5 9942 2792 3542 7cf2 1342
00000030: 4222 ff42 170d 1042 d42d 1d42 4697 2942

encBlocks.1.BN2.weight f4 [16]
1.0037943 0.99461895 1.0051798 1.0035329 1.005449 0.99858695 0.99911904 1.0047525
0.9998789 0.9993585 0.99734527 1.0009949 1.0000602 1.0211614 0.997591 0.99826336
00000000: 557c 803f 599f 7e3f bba9 803f c473 803f
00000010: 8eb2 803f 65a3 7f3f 44c6 7f3f bb9b 803f
00000020: 10f8 7f3f f5d5 7f3f 0552 7f3f 9a20 803f
00000030: f901 803f 6bb5 823f 2062 7f3f 308e 7f3f

encBlocks.1.BN2.bias f4 [16]
0.025358927 0.024152318 0.034971833 -0.028465036 -0.039340366 0.042272143 0.044565853 0.021382928
-0.008041183 0.0363056 -0.029575022 0.024869792 -0.037418265 -0.007715914 -0.02003571 -0.009319623
00000000: 86bd cf3c 15db c53c a03e 0f3d 822f e9bc
00000010: 5d23 21bd 8e25 2d3d af8a 363d 402b af3c
00000020: 2bbf 03bc 2eb5 143d 5147 f2bc bcbb cb3c
00000030: e543 19bd c7d5 fcbb ee21 a4bc 55b1 18bc

encBlocks.1.BN2.running_mean f4 [16]
-0.06468005 0.23581718 0.4868226 0.23526448 -0.016353814 0.06635737 0.17589653 0.4405517
0.4739884 0.01057976 -0.068490505 0.22730342 -0.03993585 -0.17449199 -0.50560606 -0.24974807
00000000: f976 84bd 0f7a 713e d040 f93e 2ce9 703e
00000010: 6ff8 85bc 5fe6 873d 381e 343e fe8f e13e
00000020: 9cae f23e bb56 2d3c c044 8cbd 3ac2 683e
00000030: c693 23bd 07ae 32be 666f 01bf f5bd 7fbe

encBlocks.1.BN2.running_var f4 [16]
0.22891435 0.3198353 0.4589088 0.37910974 0.37913495 0.067420416 0.07165198 0.1709521
1.2458725 0.057084847 0.092555046 0.27534476 0.1080225 0.01740707 0.15438166 0.020721858
00000000: 8668 6a3e 74c1 a33e 18f6 ea3e ac1a c23e
00000010: fa1d c23e b713 8a3d 46be 923d 110e 2f3e
00000020: c078 9f3f cdd1 693d 808d bd3d fdf9 8c3e
00000030: e73a dd3d 4699 8e3c 3a16 1e3e e3c0 a93c

encBlocks.2.conv1.weight f4 [1, 16, 15, 15]
-0.014344598 -0.011232736 -0.009024915 0.0041898163 -0.019562349 0.0074546793 -0.02326561 0.0056654806
-0.010300506 -0.025283292 0.001035364 -0.020784842 -0.016627334 0.0055001085 -0.010575307 -0.015598652
-0.0033889497 -0.0028441504 -0.011591218 -0.014672273 0.0037033628 -0.019467566 -0.014362456 -0.013423061
-0.0030110998 0.009775415 0.002670375 -0.0013313239 -0.0018075288 0.010028234 -0.014477825 0.0035209795
-0.01671056 0.0074801063 -0.022906417 0.004461761 -0.018413542 -0.021453016 -0.017020265 0.0048280135
-0.019250985 -0.014473324 -0.004485341 -0.006926767 -0.025294246 -0.019401371 -0.014344473 0.0028751078
0.0128357075 -0.0029731148 0.01139415 -0.007887841 0.009223358 -0.015998317 -0.007628573 -0.01920586
-0.022245804 0.003754873 -0.019166548 0.0024420258 -0.011963659 0.00016262008 -0.025801152 -0.0005441644
-0.013903043 -0.0055747624 -0.0028361534 0.008477628 0.0066371853 -0.024347903 0.009817938 0.0035905617
-0.013441299 -0.0102356905 -0.023175098 -0.011232473 0.01450131 0.005197064 0.014230899 -0.02154069
-0.008361147 0.00030791172 -0.01552426 -0.01666607 -0.0040631224 -0.019447189 -0.020740777 0.0026748187
0.0052565117 -0.01006637 -0.015224685 0.00820382 -0.011575155 -0.013936097 -0.012892103 0.0017423246
-0.004944518 0.0054086763 -0.016237957 0.0040362086 -0.009436399 -0.023530208 -0.020227851 -0.010897834
0.007732254 0.0034446127 0.010906797 -0.010773983 -0.0002350061 -0.02006031 0.013801298 -0.017028408
0.0026209124 -0.021239625 -0.017048415 0.00274791 0.0009108912 -0.017471565 -0.013379626 0.009835247
0.0129558435 0.002706662 -0.01346093 0.017572723 -0.0029196567 -0.012908579 -0.0024778554 -0.016856302
-0.0024634143 -0.018489806 -0.006154405 -0.02123177 -0.023691116 -0.019796297 -0.0144539485 -0.017330926
-0.010815815 -0.021773066 -0.015708469 -0.0038587907 -0.011997168 0.0025462538 -0.0034586594 0.0034007595
-0.009471853 -0.017723152 -0.023260849 -0.014847882 0.0037505385 -0.007875314 0.018655332 -0.009151467
-0.021892976 0.0009366477 -0.009979915 0.0127687715 -0.010478629 -0.0022594228 -0.026205339 -0.0055237412
-0.018406635 -0.023150465 -0.002077375 0.0077691353 0.011862761 0.017458018 0.01606682 -0.0019393525
0.014588052 -6.36131e-05 -0.013397233 -0.024131332 -0.0055940407 -0.014001216 -0.011618861 -0.001069656
-0.020602815 -0.012997163 -0.0025479265 -0.015935741 -0.010824527 -0.006219188 -0.005315897 0.01770173
0.0070652473 -0.0012313223 -0.012834122 -0.003910276 -0.013040872 0.0048303264 0.004702089 0.0060803182
-0.022298953 0.005767534 0.000739434 -0.012454424 0.0059851394 -0.009909394 0.0058667497 -0.01894552
-0.008977663 -0.0030050906 0.0012447757 0.002170463 -0.0077257683 -0.007975599 -0.0242882 -0.019273922
-0.019264918 -0.0016165351 0.018297523 -0.008270389 -0.00360344 0.021725502 0.0027837218 -0.0035510983
0.0054745274 0.0039187116 -0.018475398 0.006961129 -0.016964724 0.01033183 0.0059308144 -0.0184713
-0.008282128 -0.0052644396 -0.0056195757 0.0007388247 -0.004626582 -0.020800566 -0.0176995 0.0015256866
-0.018087573 -0.006923262 -0.017520826 -0.022089094 -0.0073860334 -0.0055434927 -0.022364484 -0.016069023
-0.016058972 0.007141354 -0.024126548 0.009166615 0.0011393158 -0.01473724 -0.008795855 -0.005281439
-0.023204982 0.0072607766 -0.007989546 0.0092383465 -0.018784748 0.0030078343 -0.01211524 -0.01549714
00000000: 9b05 6bbc 8209 38bc 3ddd 13bc ba4a 893b
00000010: 3841 a0bc 6246 f43b 8597 bebc 7fa5 b93b
00000020: 74c3 28bc e81e cfbc 0db5 873a f944 aabc
00000030: 0c36 88bc 413a b43b 0d44 2dbc 7d91 7fbc
00000040: 2419 5ebb ed64 3abb 18e9 3dbc f963 70bc
00000050: 1eb4 723b 727a 9fbc 8250 6bbc 66ec 5bbc
00000060: df55 45bb 1029 203c 7501 2f3b d17f aeba
00000070: 9aea ecba 764d 243c 6634 6dbc 3cc0 663b
00000080: 96e4 88bc ae1b f53b 3da6 bbbc f733 923b
00000090: ffd7 96bc 3cbe afbc 156e 8bbc 5034 9e3b
000000a0: 3eb4 9dbc 8521 6dbc c4f9 92bb eff9 e2bb
000000b0: e135 cfbc a0ef 9ebc 1505 6bbc 4e6c 3c3b
000000c0: dc4c 523c 97d8 42bb 87ae 3a3c 013c 01bc
000000d0: 911d 173c e70e 83bc 1cf9 f9bb 9c55 9dbc
000000e0: d53c b6bc 5114 763b 2a03 9dbc 650a 203b
000000f0: 3903 44bc ff84 2a39 f05c d3bc 41a6 0eba
00000100: 97c9 63bc 7fac b6bb c2de 39bb c0e5 0a3c
00000110: bf7c d93b 4175 c7bc 6bdb 203c a14f 6b3b
00000120: e538 5cbc 99b3 27bc b4d9 bdbc 6808 38bc
00000130: e796 6d3c 224c aa3b b728 693c 1a76 b0bc
00000140: 31fd 08bc 366f a139 7759 7ebc 4887 88bc
00000150: f123 85bb b64f 9fbc 90e8 a9bc 034c 2f3b
00000160: d13e ac3b 6aed 24bc f570 79bc 5169 063c
00000170: b8a5 3dbc 3a54 64bc 6639 53bc b65e e43a
00000180: a005 a2bb 443b b13b 7705 85bc 2c42 843b
00000190: 209b 1abc 6cc2 c0bc e1b4 a5bc d48c 32bc
000001a0: d95e fd3b 03bf 613b 6cb2 323c 5c85 30bc
000001b0: f86b 76b9 8555 a4bc d71e 623c 297f 8bbc
000001c0: 9dc3 2b3b b9fe adbc 1ea9 8bbc 4816 343b
000001d0: e0c8 6e3a 8720 8fbc 3836 5bbc 0424 213c
000001e0: bf44 543c 4162 313b 3c8b 5cbc acf4 8f3c
000001f0: b657 3fbb 817e 53bc 8463 22bb 3a16 8abc
00000200: 3c71 21bb ef77 97bc e4aa c9bb 40ee adbc
00000210: df13 c2bc d82b a2bc 41d0 6cbc 96f9 8dbc
00000220: d134 31bc 6e5d b2bc 0caf 80bc c4e3 7cbb
00000230: c58f 44bc 0ddf 263b adaa 62bb 47df 5e3b
00000240: d52f 1bbc 2530 91bc 898d bebc 8844 73bc
00000250: 98cb 753b 7607 01bc 11d3 983c 09f0 15bc
00000260: e658 b3bc 5d89 753a cc82 23bc 1c34 513c
00000270: 8eae 2bbc d312 14bb 94ac d6bc 8000 b5bb
00000280: 83c9 96bc 0ba6 bdbc 9224 08bb 3b94 fe3b
00000290: 075c 423c 1e04 8f3c 909e 833c df31 feba
000002a0: ba02 6f3c 0668 85b8 1180 5bbc 12af c5bc
000002b0: 374e b7bb 5b65 65bc 095d 3ebc b333 8cba
000002c0: 3cc7 a8bc 0ef2 54bc 1dfb 26bb ac8b 82bc
000002d0: 5b59 31bc 55ca cbbb fa30 aebb 3803 913c
000002e0: 9783 e73b 5264 a1ba 3646 52bc c621 80bb
000002f0: 62a9 55bc b747 9e3b fb13 9a3b 683d c73b
00000300: 4bac b6bc 95fd bc3b 93d6 413a a40d 4cbc
00000310: fd1e c43b 035b 22bc dd3d c03b a333 9bbc
00000320: 0c17 13bc 0ef1 44bb be27 a33a 543e 0e3b
00000330: 7128 fdbb 16ac 02bc 0cf8 c6bc 58e4 9dbc
00000340: 76d1 9dbc ebe1 d3ba b0e4 953c 8780 07bc
00000350: b127 6cbb aef9 b13c 1a6f 363b 8bb9 68bb
00000360: aa63 b33b 8968 803b b859 97bc 2f1a e43b
00000370: 9bf9 8abc d646 293c 4757 c23b 2051 97bc
00000380: c3b1 07bc 5281 acbb 6b24 b8bb b0ad 413a
00000390: 959a 97bb f365 aabc 8bfe 90bc 8cf9 c73a
000003a0: 642c 94bc 88dc e2bb d687 8fbc 30f4 b4bc
000003b0: 8a06 f2bb 30a6 b5bb b935 b7bc 2fa3 83bc
000003c0: 1b8e 83bc 0502 ea3b 0aa5 c5bc 922f 163c
000003d0: 1855 953a 7774 71bc 7d1c 10bc ec0f adbb
000003e0: 6018 bebc cfeb ed3b 96e6 02bc 6f5c 173c
000003f0: 79e2 99bc 161f 453b 007f 46bc b7e7 7dbc

encBlocks.2.conv2.weight f4 [1, 1, 3, 3]
0.034284886 0.2369339 -0.02226682 0.18812932 -0.20357642 -0.1333344 0.043565996 -0.18874796
0.3171138
00000000: 4f6e 0c3d cd9e 723e e868 b6bc f9a4 403e
00000010: 5676 50be d088 08be 4272 323d 2547 41be
00000020: bd5c a23e
