Model_params/calm_macro_best.pt (torch, 321799 bytes, 26 tensors)

encBlocks.0.conv1.weight f4 [16, 3, 15, 15]
0	0xbd5fe437	-0.054661002
1	0xbd5debd9	-0.05418
2	0x3c8f094f	0.017460493
3	0x3ba72e3c	0.005101947
4	0x3c6c1bbe	0.014410911
5	0x3d119a98	0.035547823
6	0xbcacd717	-0.021098657
7	0xbcc1a839	-0.023639785
8	0x3cdc16be	0.026866313
9	0xbcded7d3	-0.027202522
10	0x3b83811e	0.0040131947
11	0x3a3f6255	0.00073007244
12	0xbcb5266e	-0.022113051
13	0xbc08adee	-0.008342249
14	0x3bc04bc9	0.0058684093
15	0xbd1a9498	-0.037739366
16	0xbc4d2cf4	-0.012522925
17	0x3d20b2e3	0.0392331
18	0xbd32b2b2	-0.04362745
19	0xbd0bedfc	-0.034162506
20	0xbd0ab878	-0.03386733
21	0x3cbe0ac6	0.023198497
22	0xbcb78855	-0.022403875
23	0xbb0859aa	-0.0020805397
24	0x3c54112d	0.012943548
25	0xbc7fd257	-0.015614114
26	0xbc9b05c5	-0.01892365
27	0x3c48f63e	0.01226574
28	0xbd50a75f	-0.050940868
29	0x3c8f435f	0.01748818
30	0xbd3c1d34	-0.045926288
31	0xbb722464	-0.003694796
32	0xbd209e3e	-0.03921341
33	0xbac3a3e1	-0.0014926159
34	0x3d1f753d	0.038930167
35	0x3c4b3a60	0.012404054
36	0x3d4956d5	0.049155075
37	0xbcffc60b	-0.031222364
38	0xbc42529c	-0.011860516
39	0xbc19aaab	-0.009379069
40	0xb9bfced9	-0.00036584472
41	0xbc8c966a	-0.017161567
42	0xbc36bf31	-0.011153982
43	0x3c861228	0.01636608
44	0xbcd4db38	-0.025983438
45	0xbc7b0dde	-0.01532313
46	0xbd1912e3	-0.037371527
47	0x3d099cec	0.033596918
48	0x3c78e873	0.015192139
49	0x3bf87c3f	0.0075831707
50	0xbc3517c3	-0.0110530285
51	0x3d53d454	0.051716164
52	0x3ca0c924	0.019627161
53	0x3d31802c	0.043335125
54	0x3c4d71f6	0.012539377
55	0xbc08533c	-0.008320626
56	0x3a541354	0.00080900383
57	0x3cd143e8	0.025545076
58	0x3d02e78f	0.031959113
59	0xbd36571d	-0.04451667
60	0x3c124b3e	0.008929072
61	0x3d1e8898	0.038704485
62	0x3d597f6d	0.05310004
63	0x3d72610b	0.05917458
64	0xbbb03799	-0.0053777215
65	0x3d18d91b	0.037316423
66	0x3d179d23	0.03701509
67	0x3c846851	0.016163023
68	0x3d5f8674	0.054571584
69	0x3d40bcbc	0.04705499
70	0x3c6fcb6f	0.014635905
71	0xbd168595	-0.036748488
72	0x3d128bbb	0.03577779
73	0xbc685c49	-0.014182159
74	0x3c84ab9d	0.016195113
75	0x3cffcb50	0.031224877
76	0xbb0fe0e3	-0.0021954111
77	0x3b971156	0.004610221
78	0xba94d043	-0.0011353571
79	0x3d7f1aaf	0.062281307
80	0x3c562709	0.01307083
81	0x3c3a1867	0.011358357
82	0xbbd93b77	-0.006629403
83	0x3d730776	0.059333287
84	0xbbc8e601	-0.006130934
85	0x3c68259c	0.014169123
86	0xbcdf0a19	-0.027226495
87	0xbcb2a056	-0.02180497
88	0x3cbe2f7d	0.023216004
89	0xbc990cf7	-0.01868294
90	0x3d05f83a	0.03270743
91	0x3d51f7ca	0.0512617
92	0x3d7478f8	0.059685677
93	0x3d17be0f	0.03704649
94	0xbc3302a8	-0.010925926
95	0x3d100b4c	0.035167024
96	0x3d2e3cce	0.042538457
97	0x3d8a261f	0.06745552
98	0x3d4c5467	0.04988518
99	0x3d3ed593	0.0465904
100	0x3d262aea	0.04056827
101	0xbcf08637	-0.029360874
102	0xbcd570e2	-0.026054803
103	0xbcfd1b46	-0.030896794
104	0xbd479520	-0.0487262
105	0x3d2f1280	0.042742252
106	0x3b03b082	0.002009422
107	0x3d2a48f6	0.041573487
108	0xbc4c9773	-0.01248728
109	0x3cf1711c	0.02947288
110	0x3c99c2f7	0.018769724
111	0xbc8299fd	-0.015942568
112	0x3d42e0e8	0.04757777
113	0xbca058f5	-0.019573668
114	0xbc883582	-0.016627077
115	0x3c29a2a2	0.010353716
116	0x3d19795c	0.037469253
117	0xbbedee63	-0.007261084
118	0xbca61aaa	-0.020276386
119	0x3bc14fce	0.005899406
120	0xbd2de93c	-0.042458758
121	0x3be3fb0b	0.006957417
122	0xbc8f1a61	-0.017468633
123	0xbcc20b7c	-0.023687117
124	0x3c8ff47c	0.017572634
125	0x3cabbc7b	0.020963898
126	0x39285a4a	0.00016055364
127	0xbcc31a81	-0.023816349
128	0xbb1dcb18	-0.0024077352
129	0xbcb15572	-0.021647189
130	0x3d33ebd0	0.04392606
131	0xbd29ca40	-0.041452646
132	0xbc9c9ccf	-0.01911774
133	0xbce0df32	-0.027450178
134	0x3d126775	0.035743196
135	0xbd0e7944	-0.034783617
136	0xbc89d785	-0.0168264
137	0x3c7b2b07	0.015330083
138	0xbc86f68b	-0.016474983
139	0x3d480922	0.048836835
140	0x3d4eeaf9	0.050517056
141	0xbc159225	-0.009129082
142	0x3d3c8e3c	0.046034083
143	0x3c969e86	0.018386137
144	0x3ceb5d4d	0.028731013
145	0xbd2a2fc9	-0.041549478
146	0xbc71860e	-0.014741434
147	0xbcf70b2d	-0.030156696
148	0xbcd85a15	-0.026410142
149	0xb93b1696	-0.00017842124
150	0x3b94fe4b	0.0045469156
151	0x3cdcf1b9	0.026970731
152	0xbc680284	-0.014160756
153	0x3d3e183e	0.046409838
154	0x3ba7eda0	0.0051247627
155	0x3b38366c	0.002810861
156	0xbac21087	-0.0014805951
157	0xbbf4b1e1	-0.007467494
158	0xbcdfe067	-0.027328683
159	0xbc438721	-0.011934073
160	0x3cb240f9	0.021759497
161	0x3d08bc6b	0.033382814
162	0x3c92d47e	0.01792359
163	0xbcabbc38	-0.020963773
164	0x3c23581d	0.009969738
165	0x3cb96e70	0.022635669
166	0xbc817ba9	-0.015806036
167	0x3d1d011f	0.038331147
168	0xbc5a03bb	-0.0133065535
169	0xbbf07e2b	-0.007339259
170	0x3cce54c6	0.025186908
171	0x3d14da51	0.036341015
172	0xbc77374f	-0.01508887
173	0x3ba6f22c	0.005094787
174	0x3bcff376	0.0063461615
175	0x3d0aeaa1	0.033915166
176	0xb976eadd	-0.00023547882
177	0xbc4eee8b	-0.012630115
178	0xbd383633	-0.044973563
179	0xbbf64b7e	-0.0075163236
180	0xb9cc7b9d	-0.0003900201
181	0x3d1a150c	0.037617728
182	0x3cefca1d	0.02927118
183	0xbc12617e	-0.008934377
184	0xbcb8f595	-0.02257804
185	0xbd221c09	-0.039577518
186	0x3d0e0ecd	0.034682084
187	0x3c20e58c	0.009820353
188	0xbd3111aa	-0.043229736
189	0xbcc5a314	-0.024125613
190	0xbc859f17	-0.016311212
191	0xbb9ac320	-0.0047229677
192	0xbbaadd87	-0.0052143964
193	0x3c3392db	0.010960306
194	0xbc239b8c	-0.009985816
195	0x3cb8169d	0.02247172
196	0xbbb25af7	-0.0054429728
197	0x3c0d3f4d	0.008621049
198	0xbc3344e2	-0.010941716
199	0x3cb83faa	0.022491295
200	0xbc0cc883	-0.008592728
201	0xba631fa0	-0.0008664075
202	0xbcbe9198	-0.023262784
203	0x3cc6bbcf	0.024259476
204	0xbd20cedb	-0.039259773
205	0x3d00ac1c	0.031414136
206	0xbbfadbe3	-0.007655607
207	0xbd3b3202	-0.045701988
208	0xbd38f85e	-0.045158736
209	0x3ce24e05	0.027625093
210	0xbd4e354f	-0.050343808
211	0xbd3fbc72	-0.046810575
212	0xbd4382ea	-0.04773227
213	0x3ce4f512	0.02794889
214	0x3ca47198	0.020073697
215	0xbac7bf01	-0.0015239419
216	0xbd271365	-0.04078998
217	0xbbe743ad	-0.007057628
218	0x3c5314f7	0.012883416
219	0xbd37cead	-0.044874836
220	0xbd02aa05	-0.031900425
221	0xbc880211	-0.016602548
222	0x3cb32c83	0.02187181
223	0xbd326777	-0.043555703
224	0x3c477fdf	0.012176483
225	0x3a13156b	0.00056107965
226	0xbce0ce2b	-0.027442059
227	0xbaacc838	-0.0013182228
228	0xbd06e4db	-0.032933097
229	0x3c98f985	0.018673668
230	0x3ce30307	0.027711404
231	0x3d1168d1	0.03550035
232	0xbba95c4f	-0.0051684747
233	0x3bc19c09	0.0059084934
234	0x3cf2969f	0.029612837
235	0xbbf8eeba	-0.007596818
236	0xbc7a7d33	-0.015288639
237	0x3c03a3ab	0.008034627
238	0x3ba447b3	0.00501343
239	0xbc9a66e3	-0.018847888
240	0xbcb8dad9	-0.022565292
241	0x3c867a08	0.01641561
242	0xbcac51ef	-0.021035163
243	0x3cbfe02c	0.023422323
244	0x3cc0da87	0.023541702
245	0xbc6f2991	-0.014597313
246	0xbc8e7820	-0.017391264
247	0x3c02c1bf	0.007980763
248	0x3c6b0d76	0.014346471
249	0x3c168f64	0.00918946
250	0xbb9a47ae	-0.004708252
251	0xbcb76314	-0.022386111
252	0xbad4b916	-0.0016229476
253	0xbbcdedb2	-0.006284439
254	0xbc826173	-0.015915608
255	0xbc1de480	-0.009636998

encBlocks.0.conv1.bias f4 [16]
0	0xbb46a74e	-0.0030312124
1	0xbd209973	-0.03920884
2	0x3c4a238d	0.0123375775
3	0xbc6eb6a0	-0.014569908
4	0x3c6b2fbe	0.014354644
5	0xbacd3511	-0.0015656074
6	0xbc52ba60	-0.012861818
7	0x3d13f9ba	0.03612683
8	0x3c91fa98	0.017819688
9	0xbc4692b8	-0.012119941
10	0x3cfe848e	0.031069066
11	0xbc0caa6c	-0.008585554
12	0xbab900d0	-0.0014114622
13	0xbcd50473	-0.026003098
14	0xbc524c59	-0.0128355855
15	0x3beff34e	0.0073227054

encBlocks.0.conv2.weight f4 [16, 16, 3, 3]
0	0x3d84cd1b	0.06484433
1	0xbdaa6fe5	-0.083221234
2	0x3d6c3fa8	0.057677895
3	0xbda0b52a	-0.07847054
4	0xbd82035c	-0.06348297
5	0x3d58260e	0.052770667
6	0xbcc53c95	-0.02407674
7	0x3c87d3b8	0.016580448
8	0x3c2852b1	0.010273621
9	0xbda21538	-0.079142034
10	0x3c8d41a1	0.017243208
11	0x3be89f3f	0.0070990617
12	0xbd12a05b	-0.03579746
13	0xbc77fae6	-0.015135502
14	0x3d16a895	0.036781866
15	0x3d93129d	0.071812846
16	0xbb00e552	-0.0019667936
17	0x3d164b74	0.03669305
18	0x3c75c73f	0.015001117
19	0x3c070e0c	0.008243095
20	0xbd4c0873	-0.049812745
21	0x3b9a7caa	0.004714568
22	0xbd18df14	-0.03732212
23	0x3d608196	0.054811083
24	0xbb93e9ab	-0.0045139394
25	0xbcb22a17	-0.021748586
26	0xbd307535	-0.043080527
27	0x3d7da55e	0.061925285
28	0xbd29c4fc	-0.041447625
29	0xbd43fa6a	-0.047846235
30	0xbd8f6533	-0.07001724
31	0xbda164ef	-0.0788058
32	0x3cb48150	0.022034317
33	0x3d7f06af	0.062262233
34	0x3c497cc0	0.012297809
35	0x3cc9dba5	0.024640867
36	0xbd883fe7	-0.066528134
37	0x3d3b8bbe	0.045787565
38	0xbd8938a2	-0.06700255
39	0xbb946a44	-0.0045292694
40	0x3d7a845f	0.061161395
41	0x3d7fff89	0.062499557
42	0x3d86f3b1	0.06589449
43	0xbd518132	-0.0511486
44	0x3d7e8221	0.06213582
45	0x3cadd613	0.021220243
46	0xb8df2700	-0.00010640733
47	0xbcc4fd6a	-0.024046618
48	0xbd599cf8	-0.053128213
49	0x3d0d23f8	0.03445813
50	0x3cfbd4a7	0.030741049
51	0x3d56feea	0.0524892
52	0xbd59b822	-0.05315412
53	0x3cfc4be0	0.030797899
54	0xbce72d77	-0.028219922
55	0x3cf0d162	0.029396717
56	0xbd4b0e0a	-0.049573936
57	0xbd3ee543	-0.04660536
58	0x3d054e02	0.032545097
59	0x3cc647e5	0.024204204
60	0xbd93e8d5	-0.072221436
61	0x3d5bd199	0.053666685
62	0x3d5b8159	0.053590152
63	0xbdaf28e6	-0.08552723
64	0x3d83e00f	0.0643922
65	0xbd8cb1fe	-0.06869887
66	0xbc859313	-0.016305482
67	0x3c07dfee	0.008293135
68	0xbb8c6f1b	-0.0042857057
69	0x3d8e2dab	0.06942304
70	0xbda63e78	-0.08117384
71	0xbd9ceb3d	-0.07662056
72	0x3c428068	0.011871435
73	0x3c899216	0.016793292
74	0xbd6f5c00	-0.058437347
75	0xbdaa5a5e	-0.083180174
76	0xbd70bc2a	-0.058773197
77	0xbdb14827	-0.0865634
78	0x3b6a57a9	0.0035757816
79	0x3b8684c6	0.0041051833
80	0xbd77fa7d	-0.06054162
81	0xbb8b5041	-0.0042515104
82	0x3b79ce71	0.0038117433
83	0xbd85f27a	-0.06540389
84	0xbd951805	-0.07279972
85	0xbd8677f6	-0.065658495
86	0xbb512fe6	-0.0031919419
87	0x3c3fd0b7	0.011707476
88	0xbcc63582	-0.024195436
89	0x3b834902	0.004006506
90	0xbda8831d	-0.08228133
91	0xbd0cce14	-0.03437622
92	0xbd63be07	-0.055601146
93	0x3ceee921	0.029163899
94	0xbc32b9a5	-0.010908519
95	0xbc5b9cf1	-0.013404117
96	0xbd067c71	-0.03283352
97	0x3d47a99d	0.04874574
98	0x3c6426be	0.0139252525
99	0x3cd75e99	0.026290225
100	0x3d56d07c	0.05244492
101	0xbd58b0f0	-0.052903116
102	0x3ca8e710	0.020617992
103	0xbdcaf1d6	-0.09909408
104	0xbd8e8cfe	-0.06960486
105	0xbd26498d	-0.040597487
106	0xbd1ea17b	-0.03872822
107	0xbdc35cca	-0.095391825
108	0xbd4871a6	-0.04893651
109	0xb9659d91	-0.0002189784
110	0x3d38c8f1	0.045113508
111	0xbd0af5a1	-0.033925656
112	0xbd907bd1	-0.07054866
113	0x3cb246ea	0.02176233
114	0xbc170ccc	-0.00921936
115	0xbd7382dc	-0.05945097
116	0x3d5eb8e1	0.054375533
117	0x3c13d060	0.009021848
118	0xbce538de	-0.027981218
119	0xbc05289d	-0.008127359
120	0x3cc1fc3e	0.023679849
121	0xbd557c6f	-0.052120622
122	0x3c8b65e0	0.017016351
123	0x3cfb06fc	0.030642979
124	0xbd61a2f1	-0.055087034
125	0xbd379b68	-0.04482594
126	0xbda8b83f	-0.08238267
127	0x3cf1e05b	0.029525926
128	0xbd870c5c	-0.06594154
129	0x3d164138	0.03668329
130	0xbc2b38ee	-0.010450585
131	0xbdb220ed	-0.08697686
132	0x3c28f667	0.010312653
133	0x3d8c5510	0.06852162
134	0x3c2f0295	0.010681768
135	0xbb9f54ba	-0.004862395
136	0xbb3d1465	-0.0028851267
137	0x39e27e12	0.0004320001
138	0xbcf7f456	-0.030267876
139	0xbd6593ee	-0.05604928
140	0xbde127ec	-0.109939426
141	0xbd009002	-0.031387337
142	0x3ce71ade	0.028211053
143	0x3ccbae04	0.02486325
144	0xbd7b7fd2	-0.061401196
145	0x3d3b02b3	0.04565687
146	0x3c684e71	0.014178858
147	0xbc899478	-0.016794428
148	0xbd409259	-0.047014568
149	0x3d638cf6	0.055554353
150	0xbcd8e49d	-0.026476199
151	0x3c01bdf6	0.007918825
152	0x3d9d7425	0.076881684
153	0x3d792f6f	0.06083625
154	0x3d86f51f	0.06589722
155	0x3c8f9a03	0.017529493
156	0xbca14a1e	-0.019688662
157	0x3ca74eab	0.020423254
158	0x3ca11fd3	0.019668495
159	0x3d07354f	0.033009823
160	0xbd6bd323	-0.057574403
161	0x3c66fcfa	0.0140984
162	0xbcc5f734	-0.024165727
163	0xbcb66760	-0.02226609
164	0xbd4c3cb0	-0.049862564
165	0xbd96e774	-0.07368365
166	0xbd8a9ce4	-0.06768206
167	0x3d725648	0.059164315
168	0x3d892d6a	0.06698115
169	0xbd7781b1	-0.060426418
170	0xbd2fee17	-0.04295167
171	0xbd792b2d	-0.06083219
172	0xbd6e2a88	-0.05814603
173	0x3c705bc5	0.014670317
174	0xbd93a131	-0.07208479
175	0xbd9ef1f2	-0.07760991
176	0xbc61b675	-0.013776411
177	0xbdaac756	-0.083388016
178	0xbd73af3e	-0.059493296
179	0xbd192d87	-0.037396934
180	0xbda722d0	-0.08160937
181	0xbd8744d6	-0.06604926
182	0xbda03800	-0.07823181
183	0xbd895d07	-0.06707197
184	0xbd4564e9	-0.04819194
185	0x3da05556	0.078287765
186	0xbd1ff6ec	-0.039053842
187	0xbb94ed55	-0.0045448937
188	0xbd311bef	-0.04323953
189	0x3c8f51c2	0.01749504
190	0x3d604747	0.054755475
191	0xbd9a0afe	-0.07521628
192	0xbd7d02b3	-0.061770152
193	0x3c3cad7e	0.011515973
194	0xbd8ef489	-0.06980235
195	0x3da66f70	0.08126724
196	0x3da4690f	0.08027851
197	0x3d8f5b9e	0.069998965
198	0x3c96162f	0.018321125
199	0xbd9209da	-0.07130785
200	0x3d7b5c9e	0.061367624
201	0x3d8b9d97	0.06817167
202	0xbd0ddc72	-0.03463406
203	0x3da5b990	0.08092034
204	0xbbd9d70a	-0.006647949
205	0xbd434d16	-0.047680937
206	0x3d1d6d03	0.03843404
207	0x3d3e385d	0.04644047
208	0xbc76e433	-0.015069055
209	0x3d0fa365	0.035067935
210	0xbc53ef4e	-0.012935473
211	0xbdaad383	-0.08341124
212	0xbdae0c42	-0.08498432
213	0x3d3b3f1d	0.045714486
214	0xbd6c1548	-0.057637483
215	0x3ada5962	0.0016658718
216	0xbd8d09b5	-0.06886617
217	0x3d12bf98	0.03582725
218	0x3c323484	0.0108767785
219	0x3cdbbdb0	0.026823848
220	0xbd7b1d4b	-0.061307233
221	0xbd5b3c14	-0.05352409
222	0x3d46c94c	0.048531815
223	0x3d095357	0.033526745
224	0xbb5df8d5	-0.003387024
225	0xbd8d2700	-0.06892204
226	0x3d531659	0.051534984
227	0xbd8bfe30	-0.06835592
228	0x3ce98caa	0.028509457
229	0xbd5ca267	-0.053865816
230	0x3d4a7583	0.049428474
231	0x3db1c444	0.08680013
232	0x3d8ee182	0.06976606
233	0x3d9fb623	0.07798412
234	0xbd813280	-0.0630846
235	0x3d7ebada	0.062189914
236	0xbbd4a27d	-0.0064890967
237	0xbbb1a64e	-0.0054214364
238	0xbd4cea22	-0.050027974
239	0x3d87f20b	0.06637963
240	0x3d1ce150	0.038300812
241	0x3dbd4816	0.09242265
242	0xbc9c56f1	-0.019084426
243	0xbb6b95af	-0.0035947373
244	0xbd2ee2ca	-0.04269675
245	0xbd2e3aa8	-0.042536408
246	0x3d14c6e0	0.036322474
247	0xbd7fe982	-0.06247855
248	0x3c577b1c	0.01315191
249	0x3d2aca1c	0.041696653
250	0xbca52a0d	-0.020161653
251	0xbd5180a0	-0.051148057
252	0x3d7f1344	0.062274233
253	0x3d5b8c37	0.053600516
254	0x3d390dd0	0.04517919
255	0xbd81968d	-0.063275434

encBlocks.0.conv2.bias f4 [16]
0	0x3d3c81c2	0.046022184
1	0xbd96d865	-0.07365493
2	0x3c571c47	0.0131293
3	0x3d0f3b28	0.034968525
4	0x3d8663e8	0.06562024
5	0xbc4db867	-0.012556172
6	0xbd774efd	-0.060378063
7	0x3d797e9c	0.06091176
8	0x3d802580	0.062571526
9	0x3d6495bb	0.055806857
10	0x3d6feb4a	0.058574
11	0xbd89f244	-0.067356616
12	0x3d6a33aa	0.057178177
13	0xbd72ec02	-0.059307106
14	0x3bfc4449	0.00769857
15	0x3d2eb88a	0.04265646

encBlocks.0.BN1.weight f4 [16]
0	0x3f819898	1.0124693
1	0x3f7dae08	0.99093676
2	0x3f81cdfd	1.0140988
3	0x3f7c04de	0.98444927
4	0x3f809b82	1.0047457
5	0x3f7eb179	0.9948955
6	0x3f7eae47	0.99484676
7	0x3f7efbee	0.99603164
8	0x3f81db94	1.0145135
9	0x3f7db291	0.99100596
10	0x3f7e4316	0.99321115
11	0x3f8025c6	1.0011528
12	0x3f83615a	1.0264084
13	0x3f7da6ff	0.9908294
14	0x3f7c94ec	0.98664737
15	0x3f807900	1.0036926

encBlocks.0.BN1.bias f4 [16]
0	0x3c902006	0.017593395
1	0xbc7f795c	-0.015592899
2	0x3c1a7fe6	0.009429907
3	0xbc0475f4	-0.008084763
4	0x3c6ee6e9	0.01458142
5	0xbc2deba4	-0.010615263
6	0xbca88f56	-0.02057616
7	0xbcbed5af	-0.023295252
8	0xbcf4ba0c	-0.02987387
9	0xbc7571bf	-0.014980732
10	0x3b008328	0.0019609425
11	0xbc1ec470	-0.009690389
12	0x3b9094f9	0.00441229
13	0x3c8ffcfc	0.017576687
14	0x3bacc02a	0.005271931
15	0xbcea57c5	-0.028606305

encBlocks.0.BN1.running_mean f4 [16]
0	0xbed1401c	-0.40869224
1	0xbf748458	-0.9551444
2	0xbe867aa1	-0.26265433
3	0x3fcb32ef	1.5874919
4	0xbf86f9d4	-1.0544991
5	0x3f57b790	0.8426447
6	0x3fd95f9f	1.6982306
7	0xc009385a	-2.1440644
8	0xbf8fef52	-1.124491
9	0xbfb59b58	-1.4188032
10	0x3fdc0d57	1.7191571
11	0xbf418f2c	-0.7560909
12	0xbe81a405	-0.2532045
13	0xbe0e6cef	-0.13908742
14	0xbfb9706c	-1.4487433
15	0xbfe1196c	-1.7585883

encBlocks.0.BN1.running_var f4 [16]
0	0x3da5358a	0.080668524
1	0x3e8d6c8e	0.27621883
2	0x3e1e4e5d	0.1545958
3	0x3f5217c4	0.82067513
4	0x3ec37ee9	0.38182762
5	0x3ecb2016	0.39672917
6	0x3f59d62e	0.8509244
7	0x3faf3f02	1.3691103
8	0x3ee22571	0.4416919
9	0x3f6a7268	0.9158082
10	0x3f63ba76	0.8895639
11	0x3eb0db6f	0.34542415
12	0x3e2af7ef	0.16696142
13	0x3dfaf927	0.12254553
14	0x3f278a29	0.6544519
15	0x3f85f217	1.0464505

encBlocks.0.BN2.weight f4 [16]
0	0x3f7dfe11	0.992158
1	0x3f7f3673	0.9969246
2	0x3f7eac77	0.9948191
3	0x3f7bc788	0.98351336
4	0x3f835a7a	1.0261986
5	0x3f7f9de3	0.9985029
6	0x3f817bbe	1.0115888
7	0x3f81819c	1.0117679
8	0x3f7d46c0	0.9893608
9	0x3f8151c5	1.0103079
10	0x3f841b05	1.0320746
11	0x3f7dea43	0.9918558
12	0x3f7bd4d1	0.9837161
13	0x3f7d3851	0.98914057
14	0x3f80f625	1.0075117
15	0x3f80ddb6	1.0067661

encBlocks.0.BN2.bias f4 [16]
0	0xbcb513a1	-0.022104086
1	0x3abb12c9	0.0014272566
2	0xbcdbb06d	-0.026817525
3	0x3c3c6983	0.011499765
4	0x3d1c2970	0.038125455
5	0x3cceec36	0.025259119
6	0xbd0a9f43	-0.03384329
7	0x3d178357	0.03699049
8	0x3d176070	0.036957204
9	0x3d605ec1	0.054777864
10	0x3d33a1a5	0.043855328
11	0xbb069d75	-0.002054063
12	0x3c5b2451	0.013375358
13	0xbc708ee0	-0.014682502
14	0x3d350892	0.044197626
15	0xbb2f5faf	-0.0026759913

encBlocks.0.BN2.running_mean f4 [16]
0	0xbf0d99b3	-0.5531265
1	0xbd85ffd3	-0.06542935
2	0xbd722c97	-0.059124555
3	0x3ddf8fa5	0.1091607
4	0x3e238de0	0.1597209
5	0xbe0abf7f	-0.13549612
6	0xbd1c34af	-0.03813618
7	0x3ec4bd21	0.38425544
8	0x3ea4c1d4	0.3217913
9	0xbdc23987	-0.09483629
10	0x3d041888	0.032249957
11	0xbc198a65	-0.009371375
12	0x3ec28b86	0.37997073
13	0xbe63c8e5	-0.22244604
14	0x3e5830e6	0.21112403
15	0xbeaf2aed	-0.34212437

encBlocks.0.BN2.running_var f4 [16]
0	0x3e83a248	0.25709748
1	0x3dd24b7b	0.10268303
2	0x3e14bae6	0.14524421
3	0x3df2e751	0.11860526
4	0x3e7ce8f7	0.24698244
5	0x3d98235b	0.074286185
6	0x3e9f9eb4	0.31175768
7	0x3e7531e0	0.23944807
8	0x3ea38016	0.3193366
9	0x3d8eff34	0.0698227
10	0x3d516537	0.051121917
11	0x3d8baf34	0.06820527
12	0x3e44661f	0.19179581
13	0x3e15cc4e	0.14628717
14	0x3de67697	0.11253088
15	0x3e42dbc2	0.19029143

encBlocks.1.conv1.weight f4 [16, 16, 15, 15]
0	0x3bd92827	0.006627101
1	0xbc94fcc0	-0.018186927
2	0xbc94727c	-0.018120997
3	0x3c956945	0.018238673
4	0xbb9264b5	-0.0044675716
5	0xba43d273	-0.0007470019
6	0xbc85caa4	-0.016331978
7	0xbbe01d9a	-0.0068394663
8	0x3c6a8e1d	0.014316109
9	0xbc4af587	-0.01238764
10	0xbc73f702	-0.014890434
11	0xbb08107f	-0.0020761786
12	0x3c3ebed8	0.01164218
13	0xbc677364	-0.014126632
14	0xbcaa7757	-0.020808859
15	0xbc5c23bf	-0.013436257
16	0x3c182e62	0.009288402
17	0xbcc1bb0b	-0.02364876
18	0xbc113945	-0.008863752
19	0x3a837993	0.0010030739
20	0xbc7ec342	-0.015549483
21	0x3ba376db	0.004988534
22	0x3c1b8f2d	0.009494585
23	0x3bd65d39	0.0065418747
24	0x3bc0797f	0.0058738585
25	0xbb214285	-0.00246063
26	0xbb9b9d03	-0.004748942
27	0x3c2bc2e4	0.010483477
28	0xbc9a4604	-0.018832214
29	0x3c16008b	0.009155403
30	0xbb21f550	-0.0024712868
31	0x3b3b31ab	0.002856354
32	0x3c1f9017	0.009738944
33	0x3c3c7459	0.011502349
34	0x3c9cd18f	0.019142894
35	0x3c32166e	0.0108696055
36	0xbc46cda8	-0.012133993
37	0x3bb80cfb	0.005616782
38	0x3ba23df4	0.004951233
39	0x3cd308d9	0.025761055
40	0x3bfc0da9	0.007692058
41	0x3bf7645c	0.0075498056
42	0x3c2a7b70	0.010405406
43	0xbc4f60e8	-0.012657382
44	0xbc8baa33	-0.01704893
45	0x3b1a9123	0.0023585043
46	0x3ab280d6	0.0013618718
47	0x3c61ea5b	0.013788785
48	0xbba87613	-0.0051410287
49	0x3c48a5b7	0.012246541
50	0x3c90e576	0.01768754
51	0x3c0f6e1c	0.008754279
52	0xbbf20764	-0.007386135
53	0x3b9f95f9	0.004870173
54	0x3cab41f4	0.020905472
55	0xbc1be307	-0.009514577
56	0x3b25f561	0.002532326
57	0xbba9e104	-0.0051842947
58	0xbcc780f2	-0.024353478
59	0xbc8d01c3	-0.017212754
60	0xba845a7b	-0.0010097766
61	0x3be265e3	0.0069091185
62	0xbb82f989	-0.003997032
63	0xbc1609ff	-0.009157657
64	0x3bc55ca9	0.006023009
65	0xb9e55c52	-0.00043747068
66	0xbc0efcc3	-0.008727255
67	0xbca56828	-0.020191267
68	0xba066aea	-0.0005127626
69	0x3c7718fc	0.01508164
70	0x3b76423f	0.0037576107
71	0xbc58fda5	-0.013244067
72	0xbc291efd	-0.01032233
73	0x3bcd7989	0.0062705916
74	0xbcc1c5e0	-0.023653924
75	0xbc0c4fec	-0.008563977
76	0xbc1cccc6	-0.009570306
77	0x3c85e547	0.01634468
78	0x3a7c92fd	0.000963494
79	0x3c68ccff	0.014209031
80	0x3c48c3fb	0.012253757
81	0x3bf75237	0.0075476426
82	0x3b8b4724	0.004250424
83	0xbbbd8d06	-0.0057846336
84	0x3cd9d02d	0.026588524
85	0x3cc46d48	0.02397789
86	0x3c8e392f	0.017361252
87	0xbc8cbc14	-0.017179526
88	0x3b2472df	0.0025092883
89	0x3b73215a	0.0037098737
90	0x3caed449	0.02134146
91	0xbbd3b6dc	-0.0064610075
92	0x3c4d810b	0.012542973
93	0xbba2903d	-0.004961042
94	0x3c75bc13	0.014998454
95	0x3c9459db	0.018109253
96	0x3b54eeb3	0.0032490909
97	0xbc46b2dd	-0.012127605
98	0xbb47a1a5	-0.0030461338
99	0x3c0c2ccf	0.008555605
100	0xbb0a7c58	-0.0021131244
101	0x3b892b68	0.0041860826
102	0xb99c3144	-0.00029791344
103	0xbc462070	-0.012092695
104	0xbbe2b247	-0.006918225
105	0xbc08f0b7	-0.008358172
106	0x3cb98ad9	0.022649216
107	0xbbcccb69	-0.0062498343
108	0xbb8b9932	-0.0042602057
109	0x3a70ce89	0.00091860496
110	0x3be3e066	0.0069542406
111	0xbb1f5c26	-0.00243164
112	0x3c850779	0.016238915
113	0x3b5a72f1	0.003333267
114	0x3b21418f	0.0024605726
115	0x3c796fc6	0.015224403
116	0x3c87ed71	0.016592713
117	0xbbeafb2e	-0.0071710562
118	0xbc0cc2e0	-0.008591384
119	0xbc8c1c81	-0.017103435
120	0xbb8ebe24	-0.0043561626
121	0xbb80dc0e	-0.0039324826
122	0xbb26bf70	-0.0025443695
123	0x3baee16c	0.005336931
124	0xbb0354d1	-0.0020039568
125	0x3b3c981c	0.0028777188
126	0xbbc87f5c	-0.006118698
127	0x3b13e5cd	0.0022567392
128	0x3cb83c3c	0.02248966
129	0x3c5c18db	0.01343366
130	0xbb4fb8c4	-0.0031695822
131	0x3d09bc78	0.033627003
132	0x3c508e96	0.012729308
133	0x3c426877	0.011865727
134	0xbc534a23	-0.012896094
135	0x3c4f2726	0.012643611
136	0x3cbeca07	0.023289694
137	0x3cc8f0ab	0.024528822
138	0x3ca52b75	0.020162323
139	0xbc069be8	-0.008215882
140	0x3c7f5149	0.015583345
141	0x3ca6beca	0.020354647
142	0x3ca51223	0.02015025
143	0xb9e7c978	-0.0004420986
144	0x3c55eba7	0.013056672
145	0x3c2e64e3	0.01064417
146	0x3c6d4352	0.014481382
147	0x3c0ceb3f	0.008601009
148	0xbc5a9fd5	-0.013343771
149	0xbb7067c2	-0.0036682938
150	0x3c988d6a	0.018622119
151	0xbb155f0a	-0.0022792243
152	0x3b32281a	0.0027184547
153	0x3c64dcd3	0.013968664
154	0xba75759f	-0.0009363535
155	0x3c0d54b7	0.008626155
156	0x3c873725	0.016505787
157	0x3b9c4405	0.0047688507
158	0x3ca3ab7d	0.019979233
159	0xba96a568	-0.0011493387
160	0x3cbdbdd3	0.023161804
161	0x3cadfccf	0.021238713
162	0xbb293e49	-0.0025824478
163	0xbc66a714	-0.0140779205
164	0x3b79abac	0.003809671
165	0x3b45c24a	0.003017562
166	0x3c191d85	0.009345417
167	0x3af2d150	0.0018525515
168	0xbbb3a8de	-0.005482777
169	0xbbb1ec08	-0.0054297484
170	0x3cb04bcd	0.02152052
171	0x3c8e5fa6	0.017379593
172	0xbc2d9f52	-0.010597067
173	0xbba7c468	-0.005119849
174	0x3c857aee	0.016293969
175	0x3c5fe9c1	0.013666571
176	0x3c3c4181	0.011490227
177	0x3ca30fcb	0.019904992
178	0x3c65c626	0.014024293
179	0xbc7cb067	-0.015422917
180	0x3b934e94	0.004495451
181	0xbc093ef4	-0.008376826
182	0x3c9dbfe2	0.019256536
183	0x3c8e6db4	0.017386295
184	0xbb7a7a21	-0.0038219767
185	0x3c806772	0.015674327
186	0x3c5ce239	0.01348167
187	0xbc10c0bb	-0.008835013
188	0x3c8a4338	0.016877756
189	0x3cb1b770	0.021693915
190	0x3c9f5a71	0.019452306
191	0x3ade71f7	0.001697122
192	0xbc1c4d93	-0.0095399795
193	0x3b0f18a1	0.0021834748
194	0x3c24f81f	0.010068922
195	0xbbda9113	-0.006670126
196	0x3bb5c115	0.005546699
197	0x3c8c4dfd	0.017127031
198	0xbb49343d	-0.0030701302
199	0xbb943f94	-0.0045241807
200	0x3caaac8d	0.020834232
201	0x3bd55638	0.006510522
202	0x3c905aa5	0.017621348
203	0x3c0542d6	0.008133611
204	0x3bb85458	0.005625289
205	0x3cb91bf4	0.022596337
206	0xba3c109b	-0.0007174105
207	0x3c6c2989	0.0144142
208	0xbc5d590d	-0.013510001
209	0xbbf4d029	-0.0074711037
210	0x3ca18f42	0.019721631
211	0x3cca74b9	0.02471386
212	0x3cb64065	0.022247503
213	0x3c9e9aa0	0.01936084
214	0x3c92387a	0.017849196
215	0x3ca42dca	0.020041365
216	0x3cb1deb8	0.021712646
217	0x3c67fffe	0.014160154
218	0x3c8cebfe	0.017202374
219	0xb98424ef	-0.0002520452
220	0x3cc29d27	0.023756577
221	0x3bae576f	0.0053204815
222	0xbb97b85e	-0.0046301326
223	0xbc21154b	-0.009831737
224	0x38671ac7	5.509963e-05
225	0xbc8da491	-0.017290385
226	0xbb19e1c8	-0.0023480523
227	0x3b527f57	0.0032119357
228	0x3a729988	0.00092544453
229	0xbb4fd3ab	-0.0031711857
230	0x3c7042ec	0.014664393
231	0x3c0700cf	0.008239939
232	0xb9d71607	-0.00041024407
233	0xbc542d35	-0.012950231
234	0xbc7fb0ae	-0.015606089
235	0x3c307272	0.010769473
236	0xbb809e78	-0.003925141
237	0x3bdf1dd0	0.006808974
238	0xbbad57c3	-0.005290003
239	0xbb253a4d	-0.0025211752
240	0xbc162410	-0.009163871
241	0xbcbcee3f	-0.023062823
242	0x3c9e2cc9	0.019308465
243	0xbc46b657	-0.012128434
244	0xbbb8499e	-0.00562401
245	0xbbf1a121	-0.0073739444
246	0xbb0c5017	-0.0021410042
247	0xbcb4ea7a	-0.022084463
248	0xbc8209e8	-0.015873864
249	0x3a8912ef	0.0010457913
250	0x3aad2f2c	0.0013212911
251	0xbc0d8139	-0.008636766
252	0xbb223044	-0.0024748007
253	0xbcd43897	-0.02590589
254	0xbc218cc1	-0.0098602185
255	0xbab37441	-0.0013691263

encBlocks.1.conv1.bias f4 [16]
0	0x3c1b4b9b	0.009478475
1	0x3c1a363e	0.009412346
2	0x3bf12515	0.007359157
3	0x3c911f79	0.017715203
4	0xbc9065fa	-0.017626751
5	0xbb4d3433	-0.003131163
6	0x3a7441c7	0.0009317663
7	0x3b211901	0.0024581554
8	0x3c07094f	0.008241965
9	0x3c5425d1	0.012948469
10	0x3c383269	0.0112424875
11	0xbc4af67d	-0.012387869
12	0x3c5aa867	0.013345814
13	0xbc0be7ce	-0.008539153
14	0xbb64c777	-0.003490893
15	0xbbb4391c	-0.005499972

encBlocks.1.conv2.weight f4 [16, 16, 3, 3]
0	0xbd854359	-0.06506986
1	0xbc681287	-0.0141645735
2	0xbcb2c941	-0.021824481
3	0xbd775a52	-0.06038887
4	0x3d7847e4	0.060615435
5	0xbd934d93	-0.071925305
6	0x3d39e5d1	0.045385186
7	0xbb025ab6	-0.0019890494
8	0xbd4c1123	-0.04982103
9	0xbbd4ace5	-0.006490337
10	0xbc94846f	-0.018129556
11	0xbc1b1706	-0.009465938
12	0x3d50eb63	0.051005732
13	0x3d1f0bf7	0.03882977
14	0xbd08acef	-0.033368047
15	0x3d02badb	0.03191648
16	0x3cc5b7d4	0.024135508
17	0x3cc4ed27	0.024038864
18	0xbdbddaf4	-0.092702776
19	0x3d401d33	0.046902847
20	0x3cb73245	0.022362838
21	0x3d425c03	0.04745103
22	0x3c2bbfaf	0.010482713
23	0x3d7203ad	0.059085537
24	0x3ceff754	0.02929274
25	0x3d991d74	0.07476321
26	0xbd1b8dc7	-0.037977006
27	0x3d17665e	0.03696286
28	0x3dae87c4	0.08521989
29	0x3d97b3c6	0.07407336
30	0xbca0025d	-0.019532377
31	0xbd8b0147	-0.06787353
32	0xbc9d2a44	-0.019185193
33	0x3c1ba742	0.009500327
34	0x3c413328	0.011791982
35	0xbc7e5f4e	-0.015525652
36	0x3bb316bf	0.005465358
37	0xbd0c520a	-0.034257926
38	0x3c1a54e9	0.009419658
39	0x3d16b298	0.036791414
40	0x3d1b5226	0.03792014
41	0xbb1eb4a9	-0.0024216569
42	0xbd14fb5e	-0.036372535
43	0xbcf8cd78	-0.030371413
44	0xbd99260d	-0.07477961
45	0xbae37a5e	-0.0017355194
46	0xbca85e0c	-0.020552658
47	0xbd85912c	-0.0652183
48	0x3beab5ba	0.007162777
49	0xbd8e2c2e	-0.0694202
50	0xbbf05053	-0.007333794
51	0xbd55d997	-0.052209463
52	0xbcd6ec48	-0.026235715
53	0x3d981a10	0.07426846
54	0x3d39879b	0.04529534
55	0xbd317ec2	-0.043333776
56	0x3d663a7e	0.056208126
57	0x3b9d05b3	0.004791939
58	0xbd45ee14	-0.048322752
59	0x3bdbe7aa	0.006710966
60	0x3da3710c	0.07980546
61	0xbd76c4fa	-0.060246445
62	0x3ce9449a	0.028475095
63	0x3daa419d	0.08313296
64	0x3d1dd48c	0.03853278
65	0x3d36d4ac	0.044636413
66	0xbb4b8a37	-0.0031057724
67	0xbd8533d2	-0.065040246
68	0x3cb45382	0.022012476
69	0x3cfc5db1	0.030806394
70	0xbcc92dc6	-0.02455796
71	0xbc23b1b0	-0.0099910945
72	0xbd7f9514	-0.06239803
73	0xbc7570c0	-0.014980495
74	0xbd85f2df	-0.065404646
75	0x3cd49f41	0.025954844
76	0xbd9ff954	-0.078112274
77	0xbbfddd90	-0.0077473596
78	0xbb0d7aaa	-0.0021588006
79	0x3d29f12c	0.041489765
80	0x3c8efc92	0.01745442
81	0x3d6afceb	0.057370108
82	0x3cfa22a0	0.030534089
83	0xbda60040	-0.081055164
84	0xbcb50e0b	-0.022101423
85	0xbd637e84	-0.055540577
86	0x3d4b570d	0.049643565
87	0x3d803bc1	0.06261397
88	0xbda17b51	-0.07884849
89	0x3c23796f	0.0099776825
90	0x3cc39e9d	0.023879344
91	0x3d0a819c	0.03381501
92	0x3bc2ad2d	0.0059410543
93	0xbd9018bf	-0.0703597
94	0xbc40b2c2	-0.011761369
95	0xbd8cd292	-0.068761006
96	0x3d99e906	0.07515149
97	0x3cb124d1	0.021624
98	0x3d458e8c	0.048231646
99	0xbd8c56b3	-0.06852474
100	0x3cbab56a	0.022791583
101	0xbc75639d	-0.014977363
102	0xbd298731	-0.041388694
103	0xbd92b6d9	-0.07163782
104	0x3da53e7d	0.08068559
105	0x3d9bf4dc	0.076150626
106	0x3d8d255e	0.06891893
107	0x3d8abf5b	0.067747794
108	0xbd5cf903	-0.053948414
109	0x3d99c39e	0.07508014
110	0xbd8c7435	-0.06858102
111	0x3b93ccec	0.0045105126
112	0x3d80ce65	0.06289367
113	0x3d7ae628	0.06125465
114	0x3a9a4bb5	0.001177183
115	0x3d47d4a7	0.048786785
116	0x3c8748d3	0.016514217
117	0x3d89ac11	0.06722272
118	0xbc92b8e2	-0.017910425
119	0xbd916d02	-0.0710087
120	0x3d036333	0.032077026
121	0x3d92f4a2	0.07175566
122	0x3d669cb6	0.056301795
123	0xbd985460	-0.07437968
124	0x3d8b3bde	0.06798528
125	0x3dada332	0.08478393
126	0x3d81a189	0.063296385
127	0x3d13d52b	0.036091965
128	0xbca430c3	-0.020042783
129	0xbd1270d7	-0.035752144
130	0xbda8300f	-0.082122914
131	0xbd88fc67	-0.06688767
132	0x3d6f5390	0.0584293
133	0xbd62273d	-0.0552132
134	0x3d4bae7a	0.04972694
135	0xbb9eaaf6	-0.0048421575
136	0x3ccb6f79	0.024833428
137	0x3cc5e2a8	0.02415593
138	0xbd6c6eda	-0.057722904
139	0xbd01f9c3	-0.031732332
140	0x3daa9555	0.08329264
141	0xbc9e4e1f	-0.01932436
142	0x3d696b06	0.05698683
143	0xbce6131f	-0.02808529
144	0x3c853c57	0.016264124
145	0x3d7397b0	0.059470832
146	0xbb8a8bc9	-0.0042280895
147	0x3d8fe465	0.07025985
148	0x3d6e83ba	0.058231093
149	0x3d74bc37	0.05974981
150	0x3c15bd3e	0.009139357
151	0x3da2f31c	0.07956526
152	0x3d03b4ed	0.032154966
153	0xbd6c6bc6	-0.05771997
154	0xba613cff	-0.0008592158
155	0xbd20332a	-0.039111294
156	0x3d148885	0.036263008
157	0xbd4f0236	-0.050539218
158	0xbd956df3	-0.07296362
159	0xbd0fdfee	-0.035125665
160	0xbd346708	-0.04404357
161	0xbc1db45a	-0.009625519
162	0xbc074be5	-0.008257841
163	0x3d0feed4	0.035139874
164	0x3c238e40	0.0099826455
165	0xbd47c3ef	-0.04877084
166	0xbdd55077	-0.10415738
167	0x3ca156e8	0.01969476
168	0xbd14ddf1	-0.036344472
169	0xbdb1cc28	-0.08681518
170	0x3d3fa416	0.046787344
171	0xbd82d77d	-0.063887574
172	0x3d70b1e6	0.058763407
173	0x3d89c36d	0.06726728
174	0xbda53279	-0.080662675
175	0x3da2908f	0.079377286
176	0xbda3c295	-0.07996098
177	0x3d9308a5	0.07179383
178	0x3da3ebb2	0.0800394
179	0xbd82e708	-0.06391722
180	0xbd260a69	-0.04053727
181	0xbcdeb67c	-0.027186625
182	0xbd1072a6	-0.035265587
183	0x3d85b803	0.06529238
184	0x3ceea2ef	0.029130427
185	0x3d140f94	0.03614767
186	0x3d3e1674	0.04640813
187	0x3d98ec54	0.07466951
188	0xbc29acdc	-0.010356154
189	0xbd84437e	-0.064581856
190	0xbd18faab	-0.03734843
191	0x3d956d76	0.07296269
192	0x3d938161	0.072024114
193	0x3b933ab9	0.0044930843
194	0x3d8bac01	0.068199165
195	0x3cbfc535	0.023409465
196	0xbd31926b	-0.043352526
197	0x3d957911	0.07298482
198	0x3da0089b	0.07814141
199	0x3cdfcaa2	0.027318303
200	0x3d5692b6	0.05238601
201	0xbbbe8391	-0.005814024
202	0xbcc1b3a0	-0.023645222
203	0x3d788413	0.06067283
204	0x3a156fb4	0.0005700544
205	0xbbbcc5f2	-0.0057609016
206	0xbbf37361	-0.0074295257
207	0x3cf64829	0.030063706
208	0x3d8468ad	0.06465278
209	0x3d8bb666	0.06821899
210	0x3da6ffe7	0.08154278
211	0xbc4cf0e6	-0.012508607
212	0x3d441ff9	0.047882054
213	0x3d8bbbd2	0.06822933
214	0xbc115054	-0.008869249
215	0x3c8cca71	0.017186375
216	0x3d9bd4e9	0.07608969
217	0xbd8831c3	-0.06650116
218	0x3bd29b2e	0.0064271903
219	0xbd516565	-0.051122088
220	0xbd1f1aea	-0.038844027
221	0x3d82ac9f	0.06380581
222	0xba1e513c	-0.00060393265
223	0xbc77bcb7	-0.015120677
224	0xbd4aeee6	-0.049544238
225	0x3d433cfc	0.04766558
226	0x3dac65d5	0.084178604
227	0x3d48951f	0.048970338
228	0xbd021c41	-0.031765226
229	0x3cfa4164	0.030548759
230	0x3d9ec2d0	0.07752001
231	0xbd986406	-0.07440953
232	0x3d4a3f1a	0.049376585
233	0xbc82d650	-0.015971333
234	0xbda3a37b	-0.07990166
235	0xbcc0ede5	-0.023550937
236	0x3d40b568	0.047048002
237	0x3b5972c8	0.0033179987
238	0xbd6d3b59	-0.057917926
239	0xbd78dfb4	-0.060760215
240	0x3d6cc268	0.057802588
241	0x3d04c69a	0.032415964
242	0xbdb129a3	-0.0865052
243	0xbcfef2fb	-0.031121721
244	0x3c4c6a7c	0.01247656
245	0x3d950fae	0.07278381
246	0xbd03d256	-0.032183014
247	0x3ccc8ff4	0.024970986
248	0xbb226e2a	-0.0024784901
249	0xbcba8018	-0.022766158
250	0xbd9f1f73	-0.0776967
251	0xbc8baeb8	-0.017051086
252	0x3d0c385c	0.034233436
253	0x3d532e56	0.05155786
254	0x3d57c396	0.05267676
255	0xbca8ba05	-0.020596514

encBlocks.1.conv2.bias f4 [16]
0	0x3d1f6f89	0.038924728
1	0xbb68e228	-0.003553519
2	0xbd0c6405	-0.034275074
3	0xbda66376	-0.081244394
4	0x3ceab5ab	0.02865108
5	0x3c7fe437	0.0156183755
6	0xbd9a2e95	-0.07528416
7	0xbd2baa15	-0.04191025
8	0x3ba0a09f	0.00490196
9	0x3b0e1ecd	0.002168584
10	0x3d21ad75	0.039472062
11	0x3d98aebc	0.07455203
12	0x3ad49641	0.0016219096
13	0x3bd010f8	0.006349679
14	0x3b8609c0	0.0040905178
15	0x3d099fe7	0.03359976

encBlocks.1.BN1.weight f4 [16]
0	0x3f803b66	1.0018127
1	0x3f7eab9b	0.994806
2	0x3f8059ef	1.0027446
3	0x3f81dc0f	1.0145282
4	0x3f803e0c	1.0018935
5	0x3f8034eb	1.0016149
6	0x3f7e595b	0.99355096
7	0x3f7fbd4b	0.99898213
8	0x3f804116	1.0019863
9	0x3f7ba511	0.98298746
10	0x3f7edcff	0.99555963
11	0x3f7b7279	0.98221546
12	0x3f7e74f0	0.9939718
13	0x3f81dc2a	1.0145314
14	0x3f7ffc53	0.9999439
15	0x3f80ba3d	1.0056835

encBlocks.1.BN1.bias f4 [16]
0	0x3ad720ee	0.0016413012
1	0xbc87e880	-0.016590357
2	0xbc2e2be7	-0.010630584
3	0x3c7e0423	0.015503916
4	0x3b81d3dd	0.0039620236
5	0xbb2e8870	-0.0026631616
6	0xbbdde671	-0.0067718555
7	0x3c618076	0.013763538
8	0x3b98cbbd	0.0046629594
9	0x3b713153	0.0036803081
10	0xbaa9740e	-0.0012928264
11	0xbc2f46c0	-0.01069802
12	0xbc0f443f	-0.0087442985
13	0x3c8e3fc2	0.017364386
14	0x3b1eebc5	0.0024249416
15	0xbcb30a85	-0.021855602

encBlocks.1.BN1.running_mean f4 [16]
0	0x3eddabdc	0.4329518
1	0xc013ce97	-2.3094842
2	0xc01bca77	-2.4342325
3	0x3f25da17	0.64785904
4	0x3fc72b42	1.5560076
5	0x400c362a	2.190806
6	0x4028fa6f	2.6402853
7	0x3fcd95e8	1.6061373
8	0x40016160	2.0215683
9	0x3fc48f43	1.535622
10	0x4028ada4	2.6355982
11	0x3fd19f31	1.6376706
12	0x3f4dc408	0.80377245
13	0x3edfdd74	0.43723643
14	0x3fb7e5ad	1.4366966
15	0xc067442a	-3.6135354

encBlocks.1.BN1.running_var f4 [16]
0	0x41cc6763	25.550482
1	0x4204fa57	33.244473
2	0x421e2d62	39.54432
3	0x40d4e65e	6.653121
4	0x40f9b8cb	7.8038077
5	0x419fbf98	19.968552
6	0x4223662d	40.84978
7	0x41cd613a	25.672474
8	0x41bfb5bd	23.96374
9	0x419e18fb	19.762197
10	0x4180fa5b	16.122244
11	0x40d4b728	6.647358
12	0x40eae821	7.340836
13	0x40a940cc	5.28916
14	0x4121b118	10.105736
15	0x42b16750	88.70178

encBlocks.1.BN2.weight f4 [16]
0	0x3f80ff36	1.0077884
1	0x3f8045b5	1.0021273
2	0x3f7e66dd	0.99375707
3	0x3f7fd2d3	0.9993107
4	0x3f806b92	1.0032828
5	0x3f7ec741	0.9952279
6	0x3f7dc62e	0.99130523
7	0x3f7e4fe3	0.9934065
8	0x3f7e0351	0.9922381
9	0x3f80529d	1.0025212
10	0x3f807860	1.0036736
11	0x3f7f9002	0.99829113
12	0x3f808301	1.0039979
13	0x3f80e70e	1.0070512
14	0x3f7f8466	0.998114
15	0x3f80a171	1.0049268

encBlocks.1.BN2.bias f4 [16]
0	0xbc1446d2	-0.009050088
1	0xbd5dc614	-0.05414398
2	0xbc847b51	-0.016172083
3	0xbd892728	-0.066969216
4	0x3d6dbc87	0.05804112
5	0xbd37a712	-0.044837065
6	0xbceca05c	-0.028885059
7	0x3bd0dddd	0.0063741044
8	0xbc4a4f05	-0.012347941
9	0xbd4fdd9e	-0.05074846
10	0xbd8bf60b	-0.06834038
11	0xbc55f890	-0.01305975
12	0xba852e54	-0.0010160902
13	0x3c1a32bf	0.009411513
14	0xba950da6	-0.0011371865
15	0xbc57ea47	-0.013178415

encBlocks.1.BN2.running_mean f4 [16]
0	0x3e6bab97	0.23014675
1	0x3ec474b6	0.38370293
2	0x3e094b35	0.13407595
3	0xbf3898a6	-0.72107923
4	0x3e4dfcfc	0.20116037
5	0xbe05fe43	-0.13085274
6	0xbe659d60	-0.22423315
7	0xbeb93802	-0.36175543
8	0xbe8990ce	-0.2686829
9	0x3e1909bb	0.14945118
10	0xbed5ad46	-0.4173376
11	0x3e43c593	0.19118337
12	0x3d7180c9	0.05896071
13	0xbd638c19	-0.05555353
14	0x3e77da70	0.24204421
15	0x3b74b3c8	0.0037338603

encBlocks.1.BN2.running_var f4 [16]
0	0x3d5a38e7	0.053276923
1	0x3f4689f1	0.7755423
2	0x3da45449	0.080238886
3	0x3e8e26e7	0.27764055
4	0x3e855165	0.26038662
5	0x3e4f6db0	0.20256686
6	0x3e636df6	0.22209916
7	0x3dcc68b9	0.09980912
8	0x3e1bca5e	0.15213916
9	0x3e8abf00	0.27098846
10	0x3df6c26b	0.12048801
11	0x3d55de2e	0.05221384
12	0x3d755443	0.05989481
13	0x3c9a9c48	0.018873349
14	0x3dac4480	0.08411503
15	0x3ce5272c	0.02797278

encBlocks.2.conv1.weight f4 [1, 16, 15, 15]
0	0x3ab6d162	0.0013947899
1	0x3b8a3905	0.004218223
2	0x3cafe5e2	0.021471921
3	0xbca77e85	-0.020446071
4	0xbc1cc702	-0.009568932
5	0x3bb905c7	0.0056464407
6	0x3c54b993	0.0129836975
7	0x3c4edfd1	0.012626604
8	0xbbf5a626	-0.007496613
9	0x3c504675	0.012712111
10	0xbc900cae	-0.017584171
11	0xbbe4ce74	-0.006982619
12	0x3c1557d4	0.009115178
13	0xbc45e638	-0.012078814
14	0x3ab0111a	0.0013432831
15	0x3b9d818d	0.0048067034
16	0x3ae6bd97	0.001760411
17	0x3bca932c	0.006182095
18	0x3c2020f9	0.009773486
19	0x3c40d9af	0.01177065
20	0xbc314f23	-0.01082209
21	0xbcb6b371	-0.022302361
22	0x3c73bc31	0.014876411
23	0x3b9c66df	0.0047730054
24	0xbc4ce79d	-0.012506393
25	0xbb9da475	-0.0048108646
26	0xbc6989df	-0.014254062
27	0xbbbb140a	-0.005709176
28	0xbbc25af3	-0.005931252
29	0xbc49fe7a	-0.012328738
30	0x3c715dee	0.014731867
31	0x3c2eaf98	0.010661982
32	0xbb20e3d7	-0.0024549866
33	0xbb7c63e8	-0.0038511697
34	0xbc1bf6bb	-0.009519274
35	0x3b0d8542	0.002159432
36	0x3ba44784	0.005013408
37	0xbc15ab68	-0.009135105
38	0xbb80c207	-0.00392938
39	0x3c1a6207	0.009422786
40	0x3c7e5c35	0.015524914
41	0x3cb1512e	0.021645155
42	0x3ad91978	0.0016563376
43	0x3b19092a	0.002335141
44	0x3cab467d	0.020907635
45	0x3b12c5c4	0.002239571
46	0xbadd1626	-0.0016867563
47	0x3b7b327c	0.0038329652
48	0x3a1d8ef9	0.00060103793
49	0x3c6d819e	0.014496235
50	0x3be9f622	0.007139937
51	0x3a677529	0.0008829409
52	0xbc075b26	-0.008261478
53	0xbc5a59ee	-0.013327105
54	0x3c2c401d	0.010513333
55	0xbbea8d14	-0.007157931
56	0xbb057faa	-0.0020370283
57	0xbc7f4c35	-0.015582134
58	0x3ad758c7	0.0016429656
59	0x3ba5632b	0.005047222
60	0x3cb01300	0.021493435
61	0x3cc69ec7	0.024245633
62	0x3a930f42	0.0011219757
63	0x3bacb1d9	0.0052702245
64	0x3c8b4d5c	0.017004661
65	0x3b979f2c	0.004627129
66	0xbc06297f	-0.008188604
67	0x3c10b563	0.008832308
68	0x3c89a938	0.016804323
69	0xbaa4f173	-0.0012584165
70	0x3bcc0a7b	0.0062268353
71	0x37fcc1b4	3.0130941e-05
72	0x3b39a5bc	0.0028327545
73	0xbc6f7c65	-0.01461706
74	0xbb2742b5	-0.0025521938
75	0xbbad677c	-0.0052918773
76	0x3bf60493	0.0075078695
77	0xbbb47b0e	-0.0055078333
78	0xbc2eb8a6	-0.010664141
79	0xbc3a5b27	-0.0113742715
80	0xbc8dca1f	-0.017308293
81	0xbb983ea7	-0.0046461406
82	0xbc978e1d	-0.018500382
83	0xbb5803e6	-0.0032961308
84	0x3b027e3e	0.0019911672
85	0x3b3f27d3	0.0029168024
86	0x3bf4e4df	0.0074735726
87	0xbc5b4285	-0.013382559
88	0xbc85f418	-0.016351745
89	0x3c63746e	0.0138827395
90	0xbc5a5690	-0.013326302
91	0x3c617343	0.013760391
92	0xbca1b8f1	-0.019741507
93	0xbd09cfce	-0.033645444
94	0xbca452ac	-0.020058952
95	0xbc562636	-0.013070634
96	0xbc1680b5	-0.00918596
97	0xbbac6918	-0.0052615516
98	0x3a8dda5d	0.0010822524
99	0x3c2e422f	0.010635897
100	0xbc9b909b	-0.018989852
101	0x3c4373dc	0.0119294785
102	0xbb9af934	-0.0047294144
103	0x3b99abf1	0.0046896865
104	0x3c72b29b	0.014813091
105	0xbaf4decf	-0.0018682125
106	0x3c13ed3b	0.009028728
107	0xbc881247	-0.016610278
108	0xbd0f1be1	-0.034938697
109	0xbc933668	-0.017970279
110	0xbcb44e10	-0.02200988
111	0xbd16c583	-0.036809456
112	0xbc712dec	-0.014720421
113	0xbcd0db88	-0.025495306
114	0x3b0e9c5b	0.0021760676
115	0x3b928793	0.004471728
116	0xbc1c5deb	-0.009543876
117	0xbc47b801	-0.012189866
118	0xbcd713ec	-0.026254617
119	0x3c1d08ca	0.009584615
120	0x3c75de3d	0.015006599
121	0xbaf999ad	-0.0019042991
122	0x3c533d4c	0.012893032
123	0xbcaa90eb	-0.020821055
124	0xbbdace72	-0.006677442
125	0xbcc2c292	-0.023774419
126	0xbadee6b5	-0.0017006012
127	0xbbdea279	-0.0067942706
128	0x3bf4eb12	0.0074743116
129	0x3bad9596	0.005297373
130	0xbba7350e	-0.00510276
131	0x3c05e48e	0.008172167
132	0x3c9977af	0.018733827
133	0xba7d8937	-0.00096716307
134	0x3c49e04e	0.012321545
135	0x3c1f3a89	0.009718546
136	0x3ca9bdac	0.020720325
137	0xbc06c268	-0.008225061
138	0x3b869b70	0.004107885
139	0xbba215f9	-0.004946467
140	0xbc8c6b91	-0.017141135
141	0xbcaaae1b	-0.020834973
142	0x3be1f6e8	0.0068958886
143	0x3bbb8461	0.005722568
144	0xbc750f25	-0.014957224
145	0x3b65236e	0.0034963745
146	0x3c2d1192	0.010563271
147	0xba8491fd	-0.0010114309
148	0xbc6400af	-0.013916179
149	0x3c069e51	0.0082164565
150	0x3c70305a	0.014659965
151	0xbc093651	-0.008374766
152	0xb9a9ad23	-0.0003236319
153	0xbbb1673c	-0.005413918
154	0x3c98f51a	0.018671561
155	0xbc78b116	-0.015178939
156	0xbc3b7516	-0.01144149
157	0xbc0e9914	-0.008703489
158	0x3ab6abb1	0.0013936666
159	0xbc8034be	-0.01565015
160	0x3c53d264	0.012928579
161	0xbb6f4fd1	-0.003651608
162	0xbc137a38	-0.009001307
163	0x3b8d0053	0.004303017
164	0x3be2e480	0.006924212
165	0x3c7e20f6	0.015510788
166	0x3bcb608b	0.006206577
167	0x3b311f60	0.0027026758
168	0xbcbff66a	-0.02343293
169	0xbc05718e	-0.008144749
170	0xbc04f8dc	-0.008115973
171	0xbce68ceb	-0.028143367
172	0xbc8ec2c6	-0.01742686
173	0xbbbbdada	-0.0057328762
174	0xba8925e7	-0.0010463566
175	0xbc9e8119	-0.019348668
176	0x3bae333a	0.0053161653
177	0xbb11b618	-0.002223378
178	0xbc9627d2	-0.018329535
179	0x3c329d5c	0.010901775
180	0x3cad4099	0.021148967
181	0xbc4930c7	-0.012279696
182	0x3c8f7da6	0.017515969
183	0xbc628b98	-0.013827227
184	0xbad8bb20	-0.001653526
185	0x3c7e3d8c	0.015517604
186	0xbbc3ed70	-0.0059792325
187	0x3ad0e528	0.0015937435
188	0x39bd7d43	0.00036142216
189	0xbcfb6fdd	-0.030692989
190	0x3bb532c8	0.0055297352
191	0xbba045d5	-0.004891137
192	0xbc3f9157	-0.011692367
193	0xbadb30ca	-0.0016722914
194	0x3b78fc06	0.0037992015
195	0x3c6b03b3	0.014344144
196	0x3cd8849c	0.02643042
197	0xba2898c5	-0.0006431456
198	0xbbe43a69	-0.006964971
199	0x390feecf	0.00013726506
200	0x3cb0d941	0.02158797
201	0x3afd5570	0.001932783
202	0xbbf82277	-0.007572468
203	0x3b8b1885	0.0042448663
204	0x3cadd1a7	0.021218134
205	0xbb864432	-0.004097485
206	0x3cb5cf2c	0.022193514
207	0xbc19ebd3	-0.009394604
208	0xbb9be34c	-0.0047573205
209	0x3bb1de13	0.0054280846
210	0x3cbad962	0.022808734
211	0x3c8f6ff9	0.017509447
212	0x3c68049f	0.014161258
213	0xbbf3a3f7	-0.0074353176
214	0x3ccd3068	0.025047496
215	0xbbbaf8c4	-0.0057059247
216	0xbc346806	-0.011011129
217	0x3c83832c	0.016053759
218	0xbad2b2ae	-0.0016074979
219	0xbc51b8ba	-0.01280039
220	0x3c411bc0	0.011786401
221	0x3c9f9038	0.019477949
222	0xbbe8a209	-0.007099394
223	0x3bd1fb0b	0.0064081005
224	0x3cc2c6d0	0.023776442
225	0x3c9268a7	0.017872168
226	0x3c445370	0.011982784
227	0xba7fa072	-0.0009751386
228	0x3b4d5bca	0.0031335228
229	0xbc3c7626	-0.011502778
230	0x3c2f1d5c	0.010688152
231	0x3c692a02	0.014231207
232	0xbbe376be	-0.0069416454
233	0x3c02d781	0.00798595
234	0xbbfb03e8	-0.007660378
235	0xbbe61e3c	-0.007022647
236	0x3a773ddd	0.00094315206
237	0x3c28b56d	0.0102971615
238	0x3c7dac86	0.015483027
239	0x3b108ae1	0.0022055435
240	0x3b952e50	0.00455264
241	0x3c86eacb	0.01646938
242	0xbc490925	-0.012270247
243	0x3c7ec6c8	0.015550323
244	0x3c817c82	0.01580644
245	0x3b0dbecc	0.0021628616
246	0x3c053b2a	0.008131782
247	0xbb603478	-0.0034210961
248	0x3c050905	0.008119826
249	0x3cbdf294	0.02318696
250	0x3ca926cc	0.020648383
251	0x3c91adb6	0.017783027
252	0x3c5488a5	0.012972032
253	0x3919a3d9	0.00014652255
254	0xba39d698	-0.0007089167
255	0x3c17ff8b	0.009277235

encBlocks.2.conv2.weight f4 [1, 1, 3, 3]
0	0xbe8c0fd7	-0.27355835
1	0x3d91d0ad	0.0711988
2	0x3da6aabc	0.08138034
3	0x3c37498f	0.011186971
4	0x3e9dbdb7	0.30808803
5	0xbe55795c	-0.20847076
6	0x3dac5f1e	0.0841658
7	0xbc67ba2b	-0.014143507
8	0x3e4ae7cd	0.19814987
