Model_params/ma1_macro_best.pt (torch, 321755 bytes, 26 tensors)

encBlocks.0.conv1.weight f4 [16, 3, 15, 15]
0.0009951092 -0.0068632653 -0.039281894 -0.028536046 0.029883629 -0.026277445 -0.0053474493 0.031299528
-0.024915913 0.004881206 -0.0022539045 -0.0050304923 -0.0016350826 0.0006568734 -0.0302505 0.0129734315
-1.6376116e-05 -0.04223396 0.025780492 -0.030603461 -0.020187972 0.018042425 0.019027684 -0.031189075
-0.0040965746 -0.032765888 -0.035529207 0.032263603 -0.03771602 0.03110884 0.029088605 0.029277137
0.02664946 0.025838012 0.026249945 -0.0022998461 -0.0061342656 -0.008400117 -0.00928506 -0.030074628
-0.016781151 -0.0024327482 0.03129944 0.031910773 0.024787998 -0.00091575854 -0.021196412 -0.018818704
-0.035041016 -0.015223219 4.0128096e-05 0.013268819 -0.03145596 0.008316407 -0.0345957 -0.03125289
0.024280962 0.00038722577 0.0012142938 0.0057354574 -0.019408982 0.031126756 0.028713092 0.004998775
-0.00026241035 0.026378196 -0.028135063 -0.02090288 -0.02039661 0.01409639 0.027463146 0.022683822
0.035752494 -0.029319359 -0.010651395 -0.011569986 -0.037762452 0.0169082 0.008866688 0.00518125
-0.013556589 -0.03459591 0.013604772 0.028201438 -0.03757141 -0.02435292 -0.0141545525 0.007798869
-0.03493556 -0.026492506 -0.015645767 -0.027401866 -0.028215146 -0.0073762983 -0.017288446 -0.027106943
-0.019241346 -0.03925485 0.020565065 0.033003185 -0.019773759 -0.0063921995 -0.017044438 0.030026168
0.03500309 0.0064965696 -0.028807627 -0.037459165 -0.00036265823 -0.0010639764 0.00791713 0.003788389
0.027318275 0.033190016 -0.013122307 0.014142307 0.02373553 -0.019897932 0.023995588 -0.02446692
0.0032383897 0.028140288 -0.0072829854 -0.042892624 0.025054691 -0.018682469 -0.01617158 -0.017903613
0.022360835 -0.007483145 -0.00944747 0.014512668 0.0040641637 0.022287047 -0.03416355 -0.03178738
0.028633475 -0.0023086502 -0.0018944354 -0.012590445 0.0011345774 -0.0031027482 -0.009072352 0.025609635
0.0016574317 -0.02953071 -0.033467483 -0.006503638 -0.027775055 0.008848521 -0.041704718 -0.033104006
-0.006254587 -0.025261456 -0.03666738 -0.028183805 0.0074589285 0.004833172 0.008294121 -0.0032225216
-0.0148809785 -0.02791038 -0.007010815 0.032399744 -0.027149407 -0.011686915 -0.009001463 0.02582347
0.033682853 -0.00854743 0.008637484 -0.020726051 -0.007518118 0.011964318 0.0062745186 0.026601328
-0.035199556 0.03356191 0.02464705 0.022933498 -0.03741232 -0.017213978 0.019228669 0.024462964
-0.016972898 0.0010496734 -0.03890699 -0.039795358 0.00024323007 0.017411022 -0.033292435 -0.018385231
0.014022419 -0.029982725 -0.027519122 0.015455043 -0.01918711 -0.007032838 0.007914437 0.020934239
-0.03815002 0.013627558 -0.0010658704 -0.005804713 -0.013664288 -0.014202667 -0.010944937 -0.0036224653
0.020506619 0.008690457 0.0047003212 0.0076785204 -0.0051196376 -0.02793711 0.0140969325 0.013699669
-0.016927116 0.025854023 0.0070612077 -0.031234225 -0.030183963 -0.033213425 -0.03842495 -0.027689638
-0.04174699 -0.025810514 -0.011884929 0.018428572 0.018890982 -0.038927637 -0.018858736 0.010725668
-0.028377144 0.015722882 -0.04340307 -0.05334676 -0.046160687 -0.012463444 -0.0342349 6.2073166e-05
-0.031715754 0.006721233 -0.025891004 -0.010310533 0.024883619 -0.015949717 0.020787695 -0.01961386
-0.037164625 -0.0027668476 -0.0386289 -0.017622368 0.016225176 -0.013211465 0.0056219613 -0.03908027
00000000: 536e 823a 3ee5 e0bb 0de6 20bd 6dc4 e9bc
00000010: 83ce f43c cc43 d7bc a839 afbb ef33 003d
00000020: 751c ccbc 86f2 9f3b 3eb6 13bb d4d6 a4bb
00000030: 4550 d6ba 0732 2c3a e6cf f7bc 848e 543c
00000040: 715f 89b7 84fd 2cbd 9c31 d33c 1cb4 fabc
00000050: 3f61 a5bc b5cd 933c f2df 9b3c 3b80 ffbc
00000060: 8f3c 86bb 8635 06bd 1387 11bd d726 043d
00000070: 1d7c 1abd f7d7 fe3c 3a4b ee3c 9bd6 ef3c
00000080: f84f da3c 3daa d33c 200a d73c 04b9 16bb
00000090: f301 c9bb a5a0 09bc 5d20 18bc 115f f6bc
000000a0: a078 89bc be6e 1fbb d733 003d dfb4 023d
000000b0: 3310 cb3c 840f 70ba 19a4 adbc af29 9abc
000000c0: 2b87 0fbd cf6a 79bc 374f 2838 7665 593c
000000d0: f7d7 00bd 8a41 083c 39b4 0dbd 0803 00bd
000000e0: dee8 c63c 9004 cb39 f028 9f3a 81f0 bb3b
000000f0: 96ff 9ebc 8afd fe3c b837 eb3c c4cc a33b
00000100: 1f94 89b9 1617 d83c 817b e6bc 843c abbc
00000110: cb16 a7bc 8cf4 663c 64fa e03c 6cd3 b93c
00000120: 3571 123d 272f f0bc 3083 2ebc 0a90 3dbc
00000130: cdac 1abd 1183 8a3c 9645 113c 7ac7 a93b
00000140: 751c 5ebc 71b4 0dbd 8de6 5e3c b406 e73c
00000150: 7be4 19bd c67f c7bc 7fe8 67bc a88d ff3b
00000160: 9718 0fbd d006 d9bc 8d2b 80bc e179 e0bc
00000170: 7323 e7bc e0b4 f1bb 80a0 8dbc 610f debc
00000180: 07a0 9dbc b2c9 20bd 1178 a83c 592e 073d
00000190: 94fc a1bc a875 d1bb c7a0 8bbc 70f9 f53c
000001a0: 665f 0f3d 2de1 d43b f9fd ebbc c86e 19bd
000001b0: 2a23 beb9 2075 8bba dab6 013c 9f46 783b
000001c0: 93ca df3c 41f2 073d f2fe 56bc 23b5 673c
000001d0: 0471 c23c fd00 a3bc 6592 c43c da6e c8bc
000001e0: 2a3b 543b 7686 e63c 1ca6 eebb 2db0 2fbd
000001f0: 7f3f cd3c fa0b 99bc 437a 84bc 99aa 92bc
00000200: 122e b73c 2c35 f5bb 90c9 1abc 8bc6 6d3c
00000210: ad2c 853b 5393 b63c 14ef 0bbd 7c33 02bd
00000220: c090 ea3c b94c 17bb b44e f8ba 2748 4ebc
00000230: 1ab6 943a 7a57 4bbb 34a4 14bc 4ccb d13c
00000240: 2e3e d93a 63ea f1bc 3315 09bd 781c d5bb
00000250: 8388 e3bc 63f9 103c 91d2 2abd 1198 07bd
00000260: 47f3 ccbb 1df1 cebc 8930 16bd b9e1 e6bc
00000270: 076a f43b 965f 9e3b 11e4 073c f130 53bb
00000280: 59cf 73bc 4fa4 e4bc fbba e5bb 98b5 043d
00000290: 6f68 debc 797a 3fbc df7a 13bc be8b d33c
000002a0: 08f7 093d 850a 0cbc 3c84 0d3c aec9 a9bc
000002b0: 8b5a f6bb fd05 443c 7a9a cd3b 07eb d93c
000002c0: 692d 10bd 3778 093d 9ce8 c93c 08df bb3c
000002d0: a93d 19bd 5404 8dbc 7185 9d3c 8e66 c83c
000002e0: bf0a 8bbc 3295 893a f05c 1fbd 7500 23bd
000002f0: 930b 7f39 8fa1 8e3c a65d 08bd a09c 96bc
00000300: 4abe 653c 559e f5bc c86f e1bc 2637 7d3c
00000310: 492e 9dbc b973 e6bb 8eab 013c 487e ab3c
00000320: 3243 1cbd 1f46 5f3c adb4 8bba 7635 bebb
00000330: 2ee0 5fbc 4eb2 68bc 6552 33bc e266 6dbb
00000340: 7ffd a73c 6b62 0e3c 2705 9a3b 199c fb3b
00000350: a2c2 a7bb 5edc e4bc d2f6 663c 9474 603c
00000360: bcaa 8abc d1cb d33c b461 e73b ebde ffbc
00000370: 5c44 f7bc cd0a 08bd 7b63 1dbd 61d5 e2bc
00000380: e4fe 2abd 9270 d3bc 01b9 42bc 84f7 963c
00000390: 43c1 9a3c 9672 1fbd a37d 9abc b6ba 2f3c
000003a0: 2f77 e8bc 46cd 803c 6bc7 31bd 2282 5abd
000003b0: fd12 3dbd 7933 4cbc e539 0cbd 472d 8238
000003c0: 61e8 01bd ca3d dc3b 5f19 d4bc 83ed 28bc
000003d0: bbd8 cb3c fba8 82bc f54a aa3c 3fad a0bc
000003e0: ef39 18bd 0054 35bb 5639 1ebd c95c 90bc
000003f0: a9ea 843c e774 58bc 6e38 b83b a212 20bd

encBlocks.0.conv1.bias f4 [16]
-0.037749562 -0.021960072 -0.032187812 0.0042633982 0.021768486 -0.04273874 -0.012842445 -0.002061071
0.025793137 -0.019885302 0.023619307 -0.02629499 -0.004162004 0.007311384 0.0048579266 0.02023049
00000000: 499f 1abd 9ce5 b3bc 5ed7 03bd fab3 8b3b
00000010: d353 b23c d10e 2fbd 1e69 52bc 0913 07bb
00000020: 214c d33c 80e6 a2bc 477d c13c 9768 d7bc
00000030: 6c61 88bb 5694 ef3b 3e2f 9f3b 6aba a53c

encBlocks.0.conv2.weight f4 [16, 16, 3, 3]
0.07101581 0.058460195 0.060825404 -0.055232693 0.046940874 -0.045260508 0.03600123 0.07309173
0.050617155 0.0015121413 -0.08672405 -0.06400072 -0.015829263 0.03792372 -0.027295645 0.04482572
-0.060781397 -0.0015181511 -0.016507773 0.06791173 0.01314387 0.05320665 0.06986401 -0.00065585563
-0.029110283 0.07047971 0.07235925 0.052141085 -0.037159942 -0.067502566 -0.047938064 0.042602766
0.025516806 -0.040139772 0.0698504 0.029755328 -0.022949157 0.05310673 0.00983816 -0.007570843
-0.038084406 0.033173203 0.049961265 0.014172996 -0.030367177 -0.03585918 -0.07963135 0.06446318
0.015355202 -0.0015463957 0.07459273 0.018882722 0.008968347 0.08002465 -0.057419002 -0.0056785853
-0.019023262 -0.08705069 0.017948652 -0.0062095555 -0.07703685 -0.036299054 -0.011903553 -0.045358784
-0.023642287 0.06490878 -0.034604553 -0.012516148 -0.04825037 0.08362642 0.08204327 0.058594625
0.10181479 -0.00076062884 -0.03432114 -0.016963122 0.04726731 -0.03159306 -0.035671014 0.07790146
0.011100908 -0.039855413 0.013158138 0.07387221 -0.039864253 -0.01590017 -0.045979407 0.021929575
0.07239668 -0.070136465 -0.081378974 -0.047310293 0.04261719 0.057301123 -0.08147244 -0.049813
-0.073607385 0.036867227 -0.04834281 0.038408138 -0.01650118 -0.0039989077 0.108576275 0.08448201
0.01430473 0.11122675 0.10784298 0.10732736 0.043385003 0.06228333 0.04310092 -0.07238056
0.034940418 -0.028384192 -0.07051336 -0.034782484 0.08055059 -0.002739546 -0.024750698 0.04744471
0.0027583693 -0.06003714 -0.040577985 -0.03755578 -0.07691892 -0.0427545 0.0061252355 0.049217615
-0.058633555 -0.023080582 -0.000623455 -0.049045797 0.029628988 7.364028e-05 0.06070559 -0.06445849
-0.06950047 0.06366532 0.04536762 0.043227486 0.07509303 -0.027538454 -0.024923287 -0.037227675
-0.047438502 0.03830884 0.063331544 -0.02507054 -0.008929158 0.07580944 0.06700664 -0.03406837
0.032863718 0.06665411 -0.03844382 0.06469279 -0.033852626 -0.048928518 -0.028584255 -0.06671091
0.027601067 0.044181246 0.07663226 -0.005796322 0.06782942 -0.074250035 0.01118697 0.08042816
0.013449792 -0.041002676 0.036245946 0.019112168 0.00869981 0.06925873 -0.0013043875 -0.0740979
0.02276106 0.029348858 -0.014909678 0.040121518 0.0014252773 0.08074757 -0.07801402 0.039053917
0.066932656 0.08015894 0.056581832 0.01044656 0.013975905 0.022870855 -0.054139037 0.055671155
0.06036013 -0.035709493 -0.05314288 -0.042143445 0.01777069 0.0045338217 -0.049909614 0.05049263
-0.0053008054 -0.026568394 -0.047826827 -0.01702845 0.06343444 0.0033720203 -0.0029026486 -0.03005658
0.07812723 -0.05427212 0.020543003 0.06660137 -0.07894522 0.018536316 0.032653093 -0.070587315
-0.03394794 0.080823004 -0.009617653 0.06287788 -0.059119523 -0.06369022 -0.055231985 0.0044235275
-0.074665785 0.052012943 -0.07461361 -0.026633063 -0.08244535 0.05875603 -0.012318484 -0.08513508
-0.07937643 -0.03245293 0.027567225 -0.08339586 -0.041825343 -0.019667512 0.04831667 -0.05205483
-0.081211075 -0.073595256 -0.08750775 0.06598325 0.053639293 0.05027074 -0.036886502 0.1008276
-0.053121902 -0.0025174653 0.04475367 0.09324514 -0.06348599 -0.052523892 0.028456481 0.051007275
00000000: bd70 913d f573 6f3d 0f24 793d ad3b 62bd
00000010: 1345 403d 1563 39bd 0776 133d 1eb1 953d
00000020: ef53 4f3d 0b33 c63a 619c b1bd cf12 83bd
00000030: 5fac 81bc e755 1b3d 1e9b dfbc 2d9b 373d
00000040: eaf5 78bd b3fc c6ba 4f3b 87bc 4e15 8b3d
00000050: 6359 573c 37ef 593d dd14 8f3d baed 2bba
00000060: b078 eebc ab57 903d 1631 943d e491 553d
00000070: 0635 18bd c93e 8abd b45a 44bd 3d80 2e3d
00000080: 9f08 d13c 9a69 24bd ba0d 8f3d 72c1 f33c
00000090: dfff bbbc 7186 593d 3c30 213c d614 f8bb
000000a0: 65fe 1bbd a0e0 073d 2fa4 4c3d db35 683c
000000b0: 96c4 f8bc 13e1 12bd c315 a3bd 4605 843d
000000c0: 6394 7b3c 6eb0 caba 13c4 983d f0af 9a3c
000000d0: f9ef 123c f7e3 a33d 3030 6bbd 6d13 babb
000000e0: acd6 9bbc a247 b2bd 0d09 933c 8779 cbbb
000000f0: 7fc5 9dbd 51ae 14bd 1f07 43bc 22ca 39bd
00000100: 78ad c1bc e5ee 843d 81bd 0dbd 8810 4dbc
00000110: 2ea2 45bd 5444 ab3d 4d06 a83d eb00 703d
00000120: 4684 d03d f064 47ba 5394 0cbd 3ff6 8abc
00000130: 5e9b 413d b967 01bd c51b 12bd cd8a 9f3d
00000140: 95e0 353c 6e3f 23bd 3b95 573c 504a 973d
00000150: b348 23bd 1341 82bc e754 3cbd a7a5 b33c
00000160: b644 943d b5a3 8fbd 05aa a6bd 70c8 41bd
00000170: 5d8f 2e3d 95b4 6a3d 06db a6bd b708 4cbd
00000180: 78bf 96bd 1702 173d 1c03 46bd da51 1d3d
00000190: 7c2d 87bc 4509 83bb 3d5d de3d e704 ad3d
000001a0: 635e 6a3c daca e33d c8dc dc3d 72ce db3d
000001b0: 79b4 313d ce1c 7f3d 978a 303d 423c 94bd
000001c0: af1d 0f3d f785 e8bc 4f69 90bd 1478 0ebd
000001d0: b5f7 a43d f489 33bb fac1 cabc 6255 423d
000001e0: c2c5 343b 81e9 75bd 1a35 26bd 17d4 19bd
000001f0: ab87 9dbd 581f 2fbd 33b6 c83b 6998 493d
00000200: bd29 70bd 7d13 bdbc 5b6f 23ba 3fe4 48bd
00000210: 7eb8 f23c 536f 9a38 6da6 783d d002 84bd
00000220: 4356 8ebd f762 823d 66d3 393d 4e0f 313d
00000230: 60ca 993d 5398 e1bc ec2b ccbc 0c7c 18bd
00000240: e04e 42bd bbe9 1c3d f8b3 813d bc60 cdbc
00000250: 9a4b 12bc fb41 9b3d c73a 893d 468b 0bbd
00000260: 1b9c 063d f381 883d 4477 1dbd a77d 843d
00000270: 0da9 0abd 4569 48bd 8729 eabc bb9f 88bd
00000280: a21b e23c 65f7 343d 60f1 9c3d 13ef bdbb
00000290: 27ea 8a3d 6710 98bd 8e49 373c 85b7 a43d
000002a0: 845c 5c3c 6cf2 27bd a176 143d 1f91 9c3c
000002b0: a689 0e3c 85d7 8d3d fbf7 aaba a4c0 97bd
000002c0: 6775 ba3c 046d f03c b947 74bc 7656 243d
000002d0: 5fd0 ba3a fb5e a53d d1c5 9fbd 00f7 1f3d
000002e0: fd13 893d 5f2a a43d 5ac2 673d 0c28 2b3c
000002f0: 32fb 643c a95b bb3c e5c0 5dbd 7007 643d
00000300: 2f3c 773d 1e44 12bd 59ac 59bd 9b9e 2cbd
00000310: d793 913c 7490 943b 066e 4cbd 5cd1 4e3d
00000320: 61b2 adbb f6a5 d9bc 10e6 43bd 3f7f 8bbc
00000330: eae9 813d 1dfd 5c3b 5d3a 3ebb 3839 f6bc
00000340: 2b01 a03d 714c 5ebd cd49 a83c 4d66 883d
00000350: 08ae a1bd 79d9 973c 40bf 053d 1590 90bd
00000360: ff0c 0bbd 8886 a53d 5c93 1dbc 1ec6 803d
00000370: 5027 72bd 0570 82bd ef3a 62bd 3df3 903b
00000380: 60ea 98bd 860b 553d 05cf 98bd 952d dabc
00000390: 1cd9 a8bd 2aaa 703d 77d3 49bc 4d5b aebd
000003a0: 1c90 a2bd 5ded 04bd a9d4 e13c 73cb aabd
000003b0: 0d51 2bbd c31d a1bc b3e7 453d 7237 55bd
000003c0: fe51 a6bd 1cb9 96bd 4337 b3bd 3a22 873d
000003d0: e0b4 5b3d b1e8 4d3d 4d16 17bd b37e ce3d
000003e0: 5a96 59bd 0ffc 24bb a04f 373d 4ff7 be3d
000003f0: f104 82bd 4b23 57bd 911d e93c 01ed 503d

encBlocks.0.conv2.bias f4 [16]
-0.050122354 0.084887184 -0.05243385 0.07479989 -0.03609303 -0.041334614 0.03515657 -0.048869308
-0.01153683 -0.04745183 -0.037308928 -0.009038995 0.019828094 -0.056053177 -0.029947575 -0.012727545
00000000: 194d 4dbd 55d9 ad3d e0c4 56bd af30 993d
00000010: 49d6 13bd 7c4e 29bd 5600 103d 2f2b 48bd
00000020: f904 3dbc da5c 42bd 3fd1 18bd 4b18 14bc
00000030: 876e a23c 0498 65bd 9e54 f5bc 3187 50bc

encBlocks.0.BN1.weight f4 [16]
1.0040889 0.9833102 1.0235927 0.98263943 1.0152395 0.9938185 1.0009868 0.9950149
0.9992011 0.999579 0.9952084 1.0308574 0.9722978 1.0046453 0.9891426 0.98690355
00000000: fc85 803f 38ba 7b3f 1605 833f 428e 7b3f
00000010: 5ef3 813f e46a 7e3f 5620 803f 4cb9 7e3f
00000020: a5cb 7f3f 69e4 7f3f fac5 7e3f 23f3 833f
00000030: 82e8 783f 3898 803f 7338 7d3f b6a5 7c3f

encBlocks.0.BN1.bias f4 [16]
-0.008316765 0.0042836186 -0.045724854 -0.00486791 0.006112286 -0.022994488 0.02178482 -0.024842689
-0.046249285 -0.016416604 -0.031547017 -0.031181414 -0.02150214 0.043051604 -0.014798179 -0.0317039
00000000: 0a43 08bc 995d 8c3b fc49 3bbd fd82 9fbb
00000010: 9249 c83b f05e bcbc 1476 b23c e582 cbbc
00000020: e46f 3dbd 1d7c 86bc 7237 01bd 2a70 ffbc
00000030: 4225 b0bc e156 303d 1074 72bc f3db 01bd

encBlocks.0.BN1.running_mean f4 [16]
-2.9970431 2.764648 -0.12779434 -1.038861 0.28470406 1.3579315 2.186565 -0.47551516
-1.3551087 1.8560263 -1.924979 0.1907501 1.9997916 1.2856979 1.6239115 1.3901436
00000000: 8ecf 3fc0 feef 3040 85dc 02be 66f9 84bf
00000010: bbc4 913e b3d0 ad3f aef0 0b40 b976 f3be
00000020: 3474 adbf 4592 ed3f b665 f6bf ff53 433e
00000030: 2cf9 ff3f c091 a43f 55dc cf3f 3af0 b13f

encBlocks.0.BN1.running_var f4 [16]
2.5769067 2.3146453 0.11792818 0.39162526 0.11374096 0.67066544 1.528618 0.148159
0.6207854 1.2415427 1.2017534 0.0761888 1.2573986 0.6080981 1.0212672 0.60316885
00000000: 0aec 2440 2623 1440 5484 f13d 1b83 c83e
00000010: 05f1 e83d bbb0 2b3f c1a9 c33f feb6 173e
00000020: cbeb 1e3f dfea 9e3f 0ed3 993f e008 9c3d
00000030: 70f2 a03f 51ac 1b3f e2b8 823f 4669 1a3f

encBlocks.0.BN2.weight f4 [16]
1.0279616 0.9964715 1.0042064 0.9856153 1.0110172 0.99834055 0.99972653 0.9871354
1.0091088 0.99361163 0.97830373 1.0050029 1.0016474 0.990499 1.0078847 1.0045896
00000000: 3f94 833f c218 7f3f d689 803f 4951 7c3f
00000010: 0369 813f 3f93 7f3f 14ee 7f3f e8b4 7c3f
00000020: 7a2a 813f 555d 7e3f 1d72 7a3f efa3 803f
00000030: fb35 803f 5891 7d3f 5e02 813f 6496 803f

encBlocks.0.BN2.bias f4 [16]
0.1577352 0.067063324 0.04699149 0.039702766 0.077835545 0.0051006987 0.006204245 0.035680953
0.039324477 -0.07269826 -0.038098022 -0.055903777 0.00962989 0.06328095 0.08061896 0.02030005
00000000: 5685 213e 7f58 893d 267a 403d 5e9f 223d
00000010: 3e68 9f3d c323 a73b fb4c cb3b 3126 123d
00000020: b412 213d d3e2 94bd ac0c 1cbd 5cfb 64bd
00000030: b0c6 1d3c 7199 813d 8e1b a53d 4a4c a63c

encBlocks.0.BN2.running_mean f4 [16]
0.18500029 0.25330302 0.159201 -0.004844471 0.635888 -0.13911039 0.013993224 -0.45510548
0.4224154 -0.3088046 -0.49927524 -0.51540273 0.20302844 0.16988808 0.54590917 0.24668267
00000000: b770 3d3e efb0 813e 9605 233e 5ebe 9ebb
00000010: 8ec9 223f f472 0ebe d643 653c 9603 e9be
00000020: d546 d83e a31b 9ebe 01a1 ffbe 6ff1 03bf
00000030: b0e6 4f3e 24f7 2d3e b4c0 0b3f 629a 7c3e

encBlocks.0.BN2.running_var f4 [16]
0.16241072 0.13060096 0.19462988 0.10337964 0.44935375 0.15166192 0.035653125 0.38983655
0.21458772 0.19528581 0.2199489 0.355164 0.21795803 0.09539233 0.3240599 0.13316119
00000000: ff4e 263e 42bc 053e 0e4d 473e b4b8 d33d
00000010: b211 e63e 434d 1b3e 0309 123d a898 c73e
00000020: e2bc 5b3e 01f9 473e 493a 613e 0ed8 b53e
00000030: 6430 5f3e 0e5d c33d 2eeb a53e 685b 083e

encBlocks.1.conv1.weight f4 [16, 16, 15, 15]
0.028724195 -0.0038733808 0.0064274604 0.0004214403 0.016869586 0.02040559 0.016471008 0.0075835083
0.024871606 0.008858464 0.009106306 0.0057796245 0.032169025 0.01870996 0.009431819 0.0064605875
0.0023697703 0.021871652 0.005607723 0.0076829223 0.008697172 0.01740447 0.025852256 0.007813528
0.020598754 0.017213805 0.006954339 0.022049122 0.0019574875 0.007978231 0.025296755 0.003991284
0.017944448 0.00096187025 0.007578322 0.00213328 0.027386952 0.031709746 0.0019282385 -0.0012364824
0.0010121219 0.021383554 0.028124567 0.01917863 -0.010076699 0.0019316053 0.006890706 0.005543246
0.017088724 0.018668795 0.0046300204 0.020190934 0.015978983 0.018105868 0.012602981 0.0033406012
0.023802787 0.0015288325 0.024362223 -0.010716891 0.005805869 -0.0031568576 -0.006287783 0.012219509
0.017255528 0.027407674 0.031261463 0.008258765 -0.002352449 0.0101748025 -0.007278231 -0.00036127015
0.01985925 -0.00464662 0.004258197 0.0064519662 0.0072736396 -0.002212603 0.010661251 0.00061759935
0.0037938375 0.012020702 0.009246782 0.00741342 -0.008504907 -0.010970622 0.017742347 0.011441216
0.005836074 -0.001960594 -0.010122054 6.908948e-05 0.006924824 -0.011737869 -0.010679915 0.0072825775
0.01049535 0.009683276 0.012447141 -0.012386844 0.017355809 -0.0086672595 0.00088772783 0.0015322926
-0.004073479 -0.010834766 -0.0042336765 -0.001560109 -0.0032445053 0.013236141 0.00962268 0.02342657
0.0057466235 -0.0009913405 -0.027751638 0.013005307 0.0027380208 0.0020611186 -0.0041444357 -0.01215398
0.02235041 0.020201176 0.0017633692 0.0039972095 0.018670151 0.020731905 0.0046784133 0.026155533
0.006757157 0.014638776 0.0145432055 0.0131106535 -0.0037018666 0.00069219904 0.0061258664 0.0064635393
-0.0039672796 0.0036078766 -0.002123475 0.012132194 0.016034247 0.0026384862 0.0023208186 -0.008696057
-0.001682805 0.014880907 -0.006814931 0.02036011 0.0145451715 -0.0115416795 0.014726623 0.02425288
0.014572418 0.020657979 0.0017021762 -0.005698278 0.02154778 0.013732325 0.0056600464 -0.00089927757
-0.011713708 0.023150042 -0.0011034885 0.014824385 0.0053589907 0.03683826 0.0006772146 0.009280852
0.02376222 0.017235253 0.0038922974 0.009470186 0.02119604 0.0027173078 0.007942264 0.020199213
0.01917847 0.002374166 0.019376198 0.01747045 0.0061543444 -0.0028113695 0.016449112 0.008278592
0.02539873 0.024286173 0.02196726 0.007860754 0.017354485 0.0029049797 -0.005415188 -0.0071526105
0.001125878 0.001965369 0.017555078 0.03853143 0.023272725 0.018327633 0.0014775075 0.023248516
0.01751487 0.023377838 0.024727782 0.018714849 0.0050203637 -0.0017323327 0.018500874 0.00032503824
0.01835118 0.0062543945 0.01821567 0.02259014 -0.0015739063 0.005881735 0.008772346 0.017358838
0.002276181 0.0023863981 -0.00067844754 0.0014531398 -0.009090277 0.028096808 -0.0028276592 0.0033547285
-0.0012305625 -0.015996758 0.0074359695 0.003921101 -0.0003180552 0.023475781 -0.0024746726 -0.014247673
0.011843981 0.009858441 0.013556363 0.0055851997 -0.01468555 -0.024241317 0.014139361 0.0132615855
-0.003823386 0.010837615 -0.014847823 0.02113976 -0.0038297458 0.004937524 -0.015643045 -0.0012638563
-0.0038182794 0.008726261 -0.0013643719 0.0078475075 -0.03169891 0.018834472 0.011239297 0.008671183
00000000: 014f eb3c 8cd8 7dbb 729d d23b c2f4 dc39
00000010: 1632 8a3c a029 a73c 35ee 863c 147f f83b
00000020: 8abf cb3c 1723 113c 9e32 153c 0163 bd3b
00000030: abc3 033d a145 993c eb87 1a3c 56b3 d33b
00000040: 264e 1b3b 2e2c b33c fdc0 b73b 06c1 fb3b
00000050: 957e 0e3c d293 8e3c 1cc8 d33c 5004 003c
00000060: b8be a83c f703 8d3c 39e1 e33b 5ca0 b43c
00000070: 3149 003b 20b7 023c 243b cf3c 51c9 823b
00000080: 3c00 933c 0526 7c3a 9353 f83b 80ce 0b3b
00000090: 9a5a e03c 14e2 013d f3bc fc3a 7711 a2ba
000000a0: 2da9 843a 902c af3c 7e65 e63c 811c 9d3c
000000b0: bd18 25bc eb2d fd3a 6ecb e13b 1ea4 b53b
000000c0: a7fd 8b3c 4def 983c 6db7 973b 7567 a53c
000000d0: 5be6 823c c252 943c bc7c 4e3c fded 5a3b
000000e0: 10fe c23c 1b63 c83a 4993 c73c e695 2fbc
000000f0: 293f be3b 48e3 4ebb bf09 cebb 5634 483c
00000100: 775b 8d3c 0f86 e03c 050c 003d c54f 073c
00000110: 8c2b 1abb 37b4 263c 3a7e eebb dc68 bdb9
00000120: deaf a23c ac42 98bb 5888 8b3b 046b d33b
00000130: b657 ee3b 5201 11bb 87ac 2e3c 64e6 213a
00000140: 08a2 783b 7af2 443c d17f 173c 46ec f23b
00000150: 2a58 0bbc 20be 33bc 6658 913c f073 3b3c
00000160: 893c bf3b 4f7d 00bb f9d6 25bc 22e4 9038
00000170: a2e9 e23b 3150 40bc cffa 2ebc b0a2 ee3b
00000180: b0f4 2b3c 9aa6 1e3c 18ef 4b3c 30f2 4abc
00000190: c52d 8e3c 1f01 0ebc 68b6 683a 35d7 c83a
000001a0: d27a 85bb 4d84 31bc a7ba 8abb 927c ccba
000001b0: c4a1 54bb 66dc 583c 72a8 1d3c 14e9 bf3c
000001c0: 2c4e bc3b deef 81ba 6757 e3bc 3614 553c
000001d0: 5e70 333b d513 073b 0cce 87bb 7d21 47bc
000001e0: 3518 b73c f07c a53c da20 e73a 06fb 823b
000001f0: 25f2 983c f5d5 a93c 604d 993b 2144 d63c
00000200: 246b dd3b 7ad7 6f3c a046 6e3c 11ce 563c
00000210: 049b 72bb b174 353a 7ebb c83b 19cc d33b
00000220: f4ff 81bb 2072 6c3b 002a 0bbb 1cc6 463c
00000230: 415a 833c 74ea 2c3b e018 183b e879 0ebc
00000240: 9191 dcba 0ccf 733c c94f dfbb 3fca a63c
00000250: df4e 6e3c 5019 3dbc ef47 713c faad c63c
00000260: 27c1 6e3c ec3a a93c 8e1b df3a 9fb8 babb
00000270: f884 b03c 8cfd 603c e977 b93b 7fbd 6bba
00000280: daea 3fbc 28a5 bd3c eea2 90ba fae1 723c
00000290: 799a af3b b7e3 163d 1a87 313a b70e 183c
000002a0: fda8 c23c f230 8d3c ea15 7f3b d728 1b3c
000002b0: 51a3 ad3c dc14 323b 4520 023c d278 a53c
000002c0: 2b1c 9d3c e597 1b3b d5ba 9e3c 301e 8f3c
000002d0: 62aa c93b f43e 38bb 4ac0 863c eea2 073c
000002e0: ff10 d03c ccf3 c63c aff4 b33c 64ca 003c
000002f0: fe2a 8e3c 7961 3e3b e471 b1bb 7260 eabb
00000300: 3292 933a 6ccd 003b abcf 8f3c 22d3 1d3d
00000310: 71a6 be3c d523 963c eda8 c13a ac73 be3c
00000320: 587b 8f3c e182 bf3c eb91 ca3c e24f 993c
00000330: dd81 a43b 710f e3ba 258f 973c e569 aa39
00000340: 3755 963c aaf1 cc3b 0739 953c f50e b93c
00000350: 884b ceba 92bb c03b e3b9 0f3c 1f34 8e3c
00000360: fb2b 153b 1e65 1c3b d8d9 31ba 4877 be3a
00000370: 63ef 14bc 472b e63c 4050 39bb 01db 5b3b
00000380: d34a a1ba a20b 83bc 6fa9 f33b 947c 803b
00000390: a5c0 a6b9 4850 c03c 1e2e 22bb 126f 69bc
000003a0: 420d 423c 4c85 213c 821b 5e3c 0d04 b73b
000003b0: a99b 70bc ba95 c6bc c7a8 673c 1f47 593c
000003c0: c691 7abb 4090 313c 4944 73bc 4a2d ad3c
000003d0: 79fc 7abb f4ca a13b d825 80bc fba7 a5ba
000003e0: 193c 7abb 97f8 0e3c b9d4 b2ba d592 003c
000003f0: b7d6 01bd c04a 9a3c 0725 383c 9411 0e3c

encBlocks.1.conv1.bias f4 [16]
-0.0051382403 -0.00036750405 0.010976497 -0.00027989634 0.013753217 0.0062502576 -0.00011461976 0.0033985607
0.010602141 -0.0040528267 -0.0065705534 -0.00024525623 -0.008815869 0.01480022 -0.00983528 -0.010081443
00000000: af5e a8bb 8fad c0b9 c4d6 333c 0dbf 92b9
00000010: 2c55 613c f6ce cc3b 0460 f0b8 63ba 5e3b
00000020: 9ab4 2d3c 93cd 84bb cc4d d7bb bc95 80b9
00000030: 6f70 10bc 9f7c 723c 2724 21bc a32c 25bc

encBlocks.1.conv2.weight f4 [16, 16, 3, 3]
0.010904701 -0.017529374 0.017788447 0.05298348 0.045103528 -0.06536558 -0.03756049 -7.9148886e-05
0.037398744 0.06356227 0.0812393 -0.026578126 -0.03340753 0.015126187 0.06379079 -0.023452265
0.048248593 -0.015220627 -0.06402243 -0.059411097 -0.07988398 -0.052980866 0.08190707 0.048517384
0.006135704 -0.0040976657 -0.0647916 0.02290256 -0.05960299 0.06559658 0.045752507 -0.050399195
0.07110404 -0.008147825 -0.06685242 0.057966515 -0.001638222 -0.064518094 -0.070290335 -0.026345007
0.013191216 0.0042832396 0.008661062 0.05797505 -0.09722878 0.05964462 0.02913958 0.086050265
0.005303914 0.073796794 0.021530388 0.084766395 0.040180072 -0.04746286 0.018935816 0.04706791
-0.01103794 0.04452569 -0.030582232 0.021801325 -0.0630381 -0.036282524 -0.06381097 -0.0030172297
0.08184748 -0.016759554 -0.0319679 -0.07749288 -0.02665746 -0.063599125 -0.08350292 -0.004373601
0.07436209 -0.0343971 -0.025021954 -0.035603613 0.028485289 -0.05729908 0.05482427 -0.053846877
-0.03185222 -0.052488834 0.084118895 -0.054115374 -0.024738237 -0.002436698 -0.016182344 0.071318425
-0.03729877 0.078501254 -9.109284e-05 0.050757486 0.005348352 -0.08629247 0.04064299 -0.08762879
-0.00981007 0.026620708 -0.06493353 -0.015773043 -0.013577426 0.047448374 -0.0375419 0.07185678
-0.04125057 0.065656014 -0.058691934 -0.024214564 0.031918913 0.06819319 -0.023506675 -0.005496304
0.03937034 -0.04717263 -0.041251097 -0.037842613 -0.06157255 -0.053251613 -0.011369287 0.028733835
0.0046195183 0.036857 -0.070540294 -0.08489092 -0.08832335 0.057311367 0.03805667 -0.06632656
-0.015372629 0.027473675 -0.06218181 -0.08685781 -0.033982188 -0.087561905 0.018874994 0.06789295
-0.043187194 -0.016867092 -0.0005875271 0.039111383 0.07249115 0.062266137 -0.011039923 -0.031429697
-0.07904896 -0.022615978 -0.025840085 -0.07572652 -0.025961787 0.07593165 -0.08132839 -0.049209654
0.017465092 -0.027130462 -0.009292342 -0.08476767 0.06426867 -0.057886053 -0.03419531 -0.056395557
0.04283057 -0.06600341 0.03661277 0.059180647 0.046880025 0.06261678 -0.06546386 0.0767306
-0.033209227 -0.03301442 0.06934473 -0.0593884 0.07198957 0.07745981 0.033980973 -0.022004709
-0.058508098 0.06285784 -0.008999749 0.043610796 0.04604444 -0.04660418 0.031109858 0.06629579
0.017221699 -0.036555436 0.066170834 -0.004918562 -0.061092824 0.017462943 -0.004640276 -0.06447916
0.01422501 0.044108074 -0.016429905 0.014751296 -0.05403568 -0.078407116 0.031632185 0.026586907
-0.059501693 -0.010755274 -0.008048492 -0.06318505 0.022461738 -0.04848223 0.06385785 -0.034750998
0.08253902 -0.03318678 0.035388526 0.06674684 -0.07441747 0.034232505 0.051849365 0.074589424
-0.036459245 -0.0065305703 -0.051960018 -0.087860994 -0.022154763 -0.043058503 -0.0007913455 -0.019698674
0.040427946 -0.014399547 0.044359937 0.076309815 0.050235584 0.022287695 0.0003833404 0.017971236
-0.0194037 -0.044513226 -0.003806019 0.03335825 -0.03267214 -0.057552222 0.020302555 0.058820564
0.084680505 -0.018954389 0.049434684 -0.036767527 -0.043029275 0.019004066 0.043175675 -0.08829532
0.053037632 -0.014416572 0.019683981 -0.06881293 -0.027361963 0.04333343 0.030553924 -0.032734957
00000000: a2a9 323c c399 8fbc 14b9 913c 3505 593d
00000010: 7abe 383d 64de 85bd 07d9 19bd bcfc a5b8
00000020: 6d2f 193d ef2c 823d ca60 a63d 5fba d9bc
00000030: 56d6 08bd d4d3 773c bfa4 823d f71e c0bc
00000040: 51a0 453d f05f 79bc 311e 83bd 0d59 73bd
00000050: 369a a3bd 7702 59bd e5be a73d 2aba 463d
00000060: 040e c93b b645 86bb 75b1 84bd 269e bb3c
00000070: 4422 74bd 8057 863d fb66 3b3d 636f 4ebd
00000080: ff9e 913d 747e 05bc ece9 88bd 4c6e 6d3d
00000090: 9cb9 d6ba 1022 84bd 61f4 8fbd 7cd1 d7bc
000000a0: f81f 583c 6b5a 8c3b 21e7 0d3c 3f77 6d3d
000000b0: e21f c7bd eb4d 743d 21b6 ee3c 1f3b b03d
000000c0: 75cc ad3b c622 973d 7f60 b03c 019a ad3d
000000d0: dc93 243d 6a68 42bd 491f 9b3c 48ca 403d
000000e0: 7ad8 34bc 9260 363d 9787 fabc b198 b23c
000000f0: 1f1a 81bd fc9c 14bd 53af 82bd b7bc 45bb
00000100: a79f a73d 554b 89bc c6f0 02bd 96b4 9ebd
00000110: bf60 dabc 4240 82bd 9403 abbd 6d50 8fbb
00000120: 274b 983d f9e3 0cbd d7fa ccbc 18d5 11bd
00000130: fb59 e93c 71b2 6abd 6a8f 603d 8b8e 5cbd
00000140: 7977 02bd 88fe 56bd 8746 ac3d 15a8 5dbd
00000150: d8a7 cabc 02b1 1fbb d690 84bc 650f 923d
00000160: 98c6 18bd 44c5 a03d 1909 bfb8 15e7 4f3d
00000170: 3a41 af3b 1bba b0bd 4479 263d b976 b3bd
00000180: 6aba 20bc ac13 da3c dffb 84bd 7836 81bc
00000190: da73 5ebc 3a59 423d 89c5 19bd a629 933d
000001a0: 5cf6 28bd a976 863d f466 70bd 9f5d c6bc
000001b0: 68bd 023d dfa8 8b3d 1291 c0bc 571a b4bb
000001c0: cb42 213d 1638 41bd e9f6 28bd db00 1bbd
000001d0: 8033 7cbd 5d1e 5abd 3f46 3abc 3863 eb3c
000001e0: 545f 973b 5ef7 163d 6e77 90bd 4adb adbd
000001f0: dfe2 b4bd 53bf 6a3d 50e1 1b3d 38d6 87bd
00000200: 7bdd 7bbc 7910 e13c 5bb2 7ebd 82e2 b1bd
00000210: e830 0bbd a853 b3bd bb9f 9a3c 750b 8b3d
00000220: 0ee5 30bd db2c 8abc 4704 1aba 4233 203d
00000230: 3d76 943d c70a 7f3d cbe0 34bc 6dbc 00bd
00000240: 6ce4 a1bd 2545 b9bc 96ae d3bc 8116 9bbd
00000250: d0ad d4bc 0e82 9b3d 808f a6bd 1090 49bd
00000260: f412 8f3c b440 debc e83e 18bc ac9a adbd
00000270: 4b9f 833d ed19 6dbd 6210 0cbd 07ff 66bd
00000280: 1c6f 2f3d cc2c 87bd 46f7 153d 6867 723d
00000290: 4505 403d 3a3d 803d eb11 86bd ef24 9d3d
000002a0: 6606 08bd 213a 07bd 9c04 8e3d 4041 73bd
000002b0: 456f 933d 40a3 9e3d a22f 0b3d 3843 b4bc
000002c0: 30a6 6fbd 9cbb 803d af73 13bc 3ca1 323d
000002d0: 1899 3c3d 06e4 3ebd 1ada fe3c 16c6 873d
000002e0: 8514 8d3c 27bb 15bd 9384 873d e32b a1bb
000002f0: 783c 7abd 720e 8f3c 750d 98bb a60d 84bd
00000300: 0410 693c abaa 343d 0298 86bc 6baf 713c
00000310: 8454 5dbd e993 a0bd c090 013d c9cc d93c
00000320: 0cb8 73bd e436 30bc d2dd 03bc 2a67 81bd
00000330: ae01 b83c 4e95 46bd e8c7 823d 1057 0ebd
00000340: 380a a93d dcee 07bd 8ff3 103d 91b2 883d
00000350: 3068 98bd 6237 0c3d 0060 543d 57c2 983d
00000360: 4a56 15bd 65fe d5bb 07d4 54bd 77f0 b3bd
00000370: e87d b5bc 1d5e 30bd 4c72 4fba 1d5f a1bc
00000380: c697 253d 14ec 6bbc c4b2 353d 5248 9c3d
00000390: d4c3 4d3d af94 b63c 14fb c839 6a38 933c
000003a0: 82f4 9ebc 8053 36bd 676e 79bb a9a2 083d
000003b0: 39d3 05bd e1bb 6bbd 8b51 a63c d5ed 703d
000003c0: f96c ad3d 3c46 9bbc 067c 4a3d 8c99 16bd
000003d0: 773f 30bd 6aae 9b3c fad8 303d 2dd4 b4bd
000003e0: fd3d 593d 7c33 6cbc 4d40 a13c cbed 8cbd
000003f0: 3226 e0bc 657e 313d 394c fa3c 1715 06bd

encBlocks.1.conv2.bias f4 [16]
-0.020051092 -0.05744345 -0.061768822 -0.026436608 0.05404875 0.0326203 -0.019574698 0.009942063
-0.010252986 -0.0044870973 0.025436608 0.03896493 -0.02095165 0.010259275 -0.067509465 -0.049164336
00000000: 3042 a4bc d349 6bbd 4e01 7dbd 9691 d8bc
00000010: 3962 5d3d dd9c 053d 1e5b a0bc 09e4 223c
00000020: 24fc 27bc 8008 93bb 6f60 d03c b199 1f3d
00000030: cba2 abbc 8516 283c 6742 8abd 8b60 49bd

encBlocks.1.BN1.weight f4 [16]
0.99664235 1.0038432 0.99701923 0.9955772 0.9865461 1.01646 0.99263686 1.0245141
1.0043979 0.98535204 1.0002961 1.0008303 0.9956539 0.9999563 1.0018243 1.0138731
00000000: f423 7f3f ef7d 803f a73c 7f3f 26de 7e3f
00000010: 498e 7c3f 5c1b 823f 731d 7e3f 4723 833f
00000020: 1c90 803f 0840 7c3f b409 803f 351b 803f
00000030: 2de3 7e3f 23fd 7f3f c73b 803f 98c6 813f

encBlocks.1.BN1.bias f4 [16]
-0.0013061672 0.006392781 -0.005184703 -0.0008057389 -0.021092689 0.016956868 -0.016663263 0.025101013
-0.0043337187 -0.0020224482 0.033088736 -0.011124013 0.007320565 0.03267223 0.048028544 0.0150095085
00000000: b333 abba 897a d13b 71e4 a9bb 3938 53ba
00000010: 93ca acbc 21e9 8a3c 6581 88bc a4a0 cd3c
00000020: de01 8ebb 0d8b 04bb 0e88 073d 7e41 36bc
00000030: 5ae1 ef3b 51d3 053d 94b9 443d 71ea 753c

encBlocks.1.BN1.running_mean f4 [16]
1.5819271 -1.282977 -1.2126349 0.94593513 0.716227 -3.9815965 -2.8430245 2.801746
-0.6891456 -2.8349223 2.47011 -0.9318083 0.90505 1.5435932 1.3787756 -3.8724182
00000000: 967c ca3f 9738 a4bf 9f37 9bbf ce28 723f
00000010: a75a 373f 7ad2 7ec0 1df4 35c0 ce4f 3340
00000020: d96b 30bf 5e6f 35c0 4816 1e40 fd8a 6ebf
00000030: 5bb1 673f 7694 c53f b87b b03f b3d5 77c0

encBlocks.1.BN1.running_var f4 [16]
31.969141 34.943832 63.207508 15.817859 17.060377 102.63021 46.766796 31.997215
7.8514996 24.043781 71.13535 14.96817 21.601074 105.06986 62.03142 142.79707
00000000: cdc0 ff41 7cc6 0b42 7dd4 7c42 f315 7d41
00000010: a77b 8841 ab42 cd42 3311 3b42 4cfa ff41
00000020: 7c3f fb40 aa59 c041 4d45 8e42 a07d 6f41
00000030: 00cf ac41 c523 d242 2d20 7842 0dcc 0e43

encBlocks.1.BN2.weight f4 [16]
0.99896675 1.0085981 1.0083957 1.009577 0.99003386 0.9970494 1.0089037 0.9927882
1.01255 0.99074656 1.0076376 1.0089056 0.9859318 1.0013242 0.9877144 0.9868968
00000000: 49bc 7f3f be19 813f 1c13 813f d239 813f
00000010: dc72 7d3f a13e 7f3f c223 813f 5e27 7e3f
00000020: 3d9b 813f 91a1 7d3f 45fa 803f d223 813f
00000030: 0766 7c3f 642b 803f dada 7c3f 45a5 7c3f

encBlocks.1.BN2.bias f4 [16]
0.036327947 -0.022704363 -0.08187719 -0.047341935 -0.05254135 -0.025696311 -0.08165852 -0.065171294
0.041399296 -0.020444768 0.07051238 -0.096918 0.031828668 -0.0017366069 -0.055085234 -0.017482733
00000000: 9dcc 143d 80fe b9bc 3aaf a7bd 9ee9 41bd
00000010: 9935 57bd 1281 d2bc 953c a7bd 8778 85bd
00000020: 4f92 293d c97b a7bc cb68 903d f27c c6bd
00000030: c75e 023d dc9e e3ba 0ea1 61bd f337 8fbc

encBlocks.1.BN2.running_mean f4 [16]
-0.23792674 -0.06719692 -0.69484997 -0.26793587 -0.24747853 -0.24570635 0.077462554 -0.42694515
-0.32211363 -0.2508096 0.12477181 -0.63261664 0.28718764 -0.028583622 0.3225321 -0.26030937
00000000: 11a3 73be 8a9e 89bd b0e1 31bf e42e 89be
00000010: 036b 7dbe 729a 7bbe b0a4 9e3d 8e98 dabe
00000020: 14ec a4be 1e6a 80be 5d88 ff3d 2af3 21bf
00000030: 420a 933e 3328 eabc ed22 a53e 4547 85be

encBlocks.1.BN2.running_var f4 [16]
0.5108979 0.32448006 0.34105858 0.4737149 0.33064854 0.3181325 0.06822294 0.12794566
0.49493894 0.35539445 0.037453726 0.3173073 0.3986815 0.09911931 0.100742094 0.1668277
00000000: 34ca 023f 4022 a63e 3b9f ae3e c28a f23e
00000010: c44a a93e 43e2 a23e 78b8 8b3d 3004 033e
00000020: a368 fd3e 43f6 b53e 1469 193d 1a76 a23e
00000030: fb1f cc3e 11ff ca3d df51 ce3d e1d4 2a3e

encBlocks.2.conv1.weight f4 [1, 16, 15, 15]
-0.007546307 0.0052565597 -0.0125656715 0.0070702992 -0.0021896102 -0.008127521 -0.025447167 0.0055617103
-0.019194847 0.0017864588 -0.015837517 -0.01780252 0.00544942 -0.01538935 -0.022433743 -0.0075769513
-0.0056969584 -0.015884 0.00881221 0.006437627 -0.006337586 0.013684882 0.010386598 0.004975676
0.0043391483 -0.0021267103 -0.007882173 -0.009946378 0.005117015 0.0037734492 -0.017288018 -0.015368221
-0.0038625982 -0.005106518 -0.02434066 0.008156784 -0.004130346 -0.02364861 0.008604867 -0.022852907
-0.021166205 -0.01599251 -0.017549202 -0.0115833115 -0.027371546 0.009790909 -0.01900779 0.004889284
-0.013455532 0.010990028 -0.013957861 -0.024081666 -0.013762972 -0.01599609 0.0011751808 -0.003651779
-0.004712964 0.0052236896 -0.0133194635 -0.013772112 -0.015167998 0.0049450775 -0.012945773 -0.003286921
-0.00057300855 -0.012057823 -0.01749411 -0.0044426084 -0.016495056 -0.0106262425 -0.0022331385 -0.0078096716
-0.013035134 -0.0066139703 -0.020713927 -0.018407647 -0.01732768 -0.0027162975 -0.013883321 -0.021918615
0.008797916 -0.013183959 -0.009741617 0.009336853 -0.0035368344 -0.00060978177 0.00477182 -0.008905387
-0.015449183 0.00475909 -0.008352655 0.008867775 0.008146371 0.009477802 0.008760443 -0.003404756
-0.019867333 0.018126145 -0.014087089 0.0064861774 0.011416691 0.016161917 -0.017851193 0.016991807
-0.01434983 0.0060578687 0.005705989 -0.014103257 -0.0210266 -0.020467246 -0.012226329 -0.0050351247
-0.012435579 -0.0059193317 -0.01040457 -0.0015645898 -0.008297819 -0.0015340667 -0.017715963 -0.014920567
-0.015917772 0.0045292433 0.009888943 -0.020989846 -0.0012813191 -0.013110865 0.0014486271 -0.012119897
-0.012372631 0.015291595 0.003500037 -0.0021253466 -0.013433324 0.010438738 0.011985508 -0.0070757186
-0.014599291 0.009696937 -0.01708618 -0.009970258 -0.02041896 -0.025905123 0.007655428 -0.015399939
-0.016909247 -0.012080898 -0.009159462 -0.01277463 0.013098402 -0.0202572 -0.008320086 -0.011177701
-0.011363149 0.0005521116 -0.006741399 -0.015764898 0.0041016 0.0006735563 -3.269874e-05 -0.0122840125
0.0003089067 -0.00094972336 -0.018738434 -0.013568351 0.0077403192 -0.0012221475 0.010129475 0.0035248909
0.008613338 0.012653391 0.013606909 -0.01034715 -0.0001719186 -0.015144129 0.0075633917 -0.007851545
0.0010582543 0.007481485 -0.0059743174 -0.016030662 -0.012898778 0.0059846453 -0.009947438 -0.002961558
0.011148563 -0.017235842 0.004861534 0.00053154415 0.008680698 -0.011763143 0.0103576835 -0.014441177
-0.004051871 0.0024070595 -0.012369587 -0.01097254 -0.0088866465 -0.011501512 -0.0063501215 -0.013793179
-0.00361992 0.0016845085 -0.0065042917 -0.012897351 -0.011954984 -0.018856987 -0.003966432 -0.003938858
-0.014205416 -0.0022663167 -0.020415096 -0.011089728 -0.009556873 0.009049884 -0.013222722 -0.008019919
-0.0046278043 -0.0120867 -0.0022648156 0.0009131225 0.0014438829 0.0022354384 -0.0054753236 -0.00898074
0.0022384787 0.010656265 0.02449495 0.00438885 -0.0034486044 -0.005131187 0.021908484 0.00824238
0.004499095 0.024026688 -0.005303176 -0.007490957 0.022202749 -0.009048089 0.0038243625 0.021562336
-0.00613091 0.004964155 -0.0066877236 0.011487512 -0.008707921 0.018065995 -0.009126486 0.016045285
0.0020404744 -0.013308949 0.012802939 0.004524935 0.015951125 -0.011614355 -0.0010923475 0.008160117
00000000: 0347 f7bb 383f ac3b 3fe0 4dbc f8ad e73b
00000010: 907f 0fbb 4b29 05bc 9476 d0bc 023f b63b
00000020: 833e 9dbc 9c27 ea3a aebd 81bc 97d6 91bc
00000030: 0c91 b23b 9d23 7cbc f8c6 b7bc 1348 f8bb
00000040: 8dad babb 2a1f 82bc 1661 103c bbf2 d23b
00000050: 86ab cfbb 8e36 603c 8d2c 2a3c ff0a a33b
00000060: 6a2f 8e3b 4760 0bbb 3b24 01bc 22f6 22bc
00000070: a2ac a73b f94b 773b 9a9f 8dbc feca 7bbc
00000080: a523 7dbb 9454 a7bb 1066 c7bc 08a4 053c
00000090: da57 87bb bbba c1bc 6efb 0c3c 0536 bbbc
000000a0: c064 adbc b902 83bc 58c3 8fbc eec7 3dbc
000000b0: 4b3a e0bc 0c6a 203c 3ab6 9bbc 4936 a03b
000000c0: 9774 5cbc 850f 343c 83af 64bc ea46 c5bc
000000d0: 177e 61bc 3b0a 83bc 8608 9a3a af52 6fbb
000000e0: 356f 9abb 7c2b ab3b e139 5abc 6da4 61bc
000000f0: 3283 78bc 510a a23b 821a 54bc 6269 57bb
00000100: f435 16ba 2d8e 45bc cf4f 8fbc 4d93 91bb
00000110: a420 87bc b119 2ebc d959 12bb 46e8 ffbb
00000120: 5191 55bc 01ba d8bb 41b0 a9bc a2cb 96bc
00000130: c7f2 8dbc e903 32bb de76 63bc ab8e b3bc
00000140: 2225 103c 8801 58bc 4e9b 1fbc 9af9 183c
00000150: 3cca 67bb c3d9 1fba ed5c 9c3b e6e7 11bc
00000160: 921e 7dbc 24f2 9b3b 93d9 08bc 254a 113c
00000170: 5b78 053c c848 1b3c f687 0f3c 5422 5fbb
00000180: d1c0 a2bc 487d 943c 89cd 66bc 008a d43b
00000190: 130d 3b3c ff65 843c aa3c 92bc 6732 8b3c
000001a0: 8d1b 6bbc 1681 c63b 4ef9 ba3b 5911 67bc
000001b0: fa3f acbc edaa a7bc f150 48bc b0fd a4bb
000001c0: 99be 4bbc f4f6 c1bb ee77 2abc ec12 cdba
000001d0: 93f3 07bc bd12 c9ba 1121 91bc 6575 74bc
000001e0: fd65 82bc 0c6a 943b 3c05 223c e6f2 abbc
000001f0: eff1 a7ba f4ce 56bc dcdf bd3a 8892 46bc
00000200: 93b6 4abc 9989 7a3c e060 653b 6649 0bbb
00000210: 7217 5cbc 3e07 2b3c dd5e 443c 6edb e7bb
00000220: dd31 6fbc e7df 1e3c 51f8 8bbc 4b5a 23bc
00000230: aa45 a7bc fb36 d4bc 62da fa3b 0750 7cbc
00000240: 4385 8abc f5ee 45bc 9111 16bc af4c 51bc
00000250: ae9a 563c 6df2 a5bc f850 08bc ad22 37bc
00000260: 802c 3abc 95bb 103a f4e6 dcbb 6325 81bc
00000270: b766 863b 9991 303a 0126 09b8 e242 49bc
00000280: c1f4 a139 dbf6 78ba 5881 99bc ca4d 5ebc
00000290: 81a2 fd3b 7730 a0ba 19f6 253c db01 673b
000002a0: f51e 0d3c 2b50 4f3c 83ef 5e3c 1887 29bc
000002b0: 0c45 34b9 151f 78bc 54d6 f73b c4a3 00bc
000002c0: 1fb5 8a3a 3f27 f53b 35c4 c3bb bc52 83bc
000002d0: 6555 53bc d81a c43b 94fa 22bc b316 42bb
000002e0: 76a8 363c 2e32 8dbc 814d 9f3b 5357 0b3a
000002f0: 7d39 0e3c 33ba 40bc 46b3 293c b09a 6cbc
00000300: 8fc5 84bb c2bf 1d3b cfa9 4abc 2bc6 33bc
00000310: 4c99 11bc d670 3cbc ae14 d0bb c9fc 61bc
00000320: 2e3c 6dbb baca dc3a f421 d5bb 694f 53bc
00000330: d6de 43bc f879 9abc d8f8 81bb 8911 81bb
00000340: d5bd 68bc 7c86 14bb 8f3d a7bc b1b1 35bc
00000350: 6e94 1cbc f745 143c 1ea4 58bc fa65 03bc
00000360: d6a4 97bb 4b07 46bc 4d6d 14bb 9d5e 6f3a
00000370: ac40 bd3a 6f80 123b 586a b3bb f423 13bc
00000380: 71b3 123b 9d97 2e3c a2a9 c83c 58d0 8f3b
00000390: fb01 62bb 8423 a8bb 6c79 b33c 0c0b 073c
000003a0: 256d 933b 9ed3 c43c 44c6 adbb b476 f5bb
000003b0: 8ae2 b53c 703e 14bc 28a2 7a3b 7fa3 b03c
000003c0: cde5 c8bb 5aaa a23b b124 dbbb 1e36 3c3c
000003d0: abab 0ebc 23ff 933c 4287 15bc 6771 833c
000003e0: 7bb9 053b c70d 5abc 6bc3 513c e845 943b
000003f0: efab 823c 234a 3ebc 1a2d 8fba 03b2 053c

encBlocks.2.conv2.weight f4 [1, 1, 3, 3]
0.102569394 -0.22487311 0.06455321 -0.16011699 0.31976143 0.21687342 0.16459323 -0.1879658
-0.13765231
00000000: e70f d23d 2345 66be 7934 843d b5f5 23be
00000010: c5b7 a33e 1114 5e3e 218b 283e 1b7a 40be
00000020: baf4 0cbe
