Model_params/test_small_macro_epoch_5.pt (torch, 44071 bytes, 26 tensors)

encBlocks.0.conv1.weight f4 [16, 3, 3, 3]
000000 87 58 12 3d 7f 22 2c 3e e3 e6 04 bd 11 4f 3e 3e
       0.035728958 0.16810034 -0.032446753 0.18584849
000010 5c d9 2e 3e 5e 44 1e 3e b6 34 1c 3e 55 3b d7 bd
       0.17075104 0.15455768 0.15254483 -0.105093636
000020 cf cf 70 3a 33 49 01 be 5e 07 0c be 95 3d 50 be
       0.00091862393 -0.1262558 -0.13674685 -0.20335992
000030 de 66 c6 bd 9d 0b 1e be ee dd de bd 4b 52 5e bd
       -0.09687589 -0.15434118 -0.108821735 -0.0542777
000040 56 11 a9 bb e9 80 0c 3e b8 18 6d bc 45 36 85 3d
       -0.0051595373 0.1372105 -0.014471225 0.06504492
000050 3b 2a 14 3e 3d bb ab bd 39 4c 1a bc 9a c8 dc bc
       0.14469235 -0.08385322 -0.009417587 -0.026951123
000060 e6 52 d7 3c 10 e2 20 bd ba a6 31 bd bd 02 a6 3d
       0.026284646 -0.03927809 -0.043371893 0.08105991
000070 4b 5f 3b 3e 6d 84 dd bd c4 04 1d be 24 c9 89 bc
       0.1829807 -0.10816274 -0.15333849 -0.016819544
000080 9e 54 59 3d 7e b8 49 be 31 84 ef bd 35 e5 ad 3d
       0.053059213 -0.19699284 -0.116951354 0.084909834
000090 cc fd 40 bc 70 4b 05 3e e4 d1 b1 3d 3d bd 12 3e
       -0.01177926 0.13017058 0.086826116 0.14330001
0000a0 c8 82 2a be 74 70 37 3d 4e 87 0f be e6 e7 26 be
       -0.16651452 0.044784978 -0.14016458 -0.162994
0000b0 4b 3c 07 bd 21 4c 92 bd 8b d1 aa 3d 99 e9 87 3d
       -0.033016484 -0.07143427 0.083407484 0.06636352
0000c0 42 aa ce 3d 10 32 32 3e 4b b0 6e bd ed 03 d3 3d
       0.10091068 0.1740191 -0.058273595 0.10303483
0000d0 e5 5c 25 be 87 01 f0 3c f7 6c 44 3e 06 4a e1 bd
       -0.16148718 0.029297603 0.19182192 -0.11000447
0000e0 98 05 95 bd 9f aa d4 3d 5c 03 25 bb 29 e8 15 3d
       -0.072764575 0.10384106 -0.0025179004 0.03659836
0000f0 08 e9 0e bd fc 31 18 be ea a9 a3 3d 6b b4 1b 3d
       -0.034890205 -0.14862818 0.07991393 0.038013857
000100 a8 3c 19 be 18 5f ad bd 7e 0a 45 3e 66 f0 8b bb
       -0.14964545 -0.08465403 0.19242284 -0.004270601
000110 87 3b 99 bd 7d a3 22 be 63 2b b9 bd 64 2a 2b bd
       -0.07482057 -0.15882678 -0.090414785 -0.041788474
000120 44 33 17 3d 74 94 2d be 69 0c 1e be 35 ba f8 3d
       0.036914125 -0.16951162 -0.15434422 0.12144891
000130 ca 0a 5c 3d bb 7d 25 3e df 3e 19 3b a0 24 11 3d
       0.053721227 0.16161244 0.0023383421 0.03543532
000140 27 be ca bd 76 64 ff 3d 2e 64 c4 3d a2 36 36 3e
       -0.0989955 0.12470333 0.0958942 0.17794278
000150 cf 50 d0 bd 07 2c d0 3d 97 ae 2c 3e 6b 1d 8c bd
       -0.10171663 0.101646475 0.16863476 -0.068415485
000160 86 7c b4 bc e5 80 be 3d 18 4e 82 bd 3c fd 4a 3d
       -0.022032034 0.093019284 -0.063625515 0.04955791
000170 bc ec ce bd 5e 8c d2 3c 3e 77 99 3d 5e ea ed bd
       -0.10103747 0.025701698 0.07493447 -0.116169676
000180 52 69 9c 3d b1 59 c4 3d 3c 98 3f 3e 9d 76 62 3d
       0.07637276 0.0958742 0.18710417 0.0552889
000190 db 88 c0 bd c9 ef 8b 3b 8e 49 0b 3e ef b1 89 3d
       -0.09401103 0.004270528 0.13602278 0.06723391
0001a0 8a d6 ae 3c d9 bd 54 bc 88 8d 0f 3e d5 01 58 3b
       0.021342535 -0.012984716 0.14018834 0.0032960076
0001b0 f6 e1 32 3e de 01 0a 3e 9c 34 12 3e 54 9a 0f be
       0.1746901 0.13477275 0.14277881 -0.14023715
0001c0 9c 90 25 be d1 54 25 be 1e aa ba 3b 0e bb 4b 3e
       -0.16168445 -0.16145636 0.005696549 0.19895574
0001d0 97 20 85 bd e0 2c e8 3d 7e ff c6 3d e0 33 0f 3e
       -0.06500357 0.11336684 0.097167 0.13984632
0001e0 df 36 9f 3d 56 d7 68 3d 97 68 2a be d7 e0 9c bd
       0.07774138 0.056845985 -0.1664146 -0.07660072
0001f0 70 f8 32 be d9 99 0c 3d 9d 09 39 bc 98 a4 8d 3d
       -0.17477584 0.034326408 -0.011293796 0.069161594
000200 54 e1 21 be c1 da f1 39 2d 99 0e 3e c9 3f 8d bd
       -0.15808612 0.00046130086 0.1392562 -0.06896932
000210 d4 79 90 3d 27 3b 2e 3d 13 7c f5 bd 4a 41 ef 3d
       0.07054487 0.04253688 -0.11986556 0.11682375
000220 8e 60 16 3e f4 fe 38 3d 3d 10 19 be e0 8a 16 3d
       0.1468527 0.045165017 -0.149476 0.036753535
000230 b4 ec 36 3e 09 61 60 3d 33 75 49 3e 79 6f ec bd
       0.17863733 0.05478004 0.19673614 -0.11544699
000240 b3 09 3a be a4 ee 28 3e a4 6e 38 be 55 3e 03 bd
       -0.18167762 0.16497284 -0.18010956 -0.032041866
000250 a0 35 11 be 82 1c 07 be 9b 48 33 3e 27 52 38 be
       -0.14180613 -0.13194469 0.17508166 -0.18000089
000260 a1 36 0f be 0b 6c 5d bd a1 ea 0d 3d c6 04 8c bc
       -0.13985683 -0.054058116 0.034647588 -0.01709212
000270 45 92 bf 3c 29 d1 12 3e e6 b3 2d bd b9 88 3d 3d
       0.023385176 0.14337601 -0.042407893 0.046272967
000280 ec 7b cc bd 52 f2 ed bd d7 55 4a be 5b 1d 26 be
       -0.09984574 -0.116184846 -0.19759308 -0.16222136
000290 ff a0 5c 3d 1c db be bc f7 bc 34 3e d1 14 2d 3c
       0.053864475 -0.023297839 0.1765021 0.010564045
0002a0 5b 3e 43 be d0 c6 3e 3e f1 b4 1a 3d 71 45 d1 3d
       -0.19066755 0.18630528 0.037770215 0.10218323
0002b0 4d ec f7 bd b9 f5 83 3b 6d 04 3a 3e 6d 9f 0d be
       -0.12105618 0.004027095 0.18165751 -0.13830347
0002c0 db c3 18 3d 72 7c 37 be da 6a 26 3e 7a 79 34 be
       0.037296157 -0.17918566 0.16251698 -0.17624465
0002d0 e8 cf 04 be 7a 5d 71 bb ad 2a d8 bd 49 55 aa 3d
       -0.12969935 -0.0036829398 -0.10555015 0.08317048
0002e0 e3 7b 2f 3e 09 d6 e0 3d fe 8d 31 bd a4 89 1d 3e
       0.17137103 0.10978324 -0.043348305 0.15384537
0002f0 af 4d 70 bd 87 c6 3c be 7f 21 2b bd 2e 8e 46 be
       -0.058667835 -0.18435107 -0.04177999 -0.19390175
000300 43 a9 dd 3c fe 58 a8 3d 92 8f 29 be 23 e0 86 bb
       0.02705825 0.08220099 -0.16558674 -0.0041160746
000310 64 92 bc 3d ae 43 01 be 17 03 b1 bd 26 2f 11 3d
       0.09207609 -0.12623474 -0.086431675 0.035445355
000320 4c 5e 20 bd 7b 5d 34 be 60 ef 95 bd 0f 84 2e 3d
       -0.03915243 -0.17613785 -0.07321048 0.04260641
000330 80 77 25 be 95 d3 38 3d d2 ac e3 3d 8c 43 15 3e
       -0.16158867 0.045123655 0.11116947 0.14576548
000340 af 68 3f 3e ae 59 30 3e 5f d1 00 3e 2f c7 8d bd
       0.18692277 0.1722171 0.12579869 -0.06922757
000350 8b d3 d0 3d ec a9 d4 bd 98 04 92 3d f7 3b 03 3e
       0.101965986 -0.103839725 0.071297824 0.12815844
000360 f6 ad 7e 3c 26 63 1d 3e 73 59 08 3e 99 b2 17 3d
       0.015544405 0.15369853 0.13315372 0.03703556
000370 5c 1c 3f 3b 7f 46 0a be f6 9f 36 3e 8f 6e 24 be
       0.002916119 -0.13503455 0.17834458 -0.160578
000380 33 b4 eb 3a 97 94 11 3d 04 d0 2c 3e 63 ad ca bd
       0.0017982781 0.035542097 0.16876227 -0.09896352
000390 f0 59 ef bc af 54 06 bd 0c 63 0f 3e e3 29 18 3e
       -0.02921769 -0.032795604 0.14002627 0.14859729
0003a0 19 69 1d 3e 65 64 97 3d ac c0 aa 3c fb 0e 28 3e
       0.15372123 0.073921956 0.020843826 0.16411965
0003b0 e6 ed cb 3d fa 56 fb bd 24 fe b1 bd cc 54 2e bd
       0.09957485 -0.12272449 -0.086910516 -0.042561337
0003c0 9d e6 b4 3d 62 f8 68 bc a2 e7 bd 3d 14 9c f7 bd
       0.088330485 -0.014219375 0.09272696 -0.120903164
0003d0 c1 23 d7 3d e6 a6 9d bd 7c e7 fa 3c 30 c7 43 3e
       0.105048664 -0.07697849 0.030627958 0.19118953
0003e0 7b 98 f1 bc 51 45 ed 3d 3d 0f 63 bd 77 2d 01 3b
       -0.029491654 0.11585487 -0.055434454 0.0019710937
0003f0 48 9c 2c 3d 26 c2 18 be 58 8a f4 bd 4a 82 0f 3d
       0.04214123 -0.14917812 -0.119404495 0.035036363

encBlocks.0.conv1.bias f4 [16]
000000 bb 8b 0c be 1c ce 06 3e 49 17 20 3e 28 00 a5 bd
       -0.13725178 0.13164562 0.15633883 -0.080566704
000010 2e b2 05 be d1 ef 2d be db d9 e8 bd 92 65 ea bd
       -0.13056251 -0.16986014 -0.11369678 -0.11445154
000020 4c 24 3a 3e 53 0f 8f 3d d1 c0 0a 3e c9 e3 7c 3d
       0.18177909 0.06985345 0.13550116 0.06174067
000030 e8 0f 2d 3e 3e f6 eb bc bd 38 1e be cb 87 f9 bd
       0.16900599 -0.02880394 -0.15451331 -0.121841036

encBlocks.0.conv2.weight f4 [16, 16, 3, 3]
000000 9c b4 a3 3b 0e e6 d2 3c 21 f7 a4 ba c7 66 ac bd
       0.0049958955 0.025744464 -0.0012585857 -0.08418041
000010 78 b1 95 3d e9 3b dd bc 28 7e 96 bd bd 76 da 3b
       0.0730924 -0.027006106 -0.07348281 0.0066669867
000020 a2 a7 13 bc e3 34 8c bc 01 14 30 bb 9f fa 87 3d
       -0.009012135 -0.017115062 -0.0026867392 0.06639599
000030 48 f8 56 3d 06 9e 75 bb d9 39 59 3d 32 69 7a bd
       0.052482873 -0.0037478223 0.053033683 -0.06113548
000040 3a 2d cc bc 2c 0a 6c bd 3c 7f 28 bd 81 d1 52 3c
       -0.02492391 -0.05762689 -0.041136965 0.012867332
000050 51 af 49 b9 fe f8 25 bd 53 f3 6b 3c 73 24 ae 3d
       -0.00019234164 -0.04052066 0.014401275 0.08503046
000060 fc 9f 4d 3d 5e e4 73 3d 31 62 a4 bd e7 e0 49 bd
       0.0502014 0.05954396 -0.08026541 -0.04928675
000070 f7 4a 06 3d f5 5b 7f 3d 3e 2d 82 bd f9 20 a2 bd
       0.032786336 0.062343556 -0.063562855 -0.07916445
000080 8e d6 4e 3d bb e5 94 bd 82 50 98 bd 38 42 8b bd
       0.050497584 -0.0727038 -0.07437231 -0.067997396
000090 bd 80 00 bc 6a 33 4a bd fd 5c 5c 3d 34 a6 65 bc
       -0.007843194 -0.04936544 0.053799618 -0.014016677
0000a0 c4 cc 8e 3d 8d b2 8b 3d 5a 1f 24 3d 71 3b 92 3c
       0.0697265 0.06821165 0.04006896 0.01785061
0000b0 10 5f 5b 3d 77 1a 9d bd 30 2f f3 39 c0 0b 6c 3d
       0.053557456 -0.076710634 0.0004638373 0.057628393
0000c0 fe 8e 8d bd 19 1f 47 bc 61 1c 0c 3d 14 81 94 3d
       -0.06912039 -0.01215341 0.03420675 0.07251182
0000d0 9e d5 bb bd fb 33 14 3d 31 2c 0a bd 98 10 66 3d
       -0.091716036 0.036182385 -0.03373355 0.05616817
0000e0 98 92 41 3d 18 e9 d9 bc ea a5 20 bb 1a 58 54 bd
       0.047258943 -0.026600406 -0.0024512955 -0.051841833
0000f0 9b 19 aa bd 3f 74 11 3d e4 08 44 3d 5d c3 9d 3c
       -0.08305665 0.03551125 0.04786004 0.019258196
000100 35 82 7e bd cb ca 31 bd 98 5e 30 bc b7 da 91 3d
       -0.062135894 -0.04340629 -0.01076474 0.07121795
000110 23 98 9f 3c 83 0b ad bd bc 24 be bc bb e3 08 bd
       0.019481724 -0.08449461 -0.023210876 -0.033420306
000120 83 7c dc 3c 9b a4 17 bd b3 cc 30 bd 72 1f 8d 3d
       0.02691484 -0.037022214 -0.043163966 0.06890763
000130 07 67 32 bd d2 02 9d bd c1 4a 2b bd 31 52 64 bd
       -0.043555286 -0.076665536 -0.041819338 -0.055742446
000140 0d 46 1b 3b 42 d5 3e bd c1 38 24 3d ce 9c 72 bd
       0.0023692877 -0.046590097 0.040093187 -0.05923157
000150 f0 db 07 3d 92 2d e5 3b cf 10 69 3d 7e a6 29 bd
       0.033168733 0.006993958 0.056900796 -0.041418545
000160 57 b4 d6 bb 90 39 86 3d d7 43 25 bd ff b6 86 3d
       -0.00655226 0.06553948 -0.0403479 0.065778725
000170 80 ad 07 3d 27 84 c5 3c a7 15 fc bc 79 54 f1 bc
       0.033124447 0.024110867 -0.030772043 -0.029459225
000180 35 c5 91 bd d9 ee e8 bb 84 a3 82 3d 91 cd 88 bd
       -0.071176924 -0.007108551 0.063788444 -0.06679834
000190 6f 69 19 bd c0 cc e1 bb e6 05 5b 3d 5e 1b 82 3d
       -0.037454065 -0.006890863 0.053472422 0.06352876
0001a0 c8 3a 42 3d 10 0f a3 bd 61 89 9e 3d 6c 42 c5 3c
       0.04741934 -0.07961857 0.07741047 0.024079524
0001b0 d5 b1 3d 3b 51 bd 8b 3b d5 34 2b 3d c0 d4 ea 3c
       0.0028945107 0.0042645116 0.04179843 0.0286659
0001c0 86 6b 2b 3b fd ae 16 3d 02 ab 08 bd 9f 80 f8 bc
       0.0026156618 0.036787976 -0.03336621 -0.030334769
0001d0 53 96 52 3d 7a 77 9b 3d 15 73 99 3d cf a6 7f bc
       0.05141289 0.07591148 0.07492653 -0.015603735
0001e0 ae 54 13 3d 34 68 88 bd 47 35 a0 bc 0a 24 07 bc
       0.03596943 -0.066605 -0.019556655 -0.0082483385
0001f0 34 fd 81 bd a8 50 63 bd bd 19 98 3d 86 c7 34 3d
       -0.06347123 -0.05549684 0.07426784 0.044135593
000200 7c d2 1f bd c8 e1 b2 bd 8e eb 27 bd ca 31 c1 3c
       -0.039019093 -0.087344706 -0.040996127 0.023583312
000210 d7 f8 6e 3d 6b 1b 45 3d 01 ff 19 3d 4e 88 8c 3d
       0.05834278 0.04812185 0.037596706 0.068619356
000220 57 54 87 3d a1 32 87 3c e1 69 10 bd e0 b4 54 bd
       0.066078834 0.016503634 -0.035257224 -0.05193031
000230 32 81 5f 3d 04 5d 2d bd 95 6b 17 bd 1f c5 05 3d
       0.05456657 -0.042325035 -0.036967833 0.032658692
000240 a8 c7 8b bd e2 56 79 3d e1 7f 0b 3b 10 10 65 3c
       -0.06825191 0.060873874 0.0021285939 0.01398088
000250 16 04 06 3d 60 b9 cb bc e8 41 35 3d af 2c d5 bb
       0.03271874 -0.024868667 0.044252306 -0.006505571
000260 d7 67 8a 3c 2a 2b 9c 3d 68 b7 82 bd 6c 03 95 3d
       0.016895218 0.076254204 -0.06382638 0.07276043
000270 f3 08 82 bd a2 ff 55 bd 78 c9 89 bc 72 31 62 3d
       -0.06349363 -0.052245744 -0.0168197 0.055222936
000280 32 3b 01 bc e9 c8 b7 bc 14 01 eb bc d0 8b 8d 3d
       -0.007887648 -0.022434669 -0.028687038 0.06911433
000290 7e d8 91 3d 23 96 fe 3c b7 18 8b bc 2c 4c d5 bd
       0.07121371 0.03107745 -0.016979558 -0.10414919
0002a0 25 58 49 bd e8 b7 6f 3d af 44 ae bd 61 30 21 3c
       -0.049156327 0.058524996 -0.08509194 0.009838195
0002b0 11 44 75 3c 2c 65 b3 3d 3c 7e 9c bb bf bb 90 bd
       0.014969842 0.087595314 -0.0047757905 -0.0706706
0002c0 78 ec 9e 3d 4b 75 90 3d 49 ff 71 bc 75 0a 6d bd
       0.077599466 0.07053622 -0.014770337 -0.0578713
0002d0 ac 0e 40 3d 30 90 b0 3d 22 e0 62 bc 3a 9c 99 bd
       0.046888992 0.086212516 -0.013847383 -0.07500501
0002e0 a0 e5 37 3d 54 dd 15 3c ca 0d 12 3d d0 08 2c 3d
       0.04489672 0.009147007 0.03565768 0.04200059
0002f0 5d 51 93 3d f5 89 a5 bd f5 8d c4 3c 76 d7 0c bd
       0.07193253 -0.08082954 0.023993472 -0.034385167
000300 3e 53 ea 3c 10 9d aa bc 25 ff 23 3d 88 b0 2e 3d
       0.028604146 -0.020826846 0.040038247 0.042648822
000310 a5 51 57 bd c3 0b 5b bd ad be 81 ba 50 90 59 bd
       -0.052568097 -0.053478014 -0.0009898745 -0.053116143
000320 d2 4a 9e 3d dd 57 52 3d 12 4e 59 3c 4b a7 08 3d
       0.077291146 0.051353324 0.013263242 0.033362668
000330 3b dc 0f 3d 31 31 25 3d ec 31 02 3c d4 53 76 bd
       0.035122138 0.040330116 0.007946473 -0.06013854
000340 05 f4 be 3d 8c 47 71 3d 44 69 63 bd df 71 a3 3b
       0.09323887 0.058906123 -0.05552031 0.0049879397
000350 56 61 41 bd d9 bf 50 bd ae 38 aa 3d c0 25 69 bd
       -0.047211967 -0.05096421 0.08311592 -0.056920767
000360 17 3f 44 3d 89 ce 78 bd ee 67 44 3d 2d f7 12 3d
       0.04791173 -0.060743842 0.047950678 0.035880256
000370 c6 48 23 3d de e1 2d bb b4 25 7f 3d ff ca aa 3a
       0.039864324 -0.0026532332 0.062291816 0.0013030468
000380 18 a8 74 bd d3 c0 8a 3d 39 a3 99 bd 28 4e 04 bd
       -0.05973062 0.067750596 -0.075018354 -0.032301098
000390 54 ef 52 bd 32 eb 86 3d 43 fa 55 bd 07 c9 dc 3b
       -0.051497772 0.06587829 -0.05224062 0.0067378315
0003a0 25 bf 38 3d 07 3e 6d bd 4b c6 9e bc 74 42 bf bc
       0.045104165 -0.057920482 -0.019381663 -0.023347117
0003b0 4c 68 37 3c 2c 31 a5 3c 2d 35 67 3a ea 53 e9 3b
       0.0111943 0.020165049 0.00088198745 0.007120599
0003c0 64 d6 c2 bd c2 7f d3 bb 14 52 8e ba 08 6a ac 3d
       -0.09513548 -0.006454439 -0.0010858201 0.08418661
0003d0 15 37 8a bd d5 d1 23 3d f1 da 59 bc d9 81 83 bd
       -0.06748787 0.039995033 -0.013296829 -0.06421251
0003e0 b0 7d ac 3d 60 dd 53 bd 70 49 ce 3c 09 37 c8 bb
       0.084224105 -0.05172479 0.025181502 -0.0061100763
0003f0 e0 c5 35 bc 04 dd 9f 3c cf 8c e9 bc 4b 5e 6b 3d
       -0.01109454 0.019514568 -0.028509526 0.05746297

encBlocks.0.conv2.bias f4 [16]
000000 1a 55 cf bc e2 03 81 3d a4 45 a3 bd c0 e9 99 bd
       -0.025309134 0.06299569 -0.07972267 -0.075152874
000010 bb 8b 97 bd 0f d5 dc 3c 6f 93 6f 3c 2a 06 29 3d
       -0.07399698 0.026957063 0.014622553 0.041265644
000020 b2 65 0a 3d 4a 52 b2 ba ec 44 76 bc 8b 85 41 bc
       0.03378839 -0.0013604846 -0.015031081 -0.011811624
000030 c9 d7 a5 bd 6d d0 70 3d 03 68 cf 3c 80 2d ef 3c
       -0.080977984 0.05879252 0.025318151 0.0291965

encBlocks.0.BN1.weight f4 [16]
000000 80 bd 81 3f 5d 61 7e 3f d5 43 7d 3f 63 cd 80 3f
       1.0135956 0.99367315 0.9893163 1.0062679
000010 54 b6 80 3f 59 cf 7e 3f da 18 7e 3f ea f9 7d 3f
       1.0055642 0.9953514 0.9925667 0.99209464
000020 f7 af 7e 3f d9 1f 7e 3f b6 10 7e 3f 49 7e 81 3f
       0.9948725 0.99267346 0.9924425 1.0116664
000030 46 af 80 3f 04 99 7c 3f 22 68 7e 3f 9f 93 80 3f
       1.0053489 0.98670983 0.99377644 1.004505

encBlocks.0.BN1.bias f4 [16]
000000 50 e9 00 bc c0 5c e4 bb 0e f7 ff bb 7a e7 23 3c
       -0.007868126 -0.0069690645 -0.0078114336 0.010003919
000010 c2 12 fb bb 27 a7 07 bc 09 e8 f3 bb a4 92 2a bc
       -0.007662148 -0.008279598 -0.007443432 -0.010410938
000020 91 1c cd bb 2e 70 d4 bb ac c2 d1 bb 09 c4 24 3b
       -0.006259509 -0.0064830994 -0.0064013805 0.002514126
000030 d9 49 0b 3c 8b b9 62 bc 2d 35 ca bb 6d 98 3a bb
       0.008501493 -0.013838182 -0.00617089 -0.00284722

encBlocks.0.BN1.running_mean f4 [16]
000000 4b fe 3e be 58 dc 19 3e f1 db 53 bd 48 12 f6 3e
       -0.18651693 0.1502546 -0.051723424 0.48060822
000010 76 fd 30 bd 55 ff bc be 99 f9 ea bd ec 02 80 bd
       -0.04321047 -0.36913553 -0.11473388 -0.06250557
000020 73 d3 2e 3f 3a a1 2e 3e 79 a7 ac be c8 8b a0 3e
       0.68291396 0.1705369 -0.33721521 0.31356645
000030 0e 97 b4 3e e2 ee 05 bd 9a 15 07 3e 29 47 e9 3d
       0.35271496 -0.03269852 0.13191834 0.11390526

encBlocks.0.BN1.running_var f4 [16]
000000 d2 45 74 3d 85 c7 3e 3d 5c 3d 63 3d f1 02 0f 3e
       0.0596369 0.046576995 0.05547844 0.13965966
000010 4b f7 48 3d e7 a8 85 3d 94 ce 4a 3d c8 6c 56 3d
       0.049063962 0.06526356 0.049513415 0.052349836
000020 54 99 f0 3d 8e 09 41 3d e7 3d e7 3d 6a d1 88 3d
       0.11747995 0.047128253 0.11291104 0.066805676
000030 a0 8c 49 3d 00 fd 1d 3d 49 ab 7d 3d a8 b2 7a 3d
       0.049206376 0.038571358 0.06193093 0.061205536

encBlocks.0.BN2.weight f4 [16]
000000 b0 31 7e 3f 56 40 80 3f e7 6e 7e 3f 4a f8 80 3f
       0.9929457 1.0019634 0.99387974 1.0075772
000010 35 aa 7c 3f fd c8 81 3f 8d d7 80 3f 1a c7 80 3f
       0.98697215 1.0139462 1.0065781 1.0060761
000020 00 df 81 3f f2 8b 7e 3f 38 a7 80 3f a7 3f 7f 3f
       1.0146179 0.9943229 1.0051031 0.997065
000030 f0 0a 81 3f 1c ec 7d 3f ef ab 7d 3f 34 85 7e 3f
       1.0081463 0.991884 0.99090475 0.99422

encBlocks.0.BN2.bias f4 [16]
000000 06 42 cb bb e4 f7 71 bc fd 9d 58 bc a0 cf ff 3b
       -0.006202939 -0.014768574 -0.013221261 0.0078067333
000010 7f 70 f2 3b 3e f5 ef bb 08 e1 00 3b 14 0f b1 3a
       0.0073986645 -0.0073229363 0.001966538 0.0013508522
000020 84 6a ff ba 7c 62 a6 3b b7 3e 13 bc e7 a2 06 bc
       -0.00194867 0.005077658 -0.00898712 -0.00821755
000030 8d 87 d4 bb 72 89 87 bb ab 4c 19 bc e4 92 3f bc
       -0.0064858855 -0.004136258 -0.009356658 -0.011692736

encBlocks.0.BN2.running_mean f4 [16]
000000 f0 e7 20 bd 5a a9 51 3e 07 2c 78 be 01 88 ff 3d
       -0.039283693 0.20474759 -0.24235545 0.124771126
000010 6b b0 a9 3e a5 5e 88 3e 66 f5 0a 3e 55 f6 3c 3e
       0.3314241 0.26634708 0.13570175 0.18453343
000020 ee 1f ca 3e 35 ea 9f bd be 15 bf 3e 01 62 d1 be
       0.39477485 -0.07808343 0.37321275 -0.40895084
000030 c6 1e a2 3c a3 fe 5b 3e f0 44 74 bb 5b bb b2 bc
       0.019790065 0.21483855 -0.0037272535 -0.021817854

encBlocks.0.BN2.running_var f4 [16]
000000 b0 78 dc 3d 3e 8e 3e 3e 96 17 2a 3e eb 93 80 3e
       0.10765207 0.18608949 0.1661056 0.25112852
000010 12 26 9c 3e 06 6d 22 3e ee c8 e3 3d ea 18 93 3e
       0.30497795 0.15861902 0.11122309 0.28729945
000020 ee 67 4c 3e 9f 17 0f 3e 2b b2 11 3e 5a 0e 77 3e
       0.19961521 0.13973854 0.14228122 0.24126568
000030 de 18 34 3e 97 38 06 3e 46 b4 b4 3d 9a 25 43 3e
       0.17587611 0.13107525 0.08823447 0.19057313

encBlocks.1.conv1.weight f4 [16, 16, 3, 3]
000000 88 bd 81 bd a6 05 50 bc b0 9e 81 bd b1 55 9f 3d
       -0.06334978 -0.012696659 -0.06329095 0.07780016
000010 8d 9e 90 bd fd a2 2f bd 25 40 76 bc e8 2d d9 bc
       -0.07061491 -0.042880047 -0.015029942 -0.026511148
000020 1c 19 5a 3d 4a 52 8d bd 4b ee c9 bb 40 b5 4a bc
       0.053246602 -0.06900461 -0.00616244 -0.012372315
000030 18 39 a1 bd 3c f4 90 bd fa 96 5d 3d 5d f6 95 bd
       -0.07872218 -0.07077834 0.05409906 -0.07322381
000040 a5 4e f0 3c 00 d4 f2 bc d7 6c 18 3d 7b c7 6d bc
       0.029334376 -0.029642105 0.037213173 -0.014512892
000050 e0 98 8e bd a2 fb 82 bd 69 3e 7f bd bc 84 d9 3c
       -0.06962752 -0.063956514 -0.06231538 0.02655255
000060 e5 85 ef bb 43 e4 78 bd cb 8a 1d bd 13 63 26 bd
       -0.0073096626 -0.060764562 -0.03846244 -0.04062183
000070 22 5d 04 bd 6a 92 4b 3d 7b 01 57 bd 4f f2 6f 3d
       -0.03231538 0.04970018 -0.052491646 0.058580693
000080 5b 3a 2e 3d 19 ac 84 bd ed e2 c2 3b fe 47 32 3d
       0.04253612 -0.064781375 0.005947462 0.04352569
000090 01 3a bb 3c 18 35 5d bd 48 11 95 bd f1 d4 bc bd
       0.022854807 -0.054005712 -0.07278687 -0.09220303
0000a0 3d 0c fd 3c 4e 50 01 3c ce 01 09 bd 7c 0e 46 3d
       0.030889625 0.007892681 -0.033448987 0.048353657
0000b0 39 46 69 3d db 60 8e 3d 0d 5e 78 bd b6 d4 70 bd
       0.056951735 0.069520675 -0.06063657 -0.058796607
0000c0 34 fb 2e 3d a7 4b 7a bd 52 ae 39 3d ab ac 71 3d
       0.042720035 -0.061107304 0.04533226 0.05900256
0000d0 ee 24 99 bd 3e 9a 1e 3d 2a 61 a7 bd 98 70 15 3d
       -0.07477747 0.038721316 -0.081728294 0.03648433
0000e0 85 10 94 bd 8d 6e 5a 3d 5c 76 42 bd b6 b6 66 bd
       -0.07229713 0.053328086 -0.047476158 -0.05632659
0000f0 2c 45 80 bd 59 bd 33 3d f9 fa aa 3d 52 36 54 bd
       -0.062631935 0.043881748 0.083486505 -0.051809616
000100 5c e7 65 3d 8a a8 77 bd 3b 7b 32 3d d7 2e 81 bd
       0.056128845 -0.060463466 0.043574553 -0.06307762
000110 e0 77 80 bc b5 94 b3 bd 2b 86 37 3d db f7 13 3d
       -0.01568216 -0.08768598 0.044805687 0.036125045
000120 d6 44 5c bd 5d a3 5e bd 9c 97 a6 3c 04 bb d3 bc
       -0.053776585 -0.054355014 0.020335965 -0.025846012
000130 f2 da b5 bd 1e 52 66 bd a2 74 30 3d 0d e5 32 bd
       -0.08879651 -0.056230657 0.04307998 -0.04367547
000140 2a 85 f1 3b ab 71 16 3d 86 90 ba bd f8 19 22 bd
       0.0073706107 0.036729496 -0.09109597 -0.039575547
000150 d5 88 b2 bd b8 bf 88 3b d2 63 32 bd 2b a4 41 bd
       -0.08717505 0.0041732453 -0.043552227 -0.047275703
000160 26 5e e4 3c ba 18 b1 bc 89 f0 0f bd 61 f1 44 3d
       0.027876925 -0.021618236 -0.0351415 0.04808176
000170 8e 55 98 bd 79 58 93 3c 0f 9d ab 3c 22 8c 5a 3d
       -0.07438193 0.017986523 0.020948915 0.053356297
000180 06 8e 91 bd c1 93 93 bd 05 00 aa bd 5a 5b 33 bb
       -0.07107167 -0.07205916 -0.08300785 -0.0027367682
000190 30 63 4a 3c 4b 7a dd bc ff 84 e4 bc b8 02 de 3c
       0.01235275 -0.027035853 -0.027895449 0.027100906
0001a0 2f 2f 93 3d 3c 38 40 3d 23 bd 85 bc f6 83 76 3d
       0.07186734 0.04692863 -0.016325539 0.06018444
0001b0 7b 61 40 3d b2 7f b6 3c 81 2d f3 3c 04 e1 92 3b
       0.046967965 0.022277687 0.029684784 0.0044823904
0001c0 58 31 b1 bd 9c e2 82 bc 56 9d 43 bd b5 85 05 3d
       -0.0865199 -0.015977196 -0.04775747 0.032598216
0001d0 d7 36 e1 bc fd 28 05 bd 5b 0b 93 3c 2d f4 95 bd
       -0.02749197 -0.032509793 0.01794975 -0.073219635
0001e0 1b 8d a2 3b c4 52 10 bd 80 64 36 3d 4d 21 42 3d
       0.0049606687 -0.03523518 0.044529438 0.04739504
0001f0 f3 65 07 3d d6 74 00 bc 5b ed 01 3d 33 46 7c 3d
       0.03305621 -0.007840356 0.0317205 0.061590385
000200 60 e6 09 3d a9 8f d1 bb 7e 22 6a bd d1 52 50 3d
       0.03366697 -0.0063952995 -0.0571618 0.05086023
000210 21 1c 0c 3d 9e 1d 8b bd 79 ab 1a bc 4c 26 9f bd
       0.034206513 -0.067927584 -0.009440296 -0.077709764
000220 30 b0 72 3d 81 cd 30 3c 72 2f a8 bd 3a 12 9a bd
       0.059250057 0.010791183 -0.082121745 -0.07523008
000230 f7 a7 4b bc b8 9f 37 bd 74 48 06 bc 5f 2b 65 bd
       -0.012430183 -0.044830054 -0.008195985 -0.055949565
000240 e8 ef 29 3d 4a bf 8f bc 23 cb 44 bd 62 03 04 bd
       0.041488558 -0.017547268 -0.04804529 -0.03222979
000250 a1 8d f7 3b be fd a9 bd d0 5c 8b 3d cc e2 8e bc
       0.0075547253 -0.083003506 0.06804812 -0.01744213
000260 3a e0 02 3c ef a1 6c 3c f8 29 68 bc 5f 20 98 bd
       0.00798803 0.014442905 -0.014170162 -0.07428049
000270 66 94 89 3d 37 2c b1 bd 91 8d 73 3d 33 3b 17 3d
       0.06717758 -0.086510114 0.05946118 0.03692169
000280 2b 91 27 bd fe 1a c0 3c dd 5c dd bc 2f 9d 92 bc
       -0.040909927 0.02345037 -0.02702182 -0.017897217
000290 10 d4 d9 bb 5e ca b2 bb 03 21 4e bd 7a 12 81 bd
       -0.0066475943 -0.005456253 -0.05032445 -0.06302352
0002a0 61 8e 3c 3c 42 91 63 3c 88 a3 07 3d d9 16 94 bd
       0.011508555 0.013889613 0.03311494 -0.0723092
0002b0 88 0d 95 bd 40 42 9b bd 14 87 31 3d dc 88 a8 3c
       -0.072779715 -0.075809956 0.04334171 0.020573072
0002c0 52 f7 27 3c 69 de a5 bc 77 a2 13 bd 76 19 11 bd
       0.010251837 -0.020247655 -0.03604361 -0.035424672
0002d0 7f 4d 45 bd 70 11 fd bc 14 31 8f 3c 09 fe 9c bd
       -0.04816961 -0.030892104 0.017479457 -0.07665641
0002e0 c2 67 51 3d 8e d8 a0 3c 22 2b 3b bd 37 24 3b 3c
       0.05112434 0.019634511 -0.04569543 0.0114222085
0002f0 ea 6b 3e bd 93 21 8e 3d 2b b4 98 bd 8b 51 1e bb
       -0.046489634 0.069399975 -0.07456239 -0.002415749
000300 ca 33 29 bd 58 20 96 bd b5 77 6a bd d1 e5 a1 bd
       -0.041309156 -0.07330388 -0.057243068 -0.07905162
000310 a9 f7 50 bd 68 22 71 3d cc 18 b3 bd 9e c5 4f 3d
       -0.051017437 0.058870703 -0.08744964 0.05072557
000320 ba 31 3c 3d 2b 6b f3 3c 1b ee 87 bd f2 b4 a2 bd
       0.04594586 0.029714188 -0.06637212 -0.07944669
000330 48 38 94 3d 2a 73 10 bc 85 a8 12 3d a2 ed b2 bd
       0.07237297 -0.00881652 0.035805244 -0.08736731
000340 2f a7 b7 bd 36 05 d5 3c 67 dd 22 bd 7e 5f 6c bd
       -0.089674346 0.026003461 -0.039761927 -0.057708256
000350 72 d5 c4 3c 4c 75 e7 bc c8 1a 27 3d cd b1 f5 ba
       0.02402756 -0.028254174 0.040797025 -0.0018745005
000360 ce d5 a0 bb 65 53 9a bd b6 d4 9d 3c af 69 48 3d
       -0.0049083 -0.075354375 0.019266468 0.048928913
000370 85 34 53 3c 33 6d e9 b9 18 40 a7 bd 51 b3 5a 3d
       0.01289094 -0.00044522583 -0.08166522 0.053393666
000380 48 97 1a bd e2 1d e1 bc 27 1b 20 3c 4a 56 97 bc
       -0.03774193 -0.02748007 0.009772099 -0.018473763
000390 6b 99 6f 3d d2 8e 8f 3c 15 bf 49 bd a5 b5 38 3d
       0.05849592 0.017524157 -0.049254496 0.045095105
0003a0 cc c3 1b bc 14 4d 60 bc f9 35 36 3d 8e 20 88 3c
       -0.009507131 -0.013690252 0.044485066 0.016617086
0003b0 51 e4 c8 3c 17 6b 6d bb 4b 36 b8 3c 97 25 8d bc
       0.024522932 -0.003622716 0.022486826 -0.017229838
0003c0 45 3c c3 3c 41 78 1a 3d f2 8e a9 bd 67 ed 6e 3c
       0.02383245 0.03771234 -0.08279218 0.014582968
0003d0 56 b3 a0 bd 91 5f 72 3d c0 e7 96 3d 4d cb 7b bc
       -0.078467056 0.05917317 0.073684216 -0.015368295
0003e0 f4 4f 9f bc 47 0a 06 3d a9 2d 7f bd d8 75 77 3d
       -0.019447304 0.032724645 -0.062299404 0.06041512
0003f0 36 6c 8f bd f3 8c 7a 3c 17 dc c0 bc da 90 a4 bd
       -0.070030615 0.015292394 -0.023542447 -0.08035441

encBlocks.1.conv1.bias f4 [16]
000000 8d c2 bf bc b5 38 99 bc 4f a3 01 3d e7 e5 48 3c
       -0.023408199 -0.018703798 0.031649884 0.012261844
000010 3f 46 2a bd 29 b4 71 bd 14 ed 49 bd b9 08 53 3a
       -0.0415709 -0.059009705 -0.04929836 0.0008050311
000020 48 34 13 3d c0 1a a8 3c 64 ec 75 3c 51 75 48 3d
       0.03593853 0.020520568 0.015009973 0.048940007
000030 13 f4 92 3d 5a c1 a0 bd 10 1f 85 bd 71 55 61 bd
       0.0717546 -0.07849379 -0.06500065 -0.055013124

encBlocks.1.conv2.weight f4 [16, 16, 3, 3]
000000 3c 86 27 3d ca 24 b9 3d 46 97 b0 3d cb 40 a5 bc
       0.0408995 0.0904022 0.08622603 -0.020172497
000010 0e 89 43 bd 09 79 4f bd d7 51 b8 bc 25 00 23 bd
       -0.047738127 -0.050652537 -0.022499962 -0.03979506
000020 83 09 30 bb 41 26 03 3d 26 0f 83 bc 8e 2b 51 bd
       -0.0026861138 0.032018904 -0.015998434 -0.051066928
000030 dc 3d 0f bd 82 07 8f 3d 9b d9 8a 3d b3 c4 9b 3d
       -0.034971103 0.06983854 0.06779786 0.07605877
000040 76 e7 d2 3c 32 e7 91 bd 15 6e 9b bd 52 ac 84 3d
       0.025745135 -0.07124175 -0.07589356 0.0647818
000050 aa 84 a2 bd f7 ac 19 3c 5c cc 9c bc 16 5a ea bc
       -0.0793546 0.009379617 -0.019140415 -0.02860741
000060 3c c7 64 bd fb 44 94 bd fd d0 4b 3a bd 1a a6 ba
       -0.055854067 -0.072397195 0.0007774977 -0.0012672764
000070 40 3b de bc 54 0b 94 3d 70 d4 8f bd 00 71 25 3d
       -0.027127862 0.07228723 -0.07022941 0.04039097
000080 b0 f4 1e 3d 30 42 43 3d 34 57 a2 bc af 62 23 bc
       0.03880757 0.047670543 -0.019816972 -0.0099722585
000090 60 4f 87 3d d4 8e 95 bd 36 51 79 bd 16 10 c2 bc
       0.066069365 -0.07302633 -0.060868464 -0.023689311
0000a0 b5 92 0e bd 33 7e 8e 3d cf 4d ba bb 7f 85 22 3d
       -0.03480788 0.06957664 -0.005685545 0.039678093
0000b0 ff a2 af 3d 5e 52 2a 3b 2e 3a 4a bd c3 e9 34 bd
       0.08576011 0.0025989036 -0.04937189 -0.044168245
0000c0 4c 6b 9f bd 96 46 44 bd 12 7b 03 3d 3a dc a1 3c
       -0.07784137 -0.04791888 0.03209979 0.019758333
0000d0 11 01 76 3c a8 bc df bb 4e 17 2c 3c 00 37 f8 3c
       0.015014903 -0.0068279095 0.010503603 0.030299664
0000e0 8c e7 9e 3c 6e d1 14 bd a1 b9 0e 3d cb 3f 69 3c
       0.01939752 -0.03633254 0.034845 0.014236401
0000f0 83 95 30 bd 67 87 ac bc 4a c2 49 bd 3c 22 74 ba
       -0.043111335 -0.021060659 -0.049257554 -0.00093129626
000100 f4 26 16 bc fa db 14 3d 65 5a cc 3c cd aa 88 bd
       -0.009164561 0.0363426 0.024945447 -0.06673203
000110 83 43 28 bd 00 1f 9c 3c 3e da 8e 3d d3 2b 8a 3d
       -0.04108001 0.01905775 0.0697522 0.0674664
000120 82 9c 83 3d d3 35 19 3d 00 39 a3 3d 40 9f 9e 3b
       0.06426336 0.037404846 0.07969856 0.0048407614
000130 76 5c 5a 3d f0 e5 46 3d 1d 40 c6 bc 97 d8 78 3d
       0.053310834 0.04855913 -0.024200493 0.06075343
000140 11 8e 6a 3d 98 15 cf bb ea 2c 65 bd 68 ea 29 bd
       0.05726439 -0.006319713 -0.055951037 -0.041483313
000150 68 d3 73 3c c7 5e 94 bd 61 5e 42 bd e6 a2 a1 bb
       0.014881946 -0.0724464 -0.047453288 -0.004932749
000160 4b a6 ab 3d a9 bd 17 3c bb ad e6 3c 5f d3 37 3d
       0.08381327 0.009261527 0.028159013 0.044879314
000170 60 c2 b3 bd 99 59 b7 bd 9a 9b 72 bd 94 7e cc bb
       -0.087773085 -0.08952636 -0.059230424 -0.006240675
000180 8a b5 63 3d 31 34 95 bc f7 1c 8a bd 73 9a c0 3a
       0.05559305 -0.018213363 -0.06743806 0.0014694467
000190 e4 e7 a0 bd 53 90 93 bd 97 de 13 bd 03 93 8f 3d
       -0.078567296 -0.07205262 -0.03610095 0.07010462
0001a0 01 ec 45 3c d7 a5 28 bd f1 a7 8c bc 53 d0 93 3d
       0.0120801935 -0.041173782 -0.017169924 0.07217469
0001b0 e0 98 54 bc 20 3e 87 3d 2e 00 6a 3c 09 42 58 bd
       -0.012975901 0.06603646 0.014282269 -0.05279735
0001c0 15 f3 7f 3c 86 fe b5 3b 47 f1 4d bc de 94 2e 3d
       0.01562192 0.005554023 -0.012569732 0.04262244
0001d0 70 a7 1c 3d e5 37 0b bc f6 9c 31 3b 4e e7 2f bd
       0.03824562 -0.008497213 0.0027101613 -0.0429452
0001e0 6f 70 1d 3d 77 f1 35 bd 35 f8 a2 3d 5d 21 7c bc
       0.038437303 -0.044419732 0.07957498 -0.015388814
0001f0 70 e4 f3 3c 95 27 70 bb de f6 64 3b 1d 03 82 bd
       0.029772013 -0.0036644686 0.0034937183 -0.0634825
000200 e5 4e d0 bc a8 20 64 bd 5a d1 8c bc 74 df 1d bd
       -0.025428245 -0.055695206 -0.01718967 -0.03854318
000210 9e ab 99 3d be b9 68 3d 31 49 21 bc f4 9b 97 bd
       0.075034365 0.056817763 -0.00984411 -0.074027926
000220 b0 57 91 bd 89 b9 5f bd dc 2f 8f 3d d2 05 be bc
       -0.07096803 -0.0546203 0.0699155 -0.023196135
000230 b3 8c c1 3c c7 85 39 bd 53 d5 00 bc 42 c5 22 3d
       0.02362666 -0.045293596 -0.00786336 0.0397389
000240 37 9e 96 bd bd c8 96 3d bc 05 46 bd fe ba a2 3c
       -0.07354396 0.073625065 -0.048345312 0.019864555
000250 89 f7 14 3d 02 aa 42 bd 65 37 ca 3c 4e dd c5 3c
       0.03636888 -0.047525413 0.024684617 0.024153378
000260 72 04 f2 3b e2 0a 5d bd 86 04 2d 3c 8a 31 9c 3d
       0.007385784 -0.053965457 0.0105601605 0.07626636
000270 e1 04 6e bc 30 8d 58 bd 09 19 ad bc cd 10 51 3d
       -0.01452753 -0.052869022 -0.021130102 0.051041413
000280 b0 b2 6a 3d 6a 65 b2 bc d5 52 fa 3c 04 26 2e bd
       0.057299316 -0.021776874 0.030557076 -0.042516723
000290 6a 29 46 bd 45 a3 7e 3d 6c 19 24 3d fd c6 5b bd
       -0.04837934 0.062167425 0.040063307 -0.053656567
0002a0 e6 c9 31 3b 5e 4e 58 bb 43 56 27 3c 52 30 65 bc
       0.0027128397 -0.0033005695 0.0102134375 -0.013988571
0002b0 7e 2e 09 bd a7 2a 57 bd 05 79 f3 bc c9 d1 b1 bc
       -0.033491604 -0.05253091 -0.029720793 -0.021706479
0002c0 48 a0 97 bd dc 93 86 bd 80 34 30 bd a7 7d 66 3d
       -0.07403618 -0.06571171 -0.043018818 0.056272175
0002d0 c0 0d 0e 3d 8a 2e a9 bd 6b 1e 38 3d 8e 32 f4 bc
       0.03468108 -0.0826083 0.044950884 -0.029809263
0002e0 46 6d 74 3c 65 b6 47 3d af 31 02 3d 6f 4a 31 bd
       0.014918631 0.04875793 0.031785663 -0.043283876
0002f0 98 5b 57 3d 93 16 96 3d 65 52 2b bd e2 79 68 bd
       0.052577585 0.073285244 -0.041826624 -0.05675686
000300 83 d4 29 3d b0 84 62 3d 2b ef 51 3d 1e 76 0b 3d
       0.041462433 0.055302322 0.05125348 0.034048192
000310 4b 48 1d bd c0 b4 a6 bd 1f c7 53 3c 28 e3 6a 3c
       -0.038399022 -0.08139944 0.012925892 0.014336385
000320 00 f0 82 bd cd db 33 bd ef ee a3 bd 90 74 89 bc
       -0.063934326 -0.04391079 -0.08004557 -0.016779214
000330 c9 39 11 3d 01 cd 08 3d 99 12 18 bd 06 e0 a3 bd
       0.0354555 0.033398632 -0.03712711 -0.080017135
000340 34 10 9b bd 47 b1 c5 3c f5 4b 86 bc 2c a9 d2 bc
       -0.0757145 0.024132384 -0.016393641 -0.025715433
000350 2d 74 1e 3d 08 e7 b9 bb fd 73 0f bd 87 87 98 bc
       0.038685013 -0.005673293 -0.035022724 -0.018619312
000360 a3 ed 71 3c 85 4e 02 3c c8 c2 14 bc 66 ca 24 3d
       0.01476613 0.007953291 -0.009079643 0.040232085
000370 48 43 86 bd b4 cc 5c bd 5c 2b aa 3c 07 15 59 3c
       -0.06555802 -0.053906158 0.020772628 0.013249642
000380 77 35 a3 3d 4d 10 d1 bc 04 49 b6 3c e6 13 ed bb
       0.07969182 -0.025520468 0.022251613 -0.007235038
000390 2e fb 7c 3d 08 cc 00 bd 0d f4 77 bd 8f 9b 04 bb
       0.06176298 -0.03144458 -0.06053548 -0.0020234322
0003a0 31 bb 48 3d 00 8e 89 bc e0 8b 96 3d a7 a3 87 bc
       0.049006645 -0.016791344 0.07350898 -0.016557528
0003b0 b7 ed 89 bd e8 c7 98 3d 2c db 1e bd d7 6d 9e 3d
       -0.06734794 0.07460004 -0.038783237 0.07735794
0003c0 bf cc b0 3d 76 7e 04 bc fc 3f 73 bc 6c 57 71 bd
       0.08632802 -0.008086791 -0.014846798 -0.058921263
0003d0 df 7b 35 bc 24 80 a8 bd c2 f0 41 bc dd 14 46 3d
       -0.011076896 -0.08227566 -0.011837186 0.04835974
0003e0 71 22 19 bd 1f be 43 3d 3b a3 3f bd 73 66 d2 ba
       -0.03738636 0.047788735 -0.046786528 -0.0016052261
0003f0 eb 40 05 bd 3b 09 81 3d ea 0c 6b bb f6 f1 10 bb
       -0.032532614 0.06300589 -0.0035865852 -0.0022116876

encBlocks.1.conv2.bias f4 [16]
000000 c4 58 98 bd 3a 15 51 39 2c d1 9e 3d bd 13 c9 bc
       -0.07438806 0.000199397 0.0775474 -0.024545545
000010 aa 80 eb bc 7f 82 6c 3d e4 5a ed bb 4d 7b 49 3d
       -0.028747875 0.05774164 -0.007243501 0.049189854
000020 14 a2 0f 3b ac 0d ab bd f1 89 a6 3d 8f dc 50 bd
       0.0021916674 -0.08352217 0.08131779 -0.05099159
000030 93 2b 16 bd c3 7e 0b 3d 2b 20 9f 3d 26 00 6c bd
       -0.03666265 0.034056436 0.077698074 -0.05761733

encBlocks.1.BN1.weight f4 [16]
000000 e4 a6 7d 3f 4a 48 7e 3f 4a 71 81 3f 2b 06 81 3f
       0.9908278 0.99329054 1.0112698 1.0080007
000010 b8 b9 7d 3f 30 ae 80 3f bc 3f 7e 3f 97 5f 80 3f
       0.9911151 1.0053158 0.99316 1.0029172
000020 c8 ef 7d 3f 8a ac 80 3f d6 be 80 3f ac 42 7f 3f
       0.99194 1.0052655 1.0058239 0.9971111
000030 23 be 80 3f b0 0e 7e 3f 98 a6 7f 3f 10 39 7e 3f
       1.0058025 0.9924116 0.99863577 0.9930582

encBlocks.1.BN1.bias f4 [16]
000000 18 4f f6 bb 96 9c 39 bb 2d ec e8 bb 30 56 a8 3c
       -0.007516753 -0.0028322092 -0.0071082325 0.02054891
000010 8f 38 07 bc e6 ed 5b 3c 41 8a 16 3b b6 4d a5 3c
       -0.008253231 0.013423419 0.002297059 0.020178657
000020 d5 f9 20 bc 88 b8 86 3b 42 43 45 3c 16 54 d0 bb
       -0.00982519 0.0041113533 0.012039961 -0.00635768
000030 23 1c cf 3c a6 6b e8 bb e0 01 06 bc cb 2d 01 bc
       0.025281971 -0.007092911 -0.008179158 -0.007884453

encBlocks.1.BN1.running_mean f4 [16]
000000 b0 30 73 bf f6 b3 0e bf f0 43 cd bd 71 0e 89 bf
       -0.94996166 -0.5574335 -0.10022724 -1.0707532
000010 47 61 ac bf 34 80 c6 3e 88 b4 32 bf 64 9a 0e bf
       -1.3467187 0.38769686 -0.6980672 -0.5570433
000020 fe da 4b bd 3e 0a cc 3e 4d 3c 7d 3f 65 76 12 3f
       -0.049769394 0.39851564 0.98920137 0.57211906
000030 5f e2 33 3f 20 76 0b 3e 95 cc 1d 3d f1 0f 05 bc
       0.7026729 0.1361928 0.038525183 -0.0081214765

encBlocks.1.BN1.running_var f4 [16]
000000 95 a7 53 3f ab 72 85 3f c4 66 44 3e 85 ef d4 3f
       0.82677585 1.0425619 0.19179827 1.6635596
000010 c8 a1 c1 3f 15 5a d5 3f e7 8b ea 3f c9 46 cf 3f
       1.5127497 1.6668116 1.8323945 1.6193477
000020 0a 3d 67 3e f9 7f 02 3f ce a4 9c 3f 64 95 38 3f
       0.22581878 0.5097652 1.2237794 0.7210295
000030 0a 6e af 3f 11 48 71 3e 16 3f 9a 3e 4c 20 ae 3e
       1.3705456 0.23562647 0.30126256 0.34009016

encBlocks.1.BN2.weight f4 [16]
000000 64 a4 7d 3f 45 ca 80 3f 08 81 7e 3f 2a ea 80 3f
       0.99078965 1.0061728 0.99415636 1.0071461
000010 d6 1a 81 3f 50 55 7e 3f 7b 37 7e 3f 0c 40 7f 3f
       1.0086315 0.99348927 0.99303406 0.997071
000020 6c f3 7a 3f 31 a1 7e 3f 4d 02 7e 3f 1a cd 80 3f
       0.9802768 0.9946471 0.9922226 1.0062592
000030 3d aa 82 3f 75 6e 80 3f 12 e9 7c 3f d2 3b 80 3f
       1.0208203 1.0033709 0.9879314 1.0018256

encBlocks.1.BN2.bias f4 [16]
000000 bb 5f 2d bc 3d 3e 2b 3b a3 f2 e1 bb 0d af f6 bb
       -0.010581906 0.0026129626 -0.0068953796 -0.007528192
000010 84 de d5 3c 71 af 4e bc e7 5d 77 bc 4e 4a c8 bb
       0.02610708 -0.012615071 -0.015098072 -0.0061123734
000020 d0 6f a0 bc 5b 95 42 bc 1d 14 37 bb e0 8d 72 bc
       -0.019584566 -0.011876429 -0.0027935572 -0.014804333
000030 48 07 8d bc ed 1b 13 bb d7 28 24 bc 6f 48 49 bc
       -0.017215386 -0.0022447065 -0.010019503 -0.012285336

encBlocks.1.BN2.running_mean f4 [16]
000000 bd 0a 01 be 4b b2 17 3d b2 91 ad be d1 9e 63 be
       -0.12601753 0.037035268 -0.3390022 -0.22228552
000010 fa e2 27 3e f2 6f 52 3e b8 94 7c 3d c2 ee 60 be
       0.16395178 0.20550516 0.061665267 -0.21966079
000020 1a da f9 be ef a5 24 be 5d 28 10 3e b5 04 05 be
       -0.4879921 -0.16078924 0.14077897 -0.12990077
000030 d3 6b 82 be ed d0 39 be 61 e1 50 be 6e 22 ae 3e
       -0.25472888 -0.18146105 -0.20398475 0.34010643

encBlocks.1.BN2.running_var f4 [16]
000000 1a ea 08 3e 68 be fd 3d 38 aa e6 3d ef 0f 85 3e
       0.13370553 0.12389833 0.112629354 0.2598872
000010 98 70 9e 3e 25 23 b7 3d c2 af cc 3e 5c 72 72 3e
       0.30945277 0.0894225 0.39977843 0.23676437
000020 d9 2b 0b 3f 76 c0 a7 3e b0 b1 49 3e 01 16 24 3e
       0.5436378 0.32764024 0.19696689 0.16024019
000030 a2 29 13 3e a4 9b 29 3f 8e 54 04 3e 93 c1 12 3f
       0.1437135 0.66253114 0.1292288 0.5732662

encBlocks.2.conv1.weight f4 [1, 16, 3, 3]
000000 aa fa 0e 3d 87 83 84 bd 17 8e 68 bc fc 20 62 3d
       0.03490702 -0.06470399 -0.014194033 0.055207238
000010 b1 44 9a 3d fd fa 61 bd 8c 39 83 3c 55 7a 5d bd
       0.07532633 -0.055171 0.016018651 -0.054071743
000020 5d 7d 1a 3c 52 5e 33 3c a4 f6 f8 bc f3 0d 06 3c
       0.009429303 0.010947781 -0.030391045 0.008182037
000030 52 cd 39 bb d4 ae 06 3d a6 23 f7 3c b1 3e 0b bc
       -0.002835114 0.032881573 0.030168366 -0.0084988335
000040 bc c7 96 3d bc fe 32 bd f2 21 d7 bc 21 3e 6b 3d
       0.07362315 -0.043699965 -0.026261304 0.057432298
000050 09 cd 89 bd 6e f0 84 3d 19 22 98 3a a0 8e 73 3d
       -0.067285605 0.06491171 0.0011606842 0.05946219
000060 47 d6 82 bd 84 f0 db 3c f7 ec 82 3c 37 26 c7 bc
       -0.063885264 0.026848085 0.015982134 -0.024310214
000070 27 7a a6 bc 58 e0 ac 3d d2 42 98 3d 9d 46 90 bd
       -0.020321919 0.08441228 0.0743462 -0.070447184
000080 26 11 31 bd fb 22 b1 3d bb 6b 23 3d e4 ae 8a 3d
       -0.043229245 0.0864925 0.03989766 0.06771639
000090 dd cd ca bc aa 86 a5 bb 4b 6c 0a bd 18 9c 89 3d
       -0.024756366 -0.0050514536 -0.033794682 0.06719226
0000a0 e1 48 cd 3c a1 34 0a bd 81 cf fb bb 1f a1 65 3d
       0.025059165 -0.033741597 -0.0076846485 0.05606186
0000b0 f8 52 27 3d 87 08 1f 3d 4d 68 98 bc 0e ca 1f 3d
       0.04085061 0.03882649 -0.018604422 0.039011054
0000c0 9b 6e 01 3d 73 2a 30 bb cc 35 ab bd fb b0 c7 bc
       0.031599622 -0.002688077 -0.0835987 -0.024376383
0000d0 a2 e8 0a bd 55 a9 34 b9 0c 74 dd 3c 09 28 39 3d
       -0.033913262 -0.00017229219 0.027032875 0.045204196
0000e0 51 f2 8e 3c 12 f1 13 bd 6b 44 66 3c a2 b2 ab 3d
       0.01744953 -0.036118574 0.014054398 0.08383681
0000f0 b0 d8 8b bc 19 61 9a bd 86 df d3 bc 2b 0d bc bc
       -0.017071098 -0.07538051 -0.02586342 -0.022955498
000100 bd 31 06 3d 93 aa 3b bd d0 7c a7 bd 59 8c 72 3c
       0.032762278 -0.04581697 -0.08178103 0.014803969
000110 8f a2 a9 3d 4f 76 75 bd 44 e6 54 3d 07 5a 81 3d
       0.08282959 -0.05992728 0.05197741 0.063159995
000120 7a a9 43 3c 31 db 75 3d a2 89 70 3d bf 3f ac bc
       0.011942262 0.06002349 0.058725007 -0.02102649
000130 3a 32 01 bc 05 e5 83 3b 3d cf 0c bd 00 42 18 bd
       -0.00788551 0.004025104 -0.034377325 -0.037172318
000140 81 7d 09 3c ec 9b 2b 3d 62 eb 98 bc ad 27 d1 bc
       0.008391739 0.041896746 -0.018666927 -0.025531614
000150 93 4e 46 bd 6d 3d 04 bd c2 48 a3 bd 87 38 86 3d
       -0.048414778 -0.032285143 -0.07972862 0.065537505
000160 40 73 52 bd ea fd 9f 3d f6 0f 7d bd 7b ce e3 3a
       -0.051379442 0.07812102 -0.0617828 0.0017380262
000170 05 ba 2f bd f8 45 68 3d 60 03 86 bd e7 a3 17 bd
       -0.04290201 0.056707352 -0.065436125 -0.037021544
000180 1a 57 36 3d fe 35 94 3d a6 e5 82 3d 4e a1 0b 3b
       0.04451666 0.07236861 0.06391458 0.0021305862
000190 e4 06 90 3d 98 15 74 3d 7b c8 cb 3b a0 5c c8 3c
       0.07032564 0.059590906 0.0062189675 0.02445823
0001a0 e1 4b 85 bd df ed 88 3d 1f b1 8f bd df 80 55 3d
       -0.065086134 0.06685995 -0.07016205 0.052124854
0001b0 f4 ed 1d 3d e0 3b 0c bd 72 68 a0 3d 47 39 a8 3d
       0.038557008 -0.03423679 0.07832421 0.0821405
0001c0 16 92 d2 3b f2 89 cf 3b 46 3d 35 3a a4 ff 9b bb
       0.006426106 0.006333583 0.00069137325 -0.0047606993
0001d0 37 df e0 bb 15 a7 a8 bd cb 83 a4 3c c2 fe 5d bd
       -0.006862547 -0.08234993 0.020082375 -0.054198034
0001e0 39 1a 24 3d 4a 7a 96 bd a8 73 00 3d 3c 79 3b bd
       0.04006407 -0.073475435 0.0313603 -0.045769915
0001f0 b8 c3 f1 ba 75 52 f3 bc f9 ba fc 3c 0e ea a9 bc
       -0.001844517 -0.029702405 0.030850874 -0.020741489
000200 c7 a0 c6 bc 72 aa 88 3b 84 1b 08 bd 7c 91 17 3d
       -0.024246586 0.0041707093 -0.033229366 0.03700398
000210 12 bd a6 3d 88 54 92 bd f9 81 8f 3c 8a f6 6b 3c
       0.08141531 -0.07145029 0.01751803 0.014402041
000220 ff a0 b6 bb 2c 26 5f 3d 79 a8 9f 3d 5d 5e 68 bc
       -0.0055733914 0.054479763 0.077958055 -0.014182654
000230 ce af 95 bd 0c aa 1c bd b1 2b 79 bb b3 f1 a8 3d
       -0.07308923 -0.038248107 -0.0038020427 0.082492255

encBlocks.2.conv2.weight f4 [1, 1, 3, 3]
000000 97 3e 01 3e b6 5e 89 3d 40 70 9a 3e 83 93 6a be
       0.12621532 0.06707518 0.30163765 -0.22907834
000010 1e 23 9d 3e 72 0b 5f bc 2b f1 11 3e 77 d1 4a 3e
       0.30690855 -0.013613569 0.14252155 0.19806467
000020 79 e7 64 be
       -0.22353925
