Model_params/test_small_macro_epoch_1.pt (torch, 44071 bytes, 26 tensors)

encBlocks.0.conv1.weight f4 [16, 3, 3, 3]
000000 c9 a0 1e 3d cc ac 35 3e 2e 89 8e bc 96 15 40 3e
       0.038727555 0.17741698 -0.017399397 0.18758234
000010 f1 35 31 3e 18 8c 2a 3e 50 1d 27 3e 39 99 ca bd
       0.17305733 0.16655004 0.16319776 -0.09892506
000020 4d 8c 21 3c 18 3e e9 bd c7 23 fa bd 49 ac 44 be
       0.0098601105 -0.113887966 -0.12213855 -0.19206347
000030 c6 82 a4 bd 6a 8e 11 be d0 db bb bd 5c c5 1e bd
       -0.080327556 -0.14214483 -0.09172785 -0.038762435
000040 8c 5d 52 3c 12 48 1e 3e 3a 84 77 3a ef bc a8 3d
       0.012839686 0.1545718 0.00094420055 0.08239161
000050 11 3d 28 3e 92 40 8b bd 85 48 18 3c e4 d3 44 bc
       0.16429545 -0.06799425 0.009294634 -0.012013409
000060 a2 67 2b 3d f1 df bc bc 0c f3 01 bd 09 52 ab 3d
       0.04184688 -0.023056002 -0.03172593 0.08365256
000070 54 8b 3d 3e 53 64 d9 bd 58 13 18 be 0b 2b 61 bc
       0.1851018 -0.106148385 -0.14851129 -0.013743172
000080 d0 3d 57 3d 4e 9d 43 be b4 8a e4 bd f4 00 b5 3d
       0.052549183 -0.19102976 -0.11159268 0.088380724
000090 23 21 e1 bb fd a1 09 3e cf a6 ba 3d d2 12 18 3e
       -0.0068704053 0.134407 0.091138475 0.1485093
0000a0 7d 47 28 be 42 29 48 3d 2c 02 0c be 01 28 23 be
       -0.1643352 0.04886747 -0.13672704 -0.15933229
0000b0 66 b9 ed bc 34 a6 89 bd 0c ef b6 3d b5 db 8f 3d
       -0.029019069 -0.06721154 0.08932313 0.07024328
0000c0 df 30 da 3d 48 5a 37 3e d9 c8 5f bd f1 76 dc 3d
       0.10653853 0.17905533 -0.054634903 0.10764874
0000d0 0b c3 21 be 08 c6 09 3d 28 1f 40 3e 08 eb f1 bd
       -0.15797059 0.033636123 0.18761885 -0.11812407
0000e0 a3 38 a2 bd 61 99 d3 3d 57 d2 25 bb d4 52 fb 3c
       -0.07920959 0.10331989 -0.0025302374 0.030679144
0000f0 2a 36 f1 bc e3 da 17 be 2e bb a7 3d 28 ea 22 3d
       -0.029444773 -0.14829592 0.081899986 0.03977409
000100 fe ca 16 be 3b a7 ab bd 2c 68 43 3e d6 d0 cf ba
       -0.14725873 -0.08381506 0.19082707 -0.0015855085
000110 ce a9 96 bd bc 0c 21 be 63 9e b5 bd 4f 94 1f bd
       -0.073566064 -0.15727514 -0.088681005 -0.038959797
000120 ba c2 0b 3d 91 fb 2d be fc 69 20 be a6 16 fb 3d
       0.034121253 -0.16990496 -0.1566543 0.12260179
000130 6e fd 60 3d 9e 9e 26 3e 63 f7 5b 3b ed 6c 1c 3d
       0.05492919 0.16271445 0.0033564202 0.038189817
000140 5a b3 c8 bd 46 b1 f3 3d d3 5c b3 3d 09 55 2a 3e
       -0.097998336 0.118990466 0.08757939 0.16634001
000150 4d 99 d6 bd ab a5 b6 3d a9 6f 1e 3e e9 e7 88 bd
       -0.104784586 0.089183174 0.15472282 -0.06684858
000160 62 ca b3 bc 8b 61 a8 3d ed 18 6f bd 49 ff 78 3d
       -0.02194709 0.0822173 -0.05837338 0.060790334
000170 4a 80 ca bd dd e5 08 3d be bc a3 3d 0a 90 eb bd
       -0.098877504 0.03342234 0.07994984 -0.11502083
000180 cb d8 b5 3d 8b 5f e1 3d 54 b6 43 3e 7c c4 84 3d
       0.088792406 0.110045515 0.19112521 0.06482789
000190 cb d7 b3 bd 3b a0 ce 3b 03 0c 14 3e 73 e8 a4 3d
       -0.087813936 0.006305722 0.14457707 0.08052149
0001a0 12 41 d0 3c 1f e6 87 bb 5d 7e 1a 3e ae 7e 7c 3c
       0.025421653 -0.0041473056 0.15087266 0.015411062
0001b0 28 9a 2e 3e cc 5c 05 3e 7f 4e 0c 3e 3e 18 13 be
       0.17050993 0.1302368 0.13701819 -0.14364716
0001c0 c8 b4 28 be a5 0e 29 be f9 7b 3e 3b 87 61 48 3e
       -0.16475213 -0.16509493 0.0029065593 0.19568454
0001d0 af 2f 8c bd eb 66 e4 3d 06 b0 c3 3d 61 0d 0d 3e
       -0.068450324 0.111524425 0.09555058 0.13774635
0001e0 07 be 9b 3d 0f 2c 62 3d d3 be 2c be 3f a8 a0 bd
       0.07604604 0.0552178 -0.16869669 -0.078445904
0001f0 a1 f2 34 be bc 28 04 3d 1d c8 58 bc e0 1a 8a 3d
       -0.1767068 0.03226541 -0.0132313045 0.06743407
000200 b5 80 24 be 66 07 c1 ba 93 ca 0c 3e 08 8f 91 bd
       -0.16064723 -0.0014726936 0.13749151 -0.07107359
000210 76 79 8d 3d 22 d0 27 3d 7f 2f fa bd 4b b2 ed 3d
       0.069079325 0.040969975 -0.122160904 0.11606272
000220 c8 6d 15 3e e8 de 27 3d d3 c2 19 be 43 5b 06 3d
       0.1459266 0.040984064 -0.15015726 0.032801878
000230 26 1a 30 3e 95 df 57 3d 21 d3 47 3e 8a 8b ec bd
       0.17197475 0.05270346 0.19514133 -0.115500525
000240 86 7e 3e be ec c8 27 3e 79 e4 3c be dd d1 0a bd
       -0.18602952 0.1638524 -0.1844653 -0.033891547
000250 e9 87 13 be f2 a1 07 be ba 12 32 3e 0b 28 3b be
       -0.14407314 -0.13245371 0.17389956 -0.18276994
000260 03 3c 10 be 97 42 60 bd 31 19 0e 3d 30 be 8d bc
       -0.14085393 -0.054751005 0.034691993 -0.017302603
000270 2f 37 ba 3c 3c 99 11 3e 48 dd 26 bd 01 ec 32 3d
       0.022731392 0.1421861 -0.040738374 0.043682102
000280 b1 75 ce bd 01 d7 f1 bd 02 55 47 be 34 55 23 be
       -0.100810416 -0.11808587 -0.19466022 -0.15950471
000290 ab 82 5e 3d 48 77 ab bc 1d 77 33 3e df ef e8 3b
       0.054323833 -0.020930901 0.17525907 0.007108673
0002a0 e4 22 41 be 40 77 3d 3e c5 95 13 3d 0b f6 d9 3d
       -0.18860966 0.18502522 0.036031503 0.10642632
0002b0 41 78 f0 bd 87 4b f8 3b 52 69 3e 3e 94 f1 09 be
       -0.117416866 0.007577363 0.18594864 -0.13471061
0002c0 2c bb 27 3d 98 c7 33 be b2 5a 2b 3e cf b2 31 be
       0.040949985 -0.17556608 0.16733816 -0.17353366
0002d0 ca 95 00 be 6e 7c 5a 3a 08 94 d0 bd 01 56 b3 3d
       -0.1255714 0.00083345815 -0.10184485 0.08756638
0002e0 45 36 34 3e be e9 e8 3d 34 c2 21 bd 8e b7 21 3e
       0.17598827 0.11372708 -0.039491847 0.15792677
0002f0 e6 89 61 bd f6 f3 3a be 99 a0 1a bd 46 1d 41 be
       -0.05506315 -0.18257126 -0.037750814 -0.18858823
000300 8f c3 c6 3c f9 c3 a3 3d d3 00 24 be 32 9c 1f bc
       0.024263171 0.07996363 -0.1601594 -0.00974183
000310 51 50 b4 3d a0 d0 02 be 25 62 ae bd 5c d4 02 3d
       0.08804382 -0.12774897 -0.08514813 0.031940803
000320 3f 6d 16 bd 7a 42 3b be 4d 08 9b bd 68 c9 26 3d
       -0.03672528 -0.18287078 -0.075699426 0.04071942
000330 d6 af 29 be bf 12 1f 3d e3 86 e5 3d 1a 68 19 3e
       -0.16570982 0.038836237 0.11207368 0.14981118
000340 88 c4 41 3e 13 cf 2f 3e c0 7b 01 3e 3d e7 90 bd
       0.18922627 0.17168836 0.12644863 -0.07075355
000350 da b1 d5 3d 49 cb d7 bd e0 4d 94 3d 21 2d ff 3d
       0.10434313 -0.105368204 0.07241416 0.124597795
000360 a7 97 85 3c 96 41 18 3e df 0c 04 3e be 88 05 3d
       0.016307665 0.14868769 0.12895535 0.03260111
000370 b1 ad 45 bc 42 1a 16 be f2 cc 2f 3e 03 1b 27 be
       -0.012065337 -0.14658454 0.17168024 -0.16318898
000380 c7 09 18 bc 79 45 1b 3d d6 48 2e 3e f5 c2 c7 bd
       -0.009279675 0.03790805 0.17019972 -0.09753982
000390 90 39 f3 bc d5 a7 03 bd 48 e2 0f 3e e4 3e 19 3e
       -0.029690534 -0.03214248 0.14051163 0.14965397
0003a0 0c 69 1e 3e d1 65 96 3d ad b6 b3 3c dc 14 29 3e
       0.1546976 0.07343639 0.021937693 0.16511863
0003b0 03 7a d6 3d 7b 92 f8 bd ba 23 af bd 11 00 2b bd
       0.10472491 -0.12137314 -0.08551736 -0.04174811
0003c0 47 cf b4 3d 7f 6a 69 bc 95 ba b9 3d ab a8 f8 bd
       0.088285975 -0.014246582 0.09068791 -0.12141546
0003d0 b6 8a d3 3d 40 42 9e bd 04 16 e8 3c ed c0 3f 3e
       0.103291914 -0.0772748 0.02833081 0.18725939
0003e0 5d 4f 01 bd 21 61 e5 3d da 4b 67 bd 4f bc 84 bb
       -0.031569827 0.112001665 -0.056468822 -0.0040507684
0003f0 63 8a 3b 3d b6 b3 17 be e4 b9 f0 bd f9 cb 1b 3d
       0.045786273 -0.14814648 -0.11754206 0.03803632

encBlocks.0.conv1.bias f4 [16]
000000 20 9f 0c be 7a c4 ff 3d 7d 36 21 3e c4 59 ad bd
       -0.13732576 0.12488647 0.15743442 -0.08464387
000010 6a bc 02 be 30 de 2c be f2 39 f6 bd ac f5 ea bd
       -0.12767187 -0.16881633 -0.12022771 -0.114726394
000020 2f 0a 37 3e 55 4a 87 3d ee 6d 0a 3e 6e 9a 7a 3d
       0.17874978 0.066059746 0.13518497 0.061182432
000030 f8 2b 2d 3e 7a 53 e1 bc b1 fb 1b be fc b7 00 be
       0.16911304 -0.027505625 -0.15232731 -0.12570184

encBlocks.0.conv2.weight f4 [16, 16, 3, 3]
000000 5d b0 04 3c cc 7a e7 3c 9f 01 a1 39 ec b5 a5 bd
       0.008098689 0.028256796 0.0003070952 -0.080913395
000010 ba 43 9b 3d ac 0c d1 bc 48 0e 91 bd 3e de 16 3c
       0.07581277 -0.025518738 -0.07082802 0.00920826
000020 3a 60 f0 bb b3 e1 77 bc 3c 03 4d ba ff 79 8d 3d
       -0.00733569 -0.0151294945 -0.00078206114 0.069080345
000030 79 27 60 3d 36 35 8a ba a7 dc 5f 3d d0 c9 6f bd
       0.054725144 -0.0010544423 0.05465379 -0.058542073
000040 8c 9e b9 bc 02 98 60 bd 5d 8c 2f bd c5 ee 09 3c
       -0.022658609 -0.054832466 -0.04285847 0.0084187435
000050 c2 69 0a bb 51 36 0a bd 0a 85 55 3c 4a a6 ac 3d
       -0.0021120165 -0.033743206 0.013032207 0.084301546
000060 d6 76 5e 3d 61 f6 6c 3d e0 b9 9e bd 26 55 43 bd
       0.05431255 0.057852153 -0.077502966 -0.047688626
000070 81 c5 0c 3d 83 c1 82 3d 4c 78 7d bd 12 36 9f bd
       0.034368042 0.06384566 -0.061882302 -0.07773985
000080 39 93 54 3d aa 56 91 bd 3d 65 95 bd 89 f5 88 bd
       0.051898215 -0.07096608 -0.072947 -0.06687457
000090 0d 00 08 bc d4 d1 43 bd 06 77 5b 3d 02 fe 3e bc
       -0.008300793 -0.04780753 0.053580306 -0.01165724
0000a0 09 1a 92 3d 73 0a 95 3d 2b 0e 28 3d a1 42 9c 3c
       0.07133872 0.07277384 0.041029137 0.01907474
0000b0 5f dc 5e 3d b3 25 9e bd cb 53 84 ba 00 c6 68 3d
       0.05440938 -0.07722034 -0.0010095773 0.056829453
0000c0 60 a5 60 bd 7b cc 2c bc 45 f0 05 3d 94 4b 96 3d
       -0.054845214 -0.010546799 0.032699842 0.07338634
0000d0 63 8a aa bd 96 2f 14 3d 6d 9f 04 bd a3 b8 67 3d
       -0.083271764 0.036178194 -0.032378603 0.056572568
0000e0 c9 4e 49 3d 54 0e cd bc 50 22 67 ba 50 47 4c bd
       0.0491474 -0.025031246 -0.00088170636 -0.049872696
0000f0 94 0f a5 bd 2c 7e 1c 3d 0f ad 47 3d ef 35 b6 3c
       -0.08059612 0.038206264 0.048749026 0.022242514
000100 2b 2a 74 bd 8c 96 24 bd cd 4c 13 bc 29 17 98 3d
       -0.059610527 -0.040182635 -0.008990479 0.074262924
000110 71 ca b7 3c 77 2b a7 bd 67 11 9e bc bc ec ef bc
       0.022435399 -0.08162587 -0.019295407 -0.029287688
000120 a3 4f ec 3c 19 05 0f bd 61 51 28 bd 75 16 91 3d
       0.028846567 -0.03491697 -0.041093234 0.070843615
000130 ed 55 2a bd 91 42 99 bd 3d 3e 24 bd b2 06 5d bd
       -0.04158585 -0.074834 -0.040098418 -0.053961463
000140 3a 2d 8d 3b e5 55 37 bd ee 1e 2b 3d 61 c8 6a bd
       0.00430837 -0.04475965 0.041777544 -0.057320002
000150 e6 1b 0e 3d 5c 4c 06 3c fc ed 72 3d 66 da 22 bd
       0.034694575 0.008196916 0.05930899 -0.039759062
000160 75 49 af bb 74 64 8a 3d 08 5d 31 bd 34 e3 80 3d
       -0.005349333 0.06757441 -0.043301612 0.062933356
000170 a8 2e f4 3c 2f e2 a5 3c e6 2f 08 bd a7 15 07 bd
       0.029807404 0.020249454 -0.033248805 -0.032979634
000180 5b 0f 95 bd bf 49 1c bc 64 c1 7a 3d 6c e4 84 bd
       -0.072783194 -0.009539067 0.061219588 -0.064888805
000190 85 0a 12 bd c4 fa b2 bb d6 50 62 3d a4 d5 85 3d
       -0.035654563 -0.0054620225 0.055252872 0.06534889
0001a0 15 02 49 3d 2d 18 9f bd 04 f8 a1 3d 83 06 d0 3c
       0.04907425 -0.07768283 0.07908633 0.02539373
0001b0 ff 38 a8 3b 39 2d c9 3b 5b 92 2d 3d 59 79 f6 3c
       0.0051337476 0.006139424 0.042375904 0.03008716
0001c0 c2 e7 62 3b d1 92 1a 3d 6e 13 02 bd 97 f2 ed bc
       0.0034623002 0.03773767 -0.03175681 -0.02904634
0001d0 f4 0d 53 3d bc 4d a1 3d 60 ef 9f 3d da f1 52 bc
       0.05152698 0.07876155 0.07809329 -0.012875045
0001e0 f8 18 24 3d 72 8a 80 bd 3b 78 8c bc 5f c0 cc bb
       0.040062875 -0.06276406 -0.017147174 -0.0062485184
0001f0 d7 4d 78 bd 9a 3b 59 bd dc ca 9b 3d 4c 4d 3d 3d
       -0.06062111 -0.053035356 0.07607052 0.046216294
000200 60 f2 17 bd 37 c7 ae bd 8f bb 1f bd c6 81 d1 3c
       -0.03709638 -0.08534091 -0.03899723 0.025574576
000210 70 05 77 3d ba dc 4c 3d 21 c4 21 3d a9 56 90 3d
       0.06030792 0.05001519 0.039493684 0.07047779
000220 2f 24 8c 3d 25 ac 99 3c 06 4b 0a bd 70 0f 4d bd
       0.06842839 0.018758843 -0.033762954 -0.05006355
000230 24 d4 65 3d 2d a9 24 bd ee 61 10 bd bd 40 0e 3d
       0.056110516 -0.0402004 -0.035249643 0.034729708
000240 c9 a2 94 bd fb a3 62 3d 0d f7 82 bb 26 79 09 3c
       -0.07257611 0.055332165 -0.003996736 0.0083907
000250 1a 69 da 3c 0e 6a 01 bd d0 e9 1b 3d ea e1 65 bc
       0.026661444 -0.031595282 0.038064778 -0.014030913
000260 0c 7d 2f 3c a1 6a 94 3d 5c df 89 bd 86 27 8e 3d
       0.010710966 0.072469 -0.067320555 0.06941132
000270 1c bf 88 bd 63 9f 62 bd 46 b2 a4 bc b0 5d 53 3d
       -0.06677076 -0.055327784 -0.020104539 0.05160302
000280 a1 1a 38 bc 84 7f d9 bc 87 dd af bc bb a7 9b 3d
       -0.011236818 -0.026550062 -0.021467937 0.076003514
000290 5d 62 9c 3d 95 df 10 3d 96 27 4a bc 72 9e b3 bd
       0.07635949 0.035369474 -0.01233854 -0.087704554
0002a0 9a 34 29 bd 61 a1 7b 3d da ea a6 bd bd fd fe 3b
       -0.04130993 0.0614332 -0.08150263 0.007781713
0002b0 c4 06 50 3c a8 83 ae 3d 16 d4 de bb dd c4 94 bd
       0.012696926 0.08521205 -0.006800185 -0.07264111
0002c0 28 54 9a 3d b7 2f 8c 3d 1d 9c 89 bc 57 5a 75 bd
       0.07535583 0.068450384 -0.016798073 -0.059900608
0002d0 37 c8 2e 3d 07 96 a3 3d 79 ca 8f bc d2 6a 9f bd
       0.04267141 0.079876 -0.017552601 -0.07784046
0002e0 78 d6 2b 3d 3a 0c 99 3b 0d 81 04 3d 91 7b 1d 3d
       0.04195258 0.004670647 0.032349635 0.03844792
0002f0 65 25 88 3d a7 f5 ac bd 87 f6 b2 3c 7d 5f 4a bd
       0.066477574 -0.08445292 0.021846069 -0.04940747
000300 b4 98 c3 3c 88 72 f3 bc 4b 6d 0e 3d d8 e5 26 3d
       0.023876525 -0.029717699 0.0347722 0.04074654
000310 6e 24 77 bd 25 be 71 bd 9a 3c 9d bb a3 2e 66 bd
       -0.060337476 -0.059019227 -0.004798484 -0.05619682
000320 48 81 99 3d 4d 89 41 3d a5 79 16 3c 30 c4 f7 3c
       0.074953616 0.04725008 0.009184276 0.030244917
000330 39 5c ff 3c 75 10 18 3d 7b 13 94 3b 20 5b 84 bd
       0.031171905 0.03712507 0.004518924 -0.06462693
000340 55 77 b3 3d 74 c2 5e 3d 8e 09 75 bd 5f a9 5b 3a
       0.08762995 0.054384664 -0.059823565 0.0008379425
000350 c0 ca 53 bd ee 9f 61 bd 4f 75 a1 3d 17 1d 7a bd
       -0.05170703 -0.05508416 0.07883703 -0.0610629
000360 ab 64 3b 3d 5f d5 80 bd c9 fc 3a 3d cb 99 0b 3d
       0.0457503 -0.06290697 0.04565123 0.034082215
000370 05 90 1a 3d e7 70 9f bb 11 d6 77 3d 7e 84 32 ba
       0.037735004 -0.004865754 0.060506884 -0.0006809904
000380 0c 6d 7d bd d6 d6 87 3d b6 d7 9d bd 45 e7 0d bd
       -0.061871573 0.066327736 -0.07707159 -0.034644384
000390 f3 02 5c bd da f2 81 3d 78 b2 5f bd 03 d6 8e 3b
       -0.05371375 0.063451484 -0.05461356 0.0043590083
0003a0 07 d9 2f 3d 1d 30 74 bd 14 70 b6 bb b6 51 86 bc
       0.042931583 -0.059616197 -0.00556756 -0.016396385
0003b0 10 c2 83 3c d9 4d cf 3c ab c6 16 3c f1 c7 5e 3c
       0.016083747 0.025305675 0.00920264 0.013597474
0003c0 4e f8 aa bd 34 a2 f2 3a 3d 3c d3 3b f0 24 a8 3d
       -0.083481416 0.0018511475 0.00644639 0.0821017
0003d0 59 ba 8e bd 4c db 19 3d 80 7a 7e bc 46 90 88 bd
       -0.06969137 0.037562653 -0.015532136 -0.06668143
0003e0 1c 21 a8 3d 71 cc 5b bd 5a 64 bb 3c e1 b9 07 bc
       0.0820944 -0.053661767 0.022875 -0.008284063
0003f0 c4 63 5e bc 3d 39 8c 3c 75 38 01 bd ad fe 5f 3d
       -0.013573591 0.017117137 -0.031547982 0.054686237

encBlocks.0.conv2.bias f4 [16]
000000 36 be b1 bc 0c 22 75 3d c0 17 9d bd c8 9d 91 bd
       -0.021697145 0.059846923 -0.076705456 -0.071101725
000010 71 5f 94 bd 58 05 d2 3c 12 3f f5 3b dd 97 18 3d
       -0.072447665 0.025637314 0.007484325 0.037254203
000020 5e f6 07 3d 34 9a 39 bb 4e 4e 57 bc 84 35 13 bc
       0.03319394 -0.0028320672 -0.013141228 -0.008984927
000030 98 74 a5 bd c2 85 54 3d 97 3c bd 3c 18 3b 02 3d
       -0.08078879 0.051885374 0.02310018 0.031794637

encBlocks.0.BN1.weight f4 [16]
000000 fa 1e 7f 3f 41 f1 7e 3f f1 d0 7e 3f 5b 81 80 3f
       0.9965664 0.99586874 0.9953757 1.0039476
000010 79 72 80 3f e8 fc 7e 3f 0a f6 7e 3f 87 0c 7f 3f
       1.0034934 0.99604654 0.99594176 0.9962849
000020 db 24 7f 3f 13 31 7f 3f c1 db 7e 3f 2b b2 80 3f
       0.9966561 0.99684256 0.9955407 1.0054373
000030 8e 7d 80 3f ac a8 7e 3f b0 07 7f 3f d5 7f 80 3f
       1.0038316 0.9947612 0.99621105 1.0039011

encBlocks.0.BN1.bias f4 [16]
000000 8d ba 91 bb db ff 89 bb 5f 1f 4d bb 49 68 94 3b
       -0.0044472874 -0.0042114086 -0.0031299216 0.0045290333
000010 6a 57 92 bb 7a 63 8c bb 31 e1 89 bb 65 d2 86 bb
       -0.004465987 -0.0042843195 -0.004207753 -0.0041144365
000020 51 af 6f bb c6 63 86 bb a9 72 80 bb c1 8b 67 ba
       -0.0036573003 -0.0041012494 -0.0039199186 -0.00088327756
000030 a8 3f 7d 3b 97 88 ba bb bc cf 85 bb 72 e2 37 3b
       0.0038642678 -0.0056925523 -0.0040836018 0.0028058556

encBlocks.0.BN1.running_mean f4 [16]
000000 50 bf 0e bd 37 c8 de 3d a0 42 0a bc 05 36 85 3e
       -0.03485042 0.10878032 -0.008438736 0.26017776
000010 00 e6 48 bd b2 46 5f be 5a 11 21 bd 30 5c 48 bd
       -0.04904747 -0.21804312 -0.03932319 -0.04891604
000020 76 59 ba 3e 47 6d d8 3d c7 5b 10 be 59 1d 41 3e
       0.36396378 0.10567718 -0.1409751 0.18858851
000030 3e b8 2e 3e 13 39 8a 3b a4 7b c8 3d e3 6b 32 3d
       0.1706247 0.0042182296 0.097892076 0.04355992

encBlocks.0.BN1.running_var f4 [16]
000000 9d ee fe 3e ae 12 fb 3e ae 44 fc 3e f5 48 0b 3f
       0.49791422 0.4903769 0.49271148 0.544082
000010 10 d1 fa 3e 38 9e 00 3f 4a 85 fb 3e 6c 49 fc 3e
       0.48987627 0.5024142 0.4912513 0.49274766
000020 71 ab 07 3f 7f 85 fb 3e 02 38 04 3f 58 f1 00 3f
       0.52995974 0.49125287 0.5164796 0.5036826
000030 fc 8b fa 3e 00 93 f8 3e 2a ea 00 3f 1b f0 fd 3e
       0.48934925 0.48549652 0.50357306 0.49597248

encBlocks.0.BN2.weight f4 [16]
000000 5a fd 7e 3f 77 6e 80 3f 32 0c 7f 3f ad 87 80 3f
       0.99605334 1.0033711 0.99627984 1.0041405
000010 41 58 7f 3f 7f ac 80 3f 31 92 80 3f 4a 82 80 3f
       0.9974404 1.0052642 1.0044614 1.0039761
000020 9b 9c 80 3f b7 ed 7e 3f 9e 82 80 3f 75 ed 7e 3f
       1.0047792 0.99581474 1.0039861 0.9958108
000030 30 85 80 3f 59 6a 7f 3f e1 d5 7e 3f 7a f8 7e 3f
       1.0040646 0.9977165 0.99545103 0.99597895

encBlocks.0.BN2.bias f4 [16]
000000 27 14 a6 3a 03 ac cd bb f1 a9 3e bb 6a 23 76 3b
       0.0012670801 -0.006276609 -0.0029092992 0.003755773
000010 d3 9c 94 3b 03 e5 93 bb ad 87 8e 3b b0 5d 69 b9
       0.0045352965 -0.0045133843 0.00434967 -0.00022255513
000020 5a eb ed ba ab 8c 80 3b 86 17 94 bb fe 32 9a bb
       -0.0018151805 0.003923019 -0.004519406 -0.004705786
000030 19 c7 89 bb 04 f4 95 ba 54 39 a2 bb 95 8b 96 bb
       -0.0042046425 -0.001144052 -0.0049506817 -0.004594276

encBlocks.0.BN2.running_mean f4 [16]
000000 aa ce 43 3d 6e 6d e3 3c 44 37 98 bd d5 20 40 bd
       0.047804512 0.027762141 -0.07432416 -0.04690631
000010 70 6e 8f 3d b5 29 5f 3d a9 d0 78 3d 3e e4 40 3c
       0.07003486 0.054483134 0.06074587 0.011773167
000020 99 db 0f 3e 6d 87 e5 3c c8 cf 04 3e 60 58 1c be
       0.14048614 0.028018678 0.12969887 -0.15268087
000030 1c a7 96 bd 8f d5 0b 3e 01 4f c3 bd 85 f5 8a 3d
       -0.07356092 0.13655685 -0.09536553 0.067851104

encBlocks.0.BN2.running_var f4 [16]
000000 71 22 06 3f 39 db 05 3f d2 44 09 3f 64 03 15 3f
       0.52396303 0.5228763 0.53620636 0.582083
000010 b0 af 14 3f 34 1c 06 3f 9c 64 09 3f 67 be 0e 3f
       0.5808058 0.52386785 0.5366914 0.5575928
000020 de ff 08 3f 4e 18 0d 3f fc c8 04 3f 3e f3 0a 3f
       0.5351542 0.5511521 0.5186918 0.5427741
000030 80 1d 06 3f 65 73 0f 3f 90 d8 05 3f 9e a4 06 3f
       0.52388763 0.56035453 0.52283573 0.52594936

encBlocks.1.conv1.weight f4 [16, 16, 3, 3]
000000 ed fb 81 bd cc ce 0b bb f1 a1 4f bd bb 02 9d 3d
       -0.06346879 -0.0021332977 -0.05069155 0.076665364
000010 93 10 86 bd b6 17 16 bd e2 7f 6f bc 89 85 b6 bc
       -0.0654613 -0.036643706 -0.014617892 -0.022280471
000020 eb aa 66 3d 97 ea 71 bd 5e 65 a1 3a eb 05 de 3a
       0.056315344 -0.059061613 0.0012313535 0.001693902
000030 42 20 85 bd 8c 82 62 bd 52 f8 8b 3d 5e d3 81 bd
       -0.06500293 -0.05530028 0.06834473 -0.06339143
000040 02 45 3f 3d 6d b1 68 bc 52 bc 1c 3d 6e 69 5d bc
       0.04669667 -0.014202458 0.038265534 -0.013513906
000050 93 81 9a bd 2c c6 80 bd bc 74 91 bd 27 d3 98 3c
       -0.075442456 -0.06287798 -0.071023434 0.018655373
000060 32 ac 6d bc 02 31 84 bd 95 9f 31 bd 8a 72 f3 bc
       -0.014506387 -0.0645466 -0.04336508 -0.029717702
000070 a3 30 ac bc 81 88 86 3d 47 87 0e bd cd 57 a0 3d
       -0.021019286 0.06569005 -0.03479698 0.07829247
000080 ea 3f 56 3d f3 34 34 bd a7 4d b5 3c 98 81 75 3d
       0.052307047 -0.04399581 0.022131754 0.059938043
000090 42 bb 0c 3d 4b 32 34 bd 41 8f 6e bd c9 80 a6 bd
       0.03435827 -0.043993276 -0.058242086 -0.081300326
0000a0 f6 9d 41 3d eb 7e a8 3c 08 6a b6 bc 8f 45 85 3d
       0.047269784 0.020568332 -0.022267357 0.06507408
0000b0 32 16 90 3d 2c fc 9c 3d 24 22 4e bd 6a 29 55 bd
       0.070354834 0.076652855 -0.050325528 -0.05204145
0000c0 0c 10 45 3d 9a c0 6a bd 2d 37 78 3d 0c 81 92 3d
       0.048111007 -0.057312585 0.060599495 0.0715352
0000d0 9e b2 76 bd 3b d8 5b 3d d0 11 9c bd c8 8a 54 3d
       -0.060228936 0.05367301 -0.07620585 0.051890165
0000e0 97 00 75 bd fe d8 7e 3d 3b 50 00 bd 8c 07 39 bd
       -0.059815016 0.06221866 -0.031326514 -0.045173213
0000f0 f5 d9 5e bd 9d c4 66 3d 04 a0 b3 3d 94 c6 28 bd
       -0.05440708 0.05633985 0.08770755 -0.041205004
000100 10 ff 7b 3d 21 d1 56 bd cb 1d 55 3d 3f 83 53 bd
       0.061522543 -0.052445535 0.052030366 -0.051638838
000110 44 90 fd bb bf 64 96 bd c1 12 50 3d 8e 84 5b 3d
       -0.007738145 -0.073434345 0.050799135 0.05359321
000120 2a 49 2a bd fe b8 36 bd 4c 6d 0b 3d cc 19 8d bc
       -0.04157368 -0.044610016 0.03403978 -0.017224215
000130 34 39 99 bd 91 cc 1a bd e6 af 5e 3d f5 24 da bc
       -0.07481614 -0.037792746 0.05436697 -0.02662895
000140 5f 64 ca 3c bd f5 32 3d e3 f0 ae bd 93 55 f2 bc
       0.024706064 0.043691386 -0.08542039 -0.02958182
000150 75 29 9f bd bb 95 74 3c c3 e5 ff bc c8 f8 12 bd
       -0.07771579 0.014928277 -0.031237489 -0.035881788
000160 72 a5 26 3d 32 0b cd bb 2a 90 fc bc 7e 4d 5b 3d
       0.040685125 -0.006257438 -0.030830462 0.0535407
000170 5c 56 7d bd 5e 7f ab 3c 72 dd e8 3c 34 79 7a 3d
       -0.061849937 0.020934757 0.028425906 0.061150745
000180 1b 39 82 bd cf a6 8d bd af dc 96 bd f2 e4 89 bb
       -0.06358548 -0.06916582 -0.07366311 -0.0042082006
000190 10 cf 74 3c 4b a0 de bc 23 78 f2 bc 51 ea a7 3c
       0.014941946 -0.027176043 -0.029598301 0.020497473
0001a0 83 db 99 3d c1 89 46 3d 9e 2e cc bc 4b 6c 80 3d
       0.07512572 0.048471216 -0.024924573 0.06270655
0001b0 e2 ab 74 3d 4b fc ea 3c 68 67 01 3d 52 f5 5a 3c
       0.059734233 0.028684756 0.031592757 0.013364153
0001c0 19 02 9a bd 28 c9 04 ba 9f 57 36 bd 65 b7 35 3d
       -0.07519931 -0.0005065375 -0.044517156 0.04436435
0001d0 7a db 91 bc 70 d8 f1 bc cb 16 05 3d 2b da 72 bd
       -0.01780485 -0.02952215 0.03249244 -0.059290092
0001e0 9e 70 50 3c f8 1b b0 bc 47 6c 54 3d fc da 57 3d
       0.0127221625 -0.021497712 0.051861074 0.052699074
0001f0 dd fe 2a 3d 94 68 43 bb e6 b7 22 3d 8d 06 82 3d
       0.041746963 -0.0029816972 0.03972616 0.06348906
000200 46 50 25 3d a0 e2 a2 bb e6 db 71 bd 96 60 64 3d
       0.040359758 -0.0049708635 -0.059047602 0.055756174
000210 fe 73 04 3d e0 83 94 bd 91 85 00 bb 7d 33 9c bd
       0.03233718 -0.07251716 -0.0019610862 -0.07627008
000220 da 51 79 3d 06 c3 19 3c 1f 4d a4 bd 17 d9 a4 bd
       0.060869075 0.009384876 -0.08022522 -0.08049219
000230 dd d5 a8 bc f6 d0 3e bd fb 6c 1c bc e7 ac 5a bd
       -0.02060979 -0.046586 -0.009547467 -0.05338755
000240 13 1d 36 3d 76 da 6f bc 17 4f 39 bd e7 cf f0 bc
       0.04446132 -0.0146394875 -0.04524144 -0.02939601
000250 8b 8e 2d 3c f0 4e a4 bd 43 fc 91 3d 36 33 70 bc
       0.010593067 -0.08022869 0.07128193 -0.014660647
000260 25 f2 32 3c e9 04 95 3c 7b 49 27 bc a5 e2 90 bd
       0.01092199 0.018190818 -0.01021039 -0.07074479
000270 e4 4b 91 3d 91 0b a9 bd 27 b6 81 3d 00 34 27 3d
       0.07094553 -0.08254159 0.06333571 0.040821075
000280 18 25 16 bd 44 4e df 3c 87 f9 c7 bc 82 40 7b bc
       -0.03665647 0.027259 -0.024410976 -0.015335204
000290 e6 be 88 bb be f8 31 bb 88 76 43 bd e5 1f 78 bd
       -0.0041731475 -0.0027156319 -0.047720462 -0.060577292
0002a0 c4 87 67 3c b6 5d 88 3c 29 16 13 3d 63 15 8d bd
       0.01413149 0.016646247 0.035909805 -0.06888845
0002b0 b5 12 8e bd 16 56 94 bd 7b 8f 40 3d 0d b5 c5 3c
       -0.06937162 -0.07242982 0.047011834 0.024134183
0002c0 73 37 62 3c d1 32 87 bc 56 52 04 bd 49 1d 02 bd
       0.013807165 -0.016503723 -0.032305084 -0.03176621
0002d0 2b ad 38 bd af 4b e3 bc 15 96 a9 3c df b5 96 bd
       -0.04508702 -0.02774605 0.020701448 -0.07358908
0002e0 07 79 5e 3d 6b 0b bc 3c 05 55 2e bd 9b 66 70 3c
       0.05431464 0.022954663 -0.04256155 0.014672901
0002f0 c4 cc 30 bd d4 d6 97 3d e6 fd 8f bd 6b 39 02 3b
       -0.04316403 0.07414022 -0.07030849 0.001987065
000300 2f 28 13 bd 6a bd 8b bd a5 eb 57 bd 7d 03 98 bd
       -0.035926994 -0.06823237 -0.052714963 -0.0742254
000310 ec 53 3b bd 39 67 84 3d 9e 8e ac bd a1 48 5d 3d
       -0.04573433 0.06465001 -0.084256396 0.054024342
000320 8d 20 4a 3d b8 86 07 3d 4c 44 81 bd 6c eb 9b bd
       0.04934745 0.033087462 -0.06311855 -0.076132625
000330 79 56 9b 3d 72 92 b0 bb f2 db 20 3d a2 28 ab bd
       0.07584853 -0.0053885514 0.039272256 -0.083573595
000340 7c e0 af bd 95 65 f6 3c 4d b4 12 bd 98 2d 5c bd
       -0.08587739 0.030077735 -0.03581648 -0.05375442
000350 b5 3f e6 3c 98 e1 c6 bc f1 24 39 3d 20 c8 0d 3b
       0.02810655 -0.024277493 0.045201246 0.0021634176
000360 f6 94 41 ba 8f 1b 92 bd b8 aa c0 3c a5 a8 5a 3d
       -0.00073845626 -0.07134163 0.023518905 0.05338349
000370 58 54 8d 3c 30 ab 82 3b 04 05 9e bd da 6a 6e 3d
       0.017252132 0.0039876923 -0.077158004 0.05820737
000380 b0 e6 07 bd 89 b7 c8 bc 48 da 50 3c b7 29 7e bc
       -0.033178985 -0.024501579 0.012747355 -0.015512875
000390 bf dd 7b 3d ed 82 a9 3c ae 57 3d bd 54 1b 45 3d
       0.06149077 0.020692313 -0.046226196 0.048121765
0003a0 72 5c ce bb e8 06 2e bc fc 98 4b 3d 6a a9 b1 3c
       -0.0062976414 -0.010621764 0.049706444 0.021687228
0003b0 46 80 f2 3c 5a 05 8b 3a 51 b4 dd 3c 4f 74 4b bc
       0.029602181 0.0010606453 0.02706352 -0.012417867
0003c0 b7 ca f0 3c b9 77 31 3d 8a 26 a0 bd 1e 2e 8a 3c
       0.029393537 0.043327067 -0.07819851 0.016867694
0003d0 26 e2 9b bd 6e 90 76 3d 21 b4 9b 3d a0 95 57 bc
       -0.07611494 0.060196333 0.07602716 -0.013158232
0003e0 3c 95 9f bc fa 67 0f 3d ae 3e 76 bd 5e 07 7a 3d
       -0.01948034 0.03501127 -0.06011837 0.061042182
0003f0 68 7d 88 bd 23 3e 9b 3c ee 2e a3 bc 85 37 9e bd
       -0.06664544 0.018950528 -0.019919839 -0.07725433

encBlocks.1.conv1.bias f4 [16]
000000 d4 74 c7 bc 6d 5d 6c bc 47 90 fa 3c f8 40 2b 3c
       -0.0243477 -0.014426571 0.030586375 0.0104525015
000010 69 6a 2d bd 11 ee 79 bd ab e7 42 bd 03 bf 17 bb
       -0.04233781 -0.061018053 -0.047584217 -0.0023154623
000020 19 e4 12 3d 7a 2d 8f 3c 77 c9 50 3c a8 d7 4f 3d
       0.035862062 0.01747774 0.012743345 0.050742775
000030 85 81 90 3d 90 74 a1 bd c2 1f 86 bd 42 ea 65 bd
       0.07055954 -0.07883561 -0.06549026 -0.05613161

encBlocks.1.conv2.weight f4 [16, 16, 3, 3]
000000 22 1c 1a 3d 31 b3 a7 3d 9d b6 a6 3d 80 18 cf bc
       0.037624486 0.08188475 0.081402995 -0.025280237
000010 8d 69 5d bd e2 12 66 bd f8 3b fc bc 08 4e 46 bd
       -0.05405574 -0.05617035 -0.030790314 -0.04841426
000020 ba 02 22 bc e0 d5 0b 3d 9b 7c 51 bc 03 69 48 bd
       -0.009888345 0.034139514 -0.012786056 -0.048928272
000030 b5 d4 09 bd 1d f9 94 3d 99 a0 90 3d e3 af 9f 3d
       -0.03365012 0.07274077 0.070618816 0.077972196
000040 c6 96 e1 3c 9a 88 90 bd ba 68 95 bd 8b fd 89 3d
       0.027537715 -0.07057305 -0.07295366 0.067378126
000050 92 c7 9c bd 9b 06 36 3c 08 b8 8d bc ce 8a d5 bc
       -0.076552525 0.011109973 -0.017299667 -0.026067164
000060 84 e1 5b bd 92 41 8f bd e2 75 88 3b b3 38 75 bb
       -0.053681865 -0.069949284 0.0041644434 -0.0037417829
000070 a9 9c f9 bc f3 9c 88 3d d7 eb 94 bd 3c 09 1e 3d
       -0.03047021 0.06670561 -0.072715454 0.038583025
000080 ee 01 10 3d 02 16 42 3d 65 83 ac bc 71 42 4b bc
       0.03515809 0.04738427 -0.021058748 -0.012405978
000090 c2 e0 83 3d 92 68 98 bd 93 a6 81 bd ee af d1 bc
       0.064393535 -0.0744182 -0.063306 -0.025596585
0000a0 dc 0b 15 bd 1f 21 8a 3d 2f c0 0a bc 42 ff 18 3d
       -0.036388263 0.067445986 -0.008468672 0.037352808
0000b0 07 00 ac 3d 5a 93 47 3c fa 99 2a bd a2 9f 0f bd
       0.08398443 0.012181127 -0.04165075 -0.035064347
0000c0 fb f1 8f bd d6 48 18 bd f3 f5 17 3d 7f f3 16 3d
       -0.07028576 -0.037178837 0.03709979 0.03685331
0000d0 3a 42 ce 3c c2 4a 2e bb 15 09 61 3c f4 10 20 3d
       0.025178064 -0.0026594852 0.0137350755 0.039078668
0000e0 3b 23 01 3d e0 f7 08 bd 77 a6 3a 3d dc b4 e1 3c
       0.03152774 -0.033439517 0.04556891 0.02755206
0000f0 9e 12 3e bd 6c 4d 8d bc 20 ef 36 bd 78 48 e9 3b
       -0.046404473 -0.017248832 -0.04466164 0.0071192347
000100 5b 1d c2 ba f5 ce 48 3d 97 a1 03 3d a2 08 73 bd
       -0.0014809774 0.049025495 0.032136526 -0.059334405
000110 04 33 f8 bc e1 f2 9e 3c 40 61 9a 3d 96 5e 94 3d
       -0.030297764 0.019402923 0.0753808 0.07244603
000120 ad 6e 8d 3d f9 0a 07 3d 3c 4d 95 3d e1 ef 55 3b
       0.06905875 0.03296945 0.07290122 0.00326442
000130 a3 0c 3f 3d 0a 6e 0e 3d b3 e6 c5 bc 73 5c 4f 3d
       0.04664291 0.03477291 -0.024157858 0.050625276
000140 7c 69 47 3d 67 71 09 3b 97 6c 78 bd bd 9c 17 bd
       0.048684582 0.0020972134 -0.060650434 -0.03701471
000150 fa 4b d3 3c 1d 21 9d bd 9e 48 4f bd 16 3a 6f 3b
       0.025793064 -0.076723315 -0.050606363 0.0036503128
000160 98 28 a4 3d c6 90 e1 3b de 12 05 3d b5 a0 46 3d
       0.08015555 0.0068837134 0.032488696 0.048493106
000170 b2 f8 ab bd 70 7a ac bd 05 35 64 bd 48 3d 78 bb
       -0.08397044 -0.084217906 -0.055714626 -0.0037878323
000180 16 0d 7c 3d 3c 29 fb bb c1 77 82 bd e2 7d 21 3c
       0.061535917 -0.0076648276 -0.063704975 0.009856673
000190 0e fa 92 bd 30 e2 89 bd 7a ca 12 bd a9 8a 94 3d
       -0.071766004 -0.06732595 -0.035837628 0.0725301
0001a0 bc ac 8b 3c da 26 13 bd 75 e4 c9 bb 94 7d a4 3d
       0.01705014 -0.035925724 -0.0061612674 0.080317646
0001b0 10 28 0b bc 86 9d 8f 3d 28 d7 b0 3c e5 47 3f bd
       -0.008493438 0.07012467 0.02158697 -0.046699423
0001c0 61 34 9e 3c 83 be 14 3c e3 79 da bb 64 99 3e 3d
       0.019312086 0.009078625 -0.006667362 0.046533003
0001d0 66 bc 25 3d b1 f6 4c bc 71 d7 24 bb b1 01 42 bd
       0.040462874 -0.012509988 -0.0025152827 -0.047364894
0001e0 99 5c 07 3d c9 5d 55 bd 9b 3c 92 3d a4 52 a3 bc
       0.033047292 -0.052091394 0.07140466 -0.019936867
0001f0 6c 4a ac 3c 9e 2b 54 bc 3f d3 dd 3a 26 13 87 bd
       0.02103158 -0.012949852 0.0016923918 -0.06595449
000200 ec e8 16 bd c3 7a 6a bd 2b 6c 88 bc eb 91 31 bd
       -0.036843225 -0.05724598 -0.016653141 -0.04335205
000210 5e f7 a2 3d 84 1a 7c 3d 94 51 44 bc b9 3b 92 bd
       0.07957338 0.061548725 -0.01198234 -0.071402974
000220 6f 27 8d bd 26 65 51 bd a8 58 95 3d 06 92 b0 bc
       -0.06892287 -0.051121853 0.072923005 -0.021554004
000230 19 17 d6 3c 5e d7 2f bd d7 00 f2 bb 7c 37 28 3d
       0.02613406 -0.04293 -0.007385354 0.04106854
000240 29 c2 96 bd aa 87 9c 3d ec 46 2e bd 93 65 a2 3c
       -0.07361252 0.07643063 -0.042548105 0.019823825
000250 b0 4b 0e 3d 5a bb 2d bd 23 47 c9 3c a4 3c de 3c
       0.03474015 -0.042415 0.024570053 0.027128525
000260 5a 8b 85 3c 5f 89 4c bd f4 1b 7b 3c 34 09 9f 3d
       0.0163018 -0.049935695 0.015326489 0.07765427
000270 c7 e3 41 bc 7f cd 50 bd c3 46 82 bc 35 7c 6c 3d
       -0.0118340915 -0.050977226 -0.015902882 0.05773564
000280 dc 6b 74 3d 08 0c 96 bc c5 70 cd 3c 9a e7 45 bd
       0.059673175 -0.018316284 0.025078187 -0.048316576
000290 a0 6f 52 bd 3f bc 5f 3d 35 61 0d 3d c2 ae 6d bd
       -0.051375985 0.054622885 0.034516532 -0.05802799
0002a0 32 d4 78 bb 28 ed 03 bc 15 45 0f 3b 43 69 aa bb
       -0.0037968275 -0.008052148 0.0021861244 -0.0052005365
0002b0 cc 63 ef bc 5d d8 45 bd d8 e2 a4 bc 68 56 6f bc
       -0.029222392 -0.048302043 -0.020127699 -0.014608003
0002c0 7e 0a 84 bd 47 43 68 bd bc 05 06 bd 3c 8f 8f 3d
       -0.06447314 -0.056704786 -0.032720312 0.07009742
0002d0 e3 23 4b 3d f0 e7 8e bd 3d 23 7c 3d 5d ee 7c bc
       0.04959477 -0.06977832 0.061557043 -0.01543769
0002e0 48 7e f7 3c ad e7 70 3d d1 d7 3b 3d 6c 09 f0 bc
       0.030211583 0.058814693 0.045860115 -0.029301368
0002f0 fb da 7b 3d 83 06 9b 3d 15 4b 1f bd f8 70 5d bd
       0.061488133 0.075696014 -0.038889963 -0.054062814
000300 ca 20 37 3d 46 47 6d 3d 21 2f 67 3d a9 4e 14 3d
       0.044709004 0.0579293 0.05644143 0.03620783
000310 d2 13 11 bd 97 b1 9d bd 0c 5d c9 3c 64 4b 0d 3d
       -0.035419293 -0.07699888 0.024580501 0.034495726
000320 ee 07 38 bd 02 fa ec bc 85 fd 79 bd 10 72 64 bb
       -0.044929437 -0.028927807 -0.06103279 -0.0034858026
000330 da b3 58 3d fa 5a 35 3d c9 87 8d bc f4 09 8d bd
       0.052905895 0.044276215 -0.017276661 -0.06886664
000340 9b b4 7b bd 85 83 1d 3d 27 06 c2 bb 92 a0 20 bc
       -0.061451536 0.038455505 -0.0059211436 -0.009803908
000350 05 28 66 3d f3 bb 28 3c ce 75 92 bc f4 ac bf b9
       0.05619051 0.010298717 -0.01787844 -0.0003655922
000360 50 98 64 3b b0 06 82 3a 5c f7 34 bc 05 0c 0c 3d
       0.0034880824 0.0009920206 -0.011045303 0.03419115
000370 41 0c 9e bd 10 be 72 bd 72 fb 18 3c 48 e8 1f 3b
       -0.07717181 -0.05926329 0.009337293 0.0024399925
000380 cb 49 80 3d d0 46 d9 bc 5a a9 d1 3c b5 39 a9 bb
       0.06264075 -0.026523024 0.025593448 -0.00516435
000390 6a 5d 79 3d 84 f4 10 bd 0c b3 79 bd b6 9c 16 bb
       0.060880102 -0.03538944 -0.060961768 -0.002298159
0003a0 53 88 41 3d 5e c1 a3 bc ec e5 95 3d b6 ed 86 bc
       0.04724915 -0.019989666 0.07319245 -0.016470771
0003b0 e0 34 87 bd 00 37 97 3d 34 6f 1c bd 1e fd 99 3d
       -0.06601882 0.07383537 -0.03819199 0.075189814
0003c0 71 20 b0 3d 97 d6 fd bb 1d 8f 82 bc 16 3a 5a bd
       0.08599938 -0.0077465284 -0.015937382 -0.05327805
0003d0 55 c7 bf bb cb 5c 98 bd 9f 7e 8c bb 9c 45 56 3d
       -0.0058526197 -0.07439574 -0.0042875553 0.05231248
0003e0 3e ab fd bc 3a 07 6b 3d 69 94 31 bd a0 f9 24 39
       -0.030965444 0.05737994 -0.043354426 0.00015733251
0003f0 eb a1 03 bd 16 03 86 3d db 88 20 3a 8e 33 8d ba
       -0.03213684 0.06543557 0.00061239087 -0.0010772811

encBlocks.1.conv2.bias f4 [16]
000000 75 7d 93 bd 47 1a a9 ba 74 2f a1 3d 7a 0e ea bc
       -0.072016634 -0.0012901508 0.07870379 -0.028571356
000010 5f ec e4 bc 72 35 6c 3d 6f 2d e1 bb 5b 58 50 3d
       -0.027944742 0.057668157 -0.006871871 0.050865512
000020 5b e1 69 3b d4 56 ad bd b8 80 ab 3d b3 7b 4a bd
       0.00356873 -0.08463827 0.083741605 -0.049434375
000030 93 9a 0c bd a1 b5 f6 3c 74 de 9f 3d 39 62 6c bd
       -0.0343271 0.030115904 0.078061014 -0.05771086

encBlocks.1.BN1.weight f4 [16]
000000 1a a9 7e 3f 6b eb 7e 3f e6 69 80 3f fa d4 7e 3f
       0.9947678 0.9957797 1.0032318 0.99543726
000010 84 e6 7e 3f f1 9f 80 3f d6 e0 7e 3f 10 0a 7f 3f
       0.9957049 1.004881 0.9956182 0.9962473
000020 6f c9 7e 3f ae b3 80 3f 54 8a 80 3f ac 0e 7f 3f
       0.99526113 1.0054834 1.0042214 0.9963176
000030 74 8d 80 3f 78 c6 7e 3f 46 a3 7e 3f e3 0b 7f 3f
       1.0043168 0.9952159 0.99467885 0.9962751

encBlocks.1.BN1.bias f4 [16]
000000 19 c0 a2 bb 3f 58 83 bb 3e 21 a3 bb b6 92 a4 3b
       -0.0049667475 -0.0040083225 -0.004978328 0.005022372
000010 ba 28 80 bb 38 2a b1 3b fc 09 63 ba 42 d3 c4 3b
       -0.003911105 0.005406644 -0.00086608506 0.006006629
000020 24 4b 96 bb 70 fa 36 bb b8 b3 a8 3b 4c 1b 89 bb
       -0.004586594 -0.0027920268 0.0051483773 -0.0041841622
000030 a8 30 c2 3b 35 8a 8e bb 7b 8b b4 bb 54 10 88 bb
       0.0059262104 -0.0043499717 -0.0055097914 -0.004152337

encBlocks.1.BN1.running_mean f4 [16]
000000 5b f1 8f be 99 0c fe bd e9 b4 78 3d c0 00 b4 be
       -0.28113827 -0.124047466 0.060719404 -0.35156822
000010 1e e9 11 bf 64 bb 94 3d 09 78 76 be 4b af c7 bd
       -0.56996334 0.072623044 -0.24069227 -0.09750231
000020 62 9d 2a bd 63 43 06 3e 04 0a f7 3e 95 70 c5 3d
       -0.041654 0.13111643 0.4824983 0.09640614
000030 ec 24 97 3e 4f 20 4b bd 78 31 0f bd 41 98 3f 3d
       0.29520357 -0.04959136 -0.034959286 0.04677606

encBlocks.1.BN1.running_var f4 [16]
000000 e8 93 21 3f 94 00 25 3f 1d 1b 15 3f 2f 3c 46 3f
       0.6311631 0.6445401 0.58244497 0.7743558
000010 24 c3 80 3f 83 03 56 3f 13 ab 55 3f 97 87 4e 3f
       1.0059552 0.8359911 0.83464164 0.80675644
000020 45 df 15 3f dd f1 23 3f 34 50 73 3f 29 ab 1d 3f
       0.5854381 0.6404093 0.95044255 0.61589295
000030 59 ce 5d 3f cf 10 24 3f 21 fc 1a 3f 64 39 25 3f
       0.86642987 0.6408815 0.6054097 0.64540696

encBlocks.1.BN2.weight f4 [16]
000000 d8 c0 7e 3f d4 84 80 3f 5d d1 7e 3f bc 96 80 3f
       0.99513006 1.0040536 0.99538213 1.0046
000010 41 a9 80 3f 48 b5 7e 3f 18 bc 7e 3f 06 e5 7e 3f
       1.0051652 0.99495363 0.9950576 0.9956821
000020 06 54 7e 3f 6d 88 7f 3f 14 ca 7e 3f be 50 80 3f
       0.9934696 0.99817544 0.99527097 1.002464
000030 eb a3 80 3f b6 b5 80 3f 92 8e 7e 3f 90 8f 80 3f
       1.0050024 1.0055454 0.99436295 1.0043812

encBlocks.1.BN2.bias f4 [16]
000000 1d 9a c3 bb d0 81 d7 ba 68 72 97 bb 1c b3 90 bb
       -0.0059692995 -0.0016441885 -0.0046217926 -0.0044158828
000010 5b f7 dd 3b 8b c2 b4 bb ae 38 47 bb 85 09 84 bb
       0.006773872 -0.0055163554 -0.0030398774 -0.004029455
000020 f1 2d 53 bb 0c 2c c4 bb 92 36 96 bb 74 85 bb bb
       -0.0032223428 -0.005986696 -0.004584142 -0.005722696
000030 1b f3 b6 bb 75 2a 93 bb bc 19 a7 bb 5d 05 ae bb
       -0.0055831796 -0.0044911453 -0.0050995033 -0.005310698

encBlocks.1.BN2.running_mean f4 [16]
000000 5e 1c 2d bd 71 5a 5e 3d 10 1a 37 be fd 72 be bd
       -0.04226338 0.05428547 -0.17881036 -0.09299276
000010 ed 56 09 3e b6 9c 73 3c f7 87 1b 3d 90 0a e6 bd
       0.13412066 0.014868906 0.037971463 -0.112324834
000020 d5 fb 63 be df ca d2 bd 9e 96 ad 3d 08 ba 2b bd
       -0.22264035 -0.10292601 0.084759936 -0.04192546
000030 1b c1 f0 bd ed 19 e9 bd 36 66 ff bd bc 1d 39 3e
       -0.11755582 -0.11381898 -0.12470667 0.18077749

encBlocks.1.BN2.running_var f4 [16]
000000 f5 5c 08 3f a5 fe 03 3f a7 21 17 3f 67 d0 0b 3f
       0.5326684 0.5156043 0.59035724 0.5461487
000010 d8 28 13 3f 6c 21 06 3f d8 d5 0e 3f f6 ef 07 3f
       0.574842 0.5239475 0.5579505 0.53100526
000020 8e 4b 2d 3f aa 58 16 3f 24 eb 07 3f 67 8d 07 3f
       0.6769341 0.5872904 0.5309317 0.5295014
000030 2e 46 0b 3f d2 c9 30 3f 89 fa 09 3f 98 37 19 3f
       0.5440396 0.69057953 0.5389791 0.59850454

encBlocks.2.conv1.weight f4 [1, 16, 3, 3]
000000 5b e1 10 3d 31 ea 83 bd 01 83 52 bc 45 28 60 3d
       0.035371166 -0.06441153 -0.012848617 0.054725904
000010 c1 a2 9a 3d a8 bc 68 bd 1a e9 74 3c 6a 4e 69 bd
       0.07550574 -0.05682054 0.014948154 -0.056959547
000020 8d 49 21 3c 91 be 0f 3c 91 74 05 bd 78 bd c7 3b
       0.009844196 0.008773462 -0.03258187 0.0060955845
000030 31 f5 9f bb b2 24 f7 3c d2 e1 e1 3c f1 47 26 bc
       -0.004881524 0.030168865 0.0275735 -0.010148988
000040 b6 34 92 3d 30 e8 3b bd a3 e9 c6 bc a6 41 72 3d
       0.0713896 -0.045875728 -0.024281329 0.05914464
000050 78 be 84 bd 7a c9 86 3d ff 3b 08 3b 5d 16 79 3d
       -0.064816415 0.06581397 0.0020787714 0.060812343
000060 2e 54 80 bd 2d 5c e1 3c 23 24 8d 3c ad a5 de bc
       -0.06266056 0.027509773 0.017229145 -0.02717861
000070 ef bd be bc f5 97 a6 3d ce 79 92 3d ac 1f 97 bd
       -0.023283927 0.08134452 0.07152139 -0.07379088
000080 4f a0 3d bd e0 81 ab 3d b0 6d 17 3d 95 35 84 3d
       -0.04629546 0.08374381 0.03696984 0.064555325
000090 ab b1 e0 bc 49 54 02 bc 56 73 15 bd aa 74 83 3d
       -0.027428469 -0.007954665 -0.036486946 0.06418736
0000a0 87 23 b2 3c 86 d1 17 bd b2 33 25 bc 55 b8 58 3d
       0.021745456 -0.03706505 -0.010083126 0.052910168
0000b0 1b ae 19 3d 66 64 36 3d 15 ae 51 bc dc 26 33 3d
       0.037519556 0.04452934 -0.012797852 0.04373823
0000c0 91 7a 17 3d 7e 52 20 3b 4f 82 9e bd 89 92 a6 bc
       0.036982123 0.0024463232 -0.07739698 -0.020333545
0000d0 a4 42 f3 bc 03 c4 74 3b 7a f5 bd 3c ab d9 2a 3d
       -0.029694863 0.0037348277 0.023188341 0.04171149
0000e0 d5 af 67 3c a9 1b 25 bd 8a ee 1f 3c 91 54 a3 3d
       0.014141043 -0.040309582 0.009761462 0.07975114
0000f0 11 f0 ad bc fa b3 a2 bd d0 01 f1 bc 93 32 c2 bc
       -0.021232637 -0.07944484 -0.02941981 -0.023705756
000100 d3 d6 01 3d 0c ee 3a bd 68 7d aa bd 6a 73 58 3c
       0.031699013 -0.045637175 -0.083247006 0.013211111
000110 0e 2c a6 3d 17 41 74 bd e8 e9 53 3d 5b b1 80 3d
       0.081138715 -0.059632387 0.051736742 0.06283828
000120 de a5 0b 3c 97 83 69 3d 17 79 64 3d 6a 82 cf bc
       0.008523433 0.05701026 0.055779543 -0.025330741
000130 a5 72 40 bc bb a2 72 3a 4e e3 24 bd db d4 2c bd
       -0.011746083 0.0009255816 -0.040255837 -0.042195182
000140 5d df 89 3b 2b ed 28 3d d7 08 9a bc 42 24 d2 bc
       0.004207535 0.041241806 -0.018803043 -0.025652055
000150 84 15 4e bd 6a ee 04 bd 1e 96 a3 bd 74 87 80 3d
       -0.050313488 -0.032453932 -0.07987617 0.06275836
000160 05 be 5c bd 5d 48 a0 3d 7a a1 73 bd 6f 49 3b 3b
       -0.053892154 0.07826302 -0.059480168 0.0028577705
000170 09 2c 27 bd e0 11 6d 3d 97 bf 85 bd d4 e6 16 bd
       -0.04081348 0.057878375 -0.065306835 -0.03684123
000180 9f 3c 42 3d 28 eb 97 3d dc 48 86 3d 2c 3d 4f 3a
       0.047421094 0.07417899 0.065568656 0.00079055387
000190 3c d2 84 3d e3 09 65 3d d9 d1 63 3b 88 18 8f 3c
       0.064854115 0.05591763 0.003476253 0.017467752
0001a0 e5 5a 8e bd fc 2a 82 3d 86 3e 97 bd c9 c5 38 3d
       -0.069509305 0.06355855 -0.07384972 0.045110498
0001b0 05 bd fa 3c f4 76 24 bd c2 9e 91 3d cb 2c 94 3d
       0.03060771 -0.040152505 0.07110359 0.07235106
0001c0 c9 9c 9c bb 2f ae c9 bb 07 3a bb bb 1d f3 5b bc
       -0.0047794324 -0.0061547975 -0.0057137045 -0.013424662
0001d0 ad 78 8f bc 37 1b a8 bd 05 7c aa 3c 1d 54 5a bd
       -0.017513597 -0.08208316 0.02081109 -0.053302873
0001e0 28 4a 27 3d b5 a7 97 bd 7a 19 03 3d 8c 03 3e bd
       0.040842205 -0.074050345 0.03200672 -0.0463901
0001f0 04 fc 01 bb 78 53 ed bc 29 11 cc 3c 86 e3 c0 bc
       -0.001983405 -0.028970465 0.024910526 -0.023545992
000200 71 d4 e2 bc 89 e5 a5 bb 74 63 38 bd 86 ff 0a 3d
       -0.02768919 -0.005062763 -0.04501672 0.033935092
000210 e4 7a 8e 3d cc d3 a9 bd c6 23 76 3c 3c 71 58 3c
       0.06957033 -0.0829235 0.0150231775 0.013210591
000220 1a cd e8 bb 34 7d 57 3d c9 50 9c 3d 11 9c 86 bc
       -0.007104528 0.052609637 0.07632596 -0.01643184
000230 2f d7 99 bd 23 4f 22 bd da 9f bd bb 12 11 a5 3d
       -0.07511746 -0.039626252 -0.005786878 0.080598965

encBlocks.2.conv2.weight f4 [1, 1, 3, 3]
000000 89 4b fe 3d a7 e3 84 3d a5 4a 96 3e 45 5e 6b be
       0.12416751 0.06488734 0.29353824 -0.2298518
000010 3f 5c 9b 3e 97 92 96 bc 5d 3c 13 3e 92 a8 48 3e
       0.30343816 -0.018380446 0.14378496 0.19595554
000020 f8 16 6a be
       -0.22860324
