Model_params/test_15_macro_epoch_1.pt (torch, 320551 bytes, 26 tensors)

encBlocks.0.conv1.weight f4 [16, 3, 15, 15]
000000 33 1d c8 3c eb 1a 05 bd 96 c9 2a bd ce ef b0 3c
       0.024427986 -0.032496374 -0.041696154 0.021598723
000010 c3 9b 66 bc 3c 52 4a 3b b7 e7 49 bc 94 d2 f4 3b
       -0.014075222 0.003087177 -0.0123233115 0.007471392
000020 66 72 c4 3c 8f ae d4 bc c5 b4 08 3c b5 1b 25 bd
       0.02398033 -0.025962142 0.00834388 -0.040309627
000030 c3 08 98 bc 9c 75 08 bd 72 a8 37 ba 5d 30 93 3c
       -0.018558865 -0.033315286 -0.00070059963 0.017967397
000040 b8 5c af bc 0a 7e d0 bb f3 01 29 bd ef 03 15 bd
       -0.021406516 -0.0063626813 -0.041261625 -0.036380704
000050 ba f3 73 3a 13 8b ee bc 43 f6 24 bd 3e 3b af bc
       0.00093060324 -0.02911905 -0.040273916 -0.021390554
000060 e5 5c 65 bc b6 8f 7a bc 47 80 d3 bc 0d 03 cf bc
       -0.013999199 -0.015293052 -0.025818003 -0.02527001
000070 11 a8 80 3c 76 2c c5 bc 94 cb 9b 3c d0 6a 94 bc
       0.01570514 -0.024069052 0.019017972 -0.018117338
000080 3e 85 5e bc d9 1f ad 3c ed ec 29 bd 52 ba d1 bb
       -0.013581572 0.02113335 -0.041485716 -0.006400385
000090 10 8e 16 3b 32 fe 90 bc 5c 25 1b bd 0c 6b 17 bd
       0.002297286 -0.017699335 -0.037877426 -0.036967322
0000a0 de cb 2b bd 35 01 73 3c ac d7 cb 3c d3 74 d5 bc
       -0.04194247 0.014831831 0.024883114 -0.026056683
0000b0 02 89 16 bd 1a 07 9c bb bf a7 5e bc 48 df b1 3b
       -0.036751755 -0.0047615888 -0.0135897985 0.0054282285
0000c0 08 ea 29 3c 4a 15 21 bd 1e de 32 3c b5 17 bf 3c
       0.010370739 -0.039326943 0.010917215 0.023326734
0000d0 ae 79 ca 3b 9e 4c 2a bc 6c 37 db bc 37 56 37 3c
       0.006179056 -0.0103942435 -0.026759826 0.011189989
0000e0 6a 5f 40 bc 15 e2 13 bb fb 4a be 3c be 17 07 3d
       -0.0117414985 -0.0022565175 0.023229113 0.032981627
0000f0 50 6f 14 bc 96 b3 9b 3c 28 14 99 3c 7d ec 98 bb
       -0.009059742 0.019006532 0.018686369 -0.0046668635
000100 6e 4e a3 bc 2d 74 8e 3c 38 ea 82 bc f0 ad 28 bd
       -0.01993486 0.017389381 -0.015980825 -0.041181505
000110 59 08 10 bd 19 f5 13 bd 5e f5 f0 bb 58 a8 25 bd
       -0.03516421 -0.036122415 -0.007353469 -0.04044375
000120 63 e8 2b bd c9 be cf bc 7b ad 7b 3c c8 60 6d bc
       -0.041969668 -0.025359528 0.015361185 -0.0144884065
000130 a5 27 fb bc 3d 4d 49 3b ee 18 99 bc 29 59 02 3d
       -0.030658552 0.0030716204 -0.018688645 0.03182331
000140 ee e1 43 bb 59 df 2c 3c 55 cc 58 bc 22 eb 66 bc
       -0.0029889303 0.010551297 -0.01323231 -0.014094146
000150 78 31 77 bc b0 e6 ca bb 63 1c fb bc 1f 9a 4d ba
       -0.015087478 -0.006192051 -0.030653184 -0.0007843095
000160 83 da b5 3c 30 f2 eb 3c 8a 97 cc bb 1b b6 cc 3c
       0.022198921 0.028802007 -0.006243651 0.024989178
000170 f4 fd 2b bd 07 a6 48 3c 46 76 2d bd 33 d5 da bc
       -0.041990235 0.012246615 -0.042349122 -0.02671299
000180 20 9d 0d bd ec e9 94 bc 26 70 04 3d 5a d3 a9 3c
       -0.034573674 -0.018177949 0.032333516 0.020730663
000190 49 da f7 bc c5 b2 10 bd 87 6f e7 3c ba 1a 44 3c
       -0.030255454 -0.035326738 0.028251423 0.011969263
0001a0 24 df 01 3d 36 91 72 bc 2d 2a e6 3c 8a 67 13 bd
       0.031706944 -0.014805129 0.028096283 -0.035987414
0001b0 fc eb 64 3c 6b 08 81 bb d4 86 68 bc 2f 60 ec 3c
       0.013972279 -0.003937771 -0.014192302 0.028854458
0001c0 b8 3b ca bc 40 5b b4 bc 9a 3d 18 bd f8 75 36 3c
       -0.02468668 -0.022016168 -0.037168123 0.011136524
0001d0 1c ed 4e bc cd 4f 93 ba c1 be 94 bc 87 2c a3 3b
       -0.0126297735 -0.0011238992 -0.018157365 0.0049796733
0001e0 c4 6d e1 3b dd 65 03 bc 7d fa 2b bc 16 fe 29 3c
       0.00687954 -0.008019892 -0.010496733 0.01037552
0001f0 34 d1 f1 bc 2e 19 28 bb 53 be b8 3b a0 36 78 3c
       -0.029518701 -0.0025649774 0.005637923 0.015149742
000200 dc fb 97 3c 72 d7 01 3c 25 49 06 3d dd fc 56 3c
       0.018552713 0.007924901 0.0327846 0.013121811
000210 04 22 20 3c be c9 06 3d c3 c4 f0 3c c8 c7 dd bc
       0.009773735 0.03290724 0.029390698 -0.027072802
000220 90 f6 03 bd 2a 25 0f bd ea 86 6b 3b be 04 cc 3c
       -0.032217562 -0.03494755 0.003593857 0.024904605
000230 96 d3 eb bc 69 61 f0 bc 60 1d 7f bc 1f 1e bb 3c
       -0.028787415 -0.029343324 -0.015570968 0.022841511
000240 e5 ee 93 3c 03 81 0a bd 17 2f df 3c f4 50 e7 bc
       0.01805825 -0.03381444 0.027244134 -0.028236844
000250 28 e2 0a bd 20 74 a5 bb 97 b2 51 3c 6e 75 80 3b
       -0.033907086 -0.0050492436 0.012798927 0.0039202487
000260 14 3d 88 3c 3c 68 0c bd 7f d5 05 bd 21 6b ca 3c
       0.016630687 -0.034279093 -0.03267431 0.024709286
000270 af 42 98 3c 5e 1e b3 bc 87 c9 27 bd ed 7b b5 3a
       0.018586485 -0.021865066 -0.040963676 0.0013846137
000280 40 ab c5 3c 38 9e ad bc a9 16 b1 3a 41 14 55 bc
       0.02412951 -0.021193609 0.0013510782 -0.013005317
000290 5c 2a 84 bc 1b f2 02 bd a8 12 a4 bc b7 37 2a bd
       -0.01613348 -0.03196917 -0.020028427 -0.04155704
0002a0 f4 02 e4 bc 80 5e 74 38 17 4e 01 bd 83 e0 8d 3b
       -0.02783344 5.8262143e-05 -0.031568613 0.0043297424
0002b0 09 2b e6 bc 8c 1a 92 bc 90 47 2b ba c4 c7 98 3c
       -0.028096693 -0.017834924 -0.0006533796 0.018649943
0002c0 8d f3 7e 3c 26 b6 ac 3b 1e 94 88 bc 4b 47 25 3c
       0.015560997 0.005270737 -0.01667219 0.010087798
0002d0 9c fd bc 3c 31 a3 e6 bc 62 74 29 3c 3d 09 18 bd
       0.02307015 -0.028153988 0.010342689 -0.037118185
0002e0 34 3d 4d bc 9e 90 a3 b9 da 20 9d 3c 3d b1 6f bc
       -0.012526799 -0.0003119753 0.019180704 -0.014629659
0002f0 9f 6a e6 3b cd f8 b8 3c b0 63 b5 bc 65 cc 29 bd
       0.007031753 0.022579575 -0.022142261 -0.04145469
000300 24 b1 1b bd 52 b1 c1 3c 62 c5 8f bc 8f d1 0e bd
       -0.03801073 0.023644123 -0.017550174 -0.03486782
000310 b6 c1 8e 3b f8 5b 93 3c b6 37 8b bc f2 c2 bd bb
       0.0043565882 0.01798819 -0.016994338 -0.0057910616
000320 35 f4 b5 3c d4 bf 0a bd ff fe 0d bc ea c1 c6 bb
       0.022211174 -0.033874348 -0.008666753 -0.006065597
000330 a4 48 e7 3c eb 14 75 bb 59 99 07 bd fc a4 93 ba
       0.02823288 -0.0037396501 -0.033105228 -0.0011264379
000340 13 77 c6 3c 5c f3 60 3c 7e 9f 03 3d ce e7 98 bc
       0.0242267 0.013729896 0.032134525 -0.01866522
000350 02 50 e7 3b 0d 18 af 3c df 4a 17 bc 5e 7a 09 3c
       0.007059098 0.021373773 -0.009234159 0.008390991
000360 c4 5e aa 3c 08 a6 8e bc c2 1a aa bc 96 71 2e bd
       0.02079714 -0.017413154 -0.020764712 -0.042588793
000370 fa 61 de 3c 6d b4 b3 3c 6a b2 8c bc 46 24 2c 3c
       0.027146328 0.02193662 -0.017174918 0.010506695
000380 3b 90 a2 bc e0 d3 b4 bc 0b 47 7e bc 68 16 05 3a
       -0.019844165 -0.022073686 -0.015519868 0.0005076886
000390 64 89 a6 3b 30 6f ed 3c 5c 4c 75 3c fd 8e e3 bc
       0.005082296 0.028983682 0.014971819 -0.027778143
0003a0 7a 34 62 bb 83 f1 1d 3b db be 63 bc 6b af 98 bc
       -0.0034516142 0.002410025 -0.013900484 -0.018638333
0003b0 f9 85 e2 bc 8b 8f 45 3b d6 69 0b bc ab a8 eb bc
       -0.027651774 0.0030145373 -0.00850912 -0.02876695
0003c0 f7 11 f0 3c 87 13 44 b9 1f bb 1a bd 96 5d 21 bd
       0.029305441 -0.00018699291 -0.03777611 -0.03939589
0003d0 18 0b 5f 3c 6e 16 be 3c 24 51 dc 3b 3a 24 0b 3d
       0.013613485 0.023204055 0.00672354 0.033970095
0003e0 44 c3 ee bc 78 a2 62 bc 59 78 50 3b f8 00 72 bc
       -0.029145844 -0.013832681 0.0031810014 -0.014770739
0003f0 48 78 1f 3d f4 41 98 bc aa 98 c4 3c 04 b1 18 3c
       0.03893307 -0.018586136 0.023998577 0.009319548

encBlocks.0.conv1.bias f4 [16]
000000 66 d4 a0 3c d1 5b 04 3d ac de ac bc 63 46 64 3c
       0.01963253 0.032314125 -0.021102272 0.013932797
000010 d6 08 60 3c ac 18 24 bc cb 00 ba 3a 63 c1 17 bd
       0.013673982 -0.010015648 0.001419091 -0.037049662
000020 1b 10 bf 3c cb d8 6b bc 01 30 82 ba e2 b6 f1 3b
       0.02332311 -0.014394949 -0.0009932519 0.0073765377
000030 ab 60 e3 bc bf bd f3 3c 38 25 29 bc e2 40 9c 3c
       -0.027756056 0.029753564 -0.010323815 0.019073907

encBlocks.0.conv2.weight f4 [16, 16, 3, 3]
000000 6b 70 90 bd 8c c8 2e 3a 1c 41 54 3d 16 ef f0 3c
       -0.07052692 0.0006667457 0.051819906 0.02941088
000010 c7 43 43 3c 76 01 a9 bc 20 cb 34 bd d3 60 25 3c
       0.011918015 -0.02063058 -0.044139028 0.0100938855
000020 a1 7c 28 bd 10 bb 19 3d 23 0f 17 3d fb 5c c5 bc
       -0.04113448 0.037531912 0.03687967 -0.024092188
000030 d6 3b 1e bd 29 f9 87 3c c2 13 89 3d d9 f6 a6 3d
       -0.038631283 0.016598301 0.06693222 0.08152551
000040 91 39 49 bb 4a 1c 8a 3c f4 f8 9e bd 7f 5d b3 3d
       -0.0030704478 0.016859192 -0.07762328 0.08758067
000050 68 b1 7d bd 7c ff 68 bd 55 2a a3 3d 01 96 4e bd
       -0.061936766 -0.056884274 0.079670586 -0.050436024
000060 24 63 94 3d e1 c3 d4 3c 30 15 bf bb 26 e1 ce 3c
       0.07245472 0.025972309 -0.005831383 0.025253844
000070 8c 2e 8a bd d8 0b 83 3d 4e ca 2e 3d 57 05 74 bd
       -0.06747159 0.063987434 0.0426734 -0.059575405
000080 ff 72 d2 3c c6 f6 3a bd b8 c7 6f bc 42 63 00 bd
       0.0256896 -0.045645498 -0.014635019 -0.03134466
000090 8b a1 25 3d 1d 86 4b 3c 54 ad 8c 3d 60 d7 ad bd
       0.040437263 0.012422112 0.06868997 -0.08488345
0000a0 d4 92 5f 3d 3a a9 aa bd df a2 a0 3c 97 ed 50 3d
       0.054583386 -0.08333059 0.019608913 0.051007833
0000b0 4a a7 86 bd 96 a3 55 3d 1f 63 b0 3c 34 7a 8b bc
       -0.065748766 0.05215796 0.02153164 -0.017026044
0000c0 00 c0 8c bd 1a da c6 ba 20 59 69 3c 0e 96 a1 bc
       -0.068725586 -0.00151712 0.01424244 -0.019724872
0000d0 eb 05 ea 3c d6 f6 bd 3c 03 ae a8 3d 81 73 26 3c
       0.028567275 0.02318899 0.08236315 0.010159374
0000e0 7a 49 91 3d 16 93 45 bd 25 75 95 3d f3 21 ce bc
       0.07094093 -0.048235975 0.07297734 -0.025162673
0000f0 74 8f 48 bc 61 84 66 bd 7c 5b 77 3d cf 1e 3c 3d
       -0.012241233 -0.05627859 0.06038998 0.04592782
000100 64 be 9c bd 2c 6a c5 b8 b4 5d 67 bd 63 6b 1b 3d
       -0.07653502 -9.413468e-05 -0.056485847 0.03794421
000110 16 87 9c 3d 47 a9 44 3d 87 a9 64 3d 0e d7 71 3c
       0.07642953 0.048012998 0.055825736 0.014760746
000120 57 b6 68 3b 05 1d 2c bb 66 9f 4a bd 4d 0c de 3c
       0.0035509074 -0.0026262414 -0.04946842 0.027105475
000130 e7 bc 9a 3d 91 c0 19 3c 98 37 65 3d f6 25 c6 3b
       0.075555615 0.00938429 0.05596122 0.0060470058
000140 bc 34 8e bd 01 75 91 ba 0c c4 0d bd 3b e0 6d 3d
       -0.06943652 -0.0011097492 -0.034610793 0.05807517
000150 ef f1 32 bd b5 93 0f 3c e5 0d f5 3b 61 8e 94 3d
       -0.043687757 0.008763243 0.007478463 0.07253719
000160 35 c1 91 bd 45 37 02 bd 0a 53 fa 3c a7 3d af bc
       -0.071169294 -0.03179099 0.030557174 -0.021391703
000170 0d dc 42 3d b8 e4 c0 3c f6 24 35 3d c1 ae 1b 3d
       0.047573138 0.023546562 0.0442247 0.038008455
000180 70 51 fc bc 7c 3f 20 bd 2c 88 00 bd 13 84 d6 bc
       -0.030800551 -0.039123043 -0.031379864 -0.026186025
000190 07 e6 09 3d c4 db a4 bd 66 f4 40 3d d5 ab a9 3c
       0.033666637 -0.080497295 0.047108077 0.020711819
0001a0 30 b6 84 bd fa 1a fd 3c 60 91 72 bd 02 2b d1 bc
       -0.06480062 0.030896652 -0.05922067 -0.025533203
0001b0 88 35 12 bd 29 c7 85 3d 7a a5 be 3c 78 af 0e bc
       -0.035695583 0.065321274 0.023272265 -0.008708827
0001c0 49 50 8f bd 1a 00 ad bb 70 f0 58 3d b2 59 a7 bd
       -0.06997735 -0.005279553 0.052963674 -0.08171405
0001d0 59 e2 c3 b9 34 8a 2f bd 8b 68 42 bd f9 43 86 3d
       -0.0003736194 -0.04285641 -0.04746298 0.065559335
0001e0 bc 2b 3e bd 0b 81 2f bc cc cb 22 3d 49 0c a5 3d
       -0.046428427 -0.010711919 0.039745137 0.08058984
0001f0 22 29 98 bd d1 26 a6 3c 13 09 2e bc 58 77 62 3d
       -0.074297205 0.020282181 -0.010622281 0.055289596
000200 25 89 ca 3c ef fd 6d 3d f2 c9 96 bd e5 1c 3e bd
       0.024723599 0.058103498 -0.07362737 -0.046414275
000210 4a 41 a8 3c 38 60 42 bc 40 61 19 bd 9a 81 ec 3c
       0.020538945 -0.011863761 -0.03744626 0.028870393
000220 8c 03 16 3d 0b fe 1e 3d 50 43 29 bd 77 8a 89 3d
       0.036624476 0.038816493 -0.04132396 0.06715863
000230 db 46 02 bd b8 1e db 3c 8a 09 a5 3d f8 fd 1a 3d
       -0.031805854 0.026748046 0.0805846 0.03783986
000240 67 e2 28 3d 99 7b 2e 3c 63 ed 7f 3d 3e c6 c1 bc
       0.04123154 0.010649585 0.06248225 -0.0236541
000250 20 b9 78 3d ed 99 1c 3d ce bd 48 3d e8 5a 9b 3d
       0.060723424 0.038232733 0.049009137 0.07585698
000260 f4 67 22 3d 60 46 98 3c ad bb 96 3c 37 5d 87 bd
       0.03964992 0.018588245 0.018400038 -0.06609576
000270 9d 30 98 3d 6d 4b 15 bd a8 e4 9d 3d 92 51 d2 3c
       0.07431147 -0.036448885 0.07709628 0.025673661
000280 4f 39 98 bd 42 ac 5e 3d 7e 26 a2 3d c5 85 88 bd
       -0.07432806 0.054363497 0.07917498 -0.066661395
000290 1a c3 97 3b 0a a5 88 3d c8 e7 86 bb c5 76 09 3c
       0.004631412 0.06672104 -0.004116986 0.008390133
0002a0 5b b8 bd 3a d1 96 53 3d f8 7e a7 bc f5 8a 59 ba
       0.0014474498 0.0516575 -0.020446286 -0.0008298599
0002b0 59 e3 0e 3d bb 25 76 bd c0 63 1a 3d 39 be 7b 3c
       0.034884784 -0.060094576 0.037692785 0.015365177
0002c0 ed d4 ae 3b 9e eb 07 3d 52 ef 30 bd e1 3d a1 3b
       0.0053354413 0.033183686 -0.043196984 0.0049207066
0002d0 ae c1 94 bd d7 47 75 3d 0a 1b 4e 3c 8a f6 30 bb
       -0.07263504 0.059882965 0.012579689 -0.0027002417
0002e0 4c 59 24 bd e6 66 b2 3c 8d d6 19 3c b6 57 04 bd
       -0.040124223 0.021777581 0.009389532 -0.03231021
0002f0 d4 2e e2 3b 05 49 a1 bc d5 cb a0 bc 5f b6 c4 3c
       0.006902555 -0.019688139 -0.019628445 0.024012743
000300 30 5b 54 38 c1 72 8f 3d b7 44 a0 3d 22 dc 34 bd
       5.0629664e-05 0.070043094 0.07825606 -0.044155248
000310 4c 8a 84 bd 9c 90 89 bd 1b 99 56 bd c7 77 95 bd
       -0.064716905 -0.06717035 -0.052392107 -0.07298236
000320 da ec 63 ba 93 d8 95 bd 06 c5 07 bd f2 8a 0e 3d
       -0.00086946564 -0.07316699 -0.03314688 0.034800477
000330 40 44 b0 bd 05 88 7c bd cc fe 8c bd 4d da 03 3d
       -0.08606768 -0.061653156 -0.06884536 0.03219061
000340 c0 15 67 bd 99 d2 d3 bb aa 68 44 bc 59 2e 53 3d
       -0.056417227 -0.006464314 -0.0119878445 0.051557872
000350 d4 4a 27 bd 2b a4 87 3c 5c b2 91 bd d0 b8 d9 3c
       -0.040842846 0.016557774 -0.071140975 0.026577383
000360 3e 53 57 bd 8d d9 8f 3d 4b fa 97 3d 17 e3 36 bb
       -0.05256962 0.070239164 0.074207865 -0.0027906352
000370 7f e4 03 bc 0e 5e 3d bd 52 a2 6d 3d 3e bd e8 3c
       -0.008050083 -0.046232276 0.05801613 0.02841055
000380 c1 be 7f bd 3a 4d 7b 3d ff 70 67 bd c8 cc 3a bb
       -0.062437776 0.061352946 -0.056504246 -0.0028503407
000390 98 95 85 bb 28 16 68 3d 80 e8 b9 bc e8 0b 8b bd
       -0.004076671 0.056661755 -0.022693872 -0.0678938
0003a0 0e eb 92 bd 7f fa 93 3c b6 2d 34 3d a4 a0 90 bd
       -0.071737394 0.018063782 0.043988906 -0.0706189
0003b0 22 33 8f bd 41 30 5d 3d ac 67 06 bd 9f fd ab bd
       -0.06992175 0.054001097 -0.032813713 -0.08397984
0003c0 ee dd d7 bc 72 ee 72 3d be f7 d1 3c 78 84 d4 3c
       -0.026350942 0.05930943 0.025630828 0.025942072
0003d0 49 12 8a bd 5d d8 6a 3d 1a 6d 62 3d 23 13 13 3d
       -0.06741769 0.057335246 0.05527983 0.035906922
0003e0 cf 61 87 bc a3 45 22 3c 54 67 55 3c 3d 37 17 3d
       -0.016526131 0.009904298 0.013025124 0.036917914
0003f0 dc 84 8e 3b 66 14 b4 3c d2 21 b5 3c d9 eb 34 bd
       0.004349334 0.021982383 0.022110853 -0.044170234

encBlocks.0.conv2.bias f4 [16]
000000 98 56 65 3d 87 b6 9d bd a3 50 2b bc d3 29 9a 3b
       0.055990785 -0.0770083 -0.010456237 0.004704693
000010 73 80 84 bd 87 29 3d 3c e9 e1 c5 3c 9c 41 9e 3c
       -0.06469812 0.011545545 0.024155574 0.019318394
000020 94 65 5b bd a7 a1 b2 3d 1c e1 ef bc 53 63 83 ba
       -0.05356367 0.08722239 -0.029282145 -0.0010024108
000030 6c 54 42 3d ab 88 b2 bd 16 d6 6b bb f0 fd 88 bd
       0.047443792 -0.087174736 -0.003598576 -0.0668906

encBlocks.0.BN1.weight f4 [16]
000000 62 9d 80 3f 4b cf 7f 3f c6 26 80 3f 83 8a 7f 3f
       1.004803 0.9992568 1.0011833 0.9982073
000010 53 81 80 3f 26 81 80 3f 00 af 80 3f 1e a0 80 3f
       1.0039467 1.0039413 1.0053406 1.0048864
000020 4d 9c 80 3f ff c6 7e 3f 65 90 80 3f 98 cb 7e 3f
       1.0047699 0.99522394 1.0044066 0.9952941
000030 2a d2 7e 3f b4 f6 7f 3f 2b ea 7e 3f ae f8 7e 3f
       0.99539435 0.99985814 0.9957606 0.99598205

encBlocks.0.BN1.bias f4 [16]
000000 f4 31 96 3b d8 b1 95 ba df 85 81 3a b4 5f 9b 3b
       0.0045835916 -0.00114208 0.0009881816 0.0047416333
000010 6a 7a 9b 3b 72 e7 a0 3b d4 4c 3d bb ad 8e 63 3b
       0.0047448175 0.004910403 -0.0028884904 0.0034722493
000020 7a 39 87 3b be 83 96 bb 36 a6 59 3a 5d f6 91 bb
       0.004126725 -0.0045933416 0.00083026604 -0.0044544176
000030 17 6b 92 bb 3e 8e 30 bb 9f 7e 0f ba 6e a7 8d bb
       -0.0044683325 -0.0026940252 -0.0005473885 -0.0043229377

encBlocks.0.BN1.running_mean f4 [16]
000000 cb ba cf be a4 fa 29 be fb d6 42 bd 95 5e 53 be
       -0.405722 -0.16599518 -0.047568303 -0.20641549
000010 55 a5 00 bf 76 41 00 3f 51 03 9d 3e 01 e0 bf 3d
       -0.50252277 0.50099885 0.30666593 0.09368897
000020 e2 b6 d0 bc b4 b1 e8 3c b0 78 ac 3e f8 b4 93 bc
       -0.02547783 0.028405048 0.33685827 -0.018030629
000030 12 b4 5d 3c 85 c6 66 3e 8a 5c 08 3e 2a 10 24 3e
       0.013531702 0.22536667 0.13316551 0.16021791

encBlocks.0.BN1.running_var f4 [16]
000000 3a ce 1f 3f d7 81 05 3f cc 69 02 3f 3e e5 07 3f
       0.6242405 0.52151245 0.50942683 0.5308417
000010 67 f5 27 3f 2e f9 28 3f 2e 49 10 3f 56 1f 01 3f
       0.6560883 0.6600522 0.56361663 0.5043844
000020 a4 6c 02 3f 03 42 fe 3e 5b 7f 15 3f 88 53 fd 3e
       0.5094702 0.49659738 0.58397454 0.49477792
000030 e9 5d fe 3e 6c 16 0a 3f be 84 05 3f 6a e0 03 3f
       0.49681023 0.53940463 0.52155674 0.51514304

encBlocks.0.BN2.weight f4 [16]
000000 16 99 80 3f 82 eb 7e 3f 64 3f 80 3f 20 93 80 3f
       1.0046718 0.99578106 1.0019345 1.0044899
000010 df b0 7f 3f 9a 30 80 3f d2 c9 7e 3f 76 63 80 3f
       0.9987926 1.0014832 0.99526703 1.0030353
000020 b3 e2 7e 3f ae 71 80 3f 5b 26 80 3f f5 72 80 3f
       0.99564666 1.0034692 1.0011705 1.0035082
000030 b3 ef 7e 3f 70 0a 7f 3f d3 e9 7e 3f bd 39 80 3f
       0.995845 0.996253 0.9957554 1.001762

encBlocks.0.BN2.bias f4 [16]
000000 94 8b 1f 3a 9e 3d 03 b9 e9 ce cc ba 93 77 a8 ba
       0.00060861674 -0.00012516088 -0.0015625629 -0.0012853019
000010 68 f6 67 ba fb c3 7b 3b 95 d7 22 ba a2 a8 ff ba
       -0.0008848668 0.0038416374 -0.0006211934 -0.0019505213
000020 9b 66 b7 38 61 66 84 3b 0c d2 c6 bb 3e ec 59 bb
       8.745232e-05 0.004040525 -0.00606752 -0.0033252384
000030 d6 60 32 ba 0c 44 a9 3b 94 7c 00 bb b0 7a 08 bb
       -0.0006804591 0.0051655825 -0.0019605504 -0.002082508

encBlocks.0.BN2.running_mean f4 [16]
000000 14 3e fe 3d 6d 24 90 b9 29 2d ed bd 13 58 44 bd
       0.12414184 -0.0002749296 -0.11580879 -0.047935557
000010 e6 a1 99 bd 4c 55 0d 3e 13 02 de 3d b6 7b 0d 3e
       -0.07501583 0.1380207 0.108402394 0.13816723
000020 70 95 bb be b4 b8 d3 3d 17 ff 87 3e 47 97 b0 bc
       -0.3663745 0.10337964 0.26561806 -0.02155651
000030 c3 e9 e8 3d d6 73 e7 3d 54 f1 00 3d c5 22 9c bc
       0.113727115 0.11301391 0.03148015 -0.019059548

encBlocks.0.BN2.running_var f4 [16]
000000 85 a1 06 3f 50 ed 1a 3f 24 8e 05 3f c8 c1 06 3f
       0.5259021 0.6051836 0.52170014 0.52639437
000010 31 86 0c 3f 9e 1c 0a 3f dd 6d 04 3f 6a 6f 14 3f
       0.5489226 0.53949916 0.5173014 0.57982504
000020 3a 5d 1a 3f 4c d7 02 3f 68 6d 11 3f d1 30 11 3f
       0.602985 0.51109767 0.56807566 0.5671511
000030 ee 6a 1c 3f 23 88 0a 3f dc 72 0e 3f 1a db 10 3f
       0.6110066 0.5411398 0.5564401 0.5658432

encBlocks.1.conv1.weight f4 [16, 16, 15, 15]
000000 16 06 79 3c 10 ba 6d 3b 01 3e 22 bc 57 72 4b 3c
       0.015199205 0.0036274232 -0.009902478 0.012417397
000010 d7 96 77 3b e9 c4 bf ba bd 33 e2 bb 76 19 1c bc
       0.0037779117 -0.0014630827 -0.0069031403 -0.009527555
000020 0e eb 82 bc 7f cf 1d bc 38 0d e6 bb 09 f3 37 3c
       -0.015981223 -0.00963199 -0.0070206188 0.011227378
000030 8c 6c 49 bc 1b 8a 0a 3a e7 f7 6a bc 62 81 92 bb
       -0.012293946 0.00052848615 -0.014341331 -0.00447099
000040 13 c0 6d 3c f3 52 5c 3c 4f 44 aa bb 9f 87 22 bc
       0.014511126 0.013447511 -0.0051961313 -0.00992003
000050 64 cc a0 bb c9 47 88 bc ff dd 4f bc 0a 42 1f bc
       -0.0049071778 -0.016635792 -0.012687205 -0.009720335
000060 dd 0c 2b bc f8 a9 0d 3c 00 17 82 bb 09 3c 0d bc
       -0.010440079 0.008646481 -0.003970027 -0.0086202705
000070 31 9f 41 3c d3 09 2f bc f2 c5 f5 bb d4 b6 22 3c
       0.011817739 -0.010683495 -0.0075004036 0.009931285
000080 1f 1c 5b bc b6 35 f2 3b de 46 21 bc e9 49 80 bc
       -0.013373404 0.0073916567 -0.009843556 -0.015660243
000090 0d b3 7e bb 5c 29 78 bc 2f 06 9d 3b ad 3c 68 bc
       -0.0038864047 -0.01514658 0.004791997 -0.0141746225
0000a0 bd c9 4c 3c 5e 0a 1f ba 52 33 a6 39 dd 1b 57 3c
       0.01249927 -0.00060669135 0.00031700224 0.013129202
0000b0 04 d0 e3 bb b3 a2 62 3c d9 80 77 3c 28 6a 05 3c
       -0.0069522876 0.013832736 0.015106403 0.008142985
0000c0 03 4a 6c 3c 7a b7 2a ba a5 18 64 bc 18 b5 76 3b
       0.014421943 -0.00065123255 -0.013921891 0.0037644561
0000d0 d8 cc 69 3b bc 47 5c bc da 40 e8 3a d1 32 8e bc
       0.0035675075 -0.013444837 0.0017719523 -0.017358216
0000e0 7c ed 2e bc e2 16 11 bc d5 06 43 3c 56 93 be bb
       -0.010676738 -0.008855553 0.011903484 -0.0058159037
0000f0 12 c4 b9 bb 19 c3 91 3b 8a da a4 bb c2 27 1b 3c
       -0.0056691254 0.0044483063 -0.0050309347 0.009469928
000100 2c ad 6a 3c 52 57 7d bc ec e2 65 b7 b1 a2 0f bc
       0.014323514 -0.015462713 -1.3702298e-05 -0.008766816
000110 6c f5 64 3c f9 42 e6 3b e7 d5 07 bc e8 7c b1 bb
       0.013974529 0.0070270267 -0.008290744 -0.0054165013
000120 bf 8d 7c bc e6 5c 1a 3c f5 cd 11 bc 8e 57 8c bc
       -0.015414654 0.009421563 -0.008899202 -0.017131593
000130 0f 08 29 3c 8e 80 f3 bb e2 41 ac 3b d4 b4 8c 3b
       0.010316863 -0.0074310964 0.0052568773 0.0042940173
000140 d3 a4 5f 3c e0 76 02 3c c1 48 f9 3b d3 39 01 3c
       0.013650137 0.007962912 0.00760755 0.0078873215
000150 5d f2 1c 3c 1e a6 3f bc fa 7b 15 bc 84 94 fe 3b
       0.009579268 -0.01169732 -0.009123797 0.0077691693
000160 ae fd 2c bb 76 77 96 3b 19 62 5f 3c 6e f7 08 3c
       -0.0026396322 0.0045918776 0.013634228 0.008359773
000170 f7 b4 88 3c bb 43 ae 3b 41 df 70 3c 62 3d e2 bb
       0.016687853 0.0053181327 0.014701665 -0.00690429
000180 97 81 23 bc 98 a3 78 bc 40 68 46 bc 73 9f 3e 3a
       -0.009979627 -0.015175723 -0.012109816 0.00072716846
000190 89 d3 2c bc ea 5e 62 3a e1 9b 63 bc 34 96 19 bc
       -0.010548481 0.0008635359 -0.013892145 -0.00937419
0001a0 3e 97 26 3c 04 26 81 bb 47 1b 24 bc 48 2f 81 3c
       0.010167895 -0.0039412994 -0.010016269 0.015769616
0001b0 33 b7 c8 3b ae 1d 2e bc c8 5a 1b 3c 89 c4 20 bb
       0.0061253547 -0.010627193 0.009482093 -0.0024531207
0001c0 60 71 1b bb 25 d1 10 3c a1 6a e3 3b 3f 32 86 bb
       -0.00237187 0.008838926 0.0069402014 -0.0040953453
0001d0 75 71 16 bc 64 80 5d 3c 20 e5 d3 3a 91 4b a2 bb
       -0.009182324 0.01351938 0.0016166307 -0.004952856
0001e0 0f 8b 74 bc 36 6a 5f 3b 65 02 7b bc 85 f8 72 3c
       -0.014925732 0.0034090406 -0.015320395 0.0148297595
0001f0 d1 d7 0c 3c b0 d3 02 bc 43 93 3a 3c aa 40 17 3c
       0.0085963765 -0.007985041 0.011387649 0.009231726
000200 9a 15 81 3b 29 78 54 bc 3a 84 c4 3b 98 17 3c bb
       0.0039393427 -0.012968102 0.005997208 -0.0028700586
000210 d0 7d 49 3c 88 2b 7a 3c 81 64 00 3c 9c b5 80 3c
       0.012298062 0.015269168 0.007836462 0.015711598
000220 4b 48 a3 3c aa 9e 2f 39 90 b5 f4 3b 61 e4 06 3c
       0.019931933 0.00016748408 0.007467933 0.008233161
000230 0d 32 7e 3c 8e 6a bb bb 89 3b 43 3c 91 66 4f bc
       0.015514863 -0.0057194894 0.01191605 -0.012658731
000240 7e 8c ad bb 2d 28 6e 3c 48 76 72 bb 3e c6 fe 3b
       -0.005296289 0.014535946 -0.003699677 0.007775097
000250 df 2c 11 bc a1 62 48 3c fe c6 2c bc 27 9f 5d bc
       -0.008860796 0.012230546 -0.01054549 -0.013526714
000260 ec d6 4c bb 75 9d 1a bc 9a 04 cb bb cb b6 46 3c
       -0.0031256033 -0.009436955 -0.006195617 0.012128542
000270 cc 50 96 3a e2 98 67 bc 98 ba e0 3a d6 bb 8f 3b
       0.0011468171 -0.014135571 0.0017145453 0.0043864055
000280 f7 1e 40 3c d4 b0 df 3b 3d c4 0b 3c 62 f6 42 bb
       0.011726133 0.0068264995 0.008530674 -0.0029748906
000290 9c b4 80 3c 46 88 c6 ba d8 f1 8c 3b b2 c7 9a 3c
       0.015711121 -0.0015146814 0.004301291 0.01889405
0002a0 c9 80 bf 3a 9d e4 95 bb 27 2c 7f 3c 72 93 63 bb
       0.0014610525 -0.004574372 0.015574492 -0.0034725335
0002b0 ff 13 bc bb 01 26 20 bc 7e a3 48 bc 5c ee 7d 3b
       -0.0057396884 -0.009774686 -0.012246011 0.003874681
0002c0 2e 23 e0 3b ee 69 4a bc 92 e7 64 bc 96 e5 81 3c
       0.0068401312 -0.012354357 -0.013971226 0.015856545
0002d0 6d 82 04 3c d6 0b 06 3c 5a e7 8d bb f1 af 9a 3b
       0.008087737 0.008181533 -0.004330558 0.004720681
0002e0 02 fd 87 3c ea 9f 3f b9 7d 90 31 3c 24 fc 35 3c
       0.016600136 -0.00018274752 0.010837671 0.011107478
0002f0 e6 32 05 3c d2 7e 07 bc 86 94 49 3c f9 2f 89 3c
       0.008129811 -0.008269982 0.012303477 0.016746508
000300 de 74 12 bc d9 08 a0 3c 41 69 4a bb 78 3e 1c bc
       -0.008938996 0.019535469 -0.003088549 -0.009536378
000310 f6 db 7e 3c c1 6e 7b bc d8 1c 10 3c 6c 2b 7c 3c
       0.015555372 -0.01534623 0.008795939 0.015391212
000320 8a 06 ff bb ca e6 13 b9 77 84 45 bb e6 3d 3c bc
       -0.007782762 -0.00014104988 -0.003013877 -0.011489367
000330 0a b6 06 39 1b 74 22 bc b9 77 d6 bb 09 23 57 bb
       0.0001284705 -0.009915377 -0.006545034 -0.003282728
000340 60 e3 17 ba 90 ae 0a 3b 8f fd 3b 3b 09 20 6b 3c
       -0.00057940744 0.0021161176 0.0028685068 0.0143508995
000350 43 28 08 3b 5e 44 71 3a fd 15 72 bc d3 0a 81 3c
       0.002077595 0.0009203608 -0.01477575 0.015752232
000360 ba 2a 22 3c 98 7f 73 3c 12 d5 22 3a fd 0b 94 3c
       0.009897882 0.014861964 0.00062115595 0.018072123
000370 11 58 c7 ba f8 30 52 3c b5 fb 20 bc d6 29 13 bc
       -0.0015208741 0.012829058 -0.009825637 -0.008982142
000380 9c 87 c5 bb 74 29 7a bc 1f 2d 45 3b 83 e2 74 bc
       -0.006028129 -0.015268672 0.0030086709 -0.014946583
000390 da 2c 3b 3c 34 b3 ae bc 49 9e ef 3b 50 14 44 bc
       0.011424268 -0.021325685 0.0073125702 -0.0119677335
0003a0 8b 8f 39 3a 7e 78 05 bc a4 ba af 3a d7 56 0d 3b
       0.00070785795 -0.008146403 0.0013407064 0.0021566653
0003b0 db ca 6c 3b 98 23 18 bc 76 d9 23 bb e0 38 65 3b
       0.0036131653 -0.00928583 -0.0025001443 0.0034976527
0003c0 1d a5 54 bc ed ed a8 bc b9 1a 37 3c 00 4b fc 3b
       -0.012978819 -0.020621264 0.011175805 0.0076993704
0003d0 62 49 15 3c 96 54 28 3c 94 13 91 3b 67 90 99 bc
       0.009111734 0.010274073 0.0044273827 -0.018745614
0003e0 91 d6 4d bc 28 78 92 bc c5 cb 72 3b 4e 67 87 3b
       -0.012563364 -0.01787956 0.0037047726 0.004132188
0003f0 38 f3 1a bc d8 06 eb 39 d4 18 8f ba 24 9d 25 ba
       -0.009457402 0.00044827792 -0.0010917434 -0.0006317666

encBlocks.1.conv1.bias f4 [16]
000000 42 7a cd bb bc 7f 07 3c c8 ac 2e bc 8d 54 21 3b
       -0.006270678 0.0082702 -0.010661311 0.0024617047
000010 03 aa 8f 3c 62 e4 8b bc 4c 9a 72 bc e4 49 e8 3a
       0.017537123 -0.017076675 -0.014807295 0.0017722216
000020 d1 d5 86 bc d3 bc 6c 3c 52 e9 66 3c 1f 07 6c 3b
       -0.016459377 0.014449316 0.014093714 0.0036014987
000030 7f c7 f8 3a 32 a2 96 3a 39 16 2e 3c 64 76 f1 ba
       0.0018980353 0.001149243 0.0106254155 -0.0018422124

encBlocks.1.conv2.weight f4 [16, 16, 3, 3]
000000 73 07 8e bd 16 53 08 3d 11 08 04 3d 50 e7 7c 3d
       -0.069350146 0.033282362 0.032234255 0.061744034
000010 17 2d de 3c 28 21 87 bd 82 c9 13 bd 80 39 95 bd
       0.02712111 -0.06598121 -0.036080845 -0.07286358
000020 97 3d ed bc 8d 02 a6 3d 8f 14 0f bd 2b cd 79 3c
       -0.028960032 0.08105955 -0.034931716 0.01524667
000030 1b 2c c5 bb 32 1b b5 3c a7 7b 85 bd a5 0d 04 3d
       -0.0060172207 0.022107694 -0.065177254 0.032239575
000040 e6 3a 8f bd c6 e7 01 bd 35 7c 4d bd 02 00 05 3b
       -0.06993656 -0.031715177 -0.05016728 0.0020294194
000050 62 3e bc 3c dc f7 00 3b 41 bb 54 bd 53 1b 5b bd
       0.022978965 0.0019678986 -0.05193639 -0.053492855
000060 79 fd b9 bc 23 b7 98 bd 5f 00 c1 3a ce 40 75 bd
       -0.022703873 -0.074568056 0.0014724842 -0.059876256
000070 4c 00 26 3d be 01 06 bc dd c2 8a 3d 7a 7a 1c 3d
       0.040527627 -0.008179126 0.067754485 0.03820274
000080 4c 13 2c 3d 78 71 54 3d ea 02 45 bd 8b a1 8b bd
       0.04201059 0.051866025 -0.048098482 -0.06817921
000090 ba 84 76 bd 58 ef 31 bd c9 73 7a bd fb 0f 3b 3d
       -0.06018517 -0.043441147 -0.061145578 0.045669537
0000a0 cd 73 37 bd 17 04 36 bd a8 36 42 bd 4c 13 33 3d
       -0.04478817 -0.044437494 -0.047415406 0.043719575
0000b0 e3 11 8c 3d 77 0a 98 3c a1 77 9f 3d 71 b9 38 bd
       0.06839349 0.018559678 0.07786489 -0.045098726
0000c0 51 b6 6d bc 4a 91 0d 3c df e9 ef 3c b0 3f 3a bd
       -0.0145088 0.008640597 0.029286323 -0.045470893
0000d0 04 aa a4 bd 6c 9d 48 bd a7 d1 cc 3c 9e f4 bd bc
       -0.080402404 -0.048978254 0.025002314 -0.023187932
0000e0 c2 71 19 bd a8 23 5f 3d bb b8 6d bc 48 c1 2f bd
       -0.037462004 0.054477364 -0.014509375 -0.042908937
0000f0 73 0f 12 3d 52 ee 88 3d f3 3f 47 bd 35 3d 99 3d
       0.035659265 0.06686081 -0.04864497 0.074823774
000100 96 d7 99 3d 3e 9c 54 bd 1d 6a 21 3d 39 56 1f 3d
       0.07511823 -0.051906817 0.039407838 0.038900588
000110 f6 ad 69 3d df 37 43 bd fa ae 9c bc d3 85 33 bd
       0.057050668 -0.047660705 -0.019126404 -0.043828797
000120 b2 59 b3 3a b7 90 b6 3c e9 b2 62 bd 01 b0 3d bd
       0.0013683347 0.022285802 -0.055346403 -0.04631043
000130 06 b7 4d 3d 35 89 02 bc ec d1 1b bd 7f 78 35 3d
       0.050223373 -0.007967283 -0.038041994 0.044304367
000140 c9 9b 8d 3d d5 8f 82 bd ad b0 06 bc de 4b 67 3d
       0.06914479 -0.0637509 -0.008220834 0.056468837
000150 ce 71 0f 3d db 03 a9 bd 1c b4 5c bd 59 81 66 bd
       0.035020642 -0.082526885 -0.053882703 -0.0562757
000160 f0 88 80 3d 33 77 b6 3c bf 7a 57 3d d2 82 9c 3d
       0.06276119 0.022273635 0.052607294 0.076421395
000170 a4 18 80 3d 9f 2c a0 bd b4 1c 96 bd ba ef 3b 3d
       0.062547 -0.07821011 -0.073296934 0.045882918
000180 da f0 7f 3b fd 3a a5 3d da 31 3a 3c dc 9a d4 bb
       0.003905347 0.08067892 0.011364425 -0.0064881872
000190 c3 57 44 3d 86 25 eb 3b 53 41 98 3d e1 53 d8 bb
       0.04793526 0.007176104 0.074343346 -0.006601796
0001a0 6e f7 0a ba 52 1d 21 bd a7 75 75 3d 3d bb b0 bd
       -0.0005301152 -0.039334603 0.059926655 -0.08629463
0001b0 45 a8 0b 3d 48 9a b4 3c c6 2c 50 bc 74 6b 3f 3d
       0.03409602 0.022046223 -0.012705987 0.046733335
0001c0 85 5a 90 bd d5 6b 80 bc b5 96 93 3c 52 13 59 bd
       -0.07048515 -0.015676418 0.018016199 -0.05299694
0001d0 bb f7 27 3d 7a e2 24 bd 9e 44 ae 3b d3 5f 3d 3d
       0.04100774 -0.040255047 0.0053182384 0.046233963
0001e0 25 2d 95 3d 69 19 f1 bc f6 91 11 bd 35 53 42 bd
       0.07284001 -0.029431062 -0.03553959 -0.047442634
0001f0 e7 f3 97 bc ec cf df 3c fe d6 ee 3c 18 71 a7 3d
       -0.018548919 0.027320825 0.02915525 0.08175868
000200 76 d3 57 bd 45 80 68 bd ee 55 78 3d c6 e0 8f bd
       -0.0526919 -0.056762952 0.060628824 -0.07025294
000210 4b 99 77 3d 36 61 8b bd d8 33 c7 bb 35 bb 44 bd
       0.060448926 -0.06805651 -0.0060791783 -0.048030097
000220 80 76 a4 3d 6d 6a 3b bd da a8 19 bd fa cf b0 3c
       0.080304146 -0.045755792 -0.037514545 0.021583546
000230 6a 11 87 3b d6 24 30 bd ac 82 4f bd 14 8e 6f 3d
       0.004121949 -0.04300388 -0.050661728 0.058485106
000240 ba 8d b4 3c 72 c1 f4 bc 63 ca 8c bb ee 77 8e 3d
       0.022040237 -0.029877398 -0.0042965873 0.069564685
000250 61 6f 8a 3d 2c 1d cf bb 21 0e ba bc bd 04 8f 3d
       0.06759525 -0.006320616 -0.022711815 0.06983326
000260 6b 0b 54 ba 07 13 88 bd 18 f4 62 bc 9f e2 42 bd
       -0.00080888596 -0.06644254 -0.013852142 -0.047579404
000270 2f 68 9e 3c ae 09 5e bd 07 19 8e 3d fe 5d 61 3d
       0.019336788 -0.05420845 0.06938367 0.05502128
000280 dc 9f 40 3d 4a ce 3b bd e0 95 2b bc 9c 0b 7e 3d
       0.047027454 -0.04585103 -0.010472745 0.06202279
000290 45 7e 0e 3d 55 18 69 3d 40 d7 60 bd 83 fd 26 3c
       0.03478839 0.05690797 -0.05489278 0.010192278
0002a0 88 18 0a 3d bd c3 86 bd 08 cb 14 3d ae 4f 54 3d
       0.0337148 -0.06580303 0.03632644 0.0518338
0002b0 dc 00 5c ba 16 b7 67 bc dc 65 34 bd 3b cf 95 3d
       -0.0008392462 -0.014142772 -0.044042453 0.07314917
0002c0 93 1d 49 3c 89 5f aa 3d 59 34 6b 3c 0d dc 76 bd
       0.012275117 0.08319003 0.014355742 -0.06026845
0002d0 08 f7 07 bc 59 60 e6 bc b7 d7 1d 3b fe ef 62 bd
       -0.008298643 -0.028122114 0.0024084875 -0.055404656
0002e0 6b 3e 8f bd d0 71 0e 3d 34 66 02 3d 18 a0 e8 3c
       -0.06994327 0.03477651 0.03183575 0.028396651
0002f0 d6 89 72 3d dd dd 3b ba 3b 49 0a 3d 86 30 3f bd
       0.05921348 -0.0007166544 0.033761244 -0.046677135
000300 00 c4 a6 3d 0f a7 62 3d 1d 7f ad bc e5 19 67 3d
       0.08142853 0.0553351 -0.021178776 0.05642118
000310 01 db 99 bd 11 3a 4e 3d 2b 15 7b 3d 1c f1 d8 bc
       -0.07512475 0.050348345 0.061299484 -0.026482157
000320 cb 86 22 3d 7e 58 94 bd 1b 07 a2 bd 36 76 74 3d
       0.03967933 -0.07243441 -0.079115115 0.059683047
000330 7a fc ab 3c 5c 6e 98 3a b3 56 29 3d 8c 9a 05 3c
       0.020994414 0.0011629569 0.04134245 0.008154523
000340 cc 26 8e 3d 93 05 8c 3b 31 a8 9a 3c ed d4 b3 bc
       0.06940994 0.0042731254 0.018879028 -0.021952117
000350 55 b3 56 bd d5 71 5e 3c d4 66 9f bd 89 2a 9e 3d
       -0.052417118 0.013576944 -0.07783285 0.07722957
000360 ec 90 0e 3c 3f 87 80 3d bb 5c 80 bd 70 a5 00 bb
       0.008701544 0.06275796 -0.06267687 -0.0019629858
000370 fe e4 16 3d 74 16 6d 3d 6d 57 ad bd b2 5b 35 3d
       0.036839478 0.05788274 -0.08463941 0.0442769
000380 7c 73 66 3b 07 0b cb bc d1 70 3e bd ae 24 3f 3d
       0.003516405 -0.024785532 -0.04649431 0.04666584
000390 a8 8f 99 bd e9 ec 6e 3d 78 0c 8f 3c 1d ab 88 bd
       -0.074981034 0.058331404 0.017462 -0.06673262
0003a0 ba cc 94 3b 43 a3 56 bd eb 36 b8 3b b7 7d 53 3d
       0.004541007 -0.052401792 0.005621781 0.051633563
0003b0 ec 52 77 bd 76 99 95 bd 9d cb 1a bc 09 7b 76 bd
       -0.060381815 -0.07304661 -0.009447959 -0.06017593
0003c0 54 99 8b 3d 92 6d 43 3d 97 95 86 bd 77 bd bf 3c
       0.068163544 0.047711916 -0.06571501 0.023405774
0003d0 18 d6 a1 3b e2 91 09 bd 84 1b 9f bd 00 cc de bc
       0.004938852 -0.03358639 -0.0776892 -0.027196884
0003e0 5d 44 cd 3c ae 6e 44 3c c8 f2 a5 bc 0d b6 93 bd
       0.025057012 0.011989279 -0.020257369 -0.07212458
0003f0 de 24 26 bc 4a 12 bb bb 2f bb 1b bd 6e aa a9 ba
       -0.010140626 -0.0057089673 -0.03802031 -0.0012944469

encBlocks.1.conv2.bias f4 [16]
000000 3e f3 a2 bd d3 b9 9c bd 16 d2 62 bd bd c0 aa 3c
       -0.07956551 -0.07652631 -0.055376135 0.020843858
000010 c7 14 8f 3c 96 ff ff bc ff 1a 87 3c df 43 05 3d
       0.017465962 -0.031249803 0.016492365 0.03253543
000020 2e ad 2e bd 92 1f 23 bd 46 6e 97 bb d8 f0 a3 3d
       -0.042645626 -0.03982503 -0.0046213 0.08004922
000030 3b b0 0c 3c cc f1 a7 bc 2b 78 0e 3d 8a 55 78 3d
       0.0085869385 -0.02050104 0.03478257 0.06062845

encBlocks.1.BN1.weight f4 [16]
000000 96 a2 7e 3f 22 6d 80 3f d8 b8 80 3f 1f 43 7f 3f
       0.99466836 1.0033305 1.005641 0.99711794
000010 a6 87 80 3f e2 a0 7f 3f 69 d8 7e 3f 66 c5 7f 3f
       1.0041397 0.9985486 0.99548966 0.9991058
000020 38 a4 80 3f 8d fb 7e 3f d0 31 80 3f 50 a8 7e 3f
       1.0050116 0.99602586 1.0015202 0.99475574
000030 4b 4f 80 3f 4e 16 7f 3f c4 c9 7e 3f 61 89 80 3f
       1.0024198 0.9964341 0.9952662 1.0041925

encBlocks.1.BN1.bias f4 [16]
000000 8f bb 29 bb b4 fc 72 bb 36 63 bc 3b fb 98 6b bb
       -0.0025899147 -0.0037076892 0.0057491316 -0.0035949338
000010 61 c8 88 3b 89 d6 76 3b 40 81 a2 bb 07 79 35 bb
       0.0041742777 0.0037664494 -0.0049592555 -0.0027690546
000020 25 25 c9 3b 85 32 6a bb 27 e9 54 3a 35 f3 b4 bb
       0.006138461 -0.0035735678 0.00081219006 -0.0055221566
000030 ad a1 25 bb a9 a0 99 3b 53 ad 78 bb e3 c4 85 3b
       -0.0025273368 0.0046883416 -0.0037945106 0.0040823086

encBlocks.1.BN1.running_mean f4 [16]
000000 88 67 fd bd 3b c7 07 3f b0 8f 3d 3f 87 51 66 3e
       -0.12373263 0.53038377 0.74047375 0.22492038
000010 d2 10 28 3f db 4f 3d bf 57 4c 7d 3d 2a a9 72 3e
       0.65650666 -0.73949975 0.06184038 0.23697343
000020 33 4a ae 3e 5b 12 a4 be d1 70 5b 3e 05 c3 ef be
       0.34040985 -0.32045254 0.21429755 -0.46828476
000030 a8 3a 2f 3e 60 6d f5 be 0c f7 da 3e c4 e7 f1 3e
       0.1711222 -0.4793501 0.42766607 0.47247136

encBlocks.1.BN1.running_var f4 [16]
000000 86 47 9f 3f 6e 87 a8 40 8c 66 77 40 66 f7 78 3f
       1.2443702 5.266532 3.865634 0.972525
000010 68 bc 5b 40 8d 60 b0 40 11 e5 d2 3f e8 66 ec 3f
       3.4333744 5.511786 1.6476156 1.8468904
000020 63 ed 84 40 2a 45 e0 3f eb f9 19 40 64 e5 3f 40
       4.153978 1.7521107 2.4058788 2.998376
000030 68 30 29 40 fe 8c 6f 40 20 6e 74 40 67 10 78 40
       2.6435795 3.7429805 3.8192215 3.8760011

encBlocks.1.BN2.weight f4 [16]
000000 2b 15 7f 3f 7f 57 7f 3f 09 5e 80 3f 5f 80 80 3f
       0.99641675 0.99742883 1.0028697 1.0039176
000010 f8 26 7f 3f fd bb 7e 3f a6 99 7f 3f f0 d5 7e 3f
       0.99668837 0.995056 0.99843824 0.9954519
000020 2d 20 7f 3f 6f a3 80 3f f9 62 80 3f dc f8 7f 3f
       0.9965847 1.0049876 1.0030204 0.99989104
000030 fa 66 80 3f 12 18 80 3f 6b 29 7f 3f 44 8a 80 3f
       1.0031426 1.0007346 0.99672574 1.0042195

encBlocks.1.BN2.bias f4 [16]
000000 d8 18 bd bb bc 65 7e bb 91 79 bf bb e4 24 88 bb
       -0.005770784 -0.0038817963 -0.0058433493 -0.0041547883
000010 b4 89 b3 bb 69 ce fb ba 2b f5 af bb 42 4e c4 b9
       -0.005479062 -0.0019211295 -0.0053698025 -0.0003744234
000020 03 89 1b ba 36 24 60 bb 90 03 bb bb be b3 ec 3a
       -0.0005933197 -0.003420127 -0.005707212 0.0018058938
000030 95 1e 2b bb 56 9e d4 ba 50 09 42 bb 56 66 15 3b
       -0.0026110758 -0.0016221504 -0.0029607601 0.0022796593

encBlocks.1.BN2.running_mean f4 [16]
000000 5b a9 d9 bd ce 40 18 3d cb 8b 62 bc aa db 72 bc
       -0.10628005 0.037171178 -0.013827275 -0.01482288
000010 da f4 91 bd 20 8d 85 bc 34 fe 38 bd 6e 72 5f be
       -0.0712678 -0.016302645 -0.045164302 -0.21820995
000020 44 69 86 3d 7e 68 05 3e d4 c4 3d bd 98 d2 d9 3d
       0.065630466 0.13028142 -0.046330288 0.10635871
000030 64 02 6c 3e 18 52 29 3e aa 3a 32 3e 43 9a 75 be
       0.23047787 0.16535223 0.17405191 -0.23984627

encBlocks.1.BN2.running_var f4 [16]
000000 3d 89 fd 3e 60 af 00 3f ca f8 01 3f 57 4b 0b 3f
       0.49518767 0.502676 0.50770247 0.54411834
000010 5c 9e 21 3f 52 9b fe 3e df 56 fb 3e 31 4d 05 3f
       0.6313226 0.49727875 0.49089715 0.5207091
000020 41 09 00 3f e7 53 78 3f 94 fd fb 3e 3b 21 ff 3e
       0.5001412 0.97003025 0.49216902 0.4983004
000030 b2 3c 30 3f 71 dc 2b 3f 01 4c 30 3f a3 93 0f 3f
       0.68842614 0.6713324 0.6886597 0.5608465

encBlocks.2.conv1.weight f4 [1, 16, 15, 15]
000000 d1 de 8b bc 9b d5 bc ba 95 e2 8b bc 1d da b8 bb
       -0.01707402 -0.0014406921 -0.017075816 -0.0056412355
000010 32 b7 65 39 d9 98 a3 3b 23 a0 af bb 4b bb 2a bb
       0.00021907387 0.004992586 -0.005359666 -0.0026051577
000020 13 f1 ea ba 5b fc 31 bc 39 7b 6d 3c 58 ad a5 bb
       -0.0017924629 -0.010863389 0.014494711 -0.0050560646
000030 c3 ec 60 3c ed 12 5b bc f2 e5 23 bc f0 0b 9a bc
       0.013728323 -0.0133712115 -0.010003554 -0.01880452
000040 17 42 8b bc 42 b4 c6 bb 38 1e a9 3b 32 25 8f 3a
       -0.016999288 -0.006063969 0.005161073 0.0010921119
000050 d2 06 82 bb 3c ae 95 3b 32 c6 76 3c be 7c 62 3c
       -0.003968098 0.0045678895 0.015061902 0.013823686
000060 a4 5f b9 3b f5 da 7b 3b fd 3c 8f ba 9e 49 83 3c
       0.005657153 0.003843007 -0.001092821 0.016026314
000070 8f 83 92 3b fe 45 32 3b 67 02 0c 3c ae 13 64 3b
       0.0044712494 0.0027202363 0.008545495 0.003480177
000080 45 0a 56 bb a5 bd cc 3a c8 b2 22 bc 1f 73 ee 3b
       -0.003265993 0.0015620483 -0.00993032 0.007276907
000090 7c 9a 5f bc 18 97 b0 3b bf bc f8 3b 29 97 0d bc
       -0.013647672 0.0053891055 0.0075908597 -0.008641996
0000a0 9f ca 73 bc 42 a6 83 3c 9b 34 02 bc 4f 0e 77 3c
       -0.014879852 0.016070489 -0.007947112 0.015079095
0000b0 34 c8 b0 3a c7 7a fc bb a2 9a 6e 3c dd f3 83 bb
       0.00134874 -0.007705066 0.0145632345 -0.0040268735
0000c0 d5 91 90 3c 46 db 95 3a b5 d6 1d 3c 6e 83 13 bc
       0.017647663 0.0011433146 0.00963371 -0.009003503
0000d0 3c 5e 36 3c a2 26 3d bc 7b 46 13 3c 36 e4 50 bc
       0.011130866 -0.011544855 0.008988972 -0.012749722
0000e0 65 56 f6 3b c1 35 ec bb f2 97 62 3c aa 68 2b bc
       0.0075176232 -0.0072085564 0.013830172 -0.010461966
0000f0 48 d8 9e 3b a3 56 6a 3c 7b 04 4a 3c 2b a3 51 bb
       0.00484756 0.014302882 0.01233017 -0.0031988125
000100 bc ac 23 3b 2d 17 0d bb cf d9 00 3b 29 be b2 bb
       0.0024974784 -0.0021528706 0.0019661074 -0.0054547978
000110 f9 3b f5 3b f7 d1 07 3a df aa 9f b9 42 c5 4a bc
       0.007483956 0.00051811285 -0.00030454152 -0.0123761315
000120 3c cc c0 b8 1e 5a 34 3c 05 d1 7b bc 02 fc a0 ba
       -9.193315e-05 0.011007814 -0.015369658 -0.0012282135
000130 cc 8e 5d 3c 83 34 5c bc 4a b5 c4 3b 02 9f 11 bc
       0.013522815 -0.013440254 0.0060030567 -0.008888008
000140 31 39 54 3c 64 7d 69 bc 6a 99 5b 3b 7a 42 e0 bb
       0.012953089 -0.014251087 0.003350819 -0.006843862
000150 79 41 5e 3c c6 09 2d bc 03 07 58 bc a7 51 3a 3c
       0.013565415 -0.010561412 -0.0131852655 0.0113720065
000160 63 47 a7 3b 1e b6 c7 ba aa 76 84 3c e5 24 57 3c
       0.0051049455 -0.001523677 0.016169865 0.013131355
000170 5a fe 5c 3c 99 05 b6 bb 59 ba fc bb 00 f2 da bb
       0.0134883765 -0.0055548665 -0.007712644 -0.0066816807
000180 41 17 65 bc 41 92 70 3c d6 68 96 3b b2 66 34 3a
       -0.013982595 0.014683307 0.004590134 0.0006881758
000190 93 4e e6 bb 32 9e 64 bc 11 2f b4 bb a4 73 3d b9
       -0.0070284097 -0.013953732 -0.005498775 -0.00018067524
0001a0 c9 58 87 3b 25 1e 90 3c 81 7c 25 3b ca e0 26 bb
       0.004130457 0.017592499 0.0025251212 -0.0025463575
0001b0 68 1e f3 3b 30 ab 82 3b cc d8 23 bc e4 4f 85 3c
       0.007419396 0.0039876923 -0.010000419 0.016273446
0001c0 6a 21 66 3b 35 00 b5 bb ef 8c 17 3c 07 a2 f9 3a
       0.0035115131 -0.0055237063 0.00924991 0.001904548
0001d0 75 cb 97 3c 93 66 3b 3c 8c ae 1a 3c 58 4b 5d bc
       0.018529633 0.01143803 0.009441029 -0.013506733
0001e0 3e 53 6e 3c 65 dc c9 ba 91 ca 66 3c 9f 68 2a bc
       0.014546214 -0.0015400766 0.0140863815 -0.01040092
0001f0 d6 85 27 bc ca f3 3c bc 07 07 8a 3c 04 e6 77 3c
       -0.01022478 -0.011532733 0.016849054 0.015130524
000200 76 ba 35 bb 92 37 69 3c 58 5f b9 bb 94 4c 4f 3b
       -0.0027729548 0.01423444 -0.005657118 0.0031631337
000210 e0 f1 67 3c 49 b0 7d bc 24 6a 17 3c d0 d4 09 bc
       0.014156789 -0.015483924 0.0092416145 -0.008412555
000220 c7 12 8b 3c c2 79 25 ba 2e 73 23 bc 4e 5d 5b 3c
       0.016976727 -0.0006312394 -0.009976191 0.013388945
000230 65 42 75 bc 65 b6 1f bc 79 76 27 3c 7a 47 47 bc
       -0.014969443 -0.009748076 0.010221117 -0.012163037
000240 43 be ed bb ec ed 86 bb d4 c7 8f bb 3c e0 88 3c
       -0.007255347 -0.004117718 -0.004387835 0.016708486
000250 cf d6 12 ba c2 cf 84 3c af b4 7d bb c3 5f a4 3c
       -0.0005601467 0.016212348 -0.0038712432 0.020065194
000260 c7 0f 53 bc ce 64 5c bc 8f a8 ed 3b 3b d6 5d bb
       -0.01288218 -0.013451768 0.0072527598 -0.0033849615
000270 8b 7c 83 3c 23 21 dd 3b 8b e3 4a 3c 4f 47 36 3b
       0.016050598 0.006748335 0.012383352 0.00278135
000280 7c 6d 07 3c 7c c0 b7 bb 15 f8 d1 3b 6b 61 29 bc
       0.008265849 -0.0056076627 0.0064077475 -0.010338168
000290 36 24 0a bc d3 4f 07 bc 9e 97 68 3b da 37 37 bb
       -0.008431485 -0.008258778 0.0035490762 -0.0027956874
0002a0 8c 4e 16 3c 5e 5b 68 3b 11 1e 1d 3c 21 8a 88 3b
       0.0091740005 0.003545485 0.009589688 0.004166857
0002b0 05 03 ed bb 1d ff eb 3b 7c 13 6d bc 89 41 22 bc
       -0.007233026 0.0072020427 -0.0144699775 -0.00990332
0002c0 a1 1e 52 3c 06 71 24 3c 74 d0 56 bc 65 ae 89 3c
       0.012824685 0.0100367125 -0.013111223 0.01680679
0002d0 8c 43 28 3a 3f df 10 bc 1a ea aa 3a 8a dd 82 bb
       0.00064187567 -0.0088422885 0.0013039738 -0.0039936947
0002e0 a3 ec 18 3c bf 7f 92 3c 9f 03 9c b9 91 aa 42 3c
       0.009333762 0.01788318 -0.00029757337 0.0118814865
0002f0 4e ce 2d bc b2 89 ab bb 8b c9 26 3b 7b 0d 81 3c
       -0.010608269 -0.0052349204 0.0025449719 0.015753498
000300 ac e5 04 3c df d1 75 bc 53 4b 6d bb 98 b3 35 bb
       0.008111399 -0.01500365 -0.0036208227 -0.0027725454
000310 14 78 73 3a a7 d6 d4 3b 3b a9 29 bb e4 ad 12 bc
       0.00092876074 0.006495315 -0.0025888223 -0.008952592
000320 e1 08 55 bb 1a 1a 8b bb 65 1b 97 3b 72 0c 9a 3b
       -0.0032506513 -0.004245055 0.00461142 0.0047011906
000330 ad 33 24 bc c9 8e cb 3a 7a 94 41 3c a4 a1 93 3c
       -0.010022086 0.0015530224 0.011815185 0.018021412
000340 b9 af 72 3a ce 5e a8 3b c3 7f 28 bc 97 a4 b2 bb
       0.0009257752 0.0051382547 -0.010284367 -0.0054517495
000350 eb bb 7e 3c ef 4c de 3b c8 a7 b1 3b 39 5f 0e bb
       0.015547733 0.0067840735 0.0054216124 -0.0021724238
000360 ed 57 2d 3c 80 fc 2d 3c 93 de 7c 3c cf 5e bd 3b
       0.010580045 0.010619283 0.015433925 0.0057791243
000370 bb 8c df bb c2 be 0c 3c 76 e1 d4 3b 46 06 93 3c
       -0.0068221963 0.008590402 0.0064966036 0.017947327
000380 b8 92 b5 bb 30 63 dd 3b d5 65 f2 3b 28 e2 8c bb
       -0.005541172 0.006756209 0.007397393 -0.004299421
000390 76 6a fa 3b 23 d5 35 3b bd c0 52 3c 74 0e 01 3c
       0.0076420857 0.0027745448 0.012863335 0.007876981
0003a0 ce ab a5 3c 91 f3 52 3c 15 8f 99 3c 17 07 10 3b
       0.020223524 0.012875454 0.018744985 0.0021976882
0003b0 c4 7c 2b bc 24 c3 06 bb e0 56 33 3c 5e 13 c8 3b
       -0.010466758 -0.002056309 0.010946006 0.0061058244
0003c0 0f ee 2a bc aa d7 eb 3b a0 dc 6c 3b df 7a 54 3c
       -0.010432734 0.00719734 0.0036142245 0.012968748
0003d0 a0 c7 2a 3a ae 40 19 bc a3 22 fc bb 32 16 be bb
       0.0006514732 -0.0093538 -0.0076945587 -0.0058009857
0003e0 fa 76 a3 ba c7 37 74 3c 77 ce cd bb 31 b9 80 3c
       -0.0012471371 0.0149058765 -0.006280716 0.015713306
0003f0 cb 19 87 3c e3 0f a3 bb c6 0b d0 3b 69 64 8c 3c
       0.016491791 -0.004976259 0.0063490598 0.017137723

encBlocks.2.conv2.weight f4 [1, 1, 3, 3]
000000 7c 04 be bd 8a f1 57 3d fa a1 0f 3e 99 f3 46 be
       -0.09278199 0.052720584 0.14026633 -0.19428863
000010 99 09 7f 3e 5c 90 a2 3e 52 00 b4 bd 2f c6 9f 3d
       0.24906005 0.31750762 -0.087891236 0.078014724
000020 f1 7b fd bd
       -0.123771556
