Model_params/test_15_macro_best.pt (torch, 320551 bytes, 26 tensors)

encBlocks.0.conv1.weight f4 [16, 3, 15, 15]
0	0x3cb12f72	0.021629069
1	0xbd047933	-0.032342147
2	0xbd2459d5	-0.040124733
3	0x3cd59d2e	0.026075926
4	0xbc21fb6a	-0.009886602
5	0x3be47e10	0.0069730356
6	0xbc1abe7c	-0.009444829
7	0x3c2978f1	0.010343776
8	0x3cd82ab0	0.026387542
9	0xbcc86099	-0.024460124
10	0x3c40270e	0.011728061
11	0xbd22e509	-0.039769206
12	0xbc928596	-0.017885964
13	0xbd0e01d8	-0.034669727
14	0xbb88869f	-0.0041664387
15	0x3c8d2b25	0.017232487
16	0xbcb21cfc	-0.021742336
17	0xbba92b13	-0.0051626056
18	0xbd13caff	-0.036082264
19	0xbcfa0e18	-0.030524299
20	0x3c1deded	0.009639245
21	0xbca885f7	-0.020571692
22	0xbd0a6966	-0.033791922
23	0xbc679552	-0.014134722
24	0xbbed2747	-0.0072373482
25	0xbc312064	-0.010810945
26	0xbcb186b3	-0.021670675
27	0xbcb5a0b9	-0.022171365
28	0x3c89e91a	0.016834784
29	0xbccb6681	-0.024829151
30	0x3c99a180	0.018753767
31	0xbc865a96	-0.016400617
32	0xbc1174eb	-0.008877973
33	0x3cd5d4d7	0.026102467
34	0xbd0044aa	-0.031315483
35	0x3b40a773	0.0029396683
36	0x3c5c50bc	0.013446983
37	0xbbc5f1c7	-0.006040785
38	0xbce78cfc	-0.028265469
39	0xbce72030	-0.02821359
40	0xbd0b27d0	-0.033973515
41	0x3cb03dce	0.021513846
42	0x3cef9f79	0.029250847
43	0xbcc0be52	-0.023528252
44	0xbd1675c5	-0.036733408
45	0xbb9a6d2e	-0.0047127223
46	0xbc3a4fac	-0.011371534
47	0x3bfca4bb	0.007710067
48	0x3c5dffd1	0.013549761
49	0xbcf2dc4e	-0.029646065
50	0x3cb17ded	0.021666491
51	0x3cebf5ed	0.02880379
52	0x3c8e3bb1	0.017362447
53	0x3a2898ab	0.00064314407
54	0xbc9b01a9	-0.01892169
55	0x3c9cab68	0.019124702
56	0xbb46193e	-0.0030227448
57	0x3ab0024c	0.0013428419
58	0x3cd1a39c	0.02559071
59	0x3d0ac31c	0.033877477
60	0xbc0b5c1e	-0.008505849
61	0x3ca9687b	0.020679703
62	0x3ca3daf4	0.020001866
63	0xbb11c336	-0.00222416
64	0xbc6661ad	-0.014061374
65	0x3cbfe5f6	0.023425084
66	0xbc16f99b	-0.009214784
67	0xbd054681	-0.03253794
68	0xbcd5db97	-0.026105685
69	0xbcda450c	-0.026644252
70	0x3ae70580	0.001762554
71	0xbcf09955	-0.02936999
72	0xbd141a7f	-0.03615808
73	0xbcb31eb4	-0.021865226
74	0x3c8e7939	0.017391788
75	0xbc62fbc6	-0.013853973
76	0xbceeae83	-0.029135948
77	0x3bba6173	0.0056878864
78	0xbc7f0bd3	-0.015566784
79	0x3d19a0e0	0.037506938
80	0x3b664bbf	0.0035140363
81	0x3c886b06	0.016652595
82	0xbbef8087	-0.007309023
83	0xbbfb166c	-0.007662585
84	0xbbdf3579	-0.0068117944
85	0x3b3428b3	0.002749008
86	0xbcae2ef6	-0.021262627
87	0x3b9ee4d9	0.004849058
88	0x3cd54a2e	0.026036348
89	0x3cfae6ff	0.030627726
90	0xbb98529f	-0.004648521
91	0x3ce02450	0.027361065
92	0xbd1bbbdc	-0.038020954
93	0x3c877f0a	0.01654007
94	0xbd1bb55a	-0.038014747
95	0xbca0dcef	-0.0196366
96	0xbcf7fc9f	-0.030271826
97	0xbc36b067	-0.011150456
98	0x3d187477	0.037220445
99	0x3cd65038	0.026161298
100	0xbcbcba46	-0.02303804
101	0xbceafe07	-0.028685583
102	0x3d0b6921	0.034035806
103	0x3c76b3da	0.015057528
104	0x3d08993c	0.03334926
105	0xbc530a20	-0.012880832
106	0x3cfccc7e	0.030859228
107	0xbd05b892	-0.032646723
108	0x3c8d9daf	0.017287103
109	0x3a3d5a94	0.0007223275
110	0xbc215125	-0.0098460065
111	0x3d1164f9	0.035496686
112	0xbc9b73d5	-0.018976131
113	0xbc861bc9	-0.01637067
114	0xbd01a514	-0.03165157
115	0x3c82df07	0.015975488
116	0xbbe92835	-0.0071153888
117	0x3b6d26f1	0.003618654
118	0xbc5fbada	-0.013655389
119	0x3c041daf	0.008063718
120	0x3c3c452f	0.011491104
121	0xbb228b54	-0.0024802284
122	0xbb855e43	-0.0040700748
123	0x3c999be1	0.018751087
124	0xbcbcdab4	-0.023053505
125	0x3bdc0a2b	0.0067150793
126	0x3c2f8fd2	0.010715442
127	0x3caa8828	0.020816877
128	0x3cc2ed15	0.02379469
129	0x3c515732	0.012777137
130	0x3d1caf33	0.03825302
131	0x3c9804a3	0.018556898
132	0x3c697017	0.014247916
133	0x3d1944b2	0.03741903
134	0x3d091f37	0.033477034
135	0xbcb4aa2e	-0.022053804
136	0xbce0e5be	-0.0274533
137	0xbcef155a	-0.029184986
138	0x3c63246b	0.013863663
139	0x3d0e7170	0.03477615
140	0xbca50bef	-0.020147292
141	0xbcb75b56	-0.02238242
142	0xbc092d3f	-0.008372604
143	0x3cf43027	0.029808117
144	0x3cc27cf7	0.023741229
145	0xbce87216	-0.028374713
146	0x3d04e256	0.032442413
147	0xbcb76111	-0.022385152
148	0xbce73325	-0.02822263
149	0xbb0f1dda	-0.0021837861
150	0x3cab4034	0.020904638
151	0x3c0da1dc	0.008644547
152	0x3cdcfe05	0.026976595
153	0xbcbfe28b	-0.023423454
154	0xbcbbccc5	-0.02292479
155	0x3d0be629	0.034155045
156	0x3cdea3bb	0.027177682
157	0xbc76bb51	-0.015059308
158	0xbd0bc3d8	-0.034122318
159	0x3c169057	0.009189687
160	0x3cfbf827	0.030757977
161	0xbc70eb9e	-0.014704613
162	0x3c07f3cb	0.008297871
163	0xbbf2258e	-0.007389731
164	0xbc3469b4	-0.01101153
165	0xbcdca4dd	-0.026934082
166	0xbc7334e5	-0.014844154
167	0xbd071a1b	-0.03298388
168	0xbcaa1aff	-0.020764826
169	0x3c153a53	0.009108144
170	0xbcc50cfc	-0.024054043
171	0x3c3b7659	0.0114417905
172	0xbcb34fea	-0.021888692
173	0xbc39cebf	-0.011340796
174	0x3bbb625f	0.005718514
175	0x3cd17ebe	0.02557313
176	0x3cb2d779	0.021831261
177	0x3c2a8b4c	0.0104091875
178	0xbc2f5c22	-0.0107031185
179	0x3c718447	0.01474101
180	0x3ce24ad4	0.027623571
181	0xbcb2b61b	-0.02181535
182	0x3c8c9e75	0.017165402
183	0xbcedaaac	-0.029012047
184	0xbb2cf2b9	-0.0026389791
185	0x3c1a3275	0.009411444
186	0x3cd7c31f	0.026338158
187	0xbbc462db	-0.00599323
188	0x3c65a477	0.014016262
189	0x3cff0475	0.031130055
190	0xbc71b51b	-0.014752652
191	0xbd0f383e	-0.034965746
192	0xbd013f04	-0.031554237
193	0x3cf6b369	0.030114846
194	0xbc53ad00	-0.012919664
195	0xbcfdd367	-0.030984594
196	0x3c21830e	0.009857906
197	0x3cc9e870	0.024646968
198	0xbc1da48c	-0.009621751
199	0x3b6abe3c	0.0035818955
200	0x3cf78316	0.030213874
201	0xbcd16416	-0.02556042
202	0xbb4d34c1	-0.0031311961
203	0x3a27965f	0.00063929515
204	0x3d0de614	0.034643248
205	0x3b95e871	0.0045748283
206	0xbcde213d	-0.027115459
207	0x3bcbc091	0.006218024
208	0x3cf5174e	0.02991834
209	0x3c8d7793	0.017268931
210	0x3d15cb12	0.036570616
211	0xbc686a7f	-0.014185547
212	0x3c48d8b5	0.012258698
213	0x3cdee226	0.027207445
214	0xbac040b8	-0.0014667725
215	0x3c8fc7e5	0.017551372
216	0x3ce96650	0.02849117
217	0xbc2d0b0a	-0.010561714
218	0xbc71b52f	-0.01475267
219	0xbd1630ee	-0.036667757
220	0x3d0c72c1	0.034289125
221	0x3ce5a9a6	0.028034996
222	0xbc3a7696	-0.011380812
223	0x3c76d930	0.01506643
224	0xbc76d55d	-0.015065518
225	0xbd0a276e	-0.03372901
226	0xbcd8dcb2	-0.026472423
227	0xbc394176	-0.011307111
228	0xbb77ee24	-0.0037831152
229	0x3caf431b	0.021394303
230	0x3c14214d	0.009041143
231	0xbd0c93c0	-0.034320593
232	0xbc2b9060	-0.010471433
233	0xbb903a36	-0.0044014705
234	0xbc9efd5a	-0.019407917
235	0xbcbf61f3	-0.023362136
236	0xbd03171b	-0.032004457
237	0xbb578f25	-0.0032891717
238	0xbc81671c	-0.015796237
239	0xbd0e0868	-0.034675986
240	0x3c829dfb	0.015944472
241	0xbc4ade1f	-0.012382059
242	0xbd4ee52e	-0.05051153
243	0xbd50a73e	-0.050940745
244	0x3be32e0e	0.0069329804
245	0x3c915db9	0.017744886
246	0x3acf33b9	0.0015808261
247	0x3cdff3d5	0.027337948
248	0xbd102896	-0.035194956
249	0xbca6f4c9	-0.020380395
250	0xbb0c7942	-0.002143458
251	0xbcaa975e	-0.02082413
252	0x3d0cd71b	0.034384828
253	0xbcd192da	-0.02558272
254	0x3c7b0363	0.015320632
255	0xbaebbc30	-0.0017985161

encBlocks.0.conv1.bias f4 [16]
0	0x3c961fa4	0.018325634
1	0x3d18c911	0.037301127
2	0xbb51f566	-0.0032037138
3	0x3c5d57e7	0.013509727
4	0x3c20b336	0.009808352
5	0xbcc129b7	-0.023579462
6	0x3c0b915c	0.008518543
7	0xbd2b2c1d	-0.041790117
8	0x3c8172f8	0.015801892
9	0xbcaf35e4	-0.021388002
10	0xb976bcec	-0.00023530767
11	0x3b93e50b	0.004513388
12	0xbd2efa0d	-0.042718936
13	0x3cd6a04a	0.026199479
14	0xbb82ff67	-0.0039977315
15	0x3c8f02f3	0.017457461

encBlocks.0.conv2.weight f4 [16, 16, 3, 3]
0	0xbda139a6	-0.07872324
1	0xbc0673c1	-0.008206309
2	0x3d36e03a	0.044647433
3	0x3cb13869	0.021633344
4	0x3b4bc8ef	0.0031095108
5	0xbce4a7a3	-0.027911967
6	0xbd5277f7	-0.05138394
7	0x3b3a2bb7	0.0028407404
8	0xbd3f088b	-0.046639007
9	0x3cd8a76d	0.026447022
10	0x3cbba23d	0.02290451
11	0xbd1221fd	-0.035676945
12	0xbd4dca1f	-0.050241586
13	0x3b7e5450	0.0038807578
14	0x3d56f8d9	0.052483413
15	0x3d8f28bf	0.069901936
16	0xbc5d7b7c	-0.0135182105
17	0x3c2012ab	0.009770076
18	0xbda022f1	-0.078191645
19	0x3db051c1	0.08609343
20	0xbd8274fc	-0.06369969
21	0xbd6a6d65	-0.057233233
22	0x3da09b23	0.0784209
23	0xbd52ab8e	-0.05143314
24	0x3d95b238	0.07309383
25	0x3cd96535	0.026537517
26	0xbbcfdad5	-0.0063432255
27	0x3c483c79	0.012221449
28	0xbdab300e	-0.08358775
29	0x3d5d20b1	0.053986255
30	0x3cedd78e	0.029033449
31	0xbd99b046	-0.075043246
32	0x3c8047e4	0.01565928
33	0xbd61743d	-0.055042494
34	0xbcce070b	-0.025149843
35	0xbd1de0b6	-0.03854438
36	0x3d115810	0.035484374
37	0x3be2a9c3	0.00691721
38	0x3d830b85	0.063986816
39	0xbdb7950d	-0.08963976
40	0x3d4a4039	0.049377654
41	0xbdb42ba4	-0.08797386
42	0x3c7cc4f0	0.015427813
43	0x3d3dd577	0.046346154
44	0xbd8e9e8f	-0.069638364
45	0x3d80ad6e	0.06283079
46	0x3d07ded7	0.0331715
47	0xbbab1aa1	-0.0052216803
48	0xbd6e5315	-0.058184702
49	0x3c194cc6	0.009356683
50	0x3cd38c1f	0.02582365
51	0xbc25de90	-0.010123864
52	0x3d1ed1a3	0.038774144
53	0x3d0a2356	0.033725105
54	0x3daebd63	0.085322164
55	0x3c6f429c	0.014603283
56	0x3d9a06df	0.07520842
57	0xbd3633c4	-0.04448296
58	0x3d9bc606	0.07606129
59	0xbcaeea31	-0.021351906
60	0xbc157769	-0.009122708
61	0xbd58bbae	-0.05291336
62	0x3d827020	0.063690424
63	0x3d577b74	0.05260797
64	0xbd8c93b1	-0.068641074
65	0x3be9177c	0.0071133953
66	0xbd4d2aad	-0.050089527
67	0x3d3ace89	0.045607124
68	0x3daa891b	0.08326932
69	0x3d5fc1d0	0.054628193
70	0x3d81ecae	0.06343971
71	0x3cc12fc5	0.023582349
72	0x3c18f98a	0.0093368385
73	0x3b842bfa	0.0040335627
74	0xbd32a613	-0.043615412
75	0x3d0b3284	0.033983722
76	0x3da62e5d	0.08114312
77	0x3c742cd1	0.014903263
78	0x3d81695f	0.06318926
79	0x3c596c90	0.013270512
80	0xbd7d2f66	-0.06181278
81	0x3bb876e9	0.0056294096
82	0xbcde0eac	-0.027106605
83	0x3d841432	0.064491645
84	0xbd1a70bb	-0.037705164
85	0x3c763584	0.015027408
86	0x3c61d36d	0.013783318
87	0x3d9f77b2	0.07786502
88	0xbd856384	-0.06513122
89	0xbcd9b3b4	-0.026574947
90	0x3d00148c	0.031269595
91	0xbcaa555a	-0.020792652
92	0x3d49d397	0.049274053
93	0x3cc8207f	0.024429558
94	0x3d3a0a69	0.045420084
95	0x3d22b466	0.039722823
96	0xbcf8927e	-0.03034329
97	0xbd1d0e70	-0.038343847
98	0xbcf9b0ac	-0.030479752
99	0xbce882b1	-0.028382631
100	0x3d0a6723	0.033789765
101	0xbda89f8e	-0.08233558
102	0x3d3e5bce	0.04647427
103	0x3cae125d	0.02124899
104	0xbd8574c2	-0.065164104
105	0x3cf49eb5	0.029860834
106	0xbd76247a	-0.06009338
107	0xbcd3d4ac	-0.025858246
108	0xbcc441d5	-0.023957172
109	0x3d9ce8c4	0.07661584
110	0x3d138e5c	0.036024436
111	0x3ae1d0fa	0.0017228418
112	0xbd716fc8	-0.058944494
113	0x3bbbfeb2	0.005737149
114	0x3d829922	0.06376864
115	0xbd915172	-0.070956126
116	0x3c3920c6	0.011299318
117	0xbd291c13	-0.04128654
118	0xbd3a4d99	-0.04548416
119	0x3d8a963d	0.06766937
120	0xbd391637	-0.0451872
121	0xbc191568	-0.009343483
122	0x3d2a0159	0.04150519
123	0x3da5b8cc	0.08091888
124	0xbd949bf0	-0.07256305
125	0x3caea345	0.021318087
126	0xbc5495f8	-0.012975208
127	0x3d586ea1	0.05283988
128	0x3cbaeab2	0.02281699
129	0x3d6395a9	0.05556265
130	0xbd9a2ab4	-0.07527676
131	0xbd45a334	-0.048251346
132	0x3c95aaca	0.018269915
133	0xbc61639e	-0.013756661
134	0xbd1f837d	-0.038943756
135	0x3cec5061	0.028846921
136	0x3d145307	0.036211994
137	0x3d1f3334	0.03886719
138	0xbd2e7478	-0.042591542
139	0x3d881b63	0.066458486
140	0xbd046c75	-0.032329995
141	0x3cd0d7d7	0.025493545
142	0x3da22a55	0.079182304
143	0x3d13a96c	0.036050245
144	0x3d2c42e8	0.042055994
145	0x3c3e7289	0.011623987
146	0x3d8322b0	0.064031005
147	0xbcc3afea	-0.023887593
148	0x3d7eee7d	0.06223916
149	0x3d2246d4	0.03961833
150	0x3d5051c1	0.050859217
151	0x3da077ef	0.078353755
152	0x3d2e2132	0.042512126
153	0x3ce79e48	0.028273717
154	0x3cd849ab	0.026402315
155	0xbd818473	-0.06324091
156	0x3dac1233	0.08401909
157	0xbcd34c43	-0.0257932
158	0x3db3101a	0.087433055
159	0x3d0693b5	0.03285571
160	0xbd842c1d	-0.064537264
161	0x3d888e9d	0.06667826
162	0x3da6a258	0.08136433
163	0xbd87c0c7	-0.06628566
164	0x3b5908a5	0.0033116725
165	0x3d8ee4a0	0.069772005
166	0xbb42b575	-0.0029710208
167	0x3bfc400f	0.007698066
168	0x3bba36e1	0.0056828116
169	0x3d5ee21c	0.054414853
170	0xbca72933	-0.020405388
171	0x3a4fa2da	0.000792069
172	0x3d1b086d	0.037849832
173	0xbd67e2df	-0.056612846
174	0x3d2397bd	0.03993963
175	0x3c970d2c	0.018438898
176	0x3c1bb83d	0.009504375
177	0x3d0e4fe7	0.03474417
178	0xbd2992a0	-0.041399598
179	0x3c1d8b67	0.009615756
180	0xbd99b6f9	-0.075056024
181	0x3d6bfdd9	0.057615135
182	0x3c166476	0.009179225
183	0xbba9bd48	-0.005180035
184	0xbd2f15e8	-0.0427455
185	0x3c96abdf	0.018392501
186	0x3c004944	0.007829968
187	0xbd0dd4af	-0.03462666
188	0x3b8aff6a	0.0042418735
189	0xbc7ac344	-0.015305344
190	0xbc718f38	-0.014743619
191	0x3cf1f6c5	0.029536614
192	0x3b429fc0	0.002969727
193	0x3d96619b	0.073428355
194	0x3da7aa2e	0.08186756
195	0xbd2c3e84	-0.042051807
196	0xbd805cf6	-0.06267731
197	0xbd84d698	-0.06486243
198	0xbd5cb62a	-0.053884663
199	0xbd970604	-0.07374194
200	0xba0c70ed	-0.00053574034
201	0xbd9a1706	-0.075239226
202	0xbd0c92fb	-0.03431986
203	0x3d0f9585	0.035054702
204	0xbdb4a421	-0.088203676
205	0xbd81d33a	-0.063391164
206	0xbd8f5814	-0.069992214
207	0x3d44904e	0.047989182
208	0xbd3151f4	-0.043291047
209	0x3bb8db0a	0.005641346
210	0x3b4424b4	0.0029929103
211	0x3d89a9c7	0.067218356
212	0xbcf4d86b	-0.029888352
213	0x3ceae349	0.028672831
214	0xbd748c38	-0.059704036
215	0x3d143eca	0.036192693
216	0xbd361a21	-0.044458512
217	0x3d9c22c8	0.076238215
218	0x3da36df9	0.0797996
219	0x3bcc4a6b	0.0062344573
220	0x3b36e6ff	0.002790868
221	0xbd197276	-0.037462674
222	0x3d8da673	0.06916513
223	0x3d1fd308	0.039019614
224	0xbd5496fc	-0.051901802
225	0x3d790ab0	0.060801208
226	0xbd661cd4	-0.056179836
227	0xbb23c07a	-0.002498655
228	0xbbbb4afb	-0.0057157255
229	0x3d639f88	0.055572063
230	0xbcb551a1	-0.02213365
231	0xbd8e83ee	-0.06958757
232	0xbd959c04	-0.07305148
233	0x3c85b2d8	0.01632063
234	0x3d3abe85	0.04559185
235	0xbd954c40	-0.07289934
236	0xbd8e14a9	-0.06937534
237	0x3d63411f	0.055482026
238	0xbd012971	-0.031533662
239	0xbdb0f67f	-0.086407654
240	0xbcd44862	-0.025913421
241	0x3d7a5a01	0.06112099
242	0x3cd5ad96	0.026083749
243	0x3cd99cc0	0.026564002
244	0xbd8a8b85	-0.067648925
245	0x3d743a27	0.05962577
246	0x3d5f685e	0.05454289
247	0x3d1525e0	0.036413074
248	0xbc8b5f05	-0.017013082
249	0x3c09c743	0.008409324
250	0x3c5405ca	0.012940833
251	0x3d189f2b	0.03726117
252	0x3c84d6a9	0.01621564
253	0x3d13479b	0.03595696
254	0x3d172a5b	0.036905628
255	0xbd1d4b74	-0.038402036

encBlocks.0.conv2.bias f4 [16]
0	0x3d469c71	0.048489038
1	0xbd818e52	-0.063259736
2	0xbbda33e9	-0.00665902
3	0x3c296838	0.010339789
4	0xbd8c4c0c	-0.06850442
5	0x3b9bc475	0.004753644
6	0x3ce1af0f	0.027549295
7	0x3cca5c73	0.024702286
8	0xbd19dd41	-0.03756452
9	0x3dbb37c3	0.09141495
10	0xbd35265b	-0.04422603
11	0x3c457139	0.01205092
12	0x3d522768	0.051307112
13	0xbdb667f2	-0.08906545
14	0xbc9f9927	-0.019482208
15	0xbd93c264	-0.072148114

encBlocks.0.BN1.weight f4 [16]
0	0x3f8116ca	1.008508
1	0x3f7b70f0	0.98219204
2	0x3f7f2024	0.9965842
3	0x3f7b3d48	0.9814038
4	0x3f8116ea	1.0085118
5	0x3f815cad	1.0106407
6	0x3f7e56e6	0.99351346
7	0x3f82ad57	1.0209149
8	0x3f81f412	1.0152609
9	0x3f7c8740	0.98643875
10	0x3f7e77d3	0.9940159
11	0x3f7f5b8b	0.9974906
12	0x3f801b6b	1.0008367
13	0x3f7ee48d	0.9956749
14	0x3f7cee6b	0.98801297
15	0x3f7db25e	0.9910029

encBlocks.0.BN1.bias f4 [16]
0	0xbb929303	-0.0044730916
1	0xbcfdcdf1	-0.03098199
2	0xbcac8c98	-0.021063134
3	0xbc36a123	-0.011146816
4	0x3b9ac491	0.0047231396
5	0x3c849047	0.016182078
6	0x3b673cc4	0.0035284022
7	0xbbea47f0	-0.007149689
8	0xbca46587	-0.020067943
9	0xbcc12f1e	-0.023582038
10	0x3c86c43c	0.016450994
11	0xbc87deb4	-0.016585685
12	0xbc068689	-0.008210787
13	0x3ba8da57	0.0051529813
14	0x3c2f7959	0.010710084
15	0x3bbf39d2	0.00583575

encBlocks.0.BN1.running_mean f4 [16]
0	0xc01442ba	-2.3165727
1	0x3f7891c6	0.9709743
2	0x3f5f6b5a	0.8727318
3	0xbf7e9b97	-0.9945616
4	0xc005ca28	-2.0904636
5	0xbf045f96	-0.5170835
6	0x3fc442ef	1.5332927
7	0x3fdee65c	1.741405
8	0x3e35fb0b	0.17771547
9	0xbe8d162f	-0.27555987
10	0x3fe868cf	1.8156985
11	0x3f276de8	0.6540208
12	0xbe8ebcac	-0.2787832
13	0x3ff2b61b	1.8961824
14	0x3fc44142	1.5332415
15	0x3fa925b0	1.3214626

encBlocks.0.BN1.running_var f4 [16]
0	0x3fcf223f	1.6182326
1	0x3eb0a5b5	0.34501424
2	0x3e9cab7c	0.30599582
3	0x3ea87707	0.3290331
4	0x3fa99e80	1.3251495
5	0x3e5cd38d	0.21565075
6	0x3f37836f	0.71684927
7	0x3f86de19	1.0536529
8	0x3e066719	0.13125266
9	0x3da1e28c	0.079045385
10	0x3f7f7153	0.99782294
11	0x3e36c341	0.17847921
12	0x3d90ed48	0.07076508
13	0x3f848e20	1.0355873
14	0x3f35c99b	0.7101075
15	0x3f063b76	0.5243448

encBlocks.0.BN2.weight f4 [16]
0	0x3f816a1d	1.0110508
1	0x3f7da9e6	0.9908737
2	0x3f811345	1.0084006
3	0x3f80f03a	1.0073311
4	0x3f7ee1e4	0.9956343
5	0x3f80d04f	1.0063571
6	0x3f7c8655	0.98642474
7	0x3f814530	1.0099239
8	0x3f7d5499	0.9895721
9	0x3f7ea125	0.9946464
10	0x3f812b7b	1.0091394
11	0x3f806fe6	1.0034149
12	0x3f7e68ea	0.99378836
13	0x3f7be340	0.9839363
14	0x3f7eed70	0.9958105
15	0x3f805a44	1.0027547

encBlocks.0.BN2.bias f4 [16]
0	0x3d5f28a2	0.05448211
1	0x3d83de1f	0.064388506
2	0xbd884429	-0.066536255
3	0xbd6258f8	-0.05526063
4	0xbd638f1b	-0.055556398
5	0x3d676a85	0.05649807
6	0x3d7e520a	0.062089957
7	0x3d88d14e	0.06680547
8	0x3c846736	0.016162496
9	0x3c35b58c	0.011090647
10	0x3db2be2c	0.08727679
11	0xbd28b6b6	-0.04118987
12	0x3d92b5b9	0.07163567
13	0xbd25736b	-0.040393274
14	0x3d203603	0.03911401
15	0x3d7c997f	0.061669823

encBlocks.0.BN2.running_mean f4 [16]
0	0x3e8e4f3a	0.2779482
1	0x3d850e1e	0.06496833
2	0xbe6eeb4f	-0.2333195
3	0x3c2f96f4	0.010717142
4	0xbeb9150b	-0.36148867
5	0x3e4d6efa	0.20061865
6	0x3e7f894e	0.24954721
7	0x3ec8574b	0.391291
8	0xbf31ff17	-0.6952986
9	0x3e35e67e	0.17763707
10	0x3ee74c06	0.4517519
11	0x3cecfd81	0.028929474
12	0x3e221bcb	0.15830915
13	0x3ec3e4b7	0.38260433
14	0x3d950760	0.07276797
15	0x3da4e7a9	0.08051998

encBlocks.0.BN2.running_var f4 [16]
0	0x3e78b438	0.24287498
1	0x3da7b4f6	0.081888124
2	0x3e458de8	0.19292414
3	0x3dacc610	0.08436215
4	0x3e1ce706	0.15322503
5	0x3e0ec483	0.13942151
6	0x3e3b2d3b	0.18278973
7	0x3e3c80c7	0.184085
8	0x3eb6157d	0.3556327
9	0x3e4dab3d	0.20084853
10	0x3eb25e5f	0.34837624
11	0x3f4520eb	0.77003354
12	0x3f1e301f	0.61792177
13	0x3ed9cc77	0.42538807
14	0x3e2c43c6	0.16822729
15	0x3e3a8133	0.18213348

encBlocks.1.conv1.weight f4 [16, 16, 15, 15]
0	0x3c9b2761	0.018939676
1	0x3bdbe5c2	0.006710739
2	0xbb8fea30	-0.004391931
3	0x3c7b36de	0.015332906
4	0x3bf526cf	0.007481433
5	0x3abfe383	0.0014639947
6	0xbb95ee0b	-0.004575496
7	0xbc35f84c	-0.011106562
8	0xbc6375d3	-0.013883072
9	0xbc21ef95	-0.009883781
10	0xbbbae192	-0.0057031596
11	0x3c53d58c	0.0129293315
12	0xbc1e8327	-0.009674824
13	0x3a846744	0.0010101576
14	0xbc3a6ece	-0.011378957
15	0xbb06199b	-0.002046204
16	0x3c89458a	0.016756792
17	0x3c913aea	0.017728288
18	0xbabd66ec	-0.0014450229
19	0xbbf002c8	-0.0073245503
20	0xbb8e95dc	-0.0043513607
21	0xbc6fb7ac	-0.014631193
22	0xbc745b41	-0.014914335
23	0xbc0aa7ac	-0.008462828
24	0xbc36f8a1	-0.011167676
25	0x3c322536	0.01087313
26	0xbb68ea4f	-0.003554005
27	0xbbd923ce	-0.0066265827
28	0x3c4afd6c	0.012389522
29	0xbbd8bd69	-0.0066143763
30	0xbb9d5b81	-0.004802168
31	0x3c47f265	0.012203787
32	0xbc26537c	-0.01015174
33	0x3c40284a	0.011728356
34	0xbbe6335c	-0.0070251655
35	0xbc7e8f0a	-0.015537033
36	0xbb38ecb3	-0.0028217256
37	0xbc90d72c	-0.017680727
38	0x3baad439	0.005213287
39	0xbc7c4896	-0.015398165
40	0x3c3fd68d	0.011708868
41	0xba5a5ac8	-0.00083295675
42	0x3a9ca5bb	0.0011951247
43	0x3c6eca3a	0.014574582
44	0xbb99f1ba	-0.0046980055
45	0x3c739047	0.014865941
46	0x3ca5ec42	0.020254258
47	0x3c2f8d2a	0.0107148085
48	0x3c99bd25	0.018766949
49	0x3ab658ea	0.0013911997
50	0xbc65ed4e	-0.014033629
51	0x3b9af932	0.0047294134
52	0x39ea3b66	0.00044676213
53	0xbc501727	-0.012700832
54	0x384f4590	4.941743e-05
55	0xbc926422	-0.017870013
56	0xbc1d5cbe	-0.009604631
57	0xbc03a743	-0.008035484
58	0x3c4001d9	0.0117191905
59	0xbb12c538	-0.0022395384
60	0xbbb2e218	-0.0054590814
61	0x3bc9b157	0.0061551738
62	0xbb3976d0	-0.0028299578
63	0x3c46a792	0.012124913
64	0x3c782e62	0.015147777
65	0xbc836fc4	-0.016044505
66	0xb91a1a74	-0.00014696439
67	0xbc440aee	-0.011965496
68	0x3c674cdd	0.014117447
69	0x3ba0f5d0	0.0049121156
70	0xbc206c0e	-0.009791387
71	0xbbbc1aca	-0.005740498
72	0xbc722c7f	-0.0147811165
73	0x3bffe781	0.00780958
74	0xbbfaaf27	-0.0076502743
75	0xbc8ac363	-0.01693887
76	0x3c350e0a	0.01105071
77	0xbb92d7c1	-0.0044812863
78	0x3bd38eb4	0.0064562205
79	0x3b8e6797	0.004345845
80	0x3c5219ba	0.0128235165
81	0x3c03c4fd	0.008042571
82	0x3b76d1f0	0.0037661754
83	0x3bf2d5a2	0.007410721
84	0x3bdd2d3d	0.0067497776
85	0xbc56c4f0	-0.013108477
86	0xbc23ea9d	-0.010004667
87	0x3bf555dc	0.007487042
88	0xbb927d12	-0.004470476
89	0x3bb76359	0.00559656
90	0x3c64475e	0.013933031
91	0x3c1619ee	0.009161456
92	0x3c9d2720	0.019183695
93	0x3be14b0f	0.0068754028
94	0x3c792415	0.0152063565
95	0xbc059049	-0.008152076
96	0xbc273abc	-0.010206874
97	0xbc9d2339	-0.019181835
98	0xbc4cbc8f	-0.012496128
99	0xbab9bced	-0.0014170684
100	0xbc3e1b2c	-0.011603158
101	0x3a7f1e99	0.00097320374
102	0xbc6148ec	-0.013750296
103	0xbc413c41	-0.011794151
104	0x3c3048af	0.010759517
105	0xbb64ca2b	-0.003491054
106	0xbc1ea552	-0.00968297
107	0x3c9402fa	0.018067826
108	0x3c010dc2	0.007876815
109	0xbc2387c8	-0.009981103
110	0x3c26aea0	0.01017347
111	0xbb25272b	-0.0025200348
112	0xbbc3d712	-0.005976566
113	0x3c11fe84	0.008910779
114	0x3bb22b59	0.0054372963
115	0xbb9f753d	-0.004866271
116	0xbc1d0292	-0.009583132
117	0x3c622c04	0.013804439
118	0x3a2a3519	0.00064928975
119	0xbb2d67db	-0.0026459608
120	0xbc5a3a16	-0.013319513
121	0x3b8f9880	0.004382193
122	0xbc50d6a9	-0.0127464915
123	0x3c876dd9	0.016531872
124	0x3c2a9d6c	0.010413509
125	0xbbe7c771	-0.007073336
126	0x3c464c84	0.012103204
127	0x3bba99c0	0.005694598
128	0x3b88ce7d	0.004175006
129	0xbc68bafb	-0.014204736
130	0x3bbb2afe	0.005711912
131	0xbb133260	-0.0022460446
132	0x3c84d494	0.016214646
133	0x3c84c3c5	0.016206631
134	0x3c600e2e	0.013675256
135	0x3c8ee357	0.017442388
136	0x3cbb3b60	0.02285546
137	0x3b1357a9	0.002248267
138	0x3c453962	0.012037607
139	0x3c3ffae1	0.011717529
140	0x3c945117	0.018105073
141	0xbb7e6a1a	-0.0038820566
142	0x3c242e43	0.010020795
143	0xbc22d778	-0.009939067
144	0xbbaa9f43	-0.0052069738
145	0x3c83b79f	0.016078768
146	0xb9b53f88	-0.00034570345
147	0x3c2d500d	0.010578168
148	0xbbd4c365	-0.0064930194
149	0x3c8dded0	0.01731816
150	0xbc10061f	-0.008790522
151	0xbc2ff89d	-0.010740426
152	0x3b33a01f	0.0027408672
153	0xbba46313	-0.0050166934
154	0xb9bb7ba8	-0.0003575955
155	0x3c88c2d6	0.016694468
156	0x3b5df7a1	0.0033869522
157	0xbc7da47e	-0.0154811125
158	0x3c051330	0.00812225
159	0x3bf2ff83	0.0074157133
160	0x3c8aa028	0.016922072
161	0x3c671e3d	0.01410633
162	0x3c8c8e66	0.017157745
163	0x3b24bb7a	0.0025136159
164	0x3ccfe05a	0.025375534
165	0x3aee7d74	0.0018195347
166	0x3c0e4f5f	0.008685916
167	0x3cd301b2	0.025757644
168	0x3c05b4b0	0.008160755
169	0xba650204	-0.0008735957
170	0x3c9d9840	0.019237638
171	0x3a0ec8d2	0.00054467947
172	0xbbbead20	-0.005818978
173	0xbb9dadb4	-0.004811967
174	0xbbf7834e	-0.0075534945
175	0x3c4210c2	0.011844816
176	0x3c6aa816	0.014322301
177	0xbb8ab212	-0.0042326534
178	0xbc029e54	-0.007972319
179	0x3cd98955	0.026554743
180	0x3c458836	0.012056401
181	0x3c4fe74a	0.012689421
182	0x3ab20625	0.0013582153
183	0x3c38cc15	0.011279126
184	0x3cbe5816	0.023235362
185	0x3b6affdd	0.0035858073
186	0x3c7a771a	0.015287185
187	0x3c448fee	0.011997206
188	0x3c540d89	0.01294268
189	0xbb32743d	-0.0027229928
190	0x3ca7e2d5	0.020493904
191	0x3cca1a23	0.024670666
192	0x3ab0e1d6	0.0013495039
193	0x3ce109cb	0.02747049
194	0x3b9e1ccf	0.0048252116
195	0xbbb4f212	-0.005522021
196	0x3caecfe0	0.021339357
197	0xbc1ee564	-0.009698246
198	0x3c6a7f64	0.014312599
199	0x3cb79e84	0.022414453
200	0xbb4f98e3	-0.003167682
201	0x3bb4b5c7	0.0055148336
202	0xba748701	-0.00093279785
203	0xbb74954d	-0.0037320436
204	0x3bd90a8b	0.0066235713
205	0xba6f9f98	-0.0009140908
206	0x3b8f0882	0.004365028
207	0x3be835da	0.0070864977
208	0x3be79b5e	0.0070680818
209	0x3c6d1bbd	0.014471945
210	0x3c02215d	0.007942525
211	0x3c9f7422	0.019464556
212	0x3c0a5876	0.008443942
213	0x3be089dd	0.006852372
214	0xbc21ded8	-0.00987979
215	0x3ca44424	0.020052023
216	0x3c787435	0.015164425
217	0x3c80a19c	0.015702061
218	0x3bfa47e2	0.0076379636
219	0x3cc75251	0.024331244
220	0x3bfa6eef	0.007642619
221	0x3cbf6f9a	0.023368645
222	0x3970e2a6	0.00022972617
223	0xb97b9a8c	-0.00023994799
224	0x3bcc6d7c	0.0062386375
225	0xbcc5df48	-0.02415432
226	0xbbd6d250	-0.006555833
227	0xbcae5ce6	-0.021284532
228	0x3b8c88c7	0.004288766
229	0xbcf2c403	-0.029634481
230	0x381aac5c	3.6876983e-05
231	0xbc9f2227	-0.019425465
232	0xbbb6620d	-0.005565888
233	0xbc4e6e27	-0.012599505
234	0xbb506c4c	-0.0031802831
235	0xbb49fd37	-0.0030821094
236	0xbb3ed5de	-0.0029119174
237	0xbc65632a	-0.014000693
238	0xbc0b33ca	-0.008496234
239	0xbaa77f9c	-0.001277912
240	0xbcb82549	-0.022478716
241	0xbce26a1d	-0.02763849
242	0x3b8f1d27	0.004367489
243	0x38591ef2	5.176565e-05
244	0x3b157ce8	0.0022810046
245	0x3b15a768	0.0022835378
246	0xbb351991	-0.0027633647
247	0xbcc57ce9	-0.024107413
248	0xbc86a063	-0.0164339
249	0xbcb5eb7a	-0.02220701
250	0xbae0df4c	-0.0017156391
251	0xbb1efcd7	-0.002425959
252	0xbc6fca79	-0.014635676
253	0xbbba189b	-0.0056792027
254	0xbbb71625	-0.0055873566
255	0xbc141af9	-0.009039634

encBlocks.1.conv1.bias f4 [16]
0	0xbbb95170	-0.00565546
1	0x3c028a43	0.0079675345
2	0xbc3cea5f	-0.011530488
3	0x3b02926e	0.0019923705
4	0x3c8faf08	0.017539516
5	0xbc989e3c	-0.01863014
6	0xbc6eb764	-0.014570091
7	0x3b33e24f	0.0027448123
8	0xbc8d8e33	-0.01727972
9	0x3c703694	0.01466145
10	0x3c7f5186	0.015583402
11	0x3a78b8fd	0.00094880146
12	0x3b0ab874	0.0021167072
13	0x3aee4ef2	0.0018181487
14	0x3c2e3c8c	0.010634553
15	0xbafced5e	-0.0019296815

encBlocks.1.conv2.weight f4 [16, 16, 3, 3]
0	0xbd88062c	-0.06641802
1	0x3d09e7b8	0.03366825
2	0x3cebd3d5	0.028787533
3	0x3d8259a0	0.06364751
4	0x3cde0141	0.027100207
5	0xbd8e47ce	-0.069472894
6	0xbcfa7226	-0.030572008
7	0xbd8e25b8	-0.06940788
8	0xbcf5e59b	-0.030016711
9	0x3da2ff01	0.079587944
10	0xbcfcec17	-0.030874295
11	0x3c7421be	0.014900623
12	0xbbf9efa5	-0.007627445
13	0x3cdb1572	0.026743624
14	0xbd86f9c2	-0.06590606
15	0x3cd59b6d	0.02607509
16	0xbd91520a	-0.07095726
17	0xbd180637	-0.037115302
18	0xbd65ee90	-0.056135714
19	0x3aec4f28	0.0018028961
20	0x3c980d19	0.018560933
21	0xbb3d9370	-0.002892699
22	0xbd50c9e6	-0.050973795
23	0xbd6a50d5	-0.057205994
24	0xbd010410	-0.031498015
25	0xbd9f3e29	-0.07775528
26	0xbbbd874e	-0.005783952
27	0xbd485cc6	-0.0489166
28	0x3d415384	0.047198787
29	0xbbd7d1f0	-0.006586306
30	0x3d9e61ca	0.077334955
31	0x3d382787	0.04495957
32	0x3d30a2eb	0.04312412
33	0x3d81ac77	0.06331723
34	0xbd20816c	-0.039185926
35	0xbd8593a2	-0.06522299
36	0xbd86e2c7	-0.06586223
37	0xbd4565d1	-0.048192803
38	0xbd95c3be	-0.073127255
39	0x3d2862fa	0.041110016
40	0xbd45c8a5	-0.048287053
41	0xbd60550c	-0.054768607
42	0xbd62bb85	-0.055354614
43	0x3d178d40	0.03699994
44	0x3d5fc2fc	0.05462931
45	0x3c84649b	0.016161254
46	0x3d8d5a23	0.06901958
47	0xbd4a7fc3	-0.04943825
48	0xbc8a4b73	-0.01688168
49	0xb9f76388	-0.00047185668
50	0x3cb95ad9	0.022626327
51	0xbd2abf98	-0.041686624
52	0xbdac1a7c	-0.08403489
53	0xbd410573	-0.047124337
54	0x3cc2d750	0.02378431
55	0xbcdec7fa	-0.027194966
56	0xbd2dd0af	-0.042435344
57	0x3d5d9b39	0.05410311
58	0xbc94489d	-0.018101031
59	0xbd42619d	-0.047456373
60	0x3d191d5a	0.037381507
61	0x3d84aca4	0.06478241
62	0xbd5399d3	-0.05166037
63	0x3d94cdba	0.07265802
64	0x3da093e2	0.078407064
65	0xbd6e3a1c	-0.058160886
66	0x3d1e3a09	0.038629565
67	0x3d322c27	0.04349914
68	0x3d593b7a	0.053035237
69	0xbd650ede	-0.05592238
70	0xbcafe8c9	-0.021473305
71	0xbd5fa3f4	-0.054599717
72	0xbbe193d4	-0.0068840776
73	0x3ca9b9c6	0.020718466
74	0xbd7257d7	-0.0591658
75	0xbd5b97d1	-0.05361158
76	0x3d490191	0.04907376
77	0xbc35c925	-0.01109532
78	0xbd4aa82d	-0.04947679
79	0x3d20632f	0.03915709
80	0x3d7d4ea3	0.061842572
81	0xbd8d837b	-0.069098435
82	0xbc99b5fc	-0.018763535
83	0x3d4a5d1e	0.04940521
84	0x3cf5d755	0.030009905
85	0xbdbb8f3e	-0.09158181
86	0xbd747f56	-0.05969175
87	0xbd69e90f	-0.057107028
88	0x3d63f9b2	0.05565805
89	0x3c996b79	0.018728005
90	0x3d27deab	0.040983837
91	0x3da47633	0.08030357
92	0x3d85b5ae	0.06528793
93	0xbdb81be5	-0.089896955
94	0xbd90f90a	-0.070787504
95	0x3d4744f5	0.048649747
96	0xbc24acec	-0.010050993
97	0x3da77ee7	0.081785016
98	0x3c4464f3	0.011986959
99	0xbc846a84	-0.016164072
100	0x3d0f023e	0.034914248
101	0xbaf58cd3	-0.0018733985
102	0x3d85c404	0.06531528
103	0xbca0728c	-0.01958587
104	0xbc16e485	-0.009209757
105	0xbd375af2	-0.044764467
106	0x3d518766	0.051154517
107	0xbdbc9e5c	-0.09209892
108	0x3d0c11e7	0.03419676
109	0x3ccefa6a	0.025265891
110	0xbc8e0c58	-0.01733987
111	0x3d39356d	0.045216966
112	0xbd8cff53	-0.06884637
113	0xbcb054ae	-0.021524753
114	0x3c815400	0.015787125
115	0xbd5926db	-0.05301557
116	0x3d0c2887	0.034218337
117	0xbd4db770	-0.050223768
118	0xbc274ba9	-0.01021091
119	0x3d128823	0.03577436
120	0x3d84bd6f	0.06481444
121	0xbd32694b	-0.043557446
122	0xbd37ee4f	-0.044905003
123	0xbd51642f	-0.051120933
124	0xbce1d6b3	-0.027568197
125	0x3cb53936	0.022122007
126	0x3ceed703	0.02915526
127	0x3dad7604	0.08469775
128	0xbd6566ce	-0.056006245
129	0xbd635e05	-0.055509586
130	0x3d857f3e	0.0651841
131	0xbd950dd1	-0.07278026
132	0x3d6bbfc2	0.05755592
133	0xbd89a723	-0.06721332
134	0xbc3b73c7	-0.011441178
135	0xbd53255a	-0.051549293
136	0x3dac7816	0.08421342
137	0xbd3dfa9d	-0.04638158
138	0xbd25f409	-0.040515933
139	0x3cd562e4	0.026048131
140	0x3b81c555	0.0039602914
141	0xbd4e4b97	-0.050365057
142	0xbd5058d2	-0.050865956
143	0x3d5eeabf	0.05442309
144	0x3c3b90c0	0.011448085
145	0xbd2568e6	-0.040383242
146	0xbc6ffe24	-0.014647994
147	0x3d754ada	0.059885837
148	0x3d66b3ca	0.056323804
149	0xbc7c5e1d	-0.015403298
150	0xbd0743c9	-0.03302363
151	0x3d73062a	0.05933205
152	0xbc2daf64	-0.010600898
153	0xbd94d217	-0.07266634
154	0xbca0c93f	-0.019627212
155	0xbd5d5d05	-0.05404379
156	0x3c83d660	0.016093433
157	0xbd67e0ec	-0.056610987
158	0x3d875359	0.06607694
159	0x3d56838c	0.052371547
160	0x3d3bce5c	0.045851097
161	0xbd46453f	-0.048405882
162	0xbca3d1ba	-0.019997466
163	0x3d594f2f	0.05305403
164	0x3cc93067	0.024559213
165	0x3d4b52ef	0.04963964
166	0xbd783aa2	-0.06060279
167	0x3bbdef4e	0.0057963496
168	0x3cdbdac6	0.026837718
169	0xbd938acb	-0.07204207
170	0x3d009b80	0.031398296
171	0x3d9369d9	0.07197923
172	0x3c95a5b6	0.018267494
173	0x3b88c300	0.0041736364
174	0xbca6bcb8	-0.02035366
175	0x3dbf68e4	0.09346178
176	0x3d0546bc	0.03253816
177	0x3dd8af12	0.10580267
178	0x3d12b379	0.03581569
179	0xbd1f1882	-0.03884173
180	0xbc9e8390	-0.019349843
181	0xbd1e71c9	-0.038682733
182	0xbc13fd8d	-0.009032619
183	0xbd851c1b	-0.06499501
184	0xbda2683a	-0.07930036
185	0x3cc9976b	0.024608335
186	0x3cb8a1c8	0.02253808
187	0x3ca09319	0.019601392
188	0x3d4ba0f0	0.04971403
189	0xbbadf4d8	-0.0053087287
190	0x3ce76d54	0.028250374
191	0xbd50b0de	-0.050949924
192	0x3d9e1833	0.077194594
193	0x3d457d74	0.048215345
194	0xbcdfbc4d	-0.027311468
195	0x3d57bbfc	0.05266951
196	0xbda69485	-0.081337966
197	0x3d3c468c	0.045965716
198	0x3d67356c	0.05644743
199	0xbcfd17c1	-0.030895116
200	0x3d14b122	0.03630174
201	0xbd9ed182	-0.07754804
202	0xbdabf2aa	-0.08395894
203	0x3d63c894	0.055611208
204	0x3c86bcdd	0.016447479
205	0xbb5732c8	-0.0032836664
206	0x3d1b4a69	0.03791276
207	0x3a3e30b6	0.00072551833
208	0x3d825e8a	0.06365688
209	0xbb84277f	-0.0040330286
210	0x3c512d0d	0.012767089
211	0xbcdbe1c0	-0.026841044
212	0xbd71269b	-0.058874708
213	0x3c0b6add	0.008509365
214	0xbda784a6	-0.081795976
215	0x3d9514f8	0.0727939
216	0xba85783e	-0.001018293
217	0x3d5d4816	0.054023825
218	0xbd95e91c	-0.07319853
219	0xbc233a72	-0.009962665
220	0x3cf5b297	0.029992385
221	0x3d4cf8f3	0.050042104
222	0xbdbbc5f9	-0.0916862
223	0x3d1da00b	0.038482707
224	0xbb66efde	-0.0035238187
225	0xbd1f336f	-0.03886741
226	0xbd76860d	-0.060186435
227	0x3d0f9443	0.035053503
228	0xbdb8383c	-0.08995101
229	0x3d2f62e9	0.042818937
230	0x3ba3c592	0.0049979175
231	0xbda4592b	-0.0802482
232	0xbc276761	-0.010217519
233	0xbd82245f	-0.063545935
234	0x3b83e8d3	0.0040255575
235	0x3d48624d	0.048921872
236	0xbd7fcf54	-0.062453583
237	0xbd96d6ed	-0.073652126
238	0xbc34f558	-0.011044823
239	0xbd7e30a1	-0.062058095
240	0x3d89d4a9	0.06730015
241	0x3d3ce070	0.046112478
242	0xbd8b0c90	-0.067895055
243	0x3c983677	0.018580658
244	0xb9c971f3	-0.00038422606
245	0xbd16c2e9	-0.036806975
246	0xbda99c47	-0.08281761
247	0xbd079bc3	-0.03310753
248	0x3ca83e32	0.02053747
249	0x3bf372d5	0.0074294605
250	0xbcdb18de	-0.026745256
251	0xbd9cc72d	-0.07655177
252	0xbc85b721	-0.016322674
253	0xbc41cff0	-0.011829361
254	0xbd407914	-0.04699047
255	0xba062bc0	-0.00051182136

encBlocks.1.conv2.bias f4 [16]
0	0xbd882216	-0.066471264
1	0xbd80acf3	-0.062829874
2	0xbd5f080d	-0.054451037
3	0x3d06648c	0.032810733
4	0x3cd3fc53	0.025877154
5	0xbd36e8f9	-0.044655774
6	0x3caf2574	0.021380164
7	0x3d22157f	0.03957128
8	0xbd263d49	-0.04058579
9	0xbce1ae43	-0.027548915
10	0xbc9f6093	-0.01945523
11	0x3da592f2	0.08084668
12	0x3cb5c385	0.022187958
13	0xbc897d61	-0.016783418
14	0x3d10c333	0.035342406
15	0x3d7a6af4	0.061137155

encBlocks.1.BN1.weight f4 [16]
0	0x3f7888d7	0.970838
1	0x3f8106f3	1.0080246
2	0x3f81a7de	1.0129354
3	0x3f7ee530	0.9956846
4	0x3f80ad21	1.0052835
5	0x3f7e8b23	0.99431056
6	0x3f7e39a4	0.993067
7	0x3f811bd9	1.0086623
8	0x3f7fe57a	0.9995953
9	0x3f7cbf55	0.9872945
10	0x3f811d53	1.0087074
11	0x3f7b9809	0.9827886
12	0x3f82612c	1.0185905
13	0x3f80d20a	1.0064099
14	0x3f7dc857	0.9913382
15	0x3f819898	1.0124693

encBlocks.1.BN1.bias f4 [16]
0	0xbc0ac961	-0.008470864
1	0x3c99bd71	0.01876709
2	0x3d09a48e	0.033604197
3	0xbca5a999	-0.020222472
4	0x3c23cfc1	0.009998263
5	0x3c3abdb3	0.011397767
6	0xbc844fe5	-0.016151378
7	0x3c03afb8	0.0080375
8	0x3c23b957	0.009992919
9	0xbc84723d	-0.016167754
10	0x3c435882	0.011922957
11	0xbcf5bed6	-0.029998224
12	0x3c062000	0.00818634
13	0x3b878dd8	0.004136782
14	0xbb34d03c	-0.0027589938
15	0x3ce96bc4	0.02849377

encBlocks.1.BN1.running_mean f4 [16]
0	0xbf8b1c81	-1.0868074
1	0x4008f30a	2.139834
2	0x40236989	2.5533164
3	0x3cd6d0fb	0.026222697
4	0x3fdddf58	1.7333784
5	0xc00769b6	-2.115827
6	0xbf91728b	-1.1363081
7	0x3f88d1bf	1.068901
8	0x3fe5b6ec	1.7946448
9	0xbff59287	-1.9185342
10	0xbec1cb31	-0.37850335
11	0xbfd519dd	-1.6648518
12	0x3ff6a354	1.9268594
13	0xc034e172	-2.82626
14	0x3f808bad	1.0042626
15	0x4010034c	2.2502012

encBlocks.1.BN1.running_var f4 [16]
0	0x41ce46be	25.784542
1	0x42ae95f3	87.29287
2	0x42b6d04e	91.406845
3	0x422b2f51	42.796207
4	0x420caeae	35.170586
5	0x42619db8	56.404022
6	0x4200d439	32.20725
7	0x424117a3	48.273083
8	0x42c65b05	99.17777
9	0x422d6c7b	43.355938
10	0x41040a45	8.252507
11	0x41afacc5	21.95936
12	0x4108293b	8.510066
13	0x42d30074	105.500885
14	0x41ceba70	25.841034
15	0x42c9be5a	100.87178

encBlocks.1.BN2.weight f4 [16]
0	0x3f80cd82	1.0062716
1	0x3f7e1b93	0.99260825
2	0x3f807c37	1.0037907
3	0x3f81016c	1.0078559
4	0x3f803862	1.0017207
5	0x3f7cdf9f	0.9877872
6	0x3f813da9	1.0096942
7	0x3f7e7d25	0.99409705
8	0x3f7fe188	0.9995351
9	0x3f80ee30	1.0072689
10	0x3f822d7b	1.017013
11	0x3f80489e	1.0022161
12	0x3f809335	1.0044924
13	0x3f7f2ccb	0.99677724
14	0x3f7e2b56	0.99284875
15	0x3f8008e2	1.0002711

encBlocks.1.BN2.bias f4 [16]
0	0xbd4a7879	-0.049431298
1	0xbd41a249	-0.047273908
2	0xbd2ff656	-0.042959534
3	0x3cc6f99f	0.02428895
4	0xbced03a7	-0.028932406
5	0xbd305595	-0.043050367
6	0x39e894c4	0.00044361327
7	0x3bee168a	0.0072658705
8	0xbc8be6ad	-0.017077768
9	0xbcff8b5c	-0.031194381
10	0xbd4ed3ff	-0.050495144
11	0xbb24d1e6	-0.0025149523
12	0xbceaf4ab	-0.02868112
13	0xbd0ba7e6	-0.034095667
14	0xbd3a5dd1	-0.045499627
15	0x3cfb7917	0.030697389

encBlocks.1.BN2.running_mean f4 [16]
0	0xbec3f70b	-0.38274416
1	0xbe845238	-0.25843978
2	0xbf179251	-0.59207636
3	0x3f0fc92f	0.56166357
4	0x3e1ec1a2	0.15503553
5	0xbe85375e	-0.26018804
6	0xbe43791f	-0.19089173
7	0xbe66e090	-0.22546601
8	0xbe9f397a	-0.3109854
9	0x3e855a0d	0.26045266
10	0xbe508121	-0.20361759
11	0x3dd5069d	0.10401652
12	0x3eadf7f2	0.3397823
13	0x3e8f4737	0.2798402
14	0x3dae3ba9	0.08507473
15	0xbef6cdf5	-0.48204008

encBlocks.1.BN2.running_var f4 [16]
0	0x3d8dfb02	0.069326416
1	0x3df283d4	0.118415505
2	0x3e639eb3	0.22228508
3	0x3e5197e9	0.20468105
4	0x3e0fa917	0.14029346
5	0x3da01f88	0.07818514
6	0x3d2f0ed7	0.04273876
7	0x3e03d4f0	0.12874198
8	0x3d8a56b6	0.0675482
9	0x3f92993c	1.1453013
10	0x3caf4c1b	0.021398595
11	0x3e46d8b7	0.19418608
12	0x3f76898d	0.96303636
13	0x3f1813ac	0.59405017
14	0x3f019626	0.50619733
15	0x3f1fc461	0.62409025

encBlocks.2.conv1.weight f4 [1, 16, 15, 15]
0	0xbc86630f	-0.016404657
1	0x3cab1cf9	0.020887839
2	0xbbaee31d	-0.0053371326
3	0xbc01f3c0	-0.00793165
4	0x3c029961	0.007971139
5	0x3a557a28	0.0008143508
6	0xbae79fbf	-0.0017671509
7	0x3c589fe3	0.013221714
8	0xbc3ab637	-0.0113959825
9	0xbc3fe9e1	-0.011713476
10	0x3c90e59c	0.017687611
11	0xbbab77e7	-0.0052327993
12	0x3c54e84a	0.012994835
13	0xbc83e78a	-0.016101617
14	0xbc6a2e95	-0.014293333
15	0xbc3f7429	-0.01168541
16	0x3b975c90	0.0046191886
17	0x3c5a8c23	0.013339075
18	0x3c59c25f	0.013290971
19	0x3c8d876d	0.01727649
20	0xba44542c	-0.0007489349
21	0x3c791a20	0.015203983
22	0x3d173b79	0.036921952
23	0x3c629558	0.013829552
24	0x3c3bbe73	0.011458981
25	0x3c4b65fe	0.012414454
26	0x3b248625	0.002510437
27	0x3ca410ef	0.020027606
28	0x3bd7cdae	0.006585798
29	0x3b7ee954	0.0038896399
30	0x3b813151	0.0039426466
31	0x3c6dd9d0	0.014517263
32	0x3b8705f2	0.004120582
33	0xbbf8d8bf	-0.0075941975
34	0xbc06892a	-0.008211413
35	0x39bdcb37	0.00036200296
36	0xbc75696c	-0.014978748
37	0x3c4a52bb	0.012348826
38	0xbb86ccfc	-0.0041137915
39	0xbc80e1c9	-0.015732663
40	0xbc9166e9	-0.017749267
41	0x3c2792b0	0.010227844
42	0xbc72e1ce	-0.014824344
43	0x3c183729	0.009290495
44	0xbba71068	-0.0050983913
45	0xbbd36b3f	-0.0064519937
46	0x3cf77ff3	0.030212378
47	0x3c3914e1	0.011296482
48	0x3c5cfa65	0.013487433
49	0x3c1cdc9f	0.009574085
50	0x3bdf1d2b	0.006808897
51	0xbbdb1857	-0.006686251
52	0x3cd9db66	0.026593875
53	0xbc90b284	-0.017663248
54	0x3bf735db	0.007544262
55	0xbc098937	-0.008394531
56	0x3c197b90	0.0093678385
57	0xbc1505c6	-0.009095615
58	0x3c58b53e	0.013226805
59	0xbc56a68f	-0.013101234
60	0xbba1b016	-0.004934321
61	0x3cc8bd90	0.024504453
62	0x3c9adc33	0.018903827
63	0xbc826ae5	-0.015920112
64	0x3aee9d47	0.0018204831
65	0xbc41af84	-0.011821631
66	0xba75ea48	-0.0009380919
67	0x3b8bb9d2	0.004264095
68	0xbba6043b	-0.0050664223
69	0xbbc96c7f	-0.006146967
70	0xba70a970	-0.00091805216
71	0xbc931ee8	-0.017959073
72	0xbbc6ef19	-0.006070983
73	0x3bf06136	0.007335807
74	0xbcc350ff	-0.023842333
75	0xbb0fcddb	-0.0021942768
76	0x3cdde4f8	0.02708672
77	0xb9fcf6e2	-0.00048249128
78	0x3bdcad33	0.006734514
79	0x3b33212e	0.002733301
80	0x3c84e605	0.016222963
81	0xbc0ad61f	-0.008473902
82	0x3cafaa44	0.021443494
83	0xbc0201cd	-0.007935
84	0x3c8b8a56	0.017033737
85	0xbb32f816	-0.0027308515
86	0xbc19c2af	-0.009384795
87	0x3c8b882d	0.017032707
88	0x3bf2b6bb	0.007407037
89	0xbb0c421b	-0.0021401707
90	0x3c69d455	0.014271815
91	0x3cd1bb38	0.025601968
92	0x3cc401e2	0.023926679
93	0xbc189b76	-0.0093144085
94	0xbb07faa9	-0.002074877
95	0xbc2677e5	-0.010160421
96	0xbc7849b8	-0.015154295
97	0x3cdacef1	0.026710005
98	0xbb1b9d0e	-0.0023744735
99	0xbaf7c1ea	-0.0018902395
100	0xbba37eb2	-0.0049894685
101	0xbc75f4d7	-0.015011988
102	0xbbe79e17	-0.0070684063
103	0xbb3862eb	-0.0028135132
104	0xba123a8f	-0.0005578184
105	0x3cbda4ef	0.023149936
106	0x3cdf2bee	0.027242627
107	0x3c73c3dc	0.0148782395
108	0x3c5027b1	0.012704776
109	0x3c858c26	0.01630218
110	0xbc0e6642	-0.008691372
111	0x3cb20c9b	0.021734526
112	0x3cb27518	0.02178435
113	0xbbc9fab3	-0.006163919
114	0x3c573925	0.013136183
115	0x3c40007a	0.011718864
116	0x3cc65a7a	0.024213064
117	0x3c8c801a	0.017150927
118	0x3c374922	0.01118687
119	0xbc6ef98f	-0.014585867
120	0x3c846ae2	0.016164247
121	0x3c7af5bf	0.0153173795
122	0x3d0500dd	0.032471526
123	0xbbf8395c	-0.007575197
124	0x39da161e	0.0004159668
125	0xbc494482	-0.0122844
126	0x3ca85802	0.020549778
127	0x3d00659b	0.0313469
128	0xbbc8fb24	-0.006133454
129	0x3c824d9a	0.015906144
130	0x3a8a5fc7	0.0010557108
131	0x3be0b3ad	0.0068573565
132	0x3c8f33e3	0.017480796
133	0xbc7bd525	-0.015370642
134	0x3beac018	0.0071640126
135	0xbc84e889	-0.016224163
136	0x3d0c142c	0.034198925
137	0x3c899949	0.016796725
138	0xbc7752b5	-0.0150954025
139	0x3c9cc221	0.019135537
140	0xbcac6188	-0.0210426
141	0xbc3db3fe	-0.011578558
142	0x3ca07470	0.019586772
143	0xbcb9ccdb	-0.02268069
144	0xbc5ac346	-0.013352221
145	0xbaee1e76	-0.0018167037
146	0xbbb4a142	-0.0055123875
147	0x3c7a93d2	0.015294032
148	0xbb4ba27b	-0.0031072188
149	0x3c325a24	0.010885749
150	0xba9d0bf1	-0.0011981708
151	0x3d2fddf8	0.042936295
152	0x3b0fc46a	0.002193714
153	0xbc22d007	-0.009937293
154	0x3ca092f2	0.019601319
155	0xbb385e27	-0.002813229
156	0x3ca05962	0.019573871
157	0x3ca685b3	0.020327425
158	0x3c19b1fc	0.009380814
159	0x3ba38095	0.0049896934
160	0x3c806166	0.015671443
161	0xbad87f4e	-0.0016517432
162	0x3c486c8d	0.012232912
163	0xbbff0709	-0.007782821
164	0xbc1493f1	-0.009068475
165	0xbca10177	-0.019654019
166	0x3c4bfc00	0.012450218
167	0x3b5f0544	0.0034030238
168	0x3b286f8e	0.0025701257
169	0x3bba5aac	0.0056870785
170	0x3b0d48b4	0.0021558227
171	0x3a198852	0.00058568
172	0xba891ed2	-0.0010461456
173	0xbbd3b02c	-0.0064602103
174	0xbcb4f451	-0.022089155
175	0xbc2359e5	-0.009970163
176	0x3c12c294	0.008957524
177	0x3bd7db38	0.006587412
178	0xbc95e08d	-0.01829555
179	0x3c3265fa	0.010888571
180	0x3bb07b4b	0.0053857914
181	0x3c6b391b	0.014356877
182	0x3c837a58	0.016049549
183	0x39977c28	0.00028893468
184	0x3cafba77	0.021451218
185	0x3cb20c2f	0.021734325
186	0x3ba29baf	0.0049624066
187	0x3cd2ade7	0.025717689
188	0xbc5c9ff4	-0.01346587
189	0xbb12607c	-0.0022335341
190	0x3c2aa0e7	0.010414339
191	0x3ca7477f	0.020419834
192	0x3c6558a2	0.0139981825
193	0xbc258616	-0.010102769
194	0xba82b2d9	-0.0009971514
195	0xbc1e6e84	-0.009669904
196	0x3bfab2ce	0.0076507097
197	0x3c53e86e	0.0129338335
198	0xbc08d496	-0.008351466
199	0xbba34596	-0.0049826605
200	0xbbf79f32	-0.0075568194
201	0xbb8ffc7f	-0.0043941136
202	0x3c422246	0.011848992
203	0xbbdcd442	-0.0067391703
204	0xbc80f7a0	-0.015743077
205	0x3a64bd07	0.0008725677
206	0x3bd8081a	0.0065927627
207	0x3c5fb93d	0.013655004
208	0xb99cded9	-0.00029920673
209	0x3ab518aa	0.0013816555
210	0xbca969c9	-0.020680325
211	0x3c10ddee	0.008841975
212	0x3cb9c7b7	0.02267824
213	0x38517586	4.9938935e-05
214	0x3c2648c3	0.010149184
215	0xbbe976ed	-0.0071247728
216	0x3c297ee1	0.010345192
217	0x3c9aa680	0.018878222
218	0xbab51223	-0.0013814609
219	0xbac938d7	-0.0015352023
220	0xbc2c4f0f	-0.010516896
221	0x398731bc	0.00025786262
222	0xb846982a	-4.7348592e-05
223	0x3c731954	0.014837582
224	0xbc5e11c1	-0.013554038
225	0x3c3f1905	0.01166368
226	0x3c378b52	0.01120265
227	0xbae6416d	-0.0017567106
228	0x3c1a5845	0.009420459
229	0x3b7a8dec	0.0038231565
230	0x3c6ffbd2	0.014647441
231	0x3c163bc4	0.009169523
232	0x3cc1ecd6	0.023672502
233	0x3c50d442	0.012745919
234	0x3ca29713	0.019847428
235	0x3b819eff	0.0039557214
236	0xbc2e25cc	-0.010629129
237	0xbb50d7bd	-0.0031866871
238	0x3c425fb3	0.011863637
239	0x3c01ada7	0.007914937
240	0xbc1b5ff7	-0.009483329
241	0x3bdaea7f	0.006680786
242	0x3b0ea7d7	0.002176752
243	0x3c2ac4b5	0.010422875
244	0xbb65ddf6	-0.0035074926
245	0xbc4ebad9	-0.01261779
246	0xbc38a032	-0.011268662
247	0xbbf83f6f	-0.0075759212
248	0xbbec841d	-0.0072178976
249	0x3c2539a9	0.010084548
250	0xbc389bdf	-0.011267631
251	0x3c13d227	0.009022272
252	0x3c00f933	0.007871914
253	0xbc435826	-0.011922872
254	0x3a0e9759	0.00054394227
255	0x3cd000de	0.025391039

encBlocks.2.conv2.weight f4 [1, 1, 3, 3]
0	0xbd9b39cf	-0.075793855
1	0x3d84a197	0.06476133
2	0x3d814013	0.06311049
3	0xbe2808f4	-0.16409665
4	0x3e9418c9	0.2892516
5	0x3e969c5e	0.29416174
6	0xbda22fe1	-0.079192884
7	0x3da30156	0.07959239
8	0xbe371803	-0.17880253
