Model_params/test_3_macro_epoch_10.pt (torch, 44071 bytes, 26 tensors)

encBlocks.0.conv1.weight f4 [16, 3, 3, 3]
00000000: aaf5 00be 6bec 383e b762 b53b 325c 46bd
00000010: 6630 27be 704f dcbd 9a74 f23d 6ff3 9a3d
00000020: daed c03b f48a 13be 1030 953d 6133 b6bd
00000030: efe8 fc3d 5a06 3ebe 20dc d23c 248c b23d
00000040: 87b8 28bd b1d1 163d 247c adbc 0a0a 8a3d
00000050: 95e0 a53d 1608 c7bd c36f fcbc 8134 25be
00000060: 7ee5 023e 2ccb edbd 8a1f 0bbe 0532 06be
00000070: a07e 05be 7574 ea3c 8b75 d7bc 7d46 ccbd
00000080: 7949 c13d 7bce 25be 5e6e a43d 8b71 00be
00000090: 6e0b 84bd a43d 853d 8660 563b 041e afbc
000000a0: cd51 f9bd 8017 0cbd 484f 25bd d0cc d9bd
000000b0: f05a 0abe 32d0 033e 60df 69bb 306f da3d
000000c0: 14a2 893d 9af9 89bd b11b 163c dfe7 3bbd
000000d0: 208a ea3c 9859 67bd 8e8a 413d 40da d93d
000000e0: 862b 073e 7daf 3d3d 00a0 283e 98db 313e
000000f0: bfec 243e 8cc8 8c3d ff85 93bd cb75 213c
00000100: db60 8fbd eb0d 313e 5082 be3d bb76 e5bd
00000110: eb4e a7bc 4695 403e 451b 393e 7658 513e
00000120: dab8 16be 591a 82bb b7b8 2c3e f87a 80bd
00000130: d5ca 27be 6ef8 a5bd d892 a83d 74ae e5bc
00000140: aa7d 2f3e 391d 61bd 26c4 68bd e8e6 c33d
00000150: e3a7 713c fe64 b33d e240 6cbd a3f5 1cbd
00000160: 7fcf 843b e5c9 b03a 9ea8 a0bc d6e6 d93d
00000170: 2c78 d5bd 0bde 103d 8d72 bebd 289f 90bd
00000180: 593f 053e 5223 ed3d 17d8 bfbc 7bee 493d
00000190: 247a f43d 2898 c43c 0629 c03d 4250 113e
000001a0: 226b 34be c222 9dbd a980 fc3c 477b 2b3e
000001b0: 2470 923d f132 fdbd cd25 5dbd ec62 1e3d
000001c0: 260c 0abc 42ae 433e c602 0f3d 7150 f43d
000001d0: cc70 c5bd 5d64 1c3e 1f83 02be f119 b3bd
000001e0: a84b 7c3d 20bd 50bd 6b91 2d3d c276 d5bd
000001f0: 0362 313e b68e 6e3d a6a6 2cbc 21c3 08be
00000200: c59d 95bc 647e 1c3e 429a 223e 1a06 d33d
00000210: 8c0b 21be fefc 853c 63dd 03bc f072 2dbc
00000220: 8ba6 e93d 8ea3 babd 7776 41be aee8 35be
00000230: 9d21 c6bd 6777 e1bd bf36 ecbd 5225 41be
00000240: 41ac 803c 5a71 a7bd aca8 18be a22d 2b3d
00000250: c276 2bbe beef 2e3e a504 15be 0cb1 e23d
00000260: 4254 203e d7c1 90bc b8b0 053e 0806 143c
00000270: 6501 16be 8e27 48bd 7480 4f3d c886 9c3d
00000280: cd1e 20be ec06 393e 07e1 fe3d 52a3 f43d
00000290: ac0a 11be 4c47 db3d af5f f7bd c2cd fbbd
000002a0: bd5f 963d 0d66 17be f0ea 743c ad42 e73d
000002b0: bab2 253e d149 8d3d c71b 463e c1d0 193e
000002c0: f082 96bd 947c 7fbd 6602 e6bc d132 10be
000002d0: 3eb8 01be 9683 203e 4d99 113e a360 2c3e
000002e0: 45ef 9d3d a960 39bd bd5c 16be 83a5 e03d
000002f0: eccc 323e e326 a1bc a726 b43d 1dbc 463e
00000300: 6b87 e13d fb0b 39bd ff0c 013e f3bc 3abd
00000310: 02f9 5fbd 30e9 e8bd c438 093c 64c4 2e3c
00000320: 15d9 be3b 1089 553d 796e bc3d 1b1a fabd
00000330: 4b4a 2e3d 4e0c 003d aa0e eabd 2f73 a33c
00000340: bcf2 d0bd f5e4 2fbe 569a 423e 710a 0fbe
00000350: 04c0 b63d 9be2 91bc b425 91bd 2397 bd3d
00000360: 6e2b 823d 0f39 45be 945a a9bd f25a 0e3e
00000370: 3d5e 193e c8cd 1abd 9609 7b3d 8aba 12bd
00000380: c9c4 4a3d cb77 abbd dcd3 d83d 0b72 9dbd
00000390: b033 4e3b a7c0 e8bd 2889 2e3d 571b 10bc
000003a0: cf69 22be 21df 3f3d f628 c73b 1c61 bb3d
000003b0: dbd7 063e 3ccd 063e c2b5 c2bd a7c3 2bbd
000003c0: 198e 0dbe 3ed5 24be 4f8b adbd 7d19 0cbe
000003d0: 5738 b1bd 2611 18be 4ada 9ebb b31e 30be
000003e0: 4819 803d 85e5 193d d991 b3bd 92a8 90bc
000003f0: 53ee 5ebd d0dd bc3d 9240 ce3d 0ef9 39be
-0.12593713 0.18058936 0.0055354494 -0.048427768 -0.16327056 -0.10757339 0.11838646 0.075659625
0.005887729 -0.14408475 0.07284558 -0.088965185 0.12349116 -0.1855711 0.02573973 0.08718136
-0.041191604 0.03682107 -0.021177359 0.06740196 0.08099476 -0.09718339 -0.03081501 -0.1613331
0.12782857 -0.116110176 -0.1358625 -0.13105018 -0.13036585 0.028619984 -0.026301166 -0.09974382
0.09437842 -0.16192047 0.08028863 -0.12543313 -0.064474925 0.06505898 0.003271134 -0.021376617
-0.121738054 -0.0342021 -0.04035881 -0.10634768 -0.13511252 0.12872389 -0.003568612 0.106657386
0.06720367 -0.06737061 0.009161876 -0.045875426 0.028630316 -0.056481928 0.047251277 0.10637331
0.13200197 0.046309937 0.16467285 0.17368925 0.16105936 0.06874189 -0.07203292 0.009854744
-0.070008956 0.17290466 0.09302199 -0.11204287 -0.020423373 0.18806943 0.18076809 0.20443901
-0.14718953 -0.003970426 0.16867338 -0.062734544 -0.16385968 -0.08104025 0.08231133 -0.028037287
0.17137781 -0.05495951 -0.056827687 0.09565526 0.0147495 0.08759497 -0.057679065 -0.038320195
0.004053056 0.0013487904 -0.019611653 0.106397316 -0.104233116 0.035368007 -0.092991926 -0.07061607
0.13012446 0.115790024 -0.02341847 0.0492997 0.11937359 0.023998335 0.093828246 0.14190772
-0.17618993 -0.07672645 0.030823069 0.16746245 0.071502954 -0.12363232 -0.053991128 0.038668558
-0.008425748 0.19109443 0.034914754 0.119294055 -0.09640655 0.1527266 -0.12745331 -0.08745182
0.06159559 -0.050961614 0.04237501 -0.10423042 0.17322545 0.05824157 -0.010537779 -0.13355686
-0.018263707 0.15282589 0.15879157 0.10303898 -0.15727061 0.016355988 -0.008048388 -0.010586485
0.11408719 -0.09113227 -0.18892847 -0.17764542 -0.0967438 -0.11009102 -0.115338795 -0.18861893
0.015707137 -0.08175917 -0.14908093 0.041791566 -0.16744521 0.17083642 -0.14552553 0.11068925
0.15657142 -0.017670555 0.13055694 0.009034641 -0.1464897 -0.048865847 0.05065961 0.07642895
-0.1563675 0.18069047 0.12445264 0.119452134 -0.14164227 0.10706958 -0.12078797 -0.122951046
0.073424794 -0.14785023 0.014948592 0.11292014 0.1618146 0.06898845 0.19346534 0.1502104
-0.07349193 -0.062374666 -0.028077316 -0.14081885 -0.12667939 0.15675196 0.14218636 0.16833739
0.07711653 -0.045258198 -0.14683814 0.10969069 0.17460984 -0.019671863 0.08796435 0.19407697
0.11012157 -0.04517744 0.12602614 -0.045590352 -0.05468083 -0.11372602 0.00837535 0.01066694
0.005824218 0.052132666 0.092007585 -0.122120105 0.04255132 0.031261735 -0.11428578 0.019952385
-0.10202548 -0.17177184 0.19004187 -0.13968827 0.08923343 -0.01780825 -0.070872694 0.09257343
0.0635594 -0.19260047 -0.082692295 0.1390188 0.14977355 -0.037793905 0.06128844 -0.03582243
0.049504075 -0.08372458 0.10587284 -0.076877676 0.0031463914 -0.113648705 0.04261127 -0.008795581
-0.15860675 0.04684365 0.006077881 0.091493815 0.1316828 0.13164228 -0.09507324 -0.041934635
-0.13823737 -0.1609697 -0.08473837 -0.13681598 -0.08653324 -0.14850292 -0.0048477994 -0.17199211
0.06254822 0.037572403 -0.087680526 -0.017658506 -0.054426502 0.09221995 0.100709096 -0.18161413

encBlocks.0.conv1.bias f4 [16]
00000000: 70ce 0f3e 2101 703d 61a6 1bbe 6f27 113e
00000010: eb5c abbd 0e0e 03be 167a e83d 4df1 a4bd
00000020: 7d1f bebc d2ea a53d 1092 22be c25c eabd
00000030: d4a0 de3d b601 163e 33f6 373d caf6 2dbe
0.14043593 0.058594827 -0.15200187 0.14175199 -0.08367332 -0.1279833 0.11351411 -0.08053837
-0.023208374 0.08101429 -0.15876031 -0.114434734 0.10870519 0.1464909 0.04491253 -0.16988674

encBlocks.0.conv2.weight f4 [16, 16, 3, 3]
00000000: d7e4 88bc 162f 333d b04f a2ba 5173 5bbd
00000010: 6972 df3c 84d7 813d bfcd aa3d aa54 6b3d
00000020: 7478 983d a2d6 6f3c 51ae 7cbd c8fc 67bd
00000030: 4b4d acbb c3c5 583d fe7e 8cbd 6ecc e3bb
00000040: 4831 22bd 6d08 91bd af4b 6abd 44b5 8abd
00000050: 3781 30bd 5277 09bb 8b60 8abd 4117 94bc
00000060: 8736 a8bd e333 3d3d 75ba 24bd 2cf2 bdbc
00000070: 0f6a 86bd 8c95 783c b5f9 dbbc 61fa aebd
00000080: 3d4b 73bc 52d5 203d 2359 13bd 2560 863d
00000090: c086 f5bc e940 40bd 533a 4c3d 78a1 a1bd
000000a0: 044f ebbc 7ec6 063c 8454 61bd 5428 173d
000000b0: 7329 843d dfb5 183d e017 983d 4ee1 d7bc
000000c0: f31e bbbc d41a c13c 4be3 6f3c b392 de3c
000000d0: 71c6 55bc ce73 b3bb d337 763d 05c0 043d
000000e0: ef13 9a3c 3042 df3c 0514 9abd be60 4fbd
000000f0: 8c0b 88bd 84bd cc3c 17f9 b6bd 7b64 92bc
00000100: 8e85 97bd 6622 69bb 71d7 903c f1d1 7b3c
00000110: b992 3abd 75f8 0cbc 5fba 503d 1779 2d3d
00000120: 9848 af3d e56b 91bc 8354 faba 7c50 65bd
00000130: 2984 abbd 533a 3e3d e8f5 943c ebd0 143d
00000140: da25 493d 2a40 393d 2c20 563d 2e57 803c
00000150: 1ea2 7b3d f25c 80bd 0195 49bc 84d6 cabc
00000160: 3aab fc3c 2bd2 103d 30f0 ea3c 3431 1abd
00000170: a12f 1abb b093 08bc cb50 a53d 1837 38bd
00000180: 225b 5dbd ea47 b73b e3db 843d 7632 cebb
00000190: afa2 7a3c babd 8c3d efca 173d d4cc 9fbc
000001a0: 8a3e bbbc 5cbd acbb dba1 233c aed6 363d
000001b0: 0d3e 07bc 9f01 933d c36b 553d 6fe9 12bd
000001c0: f548 b4bc e179 10bd 878f a8bc 370f 15bd
000001d0: d56f ebbb d178 88bc f8bd 81bd 1e16 413d
000001e0: 01f5 4abc 289a 7e3d e788 943d 0a4b aebc
000001f0: e650 2cbd 305b 86bd 88f0 193c e788 d3bd
00000200: 6ec2 4dbd dd09 2abc d71a 853d cd6d c1bc
00000210: 90ef 933c 40b1 00bd a814 503b 0e71 86bd
00000220: 9cc9 e5ba 2074 4a3d 0da7 d0ba aa4f 693d
00000230: 7f11 403d d396 b63d a326 823d 13a3 0b3d
00000240: 712c 7e3c 9591 623d da05 6a3d 0a98 80bd
00000250: 35b0 003d 48b0 513d c29f d4bc aad8 0ebd
00000260: a4b8 cd3b ec94 2fbc 8037 0c3c 7a88 29bd
00000270: 96a9 03bd 2aaa ee3a afb0 833b ca4c f73c
00000280: 11bc 2c3b 0f0f 7b3c 7a0a 27bd e261 68bd
00000290: c73c 58bd 0999 92bc 407b 7f3d 7c38 e63c
000002a0: 1ac6 903c dfd6 b93d 84a5 63bd afc0 503c
000002b0: 427b 1fbc a718 5c3d d9e2 9739 6173 343d
000002c0: 8082 b03c 25bd f03c 6bd9 b2bc a213 903d
000002d0: c4ed 8d3d f8a5 963d 9894 e43b dca0 f7bc
000002e0: 68c8 8a3d d6ba 94bd 2aa1 903b cca7 1a3c
000002f0: 082c 9ebd 1815 223b 80cf 5f3d ece5 1d3c
00000300: 28d2 e73c d306 59bc 9c7f 56bd 44be 2c3d
00000310: 6e43 8cbc 4c30 f7bc d86b 913d 862f 8bbd
00000320: 921f c53d e4b1 b73d 9f1e f439 d2fc 36bd
00000330: 5aee 3fbd 01be c03d c818 bc3d 62ad 9bbd
00000340: 7fe9 90b9 c961 93bd 69f6 a33d 206b 443d
00000350: 274e 9a3c 2a45 20bd edf6 b9bc 4e4a 8b3d
00000360: aa1f 35bd 52bd 853d c286 39bd a22f 4fbd
00000370: d4cc 80bd f587 06bd c864 f03c 5488 723d
00000380: 2d32 f43c 291c 73bd b4b4 5e3d fad4 893d
00000390: 3671 803d 0194 703c b3d1 8ebd 4e27 343d
000003a0: 66bc 14bd 10e5 81bd 9f97 9d3c a805 9abd
000003b0: fb86 62bd e787 bcbc ddc9 48bd bd29 9abd
000003c0: 7d98 043d cddc c93c 998e 883d 7105 783d
000003d0: eb96 193d d48c 4c3c b8f5 4e3d 9b06 2ebd
000003e0: c1a1 16bd 1f3e 29ba a997 af3b 516d 92bd
000003f0: e786 963d 6456 e43c 5dbd 47bd 973e 2ebd
-0.016710682 0.043746077 -0.0012383368 -0.05357677 0.027276235 0.063399345 0.08340024 0.05745379
0.074448496 0.014638575 -0.06168968 -0.056637555 -0.0052582375 0.052922975 -0.06860159 -0.00695186
-0.03959778 -0.07081685 -0.057201084 -0.06772855 -0.04309198 -0.0020975661 -0.06756695 -0.018077495
-0.08213525 0.04619206 -0.04021688 -0.023186766 -0.06563198 0.0151723735 -0.026852468 -0.0854385
-0.014849481 0.039265938 -0.03597368 0.06561307 -0.02997148 -0.046936903 0.04986031 -0.07892126
-0.028724201 0.008226035 -0.05501224 0.036903694 0.06453218 0.03728282 0.07426429 -0.02635255
-0.022841906 0.023572363 0.014641593 0.027169561 -0.0130478 -0.0054764515 0.060111832 0.032409687
0.018808333 0.02725324 -0.0752335 -0.05062937 -0.066428274 0.024992712 -0.08934229 -0.017870178
-0.073985204 -0.0035573482 0.017680855 0.015369878 -0.045550082 -0.008604159 0.050958987 0.04235181
0.08558768 -0.017751643 -0.0019098673 -0.05598496 -0.08374817 0.04644234 0.018183663 0.036332052
0.049108364 0.045227207 0.052276775 0.01566657 0.061433904 -0.06267728 -0.012303592 -0.024760492
0.030843366 0.03535668 0.028678983 -0.03764458 -0.0023526924 -0.008335993 0.08072051 -0.044974416
-0.05404199 0.0055932896 0.064872526 -0.0062926365 0.015297576 0.06872125 0.037058767 -0.01950685
-0.02285697 -0.005271597 0.00998732 0.04463833 -0.00825454 0.071780436 0.052104723 -0.03586715
-0.022007445 -0.035272483 -0.020576252 -0.036391463 -0.0071849623 -0.016659172 -0.06335062 0.047140233
-0.012387515 0.062158734 0.072526745 -0.021276016 -0.04206934 -0.065603614 0.009395726 -0.103288464
-0.05023425 -0.010378328 0.0649926 -0.023611927 0.018058568 -0.03141904 0.0031750593 -0.06564532
-0.0017531398 0.04942715 -0.0015918926 0.05696074 0.046891686 0.08915486 0.063550256 0.034091067
0.015513525 0.05531462 0.057134487 -0.06278999 0.031418044 0.051193506 -0.025955085 -0.034874596
0.0062781144 -0.010716658 0.008558154 -0.04138992 -0.03214415 0.0018208672 0.004018865 0.030187983
0.0026357214 0.0153234145 -0.040781476 -0.056733973 -0.052792337 -0.017895238 0.0623734 0.028103106
0.017672587 0.090741865 -0.05557777 0.012741252 -0.009733977 0.053734448 0.0002896998 0.044055346
0.021546602 0.029387066 -0.021832189 0.07034995 0.06930116 0.07355875 0.0069757216 -0.03022807
0.06776506 -0.072621986 0.0044137435 0.00943942 -0.07723242 0.002473181 0.054641247 0.009637337
0.028298452 -0.013246256 -0.05236779 0.04217364 -0.017121997 -0.030174397 0.07100648 -0.06796174
0.09625162 0.08969477 0.0004656212 -0.044674702 -0.04685817 0.0941124 0.09184414 -0.076014295
-0.00027639788 -0.071963854 0.080059834 0.047953725 0.018836094 -0.03912846 -0.022700751 0.06801282
-0.04421965 0.065302506 -0.04529453 -0.050582536 -0.06289068 -0.032844502 0.029344931 0.059212044
0.029809082 -0.059353027 0.05437155 0.06730075 0.06271593 0.014683724 -0.06973591 0.043982796
-0.036312483 -0.06342518 0.019237338 -0.0752061 -0.05530451 -0.023014022 -0.049020637 -0.07527492
0.032371987 0.024641419 0.06667823 0.060552064 0.037497442 0.012484748 0.050527304 -0.04248677
-0.036775354 -0.0006456095 0.0053586555 -0.07149757 0.07349949 0.027873226 -0.048764575 -0.04254016

encBlocks.0.conv2.bias f4 [16]
00000000: 18e4 873c e3bf 223d 4715 54bd 43fb bcbc
00000010: 91c8 a13d a56f 15bd ea1b 27bd 45bb bf3b
00000020: 00a2 3ebd c999 a6b9 f146 113d 5932 93bd
00000030: 359b 62bd c949 183d 2920 083d 9d57 703d
0.016588256 0.03973378 -0.051778104 -0.02306903 0.07899583 -0.036483426 -0.040798105 0.0058511817
-0.046541214 -0.00031776566 0.035468046 -0.071873374 -0.0553238 0.037179742 0.033233795 0.058677305

encBlocks.0.BN1.weight f4 [16]
00000000: aad3 783f 45aa 7e3f a144 813f 2a69 823f
00000010: 9644 823f 540d 7b3f 16f2 823f 76ce 803f
00000020: befc 7d3f bc60 7b3f 5865 7d3f 3a0c 7c3f
00000030: c075 823f bec5 7b3f 2eed 813f 7d55 7e3f
0.97197974 0.9947856 1.0099069 1.0188344 1.0177181 0.9806721 1.0230129 1.0063007
0.9921378 0.9819448 0.98982763 0.98456156 1.0192184 0.98348606 1.0150506 0.99349195

encBlocks.0.BN1.bias f4 [16]
00000000: 6ce7 4fbc a274 d0bb e80b 353a 41f8 2ebc
00000010: f4c9 4cbc fca1 87bc 9416 713a a06e e53a
00000020: 0889 e73a b539 efbb 3116 3fbc c92a 69bc
00000030: 728e 85bb 2598 01bc bcd9 563a e9a7 1bbc
-0.012689453 -0.00636156 0.0006906376 -0.0106793055 -0.012499321 -0.016556732 0.0009196785 0.0017504282
0.001766474 -0.0073005804 -0.011663006 -0.014231392 -0.0040758187 -0.007909809 0.0008195897 -0.009500482

encBlocks.0.BN1.running_mean f4 [16]
00000000: eb50 08be d0cb 9dbe c118 023f aa02 c83e
00000010: 43b2 cb3d 29b4 fabe dc3f 133f 7943 4dbd
00000020: e19e 63be f351 a8be b199 6fbd 2f42 96bd
00000030: 6c67 aa3e 3056 06bf 6df0 953e 4844 12be
-0.13312118 -0.3081956 0.5081902 0.39064533 0.0994611 -0.48965576 0.57519317 -0.050113175
-0.22228576 -0.32875022 -0.05849618 -0.07336842 0.3328203 -0.5247526 0.29284993 -0.1428386

encBlocks.0.BN1.running_var f4 [16]
00000000: 46d6 1c3d 0d3a 6f3d a20e 333e ef9c f13c
00000010: 57a2 d93c 8462 aa3d d478 ae3d c289 883c
00000020: 3e48 e13c eb35 973d 2602 da3c 5bb8 663c
00000030: fe3c 0a3d fea1 183e f8a8 273d 582a f13c
0.038290285 0.05840497 0.1748605 0.029493777 0.026566667 0.083195716 0.0851914 0.01666725
0.027500268 0.07383331 0.026612353 0.01408204 0.033749573 0.14905545 0.040932626 0.029439136

encBlocks.0.BN2.weight f4 [16]
00000000: 567e 7b3f 1035 7e3f ff50 7d3f 9c61 813f
00000010: 4b55 813f 270e 813f 6fc3 7f3f 76d6 7d3f
00000020: 01e4 803f 1562 7b3f 5c29 803f 623d 813f
00000030: a1d9 7e3f 3145 803f d016 823f 78a5 7a3f
0.9823965 0.99299717 0.98951715 1.0107913 1.0104154 1.0082444 0.99907583 0.99155366
1.0069581 0.98196536 1.0012622 1.0096858 0.99550825 1.0021116 1.0163212 0.97908735

encBlocks.0.BN2.bias f4 [16]
00000000: 6476 dfbc eea5 31bc 1b7f 40bb 46b7 17bc
00000010: 7031 df3c 9bbb 0e3d 9041 15bb 4a6c 643c
00000020: 79c8 1ebc d57f 27bd da10 683a 26cd 173d
00000030: bf4e 85bc 243d e43c 545b 203c 43cc a03c
-0.027278133 -0.010842783 -0.0029372636 -0.009260004 0.027245253 0.034846883 -0.0022774674 0.013941834
-0.009691351 -0.040893395 0.0008852609 0.03706088 -0.0162729 0.027861185 0.009787399 0.01962865

encBlocks.0.BN2.running_mean f4 [16]
00000000: fa03 89bc e2d7 b63e 7aa9 cfbe 7344 293e
00000010: f26a 5c3e 2a2d ebbc d289 16be 8a6f 9dbe
00000020: e846 c43d 4ca8 943d 1bc8 3fbe 5547 803e
00000030: 5eb1 6fbe 126e 43be 9caa 6cbd a5ce 9f3e
-0.016725529 0.3571158 -0.40558988 0.16530018 0.21525171 -0.02870806 -0.14701012 -0.3074916
0.09583837 0.072586626 -0.18728678 0.25054422 -0.23407504 -0.19084957 -0.057779893 0.31212345

encBlocks.0.BN2.running_var f4 [16]
00000000: 383f 823e fe40 233e 3d3f d63d c2b6 ea3d
00000010: 3f45 973e 723c d93e e4a2 923d a0c0 633e
00000020: 87b4 e33d 3b20 523e b25f af3d b148 293e
00000030: 1cd2 b03d db79 133e 878c ed3d 09a8 123e
0.25438857 0.15942761 0.104612805 0.114606395 0.29545018 0.4242893 0.07159975 0.2224145
0.11118417 0.20520107 0.08563174 0.16531636 0.08633825 0.14401953 0.11599069 0.14321913

encBlocks.1.conv1.weight f4 [16, 16, 3, 3]
00000000: 5062 a63a ed97 953d 8777 27bc 018a 553d
00000010: da7c 48bd adf5 71bd 4c49 59bd 69e6 83bd
00000020: 3d11 71bd 8e11 253d 6ccc 5ebd c221 66bd
00000030: 219c e3bc ef85 d63d b458 9cbc 5aad 793d
00000040: a285 983a cf6d 923d ea7c 4dbd 4130 803d
00000050: 232b 95bd 5116 303d 6fd4 84bc c4c5 43bd
00000060: 5d29 a8bd 12a6 093c 281d 593d 943c c1bd
00000070: adaa 943d 4cf9 1e3d 675c 5fbc a549 90bc
00000080: 76b6 893d 912e d13c 2d70 8dbd 651e 78bd
00000090: 2a40 8e3d f410 e33c 0aae 02bd cf07 8abc
000000a0: a061 cabb bb20 89bd b27d 303d f7f2 663d
000000b0: ffd3 be3d 9c22 8a3b 9ec4 a1bd 17f0 393c
000000c0: c6b0 a43c 86f1 16bd 7d9f 9c3d 5746 c53a
000000d0: dc0d 04bc 4203 49ba ae1c 6cbd 982c 903d
000000e0: 62a7 223d b2ed 18bd 4795 74bd 9276 37bd
000000f0: eff8 8f3d 80ce 71bd 35a0 4cbd 9016 6ebd
00000100: 0958 6bbc 27ca 36bd edfa 75bd cc20 c8bb
00000110: 58a9 e63c 46cb 20bd b0ec 47bc d4a3 0339
00000120: efd0 63bd 68d9 833d dfac b1bb 8037 403d
00000130: 0ec0 9abd c30d 8fbb d8a7 61bd 0f85 10bd
00000140: c856 41bb 68e7 503d 1833 ba3c f1b7 9bbd
00000150: 8dc8 903d f2c9 083d 6f40 21bd 0156 c53c
00000160: 791a 5bbd 001a 27bd ba44 c7bb 9194 443d
00000170: a08a 66bd 7ee7 3fbd 04c5 29bc 12ee b13d
00000180: 08e9 24bd 93af b63c fbb5 84bd c4e4 c13c
00000190: c5fb 98bd f4ac b03d 12df 9d3d f3b4 b2bd
000001a0: a74e 6a3d 8dc1 aab9 a443 45bd 7aeb 953a
000001b0: a2ef 613d f301 3a3d 1234 bd3c a689 46bb
000001c0: 1bf8 553c a820 ebbc 84cf 143d fdff 843d
000001d0: 8f30 5f3d b273 683d 95df 54bb 0ade 9c3d
000001e0: 6f78 f93c ce7a 323d e5d7 04bc 1fbc 8d3d
000001f0: 8c3d a93c 84a6 fa3c c968 753d aaf6 9b3d
00000200: 69e2 34bd bccb 8d3d 1b2f ac3c ee07 5abd
00000210: 1825 8fbd 307f 833d dbe1 5e3d 1ef5 9c3b
00000220: 9693 723d aa1d 3dbc ec69 3b3d 47d8 373d
00000230: 0ae4 80bd f038 0bbd 7f08 c1bd 2f3e e13c
00000240: e112 8b3d 0a03 893d c288 94bd 226b 753d
00000250: cb9d 093d a515 b33c 4359 933d 3e01 23bd
00000260: 65e4 85bd c946 01bd 4068 75bd cce4 ca3c
00000270: 099e 4fbd 4a1f a33d ca94 3a3d cce4 cc3b
00000280: 37cc 56bd cbc7 8ebd 41cf a6bd 44aa 8e3d
00000290: 6655 41bd f573 67bc 794f 5fbd 6f5f 8cbd
000002a0: 9daf f5bb 5b1b 0bbd 4553 9e3d be9b b2bd
000002b0: e2fd 8a3c 15e8 a73c fafb 713d d2df 793d
000002c0: 4329 323b 6f9f 313c 925f 94bc 9b51 47bc
000002d0: ae02 5cbd 9f66 883d 3be0 743d cde7 9a3d
000002e0: 57b6 7f3d 56b8 273d 0176 6abd a7d8 7dbb
000002f0: 5aa5 6f3c 150c 333d 7ed2 473d 3bc3 9c3d
00000300: bd62 c1bc b6ac 05bd 4b88 41bd a6fb 9f3d
00000310: 21da 943c 135e fb3b 0175 5a3d 68ad 96bd
00000320: d2dc 87bd 460c 893d 5c74 3fbd f8d4 92bd
00000330: f530 b53c 17f7 ecbb 15b3 5a3c 75c2 14bd
00000340: ecaa 053d e97d 22bd 07f3 263c 6047 053d
00000350: 82e8 563d 114f 8dbd e2d2 293d a886 6cbc
00000360: cf74 d73c 3e2c 923a a598 863d c521 3e3d
00000370: 86d0 a73b 5274 b0bd 44d1 203d 76fc 51bd
00000380: 3e5a 953d b88e 16bd 3ede 3a3d b756 63bd
00000390: d35e 723d 83fb 1ebc cf94 10bd 8375 7fbc
000003a0: 95aa 533d 19d1 843d 24d6 84bd 3b4f 1f3c
000003b0: 6ff4 893d f912 553d e014 4bbd f089 f73a
000003c0: 3503 a6bc ad88 1d3d 8741 7ebd 3cd9 1fbb
000003d0: 6fb0 dcbc c4dd 8d3d d00f ae3c 5506 813c
000003e0: 1fd8 eebc 7f87 063c 8a31 593d cbd2 663c
000003f0: 5e84 af3c 26a4 2d3d 1774 a03c 4d3f 913c
0.0012694094 0.07304368 -0.010221369 0.052133564 -0.048947193 -0.059072185 -0.053048417 -0.064404316
-0.05885433 0.040299945 -0.05439417 -0.056184538 -0.027784409 0.104747646 -0.019085266 0.060956337
0.0011636505 0.071498506 -0.050167955 0.06259204 -0.07283618 0.042990033 -0.016214577 -0.047796026
-0.082110144 0.008401411 0.05300632 -0.094353825 0.07259116 0.038811967 -0.01363287 -0.017613241
0.06724255 0.0255349 -0.069061615 -0.06057586 0.06945832 0.027718045 -0.031904258 -0.016849427
-0.0061761886 -0.06695696 0.043088622 0.056384053 0.09317779 0.0042155515 -0.0789883 0.011348746
0.020103823 -0.03685143 0.076476075 0.001505087 -0.008059945 -0.0007668027 -0.05764454 0.070397556
0.03971041 -0.03733606 -0.059712674 -0.04479081 0.07029902 -0.059034824 -0.049957473 -0.058126986
-0.014364251 -0.04462638 -0.060053755 -0.0061074253 0.028156921 -0.039256357 -0.012202427 0.00012554164
-0.055619176 0.06437951 -0.005422219 0.04692793 -0.07556163 -0.004365654 -0.05509171 -0.035283145
-0.0029501189 0.051001936 0.022729442 -0.076034434 0.07069502 0.033395715 -0.03936809 0.024088861
-0.053492043 -0.04079628 -0.006081191 0.047993246 -0.056284547 -0.046851628 -0.010361914 0.086879864
-0.0402613 0.022300517 -0.064800225 0.023668654 -0.07469896 0.08626738 0.07708563 -0.087259196
0.057203915 -0.00032569133 -0.04816021 0.0011437975 0.055160172 0.045412015 0.023096118 -0.0030294447
0.013059641 -0.028702095 0.036330715 0.064941384 0.05448967 0.05675096 -0.0032481898 0.07659538
0.030452935 0.043574147 -0.008108114 0.06920647 0.02065923 0.030596979 0.059914384 0.07615407
-0.044161234 0.06923625 0.021018555 -0.05323022 -0.06989497 0.064207435 0.05441461 0.0047899624
0.05922278 -0.011542717 0.04575531 0.044883993 -0.06293495 -0.033989847 -0.094254486 0.027495472
0.0679071 0.06690033 -0.07252647 0.059916623 0.03359775 0.021860907 0.0719476 -0.039796107
-0.065377034 -0.031561647 -0.059913874 0.024767302 -0.050687823 0.07964952 0.045552053 0.0062528607
-0.05244085 -0.06971701 -0.08144999 0.06966069 -0.047200583 -0.014126767 -0.05451915 -0.0685414
-0.0074977414 -0.033961635 0.07730726 -0.08721112 0.016966764 0.020496408 0.059078194 0.061004467
0.0027185238 0.010841235 -0.018111978 -0.012165452 -0.053713493 0.066601984 0.059784155 0.07563744
0.062429752 0.04094728 -0.057241444 -0.0038733871 0.014626825 0.043712694 0.048784725 0.07654425
-0.023606652 -0.032635413 -0.04724912 0.0781167 0.018170418 0.0076711266 0.05333424 -0.07357293
-0.06633915 0.06691794 -0.04674183 -0.07169527 0.022118071 -0.007231604 0.013348361 -0.03631826
0.032633707 -0.03967086 0.010189778 0.03253877 0.05246783 -0.06899846 0.04146088 -0.014436401
0.026300816 0.0011152101 0.065720834 0.046418924 0.0051212935 -0.08615936 0.03926207 -0.051266156
0.07292603 -0.0367572 0.045622103 -0.05550262 0.059172463 -0.00970352 -0.035298165 -0.015591982
0.05167635 0.06485195 -0.064861566 0.00972348 0.06736075 0.052020047 -0.049580455 0.0018885713
-0.020265201 0.038460422 -0.06207421 -0.0024390956 -0.026939599 0.06927064 0.021247774 0.01575009
-0.029155789 0.008211016 0.05302576 0.014088343 0.021425422 0.042392872 0.019586606 0.01773038

encBlocks.1.conv1.bias f4 [16]
00000000: c495 cb3c a997 633b e744 943d 8cb1 153d
00000010: 9c19 023d 9e16 cebc db19 81bd 2dbd 873d
00000020: 30f6 6abd 0d3d f6bb 64fe 823d 15ae 483d
00000030: 22a1 5dbd ced9 8cbd 4fc1 afbc 8744 1dbd
0.024851687 0.0034727848 0.072397046 0.036546275 0.031762704 -0.02515727 -0.0630376 0.06627879
-0.05736369 -0.007514602 0.063961774 0.048994143 -0.054108746 -0.068774804 -0.021454481 -0.03839543

encBlocks.1.conv2.weight f4 [16, 16, 3, 3]
00000000: 5688 f93c 351b 87bb 9349 9fbc 212e 88bd
00000010: a9d9 983d abf0 c5bc ce39 adbd 32c8 aebd
00000020: 3130 86bc 5282 3abd f6e6 6fbd 33ed a03c
00000030: 80f2 373d aed6 b3bd d980 c6bc 8a65 d5bc
00000040: 1ab0 88bc 6949 82bd 59a0 d33c bed1 f33b
00000050: 015d 19bc 8e97 003c ef30 343d a1e9 3b3d
00000060: 8475 6abd 03aa 2e3c ed2b 6fbc fa0c 423d
00000070: 9302 1ebd d87a 2abd 3aa3 04bd eece 7c3d
00000080: 5fd8 dcbc 4259 c6bc 40d9 423d 82c4 1cbd
00000090: 28db 853d 6b12 6b3d 75c3 f93c 3fc2 6b3c
000000a0: 8404 b5bc e205 603d 60a5 c43b 297e f1bc
000000b0: 2244 c7bc 5726 963d 063a 99bd b94e f13c
000000c0: bffe eebc 8950 b6ba 579d 86bc 5230 503c
000000d0: 044a 953b f450 6fbd e5cf 523d 406d 423d
000000e0: 97df 71bd 30d9 4dbd 0c09 93bb ceaa ac3c
000000f0: dde8 9cbd 2004 d8bc c94c 4e3d 529d 36bb
00000100: 641d 58bd 6735 a1bb edab e6bc d73f 933c
00000110: 755f f83c 5f63 f63c 654e a53d a4c5 b03d
00000120: 30f9 863d b0b2 8dbd 5cd1 08bd b3ca c53c
00000130: d8dd dabc 405b c9bd a859 c4bd 2540 99bd
00000140: 323f 453c d9ba 873d 2b4b 03bd 0b0b 1cbc
00000150: 8d74 d6bc 82ad a2bd 9777 7ebd e53c 40bb
00000160: 96f0 4b3d 32d2 913c fb9d 56bc 6b86 19bd
00000170: 7d31 8f3d 3171 bbbd 0881 62bb c202 103d
00000180: b06b 073c ac89 5ebd 652f d9bb 3d29 a2b9
00000190: d57b 223d 9423 1f3c 0a5c aabd cc6f 9d3d
000001a0: c4e1 04bd 3872 293d c0ab 5c3d 9854 813d
000001b0: a586 c6bc 4357 aa3b 3abf 483d 13c1 df3b
000001c0: c4f1 bc3b 627a 72bd 3fa3 9fbd 48ab 1dbd
000001d0: dc93 813d 16e7 fe3c 095d 5ebd 7bdc 623c
000001e0: 8dc1 94bd 9022 003d 1719 34bb 3e82 3a3d
000001f0: 6823 f23b 56bd c6bc 9bd8 173d 6e68 14bd
00000200: 3dfc 633c 04ae c6bc 5b61 dfbb 026d f9bc
00000210: 2601 093d 609b b03c 061e f8bc 2ac6 9ebc
00000220: 8c66 b63c b4fe 3f3c 3cb0 803d 2f80 6d3c
00000230: 183b 803d 1177 f9bc a1db d0ba d4ff d4bc
00000240: 63b0 ed3c b808 88bb fefb 94bc d95c 06bc
00000250: 448a 8b3d 0e08 a4bd 1c33 4abd 5351 12bd
00000260: 3fc6 a9bd 1886 f0bc 5134 663d 2f99 a73d
00000270: f6e5 35bd 88f4 f43c 279b 793d 9c65 693d
00000280: 4086 d43c 06bd 5fbd 497a 84bd 760a 873c
00000290: e8c5 083d e5a0 ac3d dd3e 6fbc 5415 f039
000002a0: 64db 9b3c ba58 f43c 7e20 18bd 11d2 6c3c
000002b0: 36c1 f0bb 3d11 9abd 7f96 7b3d 6de1 e6bc
000002c0: af6a 633b 9a88 ab3c 197f 87bc 6fc5 02bd
000002d0: 5914 67bd b15c d8bc f802 37bc 4761 533d
000002e0: b82e 96bb eeb7 163c d0c1 4c3b 1039 0abd
000002f0: e378 86bd 6d04 8f3d a895 9e3d 2a11 d73c
00000300: 81b6 473d e770 08bd 633c a9bc 3a52 913c
00000310: 64db 983d 9c3a 72bd 6e4b 453d 2d89 abbd
00000320: 42c6 c6bc e78c 253d bbf7 3ebd 36d0 44bc
00000330: b5de 05bd 0a0d 7fbd 2d01 8cbc 3499 52bc
00000340: bc43 3f3d 55f0 8abc e112 5abc 5832 65bd
00000350: 3731 bfbc 91f4 af3b 6db8 253d 014c 993d
00000360: 8dc9 9f3d 4f76 01bd 5227 87bd a7ee a4bc
00000370: bb1c 99bd 5058 ebba 20b9 923d db12 8a3d
00000380: d322 1fbd 14b7 efbc 89cb 12bc eba3 7a3d
00000390: 25a1 0fbd cfc8 aabd 7e80 64bd 57a7 16bd
000003a0: ea48 b3bd 9a33 03bd 0033 9f3a 0ea7 3ebd
000003b0: 571c 15bd cf67 7a3d 545b 6d3d 77c9 a8bd
000003c0: 03c2 273d ae97 03bd 9f75 2c3d db19 413a
000003d0: ac66 253d 8e1d 7d3d 325e 2ebd 8517 5a3c
000003e0: b1e0 4a3d 8625 26bd 97f8 a9bd 6eed 10bc
000003f0: 4d4f 333d 33e4 6a3d fc89 2d3c b328 83bd
0.030460518 -0.0041231164 -0.019444263 -0.066494234 0.074633904 -0.024162611 -0.08458291 -0.08534278
-0.016380401 -0.04553444 -0.05856987 0.019644355 0.044909 -0.08781181 -0.024231361 -0.026049394
-0.016685534 -0.06361658 0.025833296 0.0074407747 -0.009360553 0.007848633 0.04399198 0.045877103
-0.057240978 0.010660651 -0.014597875 0.047375657 -0.038576674 -0.04162106 -0.032382227 0.06172078
-0.026958643 -0.024212483 0.047570467 -0.038273342 0.06535941 0.05739061 0.030488709 0.014389574
-0.02209688 0.05469311 0.0060011595 -0.029479103 -0.02432448 0.073315315 -0.0748177 0.029456483
-0.029174207 -0.0013909499 -0.016432447 0.012706833 0.0045559425 -0.058426812 0.051467795 0.04746747
-0.059051123 -0.050255954 -0.0044871625 0.02107754 -0.07661603 -0.026369154 0.050366197 -0.0027864766
-0.052762404 -0.004919696 -0.028158152 0.017974777 0.030318955 0.03007668 0.08071593 0.08631447
0.065904975 -0.069188476 -0.033402786 0.024144506 -0.026717111 -0.09831858 -0.09587413 -0.07482938
0.012038993 0.06627435 -0.032054108 -0.009524117 -0.026178623 -0.0794325 -0.06212577 -0.002933317
0.049789988 0.017800424 -0.013099189 -0.037481707 0.06991861 -0.09152449 -0.0034561772 0.03515888
0.008265421 -0.054330513 -0.0066279643 -0.00030929773 0.039668877 0.009713072 -0.08318336 0.07687339
-0.03244187 0.041368693 0.05387473 0.06314963 -0.024234125 0.0051983907 0.049010493 0.006828436
0.0057661254 -0.059198745 -0.077948086 -0.038493425 0.0632703 0.03111605 -0.054287944 0.013846512
-0.072634794 0.03128296 -0.0027480775 0.045534365 0.0073894747 -0.024260204 0.037071805 -0.036232404
0.013915119 -0.024252899 -0.0068170256 -0.030447487 0.03344836 0.021558464 -0.030287754 -0.019381601
0.022265695 0.011718441 0.06283614 0.014495893 0.06261271 -0.030452283 -0.0015934595 -0.026000895
0.029014772 -0.00415143 -0.018186565 -0.008200848 0.068134815 -0.08009349 -0.049365148 -0.035722088
-0.082897656 -0.029360816 0.056202237 0.08183514 -0.04440876 0.029901758 0.06093898 0.056981668
0.025942922 -0.054623626 -0.064686365 0.01648448 0.033391863 0.08429126 -0.01460239 0.00045792258
0.019025512 0.029827464 -0.037140362 0.014454381 -0.0073472513 -0.07522819 0.06142282 -0.028183663
0.003470104 0.02093916 -0.016540097 -0.03192657 -0.05641589 -0.026411386 -0.011170141 0.051606443
-0.004583206 0.009199126 0.003124345 -0.033745825 -0.06566026 0.06983266 0.077433884 0.026253302
0.048758034 -0.033310797 -0.020658677 0.017739404 0.074637204 -0.059137926 0.04816764 -0.083757736
-0.024264459 0.040417578 -0.046622973 -0.012012532 -0.032683093 -0.062268294 -0.017090404 -0.012853909
0.046695456 -0.016960302 -0.013310165 -0.055956215 -0.023338897 0.0053697308 0.040459085 0.074852
0.07802115 -0.03160697 -0.06599297 -0.02013333 -0.07476183 -0.0017955396 0.07164216 0.06741878
-0.03885157 -0.029262103 -0.008959659 0.06119148 -0.03506579 -0.083390824 -0.055786602 -0.03678068
-0.08754142 -0.032031633 0.0012145936 -0.046546035 -0.03640398 0.061134156 0.057948425 -0.08241551
0.04095651 -0.032127075 0.04210436 0.00073662185 0.04038112 0.061795764 -0.0425703 0.013311272
0.04953069 -0.04056313 -0.08299368 -0.00884567 0.0437768 0.057346534 0.01059198 -0.06404247

encBlocks.1.conv2.bias f4 [16]
00000000: 9f1f 703d 68ff d1bc 4413 543c 1a59 9abd
00000010: 4ac3 1abd ad7c 79bc ea8c a2bc b07c c8bb
00000020: 8835 a3bd 7a3c 25bc 107b 9b3d 57cd cfb8
00000030: 67fa 85bc 5c41 653d cdf2 533d b964 593d
0.058623906 -0.025634483 0.012944046 -0.07536526 -0.0377839 -0.015227479 -0.019842584 -0.0061183795
-0.07969195 -0.0100852195 0.07591832 -9.908777e-05 -0.016354753 0.055970535 0.051745225 0.053074572

encBlocks.1.BN1.weight f4 [16]
00000000: 04a4 853f f6b9 843f ffb4 783f 1d72 813f
00000010: 4a37 7a3f c921 803f 0904 793f 4809 773f
00000020: 6159 823f 35ec 833f e3ec 803f 59ab 7a3f
00000030: 8204 793f 2ed8 803f 900a 853f 3c0f 793f
1.0440679 1.0369251 0.9715118 1.011295 0.97740614 1.001031 0.9727178 0.9649854
1.0183526 1.030646 1.0072292 0.97917706 0.97272503 1.0065973 1.0393848 0.9728887

encBlocks.1.BN1.bias f4 [16]
00000000: 3989 233b 2a59 eebb e65a a6bc c05e 3cbb
00000010: ab6a d6bb 9b9e 8bbc 4477 afbc cefa dabc
00000020: d3fc 84bb bc11 41bc c82a 91bc 92a1 1bbc
00000030: 56a8 b3bc 50a7 0fbc 6884 a0ba 4a20 bebc
0.0024953617 -0.007273813 -0.020307016 -0.0028743 -0.0065434775 -0.017043402 -0.021419175 -0.026730921
-0.0040584593 -0.011784013 -0.017720595 -0.009498971 -0.021930855 -0.008767918 -0.0012246491 -0.023208756

encBlocks.1.BN1.running_mean f4 [16]
00000000: 9470 2a3e 825e 963e bcca 7bbf 06d7 093f
00000010: 4487 2bbf 3761 0f3e 941e 8dbf 8e60 81bf
00000020: e970 5e3d a02e 98bd d99c 943e 056b 52be
00000030: d50f dabf 92cf 323e cb77 823e 9570 8ebf
0.16644508 0.2936898 -0.98356223 0.53843725 -0.67003274 0.14001928 -1.1024957 -1.0107591
0.0543069 -0.07430768 0.29025915 -0.20548637 -1.7036082 0.17461994 0.2548202 -1.1128107

encBlocks.1.BN1.running_var f4 [16]
00000000: d003 f63e b57f f23e 0158 4140 5091 4b3f
00000010: 2e80 3140 b70c 693f bc12 ee3f 7892 e83f
00000020: c87d 513f 2509 f33e 2a0b 243f 7d71 cb3f
00000030: 7600 9e40 be37 163f 5489 be3e 0b12 2740
0.48049784 0.47363058 3.0209963 0.79518604 2.7734485 0.91035026 1.8599467 1.8169699
0.8183255 0.47467914 0.64079535 1.5894009 4.9375563 0.58678806 0.37214148 2.6104763

encBlocks.1.BN2.weight f4 [16]
00000000: 5e0a 783f 2868 803f 27d9 803f 667d 7e3f
00000010: b5b8 813f f086 7d3f 9879 813f 21b8 7e3f
00000020: 0de5 7c3f 2cf5 803f b96a 7e3f c2e5 803f
00000030: 885d 853f a673 7b3f 5d40 823f 201f 7c3f
0.9689082 1.0031786 1.006627 0.9941009 1.0134493 0.99034023 1.0115232 0.9949971
0.98787004 1.007482 0.99381596 1.0070117 1.0419168 0.9822334 1.0175892 0.98484993

encBlocks.1.BN2.bias f4 [16]
00000000: f26c 83bd 4524 023c 55ad a63c a15a d7bc
00000010: 1ee6 26bd 7072 9d3c dbb6 a2bc ba94 0b3d
00000020: 09d2 32bd 9bbe ef3c 1be4 173d e389 e0bc
00000030: b27a 4b3a ae60 243c 172f 45bc 55dd 0d3d
-0.06417264 0.007943218 0.020346323 -0.026288332 -0.0407468 0.019219607 -0.019862583 0.034077384
-0.043657336 0.029265692 0.037082773 -0.0274095 0.00077621185 0.010032816 -0.012035153 0.034634907

encBlocks.1.BN2.running_mean f4 [16]
00000000: a9a0 aabd 40dd eabd 5d6c 013e cf71 26bd
00000010: 5092 ea3e dc11 903e 24cd 68bc 8a5b 1cbd
00000020: 4177 e63e 2a1f 293e 7a97 c53c 8a05 bcbd
00000030: 2534 063c 4394 0cbf e2e2 9f3e ca81 bb3d
-0.08331425 -0.11467981 0.12638994 -0.04063588 0.45814753 0.28138626 -0.014209066 -0.038173236
0.4501286 0.16515794 0.024120081 -0.09180744 0.008191143 -0.5491373 0.31227785 0.09155615

encBlocks.1.BN2.running_var f4 [16]
00000000: 7fff 1b3f 685a 933d fff7 c13d 8909 743d
00000010: 3d1f 483e b494 4c3e 970d a83d 97b9 be3d
00000020: 4fc9 a93e fdb1 b23d bef7 0e3e 60d0 663d
00000030: c64e b63d 689b b63e 79bb e83d a942 7b3e
0.6093673 0.07194978 0.094711296 0.059579406 0.19543166 0.199786 0.08205717 0.09312742
0.331614 0.08725355 0.13961694 0.056351066 0.089017436 0.3566544 0.113638826 0.24537148

encBlocks.2.conv1.weight f4 [1, 16, 3, 3]
00000000: 4b50 963d 8234 183b 7df2 88bd 085a 3a3d
00000010: 0b98 d0bc fc47 85bd 6bc8 5f3d 7f17 793d
00000020: f24f fabc fa0e 8fbd 4fb8 dabc 0a1a 4e3d
00000030: 0291 ebbc d103 8dbc 6a13 4bbd 658a 833d
00000040: 9d98 41bd c5a2 1cbd efcc 033d fe11 8cbd
00000050: 3696 963d 4e78 bd3c ba96 533d 5d94 90bb
00000060: 2ad2 3bbb dd79 11bd 5ed7 983c 88b0 673d
00000070: 0c14 81bd 81e0 66bd a2c7 6c3d d712 f73c
00000080: 1f0f 14bb 90cb b0bd 144d 9a3d 1562 ebbc
00000090: cdfa 123d 1cea a73d aca6 01bd 7a1d 2f3c
000000a0: 4609 f93c fc1a a23d 0d42 44bd f0ba c33d
000000b0: bfd3 063d a3bd 99bc f56d 743d f16c a03d
000000c0: 1035 55bd 951a 7b3d 4c35 733d bce4 543b
000000d0: 0ca6 93bd ea09 85bd 33be ad3c 6193 903d
000000e0: ffad 453d 4d39 943d 4dd8 69bd 68c9 7abd
000000f0: f820 adbd fe02 7c3d 1799 893d 8993 7abd
00000100: 6fb8 8b3d 1dc5 603d e08f 563d 6097 c6bb
00000110: cd61 79bd d56f 4cbd 816f 98bd 6150 9cbd
00000120: 6162 733d 215b cf3c 8447 093d c292 3b3d
00000130: 0240 54bc 5fe3 183d 89ab e03c aa01 da3c
00000140: 7554 cd3b 2c9a 85bd 7852 1c3d c4cf 84bb
00000150: 23c5 0b3d dbdc 1cba d1d9 13bd da25 91bd
00000160: 1830 9b3d 08b8 0abd a2d5 d3bc ff9a c93b
00000170: 0f88 5a3c 14a3 a4bd ca00 593d 54d3 79bc
00000180: 5915 aabd 0750 83bc a2cd 90bd 5061 963c
00000190: e6e7 3b3d d00e 333d fe55 aabd 41a4 9ebb
000001a0: f67c e8bc 612d 9c3d 281d febc d166 b83c
000001b0: b262 afbd bd28 613d 1e41 34bd b139 3f3d
000001c0: 67b2 32bc 9871 5b3c 0e6c 333b 30df 123c
000001d0: 844a f93c fa0a 7ebd 2d52 173d a49c 1b3d
000001e0: facc 8cbb 62ee b83c 0924 b0bc 10a5 26bd
000001f0: e2ba 95bd b337 71bd 81ba bcbc 7cdd 513d
00000200: ca86 ebbb 5b3d 7a3d 3a4f a4bd 1603 b73c
00000210: ea88 c93c e737 64bc 6657 463d ad2d aabd
00000220: 3c65 80b9 05dd 69bc e400 d73c e29c 24bd
00000230: c6cf 81bd 85c2 4c3d 2818 8bbd 7318 90bd
0.073395334 0.0023224656 -0.06686876 0.045496017 -0.025463125 -0.065078706 0.054634493 0.060813423
-0.030555699 -0.069852784 -0.026699213 0.0503178 -0.028755669 -0.017213734 -0.04957906 0.06422881
-0.047264684 -0.038241167 0.03217786 -0.06839369 0.07352869 0.023128655 0.051657416 -0.0044122175
-0.0028659203 -0.03551661 0.018657383 0.056564838 -0.06302652 -0.056366447 0.057807572 0.03016035
-0.002259202 -0.086325765 0.07534233 -0.028733293 0.035883714 0.0819895 -0.03165309 0.01068818
0.03039993 0.07915303 -0.047914553 0.0955714 0.03291678 -0.018767184 0.059675176 0.07833279
-0.052052557 0.061304647 0.059377 0.003248497 -0.07209405 -0.064960316 0.021208858 0.0705936
0.04826164 0.07237492 -0.057091046 -0.061227232 -0.08453554 0.06152629 0.06718653 -0.061175857
0.06822287 0.054875482 0.052383304 -0.006060526 -0.060884286 -0.04991134 -0.07443143 -0.076325186
0.059419993 0.025312008 0.03351547 0.045794256 -0.012954714 0.037326213 0.027425544 0.026612122
0.0062661716 -0.065235466 0.038164586 -0.004053088 0.03412355 -0.0005983838 -0.036096398 -0.07087298
0.075775325 -0.033866912 -0.025858704 0.00615251 0.013338103 -0.08038917 0.052979268 -0.015248138
-0.08304853 -0.016029371 -0.07070471 0.01835695 0.045875452 0.0437153 -0.08317183 -0.004841358
-0.028379899 0.07625843 -0.031019762 0.022509964 -0.085637465 0.05497049 -0.044007413 0.04668588
-0.010906792 0.013393782 0.0027377638 0.008964345 0.03043104 -0.062022187 0.036943603 0.03799118
-0.004296896 0.022574607 -0.021501558 -0.04068476 -0.07311036 -0.05889101 -0.02303815 0.051236615
-0.007187699 0.06109367 -0.08022924 0.022340339 0.024601419 -0.013929344 0.048423193 -0.08309493
-0.00024489488 -0.014273887 0.026245542 -0.040188678 -0.06338458 0.049990196 -0.06791717 -0.07035913

encBlocks.2.conv2.weight f4 [1, 1, 3, 3]
00000000: e122 2abe 4f64 a93d 6b47 39be aa43 a33e
00000010: ec9d 6bbe a0aa 143e 1de1 fcbd b8f9 073e
00000020: 22f4 babd
-0.16614868 0.082710855 -0.1809365 0.3188756 -0.23009461 0.14518213 -0.123476245 0.13278854
-0.09128596
