Model_params/test_15_macro_epoch_10.pt (torch, 320551 bytes, 26 tensors)

encBlocks.0.conv1.weight f4 [16, 3, 15, 15]
00000000: bebd be3c c026 03bd 6b8e 23bd 78ed c93c
00000010: 32af 37bc 1a7e c23b d1b5 33bc 5b70 123c
00000020: a338 c73c 9025 d5bc 5f7e 203c 5c91 25bd
00000030: 24e1 97bc dc35 0fbd bd42 67bb 4acc 933c
00000040: 3f67 abbc 15c2 adbb 9368 17bd 7f6b 05bd
00000050: cb86 cd3b db48 c4bc 1141 12bd f2cb 8abc
00000060: 5ce2 19bc ae1b 52bc aebe bdbc 4a69 bfbc
00000070: 9559 813c 1171 cebc cbc4 9b3c 0688 88bc
00000080: ad98 22bc fc95 c63c 2982 0ebd 309f 9dba
00000090: c97a 0f3c 6860 3abc 2cf7 03bd 3f2a 02bd
000000a0: 3d36 1abd 0555 953c bc1f d63c 026b cebc
000000b0: a55a 1bbd 5902 85bb f89f 41bc 08a8 f13b
000000c0: 4fad 4c3c 592d 07bd 45cf 903c 9fe5 d53c
000000d0: 7b31 483c 3fec 93bb ac28 b9bc 3cc1 6f3c
000000e0: 31e3 eabb 2fcf 88ba fbe4 c03c 344b 013d
000000f0: 19ec 02bc e35b a93c 4a23 9f3c 2863 3abb
00000100: 710d 83bc b72b b03c 7fc9 49bc f25f 14bd
00000110: d3f5 febc 5a3f 02bd 7eac 4ebb 432f 0fbd
00000120: f4ac 22bd 37a3 cdbc 1a59 693c 2f21 68bc
00000130: b856 efbc a5a7 a23b b099 87bc 0a85 103d
00000140: 0906 883a 0cbc 623c a089 26bc 900c 3fbc
00000150: b086 3fbc adaa 2ebb 140c ddbc f4b2 413a
00000160: f72e b43c bd07 de3c 1715 b5bb 641a d93c
00000170: 8f82 1fbd 65bb 7c3c 0297 22bd 1e94 b7bc
00000180: 7aef 05bd 51c7 72bc f3c1 0a3d 00a7 b53c
00000190: bf15 e3bc 7173 09bd 4326 f03c ff13 363c
000001a0: 643b f43c 735f 69bc b5a4 f03c 8d63 0bbd
000001b0: 0e17 833c c54a bdba c545 4bbc df2c 023d
000001c0: 526c babc 9716 a8bc 4799 13bd 225a 413c
000001d0: 42ff 42bc 50ef 95ba 72da 99bc 7f4f 5f3b
000001e0: 7591 183c 9280 9cbb 1c22 e6bb 019b 7f3c
000001f0: d982 d8bc a61c 103b 94a6 f43b b891 8a3c
00000200: cb93 a13c 5b8e 0a3c ff97 0a3d 6ff7 5f3c
00000210: beac 1a3c 3515 053d 2ddf e73c cf9a c4bc
00000220: 3362 f1bc e084 01bd 34b4 203c 2fe3 f23c
00000230: 4e02 c5bc fb6b d8bc 1193 53bc bc71 ca3c
00000240: 09e8 9a3c 6f66 06bd e949 e33c 562a e3bc
00000250: 8771 09bd c665 d0bb b86c 8d3c 6a05 cb3b
00000260: dc76 b73c fb07 e9bc c4e1 e1bc a386 f13c
00000270: f7ee b43c c379 9fbc ccbc 20bd 8afb 673b
00000280: ac24 d13c 87a7 a5bc 67b3 1d3b 7c01 54bc
00000290: 6324 87bc 716e f1bc 2fc2 91bc bbf3 15bd
000002a0: ba81 c8bc 0aad 8f3b 041e e8bc 444c e13b
000002b0: d806 d9bc 3425 82bc 60c9 6c3a e4e4 a53c
000002c0: c10e 8b3c 9bff ac3b 90f1 84bc 261a 203c
000002d0: fc2e cb3c db09 cebc 6183 5c3c 05b9 06bd
000002e0: 85b0 01bc e2aa 8c3b 8ab3 b03c 5789 41bc
000002f0: 0344 123c 9b0b cc3c f390 aabc cf4c 24bd
00000300: 828d 19bd 1a4e c73c cefe 94bc 0167 09bd
00000310: 0e8d e73b f334 ab3c a8a0 60bc 26ca e6ba
00000320: 42f2 cc3c c55f fdbc f393 eebb c3fa 8fbb
00000330: cf35 ef3c 4d53 d7ba cec2 03bd d879 05b7
00000340: dd65 c73c ddec 513c a665 0a3d dad8 8abc
00000350: 710e 133c 39d5 bf3c 06be d7bb 00a6 3f3c
00000360: 7b2c bc3c da63 81bc 572b a2bc 0d23 2bbd
00000370: 47af e63c eba1 b73c 3077 8abc bd58 203c
00000380: b4bb a6bc fa07 f5bc 6a18 bbbc a62f 06bc
00000390: 01af bfba 1700 b93c 264f 1b3c 46dc 0bbd
000003a0: 7cde 2abc 9522 8abb 4903 9fbc 07e8 b9bc
000003b0: 7feb ffbc 2a24 0bbb ce48 65bc e595 06bd
000003c0: 9f43 a73c c842 06bc 789d 3ebd ca70 44bd
000003d0: 42ce 023c 72c5 983c 48e5 de3a 69f4 df3c
000003e0: c599 0fbd 9f18 a4bc 6875 d4ba 58ca a1bc
000003f0: fa8d 103d 71bb c2bc ed2f 933c eb97 aa3a
0.023283836 -0.032019377 -0.039930742 0.024649367 -0.011211203 0.0059354426 -0.010968641 0.00893792
0.024318999 -0.026018888 0.009795754 -0.04042183 -0.018539973 -0.034963474 -0.0035287582 0.018041749
-0.020923255 -0.0053026774 -0.036964964 -0.03257322 0.006272172 -0.023960521 -0.035706583 -0.016942952
-0.009392347 -0.012823982 -0.023162212 -0.023365635 0.015789786 -0.025200399 0.019014737 -0.016666424
-0.009924096 0.02424144 -0.0347921 -0.0012025591 0.008757302 -0.011375524 -0.032218143 -0.03177857
-0.037649382 0.018229017 0.026138179 -0.02519751 -0.037928242 -0.0040591178 -0.011817925 0.007374767
0.012492492 -0.03300223 0.017676959 0.026110468 0.012218828 -0.0045142467 -0.022602402 0.014633473
-0.0071681966 -0.0010437722 0.023546686 0.03156586 -0.00799086 0.020673698 0.019426007 -0.002844045
-0.01599762 0.02150522 -0.012316107 -0.036224313 -0.031123077 -0.031798698 -0.0031535919 -0.03495718
-0.039715722 -0.025102241 0.014242435 -0.014168068 -0.029216155 0.0049638324 -0.016552776 0.035283126
0.0010377775 0.013838779 -0.010164648 -0.01166071 -0.011689827 -0.0026652024 -0.026983298 0.0007389032
0.02199505 0.0271033 -0.0055261957 0.026501842 -0.03894287 0.015425538 -0.039694794 -0.022409495
-0.032699086 -0.014818029 0.03387637 0.022174358 -0.02772033 -0.03355736 0.02931512 0.011113166
0.029813476 -0.014243948 0.029375413 -0.034030486 0.016002204 -0.0014441839 -0.012406771 0.031781074
-0.02275673 -0.020518584 -0.03603485 0.0118012745 -0.0119016785 -0.0011439119 -0.01878092 0.0034074483
0.009312023 -0.004776069 -0.007023109 0.015600921 -0.02642958 0.0021989732 0.0074661467 0.016915187
0.019723793 0.008456792 0.03383636 0.013669833 0.009440599 0.032490928 0.02830466 -0.0239996
-0.02946577 -0.03162086 0.009808589 0.029649345 -0.02404895 -0.026418677 -0.012913481 0.024712436
0.018909471 -0.032812532 0.027745204 -0.027730148 -0.033555534 -0.0063597886 0.017263755 0.0061957138
0.022395544 -0.028446188 -0.027573474 0.029483145 0.022086604 -0.01946724 -0.03924255 0.0035397732
0.025530182 -0.020221485 0.002406323 -0.012939807 -0.016496843 -0.029471608 -0.01779279 -0.036609393
-0.024475921 0.0043846415 -0.028334625 0.0068755466 -0.026492521 -0.01588688 0.0009032693 0.020250745
0.016974809 0.005279494 -0.016228467 0.009771859 0.024802677 -0.025151184 0.013459058 -0.032891292
-0.007915621 0.0042928318 0.021569986 -0.0118125295 0.008927348 0.024907878 -0.02082107 -0.040112313
-0.037488468 0.024329234 -0.018187907 -0.033545498 0.0070663756 0.020899272 -0.013710178 -0.0017607852
0.025017861 -0.030929456 -0.0072808205 -0.004393907 0.029200463 -0.0016428024 -0.032168202 -7.955787e-06
0.024340564 0.01281282 0.033788346 -0.016949106 0.008975611 0.023417102 -0.006583932 0.011697292
0.022970429 -0.015794683 -0.019796057 -0.041781474 0.02815975 0.022416076 -0.016902536 0.009786782
-0.020353176 -0.02991103 -0.02283879 -0.008190071 -0.0014624299 0.02258305 0.00947932 -0.034145616
-0.010429021 -0.0042155483 -0.019410746 -0.022693647 -0.031240223 -0.0021231272 -0.013994409 -0.032857794
0.020417986 -0.008194633 -0.046536893 -0.047959127 0.007983746 0.018648837 0.0017005587 0.027338224
-0.035058755 -0.020031272 -0.0016209306 -0.019749805 0.03529165 -0.02377102 0.017967189 0.0013015246

encBlocks.0.conv1.bias f4 [16]
00000000: 2c6a c23c 36ee 043d 86d0 eebb 0de1 8e3c
00000010: 8121 263c d6cc 51bc 3a32 453b a631 1cbd
00000020: ed73 823c 09c4 8abc 9499 aa3b 9355 1b3c
00000030: d577 11bd c485 e13c 29a7 15bc 703c 8b3c
0.023732267 0.03245374 -0.0072880415 0.017441297 0.010139824 -0.012805184 0.0030089752 -0.038133286
0.015924418 -0.01693918 0.005206296 0.009480852 -0.03551467 0.027529605 -0.009134092 0.016996592

encBlocks.0.conv2.weight f4 [16, 16, 3, 3]
00000000: 3d4e a2bd ec5d 03bc f0ec 333d 2e71 ac3c
00000010: 64ef 5b3b 856a e9bc cb86 56bd 0fa3 193b
00000020: e28b 44bd d2e2 013d 112a eb3c 66cb efbc
00000030: a2d5 37bd a5ac 143c fd02 6d3d bdf2 973d
00000040: cd7c 0cbc d889 703c 3429 9ebd fd5c b13d
00000050: cd0a 7dbd ec47 68bd 743d a13d 2dd4 4cbd
00000060: 105d 943d 4189 d83c 298c b9bb 18a0 433c
00000070: 284d a9bd fb13 593d d872 ec3c bd40 97bd
00000080: eb9f 783c caeb 62bd 9ad4 cbbc 35d8 20bd
00000090: 22e3 093d 239b b93b 97b2 7f3d 8af7 babd
000000a0: 866d 453d 0d38 b7bd 78df 5b3c 5e7c 373d
000000b0: 756e 92bd 6983 703d cbdf ea3c f93f 1fbc
000000c0: eaf9 7ebd 0d4f ac3b d0fc ae3c cac9 63bc
000000d0: 04e7 0e3d ad05 f33c e0f7 b33d 59ab 8a3c
000000e0: b5b8 9e3d 794d 2cbd e5f5 a03d e38b 9cbc
000000f0: fe30 debb a2e9 4ebd fa0d 873d f0f2 4a3d
00000100: 2c24 94bd 1aee 753b 402a 58bd d89e 2e3d
00000110: 0410 a53d 7f4c 553d eb6b 783d e47e a53c
00000120: 0e0b 953b 2943 a7ba 6355 46bd 44e0 e53c
00000130: 85c9 9b3d 28bc 263c b609 673d 4fbe df3b
00000140: 6909 8cbd 3be9 c03b 5afd dbbc 85ab 843d
00000150: 422f 19bd 2155 7b3c 655c 693c 9a2e a03d
00000160: 02ec 84bd 9931 d5bc 0578 0c3d ab11 92bc
00000170: 02ca 553d ab73 e13c bdd3 453d e431 2e3d
00000180: 8495 dfbc 003c 11bd 5a87 e2bc 2043 d5bc
00000190: d9ff 113d 7561 a3bd 22c1 453d d074 bb3c
000001a0: 4e16 81bd 5617 023d 73f5 6cbd 63fe c3bc
000001b0: b3a1 edbc 72b8 933d 708f f93c c686 1ebb
000001c0: 1d2f 81bd 4a74 d13a 297b 733d fa17 99bd
000001d0: 9cd1 d73b 5511 1bbd 01eb 2cbd 975d 913d
000001e0: cc48 2bbd b46f c3bb 31cc 363d bcae ac3d
000001f0: 3145 8ebd 9a6f c83c 2c84 23bc c57a 643d
00000200: 93ed d23c 9de4 6f3d 4aba 93bd a1fc 39bd
00000210: db7d ae3c f4d1 30bc cff4 13bd f0f2 003d
00000220: 8126 1f3d 67c2 293d bc07 23bd 0a86 8d3d
00000230: f164 f4bc 4179 e63c 5978 a73d 9412 1e3d
00000240: bf1a 2c3d e44d 3b3c d836 823d 053f bcbc
00000250: 0b68 7f3d 1509 233d 6dac 503d 4c86 a03d
00000260: 8610 2d3d 1301 f13c d889 e33c 8896 7bbd
00000270: 9fd8 ab3d 671d ccbc a77f b23d bacc 043d
00000280: 6224 83bd 8ea2 863d b3ed 9f3d b834 8abd
00000290: fbf7 1c3b a3ea 863d b7dc a4bb 5765 ca3b
000002a0: fe69 9f3a d500 503d 5d26 b6bc 2b32 423b
000002b0: a793 1f3d df6f 65bd cc33 2e3d bb86 a33c
000002c0: 3281 2e3c 4e73 1a3d a3b9 1fbd 808b 2a3c
000002d0: 4303 9cbd 393c 673d e482 0e3c ba2e c3bb
000002e0: 162b 31bd a4ee 953c 4362 df3b 8b1d 10bd
000002f0: ea17 853b e39c a8bc 5c89 a6bc 0d52 c13c
00000300: 67a0 80ba 7c47 8d3d 4e8d 9e3d dc72 39bd
00000310: 6de1 86bd 1088 8bbd 34ad 5dbd 2a80 98bd
00000320: 80e5 02bb c76f 9abd afa8 0ebd 7962 093d
00000330: 7830 b5bd 409e 82bd 6484 91bd 12a2 113d
00000340: acef 5cbd 842c 8fbb f2ac 09bc b886 623d
00000350: b04b 1dbd 08c0 9e3c a648 8bbd 699c ea3c
00000360: 5d5f 56bd 667a 8f3d 1c89 963d 93a8 25bb
00000370: 1acf ecbb 7d60 3dbd 0e23 6f3d 4e16 ec3c
00000380: 0ff1 7ebd 1c06 813d 389d 5ebd 7901 aeba
00000390: 81a8 51bb 89c0 713d f54d b4bc 5e95 89bd
000003a0: b72b 90bd c34d 923c 4c77 3c3d d0f8 95bd
000003b0: 5a80 8fbd df29 643d 26f5 01bd b8c2 b2bd
000003c0: ede4 d2bc 5b2b 7a3d d267 d13c 95d8 cb3c
000003d0: e65e 8dbd 2289 663d 5911 5c3d 88ed 0c3d
000003e0: bd4d 99bc 63fb 003c b21b 353c efcb 0e3d
000003f0: 6d1c f63b 7e95 da3c 59ee d33c f7cf 2dbd
-0.07925079 -0.008017998 0.043927133 0.021050062 0.0033559436 -0.028493175 -0.052374642 0.0023443138
-0.047984965 0.031710453 0.028706582 -0.029271793 -0.04488147 0.009074365 0.057864178 0.074193455
-0.008574677 0.014681302 -0.077227026 0.08660314 -0.06177788 -0.056709215 0.078730494 -0.050007034
0.07244313 0.026432635 -0.0056624603 0.011940025 -0.082666695 0.05299757 0.028863356 -0.07385395
0.015174846 -0.055400647 -0.02488165 -0.03926869 0.033663876 0.0056642457 0.062426176 -0.091292456
0.048200153 -0.08946238 0.013419978 0.04479634 -0.07149974 0.058719072 0.028671166 -0.009719842
-0.062250055 0.005258447 0.021360785 -0.013903091 0.034888282 0.029665792 0.08787513 0.016927408
0.07750074 -0.04206607 0.07859401 -0.019109672 -0.0067807427 -0.05051578 0.06594463 0.04954809
-0.07233462 0.0037525953 -0.052774668 0.042631954 0.08059695 0.052074905 0.060649794 0.020202108
0.004548437 -0.0012761104 -0.048421275 0.02806104 0.07606796 0.010176696 0.056405745 0.0068281065
-0.06837732 0.0058871782 -0.026854206 0.06478027 -0.037398584 0.0153401205 0.01424322 0.078213885
-0.064903274 -0.026024627 0.034294147 -0.01783069 0.052194603 0.027520975 0.048297632 0.04252805
-0.027292974 -0.03545761 -0.027652431 -0.026032984 0.035644386 -0.07977573 0.04827989 0.022882849
-0.063030824 0.031760536 -0.057851266 -0.023925012 -0.029007768 0.072129145 0.030463904 -0.0024189218
-0.06307814 0.0015980091 0.059443627 -0.07475276 0.0065862667 -0.037858326 -0.042216305 0.07097929
-0.04181747 -0.005964244 0.044628326 0.084317654 -0.06946791 0.024467278 -0.009980243 0.055781145
0.02574805 0.058567632 -0.07213266 -0.04540694 0.021300247 -0.010792244 -0.03612214 0.031481683
0.03885508 0.041445162 -0.039802298 0.069103315 -0.029833289 0.02813399 0.08177251 0.038591936
0.042017695 0.011432145 0.06358117 -0.022979269 0.062355082 0.039803583 0.050945688 0.07838115
0.042252086 0.029419458 0.02777569 -0.061422855 0.083909266 -0.024916364 0.08715754 0.032421805
-0.06403424 0.065739736 0.078090094 -0.067483366 0.0023951519 0.06587722 -0.005031194 0.0061766314
0.0012162325 0.050782043 -0.02223509 0.0029631953 0.03895917 -0.05601489 0.042529866 0.019961705
0.01065092 0.03770762 -0.038995396 0.010409236 -0.076178096 0.056453917 0.008698199 -0.005956498
-0.04325398 0.01830227 0.0068171336 -0.035184424 0.0040616887 -0.020582622 -0.02032917 0.023598695
-0.0009813429 0.068984 0.077417955 -0.045275554 -0.06585965 -0.06813061 -0.054120257 -0.0744632
-0.0019973218 -0.07540851 -0.034828838 0.033541176 -0.08847135 -0.0637784 -0.0710533 0.035554953
-0.053939506 -0.0043693203 -0.00840305 0.05530426 -0.03840226 0.019378677 -0.06800966 0.028639035
-0.05233704 0.070057675 0.0735037 -0.002527748 -0.007226837 -0.046234597 0.05838304 0.02881923
-0.06224161 0.062999934 -0.054349154 -0.0013275585 -0.0031991305 0.059021506 -0.022009829 -0.06717943
-0.07039588 0.017859345 0.046012208 -0.07322848 -0.07006903 0.055703994 -0.031727932 -0.08728546
-0.025743926 0.061076503 0.0255622 0.024883548 -0.06902866 0.056283124 0.05372748 0.034406215
-0.018713826 0.007872435 0.011053966 0.034862455 0.007510713 0.026682612 0.025870489 -0.04243466

encBlocks.0.conv2.bias f4 [16]
00000000: dbc7 553d e4a0 92bd e014 38bc d18e 483c
00000010: 13d3 8ebd 5eef ca3b a7de e53c 06c4 a43c
00000020: 00da 48bd d3b2 b33d 5043 33bd 3b4b 203c
00000030: 0a08 283d b070 b8bd 0a4f 59bc 448c 8abd
0.05219255 -0.07159594 -0.011235446 0.012241081 -0.06973853 0.0061930856 0.02806027 0.020113003
-0.049036026 0.087743424 -0.043765366 0.009783561 0.04102329 -0.090058684 -0.013263473 -0.06765035

encBlocks.0.BN1.weight f4 [16]
00000000: 0854 813f f675 7c3f 8a25 7f3f 78a3 7c3f
00000010: 9d0b 823f 2cae 803f bf57 803f b786 813f
00000020: b608 813f ff77 7c3f a2b3 803f 107f 7e3f
00000030: 1f77 7e3f 952b 7f3f 7f7c 7e3f 3d73 7f3f
1.0103769 0.98617494 0.99666655 0.98686934 1.0159794 1.0053153 1.0026778 1.0119237
1.0080783 0.986206 1.005482 0.9941263 0.99400514 0.99675876 0.99408716 0.99785215

encBlocks.0.BN1.bias f4 [16]
00000000: 4973 203c f701 cdbc 4ef4 6abc a69e e43a
00000010: 9c50 543c 8e2c 9d3c a50b a6bb 3d3f c2b9
00000020: c415 b4bb 8a48 81bc 3593 eb3b 781e 1fbc
00000030: ac50 1abc 2727 70bc eb1d 35bb 4850 26ba
0.009793111 -0.025025351 -0.014340473 0.00174423 0.012958672 0.019186284 -0.005067306 -0.0003704968
-0.0054957587 -0.01578166 0.0071891793 -0.009711854 -0.009418648 -0.014657772 -0.002763624 -0.00063443603

encBlocks.0.BN1.running_mean f4 [16]
00000000: 8155 25c0 7bf2 153f fbff 5a3e de89 abbf
00000010: 6672 2cc0 b099 653f 6769 c63f 29ff b83d
00000020: 99bb aabe 942a c73e b016 f73f 1165 5f3f
00000030: ce43 e0be a23d 0040 1ffa d13f 8f6b b73f
-2.5833437 0.5857312 0.21386711 -1.3401449 -2.6944823 0.89687634 1.5500916 0.09033043
-0.3334625 0.38899672 1.9303799 0.8726359 -0.4380173 2.0037618 1.6404456 1.4329699

encBlocks.0.BN1.running_var f4 [16]
00000000: 6a20 0140 b0ea 3b3e aad8 fd3d df6b 133f
00000010: 2832 0840 cfff cd3e c4aa 3d3f e77a 0d3e
00000020: 98fd 123e 90ab b93d 5e64 8f3f 6f62 863e
00000030: 7867 d53d 4d96 963f c56b 523f d092 1e3f
2.0176034 0.18351245 0.12394841 0.57586473 2.1280613 0.4023423 0.7408869 0.13816415
0.14354551 0.09065926 1.1202505 0.26246974 0.10420126 1.1764618 0.82195693 0.6194277

encBlocks.0.BN2.weight f4 [16]
00000000: 8833 813f 754d 7e3f 5b43 813f 396c 803f
00000010: 780e 7f3f 8575 803f 009b 7d3f f60d 813f
00000020: f390 7d3f 120f 803f 4d16 813f 5193 803f
00000030: a03b 7f3f 7cb1 7d3f 0b13 7e3f 294b 803f
1.0093851 0.9933694 1.009868 1.0033027 0.9963145 1.0035864 0.99064636 1.0082386
0.990493 1.0004599 1.0084931 1.0044957 0.99700356 0.99098945 0.9924781 1.0022937

encBlocks.0.BN2.bias f4 [16]
00000000: 2551 443c 635d 4c3c d974 70bc 6f6a 28bc
00000010: 145c 50bc 6586 733c 63ad 5a3c 05ca 3e3c
00000020: ef47 03bb df14 1b3c 8518 673c 4352 50bc
00000030: 31e7 4f3c 33ff 283b ae08 133b 34f0 1e3c
0.011982237 0.012473437 -0.014676296 -0.010279282 -0.012717266 0.014863585 0.013347003 0.011644845
-0.002003189 0.009465425 0.014104967 -0.012714925 0.012689398 0.0025786876 0.0022435593 0.009700824

encBlocks.0.BN2.running_mean f4 [16]
00000000: 5c65 8a3e 6929 adbd 42de f2bd 105a 723d
00000010: ec20 90be eb9a 5e3e 0815 133e f759 963e
00000020: 7814 33bf f7f8 1f3e 6eb0 f53e e58d a53d
00000030: eb86 ed3d d6b4 c23e d388 b53d 5bc7 e8bd
0.27030456 -0.08455164 -0.118587986 0.05916792 -0.28150117 0.21738784 0.14363492 0.29365513
-0.6995311 0.15622316 0.47986168 0.08083705 0.11597999 0.38028592 0.08863988 -0.11366149

encBlocks.0.BN2.running_var f4 [16]
00000000: 115f 9b3e 74d2 703e 3355 0b3e 27d6 023e
00000010: c8f7 053e d8ea ac3e 27ca 2d3d b252 8e3e
00000020: 861e a53e 8318 5b3e 3d8f 673e d325 3b3f
00000030: e9a7 e73e d428 c93e 5227 3e3e 9293 193e
0.30345967 0.23517781 0.1360672 0.12777005 0.13082802 0.33772922 0.042429116 0.27797467
0.3224985 0.21396069 0.22613235 0.7310459 0.45245293 0.39288962 0.18569687 0.149977

encBlocks.1.conv1.weight f4 [16, 16, 15, 15]
00000000: e388 8a3c 11ed af3b 30ce dfbb aba7 5c3c
00000010: 0cb9 af3b 0b43 f6b9 e7b7 c7bb 53b4 2dbc
00000020: 378c 6fbc 5b2b 34bc 3f8d f6bb 03f5 1e3c
00000030: 78de 57bc 2488 ebba cc25 78bc 446b 54bb
00000040: c52a 843c 815b 833c c992 48bb 49b3 0fbc
00000050: 8300 a7bb f90e 82bc 008d 64bc 88fa 14bc
00000060: 9ad7 42bc 3fa0 143c 5074 c4bb f26d 26bc
00000070: e12b 1c3c 8969 37bc b2db c5bb eb10 433c
00000080: fe18 39bc 2a96 253c e8b1 07bc 4a4f 83bc
00000090: e9a9 6dbb 83be 85bc 95f8 a93b 9429 81bc
000000a0: 6a39 343c fbc0 2cbb d809 baba 5815 343c
000000b0: 964a 00bc 60d0 6c3c 76b2 a63c f332 263c
000000c0: 6e65 8e3c dd13 143a efe8 6cbc 6cd4 853b
000000d0: 1c26 f83a 7160 4dbc 11ef 4638 a749 99bc
000000e0: b5e0 4ebc 153c 2fbc 2c81 133c 8c8a d3bb
000000f0: 6bfc abbb 6d69 ec3b 3ff2 2cbb 9b9a 413c
00000100: 2942 773c e3de 81bc 7a62 f3b8 e9af 27bc
00000110: 8d9e 733c 6b66 ad3b a6f3 22bc 6fac f9bb
00000120: 585b 8fbc dd7f d43b 0d52 2abc 7afa 85bc
00000130: 3f7f 513c 2e09 83bb fbcf d53b 8911 933b
00000140: 1022 5b3c 5691 093c a70b c03b b2bb 0a3c
00000150: 075a fd3b fda0 57bc 561a 3abc bd70 b93b
00000160: 9670 b5bb 5c41 483b 7358 6f3c bf20 393c
00000170: 3de8 a53c 3792 f43b edb8 813c 86e9 f4bb
00000180: c362 19bc f79d 81bc 4c49 38bc 0396 88b9
00000190: 5e55 2bbc f0f7 26ba a4ed 77bc 1ffe 49bc
000001a0: 5cfe 133c 5e0e 07bb e60c f3bb f9fb 9d3c
000001b0: 748c 0d3c 1432 17bc 78e9 3f3c 2960 daba
000001c0: ec90 1cbb 1764 233c 5f4d e43b 5be1 95bb
000001d0: c72e 30bc 6ac2 4f3c ec9b b4b9 ffa5 a0bb
000001e0: f03f 35bc 4d14 c73b bfb1 3cbc 8e65 8c3c
000001f0: 4b88 373c c85f cabb 3c00 543c 1265 143c
00000200: 438e b33b 3845 57bc 7e28 c73b 89c7 77bb
00000210: f914 653c c38d 753c 1905 263c abcf 9b3c
00000220: d6e3 ce3c e0aa 413b 09b9 4b3c b791 463c
00000230: 8d6f 9c3c b24d 6abb f32f 513c f1bc 14bc
00000240: 4dac 8dbb 5e17 823c 9ce3 36bb a1cc 073c
00000250: 2bc7 06bc 9e19 683c ac0f 03bc c410 18bc
00000260: 315e 3b3b acb6 b6bb 1e8e c8b9 b201 8b3c
00000270: 63a3 4a3b 528d 5bbc 6a9d 0b3c d204 ea3b
00000280: a5e8 823c 47d0 2a3c dd68 503c 4437 92ba
00000290: 7b53 aa3c 79e7 223b 12cb 1c3c 0c44 d33c
000002a0: 3e3a ee3b 14cf d5ba ca6e 9b3c 9210 7238
000002b0: e482 7ebb d5cb a1bb da23 0cbc ac0e 253c
000002c0: 90ad 1c3c d93b 0fbc 98b9 43bc 3658 ab3c
000002d0: db46 543c 953b 5f3c 98a5 bd3a 3f11 2e3c
000002e0: 1400 bb3c 65f7 673b 525b 743c aa52 663c
000002f0: 2b6a 573c efa1 74bb 7cd9 9b3c 8dbc a23c
00000300: d5bf 57bb f77d c13c 70b3 f738 1a99 a9bb
00000310: 1038 b33c 55cb 20bc 5587 623c bf80 b33c
00000320: f4c1 5dbb 5755 9f3b 4674 793a 84fe 82bb
00000330: 4801 c33b dcaf 3dbb 084a 80ba 09db 453b
00000340: f134 7c3b e68b 0e3c cbb1 073c 0443 a53c
00000350: 458e 0b3c a6f8 d63b db78 2abc c100 a33c
00000360: 8b09 6e3c cabd 8e3c 58b3 f23b 7933 c13c
00000370: 3181 b43b d7c0 983c 2661 7ebb f323 90bb
00000380: 17aa 9f3a 12f4 b0bc 06d9 99bb 9f69 a8bc
00000390: 682e bd3b a70a e1bc c609 f53a 7862 8bbc
000003a0: c150 9cbb 24c0 4dbc cbaf 1fbb 081b ddba
000003b0: 8fc0 7db9 66c8 53bc 464a e1bb 41ee 8fba
000003c0: 6caa a3bc 8b14 dbbc 0a73 a13b fccb bf3a
000003d0: 1814 753b 6ae6 8a3b 91f5 31ba 412e c2bc
000003e0: d436 87bc 0b3d b1bc 44b2 a2b9 ddbb 1339
000003f0: de94 5bbc d514 87bb 1dd5 b3bb 8774 e5bb
0.016910976 0.0053688367 -0.0068299994 0.0134677095 0.0053626355 -0.00046970727 -0.006094921 -0.010602075
-0.014620832 -0.010996665 -0.007524162 0.00970197 -0.013175599 -0.001796965 -0.01514573 -0.0032412568
0.016133675 0.016034843 -0.003060507 -0.008770772 -0.0050964965 -0.01587628 -0.013949633 -0.009092934
-0.011892224 0.009071409 -0.005995311 -0.010158049 0.009531946 -0.011194595 -0.0060381526 0.011905889
-0.0112974625 0.010106603 -0.008282162 -0.016029019 -0.0036264604 -0.016326195 0.005187104 -0.015766896
0.011000017 -0.0026360143 -0.0014193607 0.010991417 -0.007830283 0.014453977 0.020348769 0.010143983
0.01738235 0.0005648712 -0.014459833 0.0040841606 0.0018932256 -0.0125352 4.7429527e-05 -0.018711878
-0.0126268165 -0.010695477 0.009002965 -0.006455725 -0.0052485964 0.007214716 -0.0026389507 0.011816646
0.015091457 -0.015853351 -0.000116054856 -0.010234811 0.014869344 0.00529175 -0.009945786 -0.0076194326
-0.01749961 0.006484969 -0.010395539 -0.016354788 0.0127866855 -0.003998897 0.0065250373 0.0044881743
0.01337482 0.008396467 0.005860764 0.008467602 0.0077316794 -0.013160941 -0.011358818 0.0056591914
-0.005537103 0.0030556535 0.01460849 0.011299311 0.020252341 0.007463719 0.01583525 -0.007474127
-0.009361926 -0.015822394 -0.011247944 -0.0002605171 -0.010457365 -0.0006369343 -0.0151323415 -0.012328654
0.009032812 -0.0020607929 -0.007417309 0.019285189 0.008639444 -0.009228248 0.011713378 -0.0016660738
-0.002389009 0.009972594 0.006967231 -0.0045739836 -0.01075334 0.012680629 -0.00034448446 -0.004902601
-0.011062607 0.006075418 -0.011516987 0.017138269 0.011201928 -0.006175969 0.012939509 0.0090573
0.0054796054 -0.013139062 0.006077825 -0.0037808141 0.013982051 0.014987412 0.010133051 0.019019922
0.025255125 0.0029551312 0.012434253 0.012119702 0.01909616 -0.0035751876 0.01276778 -0.00907825
-0.0043235184 0.015880283 -0.0027906662 0.008288533 -0.008226196 0.014166264 -0.007999342 -0.009281341
0.0028590078 -0.0055759754 -0.00038252858 0.016968582 0.003092014 -0.013400393 0.008521417 0.007141688
0.015980074 0.010425634 0.012720314 -0.0011155386 0.02079176 0.0024857207 0.0095699 0.025789283
0.0072701266 -0.0016312324 0.018973727 5.771273e-05 -0.003883534 -0.0049376287 -0.00855347 0.010074299
0.009562865 -0.008742296 -0.0119461045 0.020916086 0.012956346 0.013625045 0.0014468906 0.010624229
0.022827186 0.0035395261 0.014914351 0.014057795 0.013147871 -0.0037327965 0.019024603 0.019865299
-0.0032920737 0.023619635 0.00011811301 -0.005175722 0.021877319 -0.009814103 0.013826211 0.021911977
-0.003383753 0.004862468 0.0009515922 -0.003997626 0.0059510805 -0.0028943932 -0.0009787688 0.003019037
0.0038483704 0.008700347 0.008282135 0.020173557 0.008517806 0.006560403 -0.010404791 0.01989782
0.014528642 0.017424483 0.0074066333 0.023584114 0.005508565 0.01864664 -0.003881523 -0.0043988167
0.0012181428 -0.021600757 -0.0046950607 -0.020558177 0.0057733543 -0.0274709 0.0018694929 -0.017014727
-0.004770369 -0.012558017 -0.0024366255 -0.0016869018 -0.00024199694 -0.012926197 -0.006875309 -0.0010981039
-0.019978724 -0.026743194 0.004927044 0.0014632936 0.003739601 0.0042388933 -0.00067886064 -0.023703696
-0.016505636 -0.021635553 -0.00031031866 0.00014088997 -0.013402192 -0.0041223564 -0.0054880516 -0.0070024165

encBlocks.1.conv1.bias f4 [16]
00000000: 7310 b7bb 533f 053c 9f75 3ebc 91ff 143b
00000010: 2c27 913c 6c79 91bc 8fd5 66bc 0edf 423b
00000020: 5a58 8cbc 3e36 773c 6662 7c3c 5dcf 603b
00000030: 68de a13a 09f1 be3a dc34 2a3c f0d2 f2ba
-0.0055866777 0.008132773 -0.011624723 0.0022735337 0.017718874 -0.017758094 -0.014089002 0.0029735002
-0.017131973 0.015088616 0.015404319 0.0034303286 0.0012349607 0.0014567684 0.010388579 -0.0018525999

encBlocks.1.conv2.weight f4 [16, 16, 3, 3]
00000000: c3ce 95bd 1d8b ed3c 1c35 d63c 79d5 693d
00000010: 0505 b93c fa3d 94bd e0bb 26bd 3d1e 9fbd
00000020: aa46 12bd a33a 9f3d 46a4 0dbd 8a26 523c
00000030: 4e87 19bc b42f bd3c 2c17 8bbd 287b de3c
00000040: 3bc6 92bd e697 14bd 7280 70bd b210 3fbb
00000050: a350 7b3c ff0d bebb 469c 65bd 5128 79bd
00000060: 66e8 00bd dfa9 a3bd db77 d4bb 4a60 4dbd
00000070: 1d9f 4a3d 5e7c 35ba b4e5 9a3d 7a5b 3f3d
00000080: bd27 473d 02a7 753d e720 20bd 47f4 7abd
00000090: d12a 8dbd 0396 51bd 23e3 95bd e851 1a3d
000000a0: 969c 54bd 340a 63bd 2e3c 67bd 36ac 133d
000000b0: bd40 673d 6f50 8b3c 1471 9b3d 5b15 34bd
000000c0: ad80 85bc a27b cd3b 9017 e73c 435c 39bd
000000d0: 105f a6bd 3d1b 3bbd 9064 c93c da8c bebc
000000e0: 2e62 16bd 5a62 5f3d 528c 68bc 7ba0 29bd
000000f0: 4a1e 163d 34e6 893d 6825 3fbd 51b7 8a3d
00000100: 75bf 923d 5399 7fbd abd2 073d be30 143d
00000110: f9c7 453d 848d 66bd b0ce c2bc 46ff 5ebd
00000120: 7fa4 0bbc e5bc 843c 03b1 81bd 6f22 65bd
00000130: eacd 343d 4baf 80bc 12d0 46bd 432d 193d
00000140: 89c8 773d 062c 86bd ddc1 2ebc 807a 653d
00000150: f1d4 063d 5cb9 abbd 4545 59bd 849f 64bd
00000160: 04c6 7b3d 8e84 c33c 6c59 353d 1458 9b3d
00000170: de2b 713d 4a20 aebd 4cff 96bd 91bd 323d
00000180: ceef 79bb 29c2 a43d 0711 0b3c b835 51bc
00000190: 7b61 2b3d 584d 313b 35ab 8b3d 4f83 4cbc
000001a0: 265c 9cbb 9d4d 35bd 6c7d 613d 090a b7bd
000001b0: 6c86 083d d036 cc3c 357a 62bc cf6d 3c3d
000001c0: bfd0 89bd 6a5b 86bc 0ead 893c cea2 51bd
000001d0: b289 213d 8179 3cbd 8421 24ba b107 333d
000001e0: 51c3 8a3d 396f 0dbd c820 19bd 3846 50bd
000001f0: ce55 b5bc 8e1e dd3c deb6 d23c bb31 a43d
00000200: dbe8 6cbd c7f3 72bd 4a61 773d 7372 99bd
00000210: 441b 683d c6e2 8dbd 2747 31bc 44d9 59bd
00000220: 97c6 a23d e300 4fbd 7e89 2cbd 57c1 ae3c
00000230: 011f 79b8 76a3 48bd ca07 57bd 5979 5a3d
00000240: cb9d 4c3c 9b7a 1fbd bbda 59bc 54b5 773d
00000250: 7ac5 6a3d e82c 71bc afd4 02bd 811a 793d
00000260: c0a7 17bc 92d8 8cbd 92b7 81bc 6c0f 4abd
00000270: 986b 983c ed6c 5ebd 0dbe 8d3d 5c21 5e3d
00000280: 51b2 423d cc56 3cbd 7bcb 8fbc 9605 623d
00000290: 26bf df3c 1054 513d 1fd0 73bd 0b4e f23b
000002a0: 8511 e63c 30aa 91bd 2c99 063d 4fe1 713d
000002b0: b228 df3b e706 cbbb 202b 0abd ed01 a83d
000002c0: 7441 b43c db56 bd3d 98bb c33c a56b 4cbd
000002d0: 7340 7ebc c40a 10bd f4ca 97bb 0418 7dbd
000002e0: 3f8b 9cbd af20 e73c 1b67 d03c 5a78 b53c
000002f0: 790e 593d 880e 58bc 8aab b23c 386c 6ebd
00000300: c5e7 8f3d 9934 2f3d 0350 09bd 875a 383d
00000310: 2978 b3bd 76f9 1f3d ef10 5a3d 7e3b 0abd
00000320: 627c 073d 917d a4bd 54b0 b0bd 7231 5a3d
00000330: 09ff 5c3c 9d80 bbbb 6b17 103d c1bc 683b
00000340: 9853 873d 66be 74ba bcaa 763c 806c ccbc
00000350: aed6 66bd 0d97 283c e4b2 a4bd 4b28 993d
00000360: 4791 1c3b db70 693d f5ea 8ebd 17c0 f1bb
00000370: 25a4 033d 8e37 573d 5277 b7bd e485 243d
00000380: 5e7c c0ba fc29 21bd c347 75bd e538 0e3d
00000390: 2ff7 b7bd d301 363d cd87 b13b d1fe a4bd
000003a0: 1adb 17bc 0c6a 82bd e593 d63b 0f77 533d
000003b0: 7214 77bd 8a88 93bd 0e7b 16bc 74e6 77bd
000003c0: 99d6 8d3d 8220 463d af2f 87bd 90b5 2c3c
000003d0: 35da f6bb 3b28 38bd 791b b8bd 90bf 1fbd
000003e0: 10ec 5a3c 3cf7 ff38 f9f9 06bd 7976 abbd
000003f0: ce83 56bc 8ecb fcbb ee18 25bd dd14 59b9
-0.07314827 0.028996998 0.026148371 0.05708835 0.022585401 -0.072383836 -0.040706515 -0.07769439
-0.03571192 0.07774856 -0.03458049 0.012826571 -0.009370638 0.023094036 -0.06791529 0.027158335
-0.07166716 -0.036277674 -0.058716245 -0.0029154238 0.0153390495 -0.0058000083 -0.056057237 -0.060829464
-0.031471632 -0.07991385 -0.0064840144 -0.050140657 0.04946815 -0.0006923134 0.07563344 0.0467181
0.04862188 0.059973724 -0.039093878 -0.061268117 -0.06892932 -0.051168453 -0.073187135 0.037675768
-0.051907144 -0.055429652 -0.056453876 0.036052905 0.056458224 0.017006127 0.07589927 -0.04396568
-0.016296709 0.0062708417 0.028209478 -0.045254003 -0.081236005 -0.045680273 0.024584085 -0.023260523
-0.036714725 0.054537155 -0.014193611 -0.04141281 0.03664998 0.06733361 -0.046666533 0.06773246
0.07165424 -0.06240208 0.033159893 0.036179297 0.048286412 -0.056287304 -0.023780197 -0.054442666
-0.008523106 0.016203353 -0.063325904 -0.05594104 0.044141687 -0.015708586 -0.048538275 0.03739668
0.06049398 -0.065513656 -0.010666338 0.05602503 0.03291792 -0.08384964 -0.053044576 -0.05581619
0.06146814 0.023866918 0.044274732 0.07585159 0.058879726 -0.085022524 -0.07372913 0.043637816
-0.003813732 0.080448456 0.008487946 -0.012769155 0.04184101 0.0027054157 0.068197645 -0.012482478
-0.004771727 -0.04426347 0.055051252 -0.08937461 0.03333132 0.02492848 -0.013823082 0.04600316
-0.06729268 -0.016401011 0.016806152 -0.051180653 0.039437957 -0.046014313 -0.0006261098 0.043708507
0.06775535 -0.0345299 -0.03738478 -0.050848216 -0.022135641 0.026992109 0.025721963 0.08017298
-0.057839256 -0.059314515 0.060395516 -0.074925326 0.056666628 -0.06928019 -0.010820187 -0.053185716
0.07948034 -0.050537955 -0.04212331 0.021332426 -5.93951e-05 -0.048984013 -0.052497663 0.053338382
0.012488793 -0.038935285 -0.013296778 0.060475662 0.057317235 -0.014720179 -0.031941112 0.06081629
-0.009256303 -0.06877245 -0.015834603 -0.049331114 0.018605992 -0.0543031 0.06921015 0.054231033
0.047533337 -0.045981213 -0.017553082 0.05518111 0.027312826 0.05110556 -0.05952465 0.0073945574
0.028084526 -0.07112539 0.03286092 0.05905276 0.006810271 -0.006195891 -0.033732533 0.08203492
0.022003867 0.09245082 0.023893163 -0.049907345 -0.015518296 -0.035166517 -0.004632348 -0.06179048
-0.076437466 0.028213827 0.02543979 0.022152115 0.052992318 -0.013187058 0.021810312 -0.058208674
0.070266284 0.04277477 -0.03352357 0.04500821 -0.08763153 0.039056264 0.053238805 -0.033748142
0.033077605 -0.080317624 -0.08627382 0.05326981 0.0134885395 -0.005722119 0.035178583 0.0035512897
0.06607741 -0.0009336233 0.015055355 -0.02495408 -0.05635708 0.01028992 -0.08041933 0.074783884
0.0023890303 0.056992393 -0.06978408 -0.007377635 0.032138962 0.052543215 -0.089583054 0.04016675
-0.0014685502 -0.03934668 -0.05988289 0.034722228 -0.089826934 0.044435333 0.0054178 -0.08056415
-0.0092685465 -0.06367883 0.006548392 0.051627215 -0.060322233 -0.07203777 -0.009184612 -0.06052251
0.06925697 0.048370846 -0.06600892 0.010541335 -0.0075333365 -0.04496024 -0.08989615 -0.039001048
0.013361946 0.000122053985 -0.032953236 -0.08372206 -0.013092948 -0.0077146953 -0.040306978 -0.00020702505

encBlocks.1.conv2.bias f4 [16]
00000000: a865 90bd a539 9dbd 8e8c 31bd c9e1 f93c
00000010: d3d1 a33c 6e3a 27bd 3872 ad3c 113f 2b3d
00000020: 5af4 36bd 6a6d 0cbd a933 29bc e944 a23d
00000030: 3c63 613c ff24 96bc f697 113d 9cb3 623d
-0.070506394 -0.076770104 -0.043346934 0.03050317 0.019997513 -0.040827207 0.021172628 0.04180819
-0.044666626 -0.034284033 -0.010327258 0.079233 0.0137565695 -0.018328188 0.035545312 0.05534707

encBlocks.1.BN1.weight f4 [16]
00000000: 0eda 7a3f a641 813f c6f8 813f 7930 7e3f
00000010: e1fc 803f edbd 7e3f acf2 7d3f bd9f 803f
00000020: 4dae 803f ed66 7d3f d0a2 803f cf93 7d3f
00000030: 89b3 813f d885 803f 8143 7d3f 44fd 803f
0.97988975 1.0098159 1.0154045 0.99292713 1.0077173 0.99508554 0.9919841 1.0048748
1.0053192 0.9898518 1.0049686 0.99053663 1.0132915 1.0040846 0.9893113 1.007729

encBlocks.1.BN1.bias f4 [16]
00000000: 2159 f4bb b4be 2a3c 92e8 043d 440f 6fbc
00000010: 2fd4 343c 2546 253c 3b73 ccbb c512 9a3b
00000020: 565b c43c 7180 75bb 5164 313c e9e3 49bc
00000030: e4cc ce3b aded 923c 2d4d cabb 2b88 833c
-0.007456914 0.010421444 0.03244836 -0.014591042 0.011036917 0.010087525 -0.0062393225 0.0047019445
0.023969334 -0.003746059 0.01082714 -0.012322404 0.006311046 0.017935598 -0.006173751 0.01605614

encBlocks.1.BN1.running_mean f4 [16]
00000000: af3c 48bf f4e3 9d3f f124 0440 cf6c b2be
00000010: bc8b cd3f 87e5 d8bf 9931 9dbe 794c a73f
00000020: ab08 993f 49d4 6dbf 9191 e53e efe7 6cbf
00000030: 09b6 f83e 9341 cbbf 6946 823f 5a66 b93f
-0.78217596 1.2335191 2.0647547 -0.3484864 1.6058269 -1.6945046 -0.30701903 1.3070213
1.195577 -0.92902046 0.4483762 -0.925414 0.48576382 -1.5879387 1.0177737 1.448436

encBlocks.1.BN1.running_var f4 [16]
00000000: a245 f941 69e4 1142 37e4 b842 1332 0042
00000010: f8c7 7642 f11d 3542 90fb 0541 292b ab42
00000020: 9c2b c242 f81c 2041 1077 3b42 1bd1 4241
00000030: ea1a d140 af91 ca41 3d6b 3742 4299 5942
31.159 36.473057 92.44573 32.0489 61.695282 45.27924 8.373917 85.5843
97.085175 10.007072 46.866272 12.176051 6.5345354 25.321135 45.854725 54.399666

encBlocks.1.BN2.weight f4 [16]
00000000: f5c1 803f 2600 7e3f de76 803f c508 813f
00000010: 765f 7f3f e983 7d3f c058 803f 1bbb 7e3f
00000020: 1077 7e3f 9e15 813f 25d8 813f 850c 803f
00000030: 619a 803f 7681 7f3f 7495 7e3f d14b 803f
1.0059191 0.99218976 1.0036275 1.0080801 0.99755037 0.99029404 1.0027084 0.9950425
0.99400425 1.0084722 1.0144087 1.0003821 1.0047113 0.99806917 0.994468 1.0023137

encBlocks.1.BN2.bias f4 [16]
00000000: 8dbe 1ebd ce10 12bd 75c7 00bd bd14 9f3c
00000010: 1de2 38bc ab3c febc 61c9 51bc 364f f4bb
00000020: e409 a4bc 5b35 d7bc 0a7a e4bc fc16 41bc
00000030: 86a5 c5bc 09c0 c9bc 25b8 18bd 4a45 cf3c
-0.038755942 -0.035660557 -0.031440217 0.019419068 -0.011284378 -0.031034788 -0.01280436 -0.0074557317
-0.020024247 -0.026270559 -0.027890224 -0.011785265 -0.02412678 -0.024627702 -0.03728499 0.025301594

encBlocks.1.BN2.running_mean f4 [16]
00000000: 0f5c b7be d44a 96be 946c b2be 74e3 ea3e
00000010: af67 77bd 060b 29be 04bb 9dbd 445c 4dbe
00000020: 822a 92be 2c68 983e e9c7 2fbe cca9 133e
00000030: cc9d c43e 3410 893e d093 803d b233 09bf
-0.35812423 -0.29353964 -0.34848464 0.45876658 -0.060401615 -0.16508111 -0.07701686 -0.20054728
-0.28548056 0.29766977 -0.17166103 0.14420241 0.3840164 0.26770175 0.06278193 -0.53594506

encBlocks.1.BN2.running_var f4 [16]
00000000: 8764 263e 6587 fd3d 1fcb aa3d d4b8 0d3e
00000010: d7b9 823e 6819 163d 3146 a33d 0434 f13d
00000020: 551f 5c3d ee40 873f 3703 7c3d 3862 ea3d
00000030: 6671 823f 18cf c43e 5a42 be3e 531c 223f
0.16249286 0.1237934 0.083395235 0.13840038 0.2553241 0.036645323 0.07972372 0.11777499
0.053740818 1.056669 0.061526503 0.11444515 1.0190856 0.3843925 0.37159997 0.6332447

encBlocks.2.conv1.weight f4 [1, 16, 15, 15]
00000000: 5085 5cbc d64c 8c3c 5f60 b4bb e4c8 00bb
00000010: 0312 023c ffda b13b f7aa dcba 1724 343c
00000020: 6da3 9bbb 04f1 20bc d064 9a3c 32fd 87ba
00000030: 6afa 8d3c 5d50 80bc fb60 1ebc 8a11 18bc
00000040: 022d 893a 402e 353c 9b33 853c e91f 623c
00000050: 96eb 4bb9 26a0 3e3c 4aad f33c 5e4f 733c
00000060: fb33 143c 9c9c 273c 9c67 9e3b c31d af3c
00000070: 2962 4f3b 1702 823b dcc1 233c 82cb 753c
00000080: 3418 dd3b 08f3 303b 1642 afbb d6bc d93b
00000090: b22c 3fbc 99e2 563c df49 953b 977c 22bc
000000a0: 7e19 52bc 9976 9b3c 5f17 cdbb b334 463c
000000b0: 0a7c 6d3a 3c82 76ba 6d33 f83c 81ce 4f3c
000000c0: 1ac9 b13c a1d1 143c 8a01 2c3c fa77 bebb
000000d0: 8609 bc3c 9806 5ebc 086f 153c e4b1 06bc
000000e0: fb4c 563c 0695 8cbb 2fcd 383c c33d 28bc
000000f0: c5c8 883b 794a d93c 00ce b03c bbe2 bcbb
00000100: 7f27 893b 3c9d aebb fa24 3d3b fbcb 6e3b
00000110: cccf 2b3b 011d f1ba 204f c63a 98c6 1bbc
00000120: c6e1 993a 3e88 033c 2e54 8bbc 504f 403a
00000130: f7e1 bc3c fbf0 a0bb e8ea ee3b 8962 8fbb
00000140: d72e 5a3c 7e84 44bc 99e0 483c b6ea 17bc
00000150: 721e 593c 400c efbb 74d3 16bc 3454 803c
00000160: 9e3d 4e3b 6724 adba 1001 9b3c 7848 c13c
00000170: 9138 b13c 2d66 bbbb 1bc1 96bb 24f5 02bc
00000180: e590 5abc 8ebf ba3c 487a 013b 94ce adb9
00000190: ff46 9bbb c16f 2dbc 40ab 1bbb 4de0 1ebb
000001a0: a8b3 853b 11ae d03c bf5e b73c 3b11 1a3c
000001b0: 7a7c 3c3c f9e8 233c 0605 23bc a7ba 9d3c
000001c0: 6b4e 5d3c 6454 c2bb be7d 2d3c 7fab ec3b
000001d0: fe40 c93c 1c08 943c 5cea 0d3c 1ccf 41bc
000001e0: 564a 923c 7057 253c 2072 c83c 84aa 20bc
000001f0: 578a dbbb 8797 6abc 7db4 963c e1c0 c13c
00000200: 265c b2bb ea10 663c 682a 1fbb fc7c 0b3c
00000210: 831d 9f3c 1041 91bc 834d 283c 1adc 16bc
00000220: 17b9 f63c e630 453c e3b8 48bc 531c 773c
00000230: cd17 a4bc 696a 32bc 9ff8 743c 789f 94bc
00000240: 5ad8 38bc 2c93 71bb 25ce daba d16a a03c
00000250: 750b 67bb f734 853c 96e1 573a 1c38 153d
00000260: fb7b 4bbb a650 2ebc 7d74 513c bde4 93bb
00000270: d3cd 913c 50ec 5e3c ab6e 2e3c b2a8 293b
00000280: aa90 3b3c 77b5 a5b9 17c0 583c d8b1 37bc
00000290: 5094 e6bb 507e 23bc 89f1 5f3c 150a 853b
000002a0: 720c 173c b80b b33b 069a bb3b ca8d 673b
000002b0: 3e40 28bb ec5c 303a a14e 96bc 40e0 17bc
000002c0: 28e3 7f3c 4dbe 643c 95eb 88bc 171f 8a3c
000002d0: b2d3 843b 1b97 b93b e550 213c c819 79ba
000002e0: 767e 693c 14ce 903c e8f9 953a 9908 953c
000002f0: 59a1 64bc 1c6d d7bb 94c3 ae3b cd1b a83c
00000300: 0c6d 5e3c 55cf 81bc 93f5 caba 0a7a 9bbb
00000310: 5fd8 de3b 49d7 3f3c 2633 83bb f6c5 e7bb
00000320: 639e e0bb cd42 94bb 55cb 083c 039a 03bb
00000330: 6351 6fbc 9da8 933a 6cef 533c b044 a03c
00000340: 0910 d4ba c19f a23b ef40 83bc 0c3e c63b
00000350: 17cb a93c 5317 8c3b dfa5 d13b e023 dabb
00000360: 913c 253c b40f 733c ab8b 903b 3234 4139
00000370: 9e70 0dbc 474c 043c 14e1 f13b 8fa0 643c
00000380: a013 03bc b9d8 1f3c a7a0 2e3c 58d5 53ba
00000390: 8353 303c 3208 bb3b 8c8a 823c 849e 2e3c
000003a0: 25e7 c13c 7147 723c 57bf ae3c c8d6 a63b
000003b0: ac95 0dbc 98e6 49ba f487 4b3c 4dce 063c
000003c0: 2a08 1abc 5bac 0a3c a684 a63b 821a 673c
000003d0: d2b0 b33a 2894 0abc acf1 e8bb 4a03 98bb
000003e0: 8f82 e6ba 5939 763c faeb c5bb 8f58 773c
000003f0: 687a 743c 126c ccbb 9aaa b93b c017 b03c
-0.013459519 0.017126482 -0.0055046524 -0.001965099 0.007938865 0.0054277177 -0.001683562 0.010994933
-0.0047497065 -0.009823088 0.0188469 -0.0010375141 0.01733132 -0.01566332 -0.009666677 -0.009281525
0.0010465684 0.01105839 0.016259959 0.013801553 -0.00019447351 0.011634862 0.029745717 0.014850466
0.009045596 0.01023021 0.0048341285 0.021376496 0.0031644201 0.0039675343 0.00999495 0.015002133
0.00674727 0.0027000327 -0.005348454 0.0066448255 -0.011668371 0.0131155485 0.0045559253 -0.0099174
-0.012823461 0.01897745 -0.0062588896 0.012097525 0.0009059316 -0.00094035617 0.03029796 0.012683512
0.021702338 0.009083183 0.010498414 -0.005812642 0.02295376 -0.013551377 0.00912071 -0.008221123
0.013079877 -0.004290226 0.011279388 -0.010268631 0.004174324 0.02652477 0.021582603 -0.005764333
0.0041856165 -0.0053288024 0.002886115 0.00364375 0.0026216386 -0.0018395485 0.0015129782 -0.009507798
0.0011740259 0.008028088 -0.017007913 0.0007336037 0.023056967 -0.0049115396 0.0072911866 -0.00437576
0.013316832 -0.011994479 0.0122605795 -0.009272268 0.013251888 -0.0072951615 -0.009205688 0.015665151
0.0031469832 -0.0013209701 0.018921405 0.023594126 0.021633418 -0.0057189674 -0.0046006567 -0.007993016
-0.01334021 0.022796419 0.0019756723 -0.00033151044 -0.004738688 -0.010585726 -0.0023753196 -0.002424258
0.0040802546 0.025473626 0.022384046 0.009403522 0.011504287 0.0100042755 -0.009949928 0.019254042
0.013507466 -0.0059304703 0.010589061 0.0072225924 0.024567124 0.018070273 0.008661833 -0.011829164
0.017857712 0.0100916475 0.024468482 -0.009806279 -0.006699841 -0.0143183535 0.01839661 0.023651542
-0.005443114 0.014042119 -0.002428675 0.008513685 0.019423252 -0.01773122 0.0102723865 -0.00920775
0.030117555 0.012035584 -0.012251112 0.015082437 -0.02003088 -0.010889628 0.014951854 -0.018142447
-0.011282051 -0.0036861403 -0.0016693516 0.019582184 -0.0035254632 0.016260607 0.0008235214 0.036430463
-0.003104924 -0.010639345 0.012784121 -0.0045133517 0.01779834 0.013606146 0.0106465025 0.0025887904
0.011448065 -0.00031606454 0.013229392 -0.011211835 -0.007036723 -0.009978846 0.013668426 0.0040600398
0.009219276 0.0054640435 0.005725148 0.0035332316 -0.0025673057 0.00067277136 -0.01834804 -0.009269774
0.015618123 0.013961387 -0.016713897 0.016860528 0.0040535564 0.005663765 0.009845947 -0.0009502438
0.014251342 0.01767639 0.0011442276 0.018192576 -0.013954484 -0.006574286 0.0053333733 0.020521069
0.0135758035 -0.015845934 -0.0015484564 -0.004744773 0.006800696 0.011709043 -0.0040039 -0.0070731593
-0.0068548187 -0.004524565 0.008349259 -0.0020080812 -0.014606806 0.0011265461 0.012935501 0.019564003
-0.0016179095 0.004962892 -0.016022174 0.006049877 0.020726724 0.0042752414 0.006397947 -0.0066571087
0.010085241 0.014835287 0.004411181 0.00018425359 -0.008632807 0.008074827 0.0073815677 0.013954296
-0.008000284 0.009756261 0.01065842 -0.0008080802 0.010762098 0.005707764 0.015935205 0.01065791
0.023669789 0.014787541 0.021331472 0.005091522 -0.008641642 -0.00077019027 0.0124225505 0.008227897
-0.0094013605 0.008463944 0.005081731 0.014105441 0.0013709313 -0.008458175 -0.0071088877 -0.004639064
-0.0017586517 0.015028321 -0.0060400935 0.015096798 0.014921762 -0.006238469 0.0056660892 0.0214957

encBlocks.2.conv2.weight f4 [1, 1, 3, 3]
00000000: 1f0f abbd 528d 813d 4a27 e03d 2d46 3abe
00000010: 9263 893e bbe9 9c3e 737f adbd cbf1 a43d
00000020: 3943 19be
-0.083524935 0.06325783 0.10944994 -0.18190832 0.2683378 0.30647072 -0.08471575 0.08053931
-0.1496705
