Model_params/test_3_macro_best.pt (torch, 44071 bytes, 26 tensors)

encBlocks.0.conv1.weight f4 [16, 3, 3, 3]
000000 38 80 02 be e9 aa 3e 3e cd a3 c6 3a d4 80 47 bd
       -0.12744224 0.18619885 0.0015155018 -0.048706844
000010 09 f3 21 be 1e 40 fc bd 37 08 05 3e b4 be e5 3d
       -0.15815367 -0.12316917 0.12991415 0.11218014
000020 8f d7 b5 3b e9 57 1e be 1e 51 7d 3d 25 19 de bd
       0.005549378 -0.15463223 0.061844938 -0.1084464
000030 80 91 c8 3d 6c 8d 45 be bc 49 6f 3b 1b 9b 88 3d
       0.09793377 -0.1929223 0.0036512455 0.06670209
000040 b3 09 7d bd d0 c0 97 3c 8a 3d 8a bc f3 ae 8a 3d
       -0.061776828 0.018524557 -0.016875047 0.0677165
000050 cc 16 a4 3d 56 98 d0 bd 19 45 e4 bc 71 ca 13 be
       0.08012161 -0.10185306 -0.02786498 -0.14432694
000060 4c 7e ee 3d f2 1d c7 bd 7d cb fa bd 41 08 3c be
       0.11645183 -0.097225085 -0.122458436 -0.18362524
000070 7b 48 1b be 12 b8 42 3d 07 27 c1 bd 24 d2 34 be
       -0.15164368 0.047538824 -0.09431272 -0.17658287
000080 5e f0 a8 3d 21 ff 6c be 87 d3 49 bc 6c 58 25 be
       0.082489714 -0.23144199 -0.012318498 -0.16147012
000090 fc 23 ae bc 56 47 a4 3d f5 84 08 3d f7 c4 94 3c
       -0.021257393 0.08021419 0.033329923 0.018160326
0000a0 ef 4f 9e bd 69 c4 18 bb c2 47 0a 3c 96 64 62 bd
       -0.0773009 -0.002331043 0.00843996 -0.055271707
0000b0 f8 ad b8 bd a9 d1 f4 3d 4d b7 91 bb 62 76 c8 3d
       -0.09017557 0.11954052 -0.0044469 0.09788205
0000c0 86 1e 91 3d f1 a7 69 bd 18 89 28 3c b3 87 fc bc
       0.070859 -0.057044927 0.010286592 -0.030826425
0000d0 cd 8d cb 3c 68 30 51 bd f6 ec ad 3d 78 d8 07 3e
       0.02484789 -0.051071554 0.08492462 0.1326617
0000e0 b0 fd 16 3e 5e c1 ba 3d c5 08 4f 3e 6b 5f 3d 3e
       0.14745212 0.09118913 0.20218189 0.1849343
0000f0 17 04 48 3e ba 58 c8 3d 84 61 24 bd 3f 21 67 bc
       0.1953281 0.09782548 -0.04013206 -0.014107048
000100 18 9f ad bd 74 89 1a 3e 04 07 80 3d 11 1c 07 be
       -0.0847761 0.15091497 0.06251338 -0.131943
000110 e6 e3 37 bd 6b 5a 0f 3e 0c 6e 20 3e d9 36 36 3e
       -0.044895075 0.13999335 0.1566698 0.1779436
000120 92 16 29 be d7 30 86 bc e5 73 1c 3e 4f 30 d0 bd
       -0.16512516 -0.01638071 0.15278585 -0.10165464
000130 2e 43 3c be 0a 67 d3 bd 66 fd 80 3d 85 49 4e bd
       -0.18385002 -0.103223875 0.06298332 -0.050363082
000140 b2 bd 11 3e ac e6 c9 bc 84 13 15 bd 30 7c c8 3d
       0.1423252 -0.024646126 -0.036395565 0.09789312
000150 42 f6 df 3c 96 0c c4 3d 22 68 f3 bc 00 b3 a6 bb
       0.027339105 0.09572713 -0.02971274 -0.0050872564
000160 66 fe cf 3c 7c 86 d5 3c e8 d8 db 3b 23 85 e2 3d
       0.025389861 0.026065104 0.006709207 0.1106055
000170 2d 18 9b bd d8 a2 6f 3d 39 1c 8f bd e6 25 90 bd
       -0.075729705 0.05850491 -0.06987805 -0.070384786
000180 37 1c 28 3e 70 8d 10 3e 99 2e ca bb 4e ce 85 3d
       0.16417013 0.14116454 -0.0061701057 0.0653349
000190 5a 72 09 3e d8 66 44 3d 7e 2e 09 3e 19 7a fc 3d
       0.13422528 0.047949642 0.13396642 0.12327976
0001a0 61 4b 29 be f7 9e 09 bd ba 55 09 3d 26 25 42 3e
       -0.16532661 -0.033598866 0.03352902 0.18959484
0001b0 b2 ae a1 3d 03 55 df bd 29 9e 18 bd 00 52 2f 3d
       0.078946486 -0.109048866 -0.03726021 0.04280281
0001c0 45 46 aa ba 01 98 76 3e 83 5a e8 3c c4 7d f3 3d
       -0.0012990913 0.24081422 0.028363472 0.11889222
0001d0 60 2e b4 bd a8 54 12 3e 99 90 02 be 6a 8c d9 bd
       -0.08797908 0.14290106 -0.12750472 -0.10622485
0001e0 54 7c 87 3d 26 9c 62 bd 50 17 d3 3c 47 9f c3 bd
       0.066155106 -0.055324696 0.025767952 -0.09551864
0001f0 30 f9 23 3e e0 fe 5f 3d 25 c0 9a bc 37 66 10 be
       0.16013026 0.054686427 -0.01889045 -0.14101492
000200 82 69 0f bd 71 15 16 3e bd 0a 1c 3e 1a 95 ca 3d
       -0.03501273 0.14656617 0.15238471 0.0989172
000210 ac 8b 11 be 93 73 dc 3b 8d 20 00 bb fa 15 7f 3b
       -0.14213437 0.0067276447 -0.0019550652 0.003892301
000220 99 6a 9c 3d a0 47 fd bd 62 02 3a be be c2 6b be
       0.076375194 -0.12367177 -0.18164971 -0.23023507
000230 39 95 3e be bf cd 0e be 27 29 5c be 1e bd 93 be
       -0.18611611 -0.13945673 -0.21500073 -0.28855222
000240 e2 db 8c 3c c8 51 8d bd ff ad 0e be b1 30 68 3d
       0.017194692 -0.06900364 -0.13933562 0.05668706
000250 fe 6f 0b be 8e b7 26 3e 42 d7 e7 bd 83 2f ff 3d
       -0.1361694 0.16280958 -0.11320354 0.12460234
000260 6d ba 17 3e 3f 5b f7 bb 27 18 f2 3d 90 db 32 bc
       0.1481721 -0.007548719 0.11821013 -0.010916606
000270 97 d7 f2 bd 0f cd 16 bd 94 46 46 3d 8b 68 ac 3d
       -0.11857527 -0.036816653 0.048407152 0.084183775
000280 f9 6f 0c be 02 cb 2b 3e 94 11 01 3e 8a 4d 00 3e
       -0.13714589 0.1677666 0.12604362 0.12529579
000290 e3 b2 07 be 32 bc d6 3d 89 31 d4 bd d9 5f f7 bd
       -0.13251834 0.10485114 -0.103610106 -0.12078828
0002a0 73 a6 67 3d 06 00 16 be 05 d7 aa 39 e7 c6 0a 3e
       0.056555223 -0.14648446 0.0003258513 0.13552438
0002b0 35 25 4f 3e f4 61 94 3d 3b d4 54 3e a7 2f 34 3e
       0.20229037 0.072452456 0.20784084 0.17596303
0002c0 62 04 81 bd 8b e8 14 bd 68 4c 8c 3b 15 d8 1e be
       -0.06299664 -0.036354583 0.0042815693 -0.15512116
0002d0 4f 89 9f bd f7 bf 3b 3e 5b 55 04 3e 1c 14 4a 3e
       -0.077898614 0.18334948 0.12923186 0.19734234
0002e0 10 33 dd 3d b6 f3 01 bd 46 d8 d8 bd 3d cd f4 3d
       0.10800755 -0.03172656 -0.10588126 0.119532086
0002f0 15 f5 1f 3e 49 8f 9b bb e5 3f bc 3d 65 d2 47 3e
       0.15620835 -0.0047473055 0.091918744 0.19513853
000300 ab 69 b3 3d 93 51 8d bd e9 1f c7 3d d6 af c8 bd
       0.08760389 -0.06900325 0.09722883 -0.09799163
000310 ed df d0 bd fc ec 27 be f2 3c c3 bb 84 19 71 bc
       -0.101989605 -0.16398996 -0.005958193 -0.014715556
000320 53 6a b4 bc ef 95 c6 3c f5 47 61 3d ab 4e 10 be
       -0.022023356 0.024241416 0.055000264 -0.1409251
000330 e1 45 57 3c 9c f6 a3 bb e1 94 0e be a8 da 2b 3c
       0.013139219 -0.0050037634 -0.1392398 0.010489143
000340 74 c4 c8 bd fb 2b 32 be 52 a6 28 3e 78 f3 0d be
       -0.098030955 -0.1739959 0.16469696 -0.13862407
000350 9d 93 69 3d 4e 12 32 bd 5e 44 c0 bd c3 c6 7a 3d
       0.05702554 -0.043474488 -0.0938804 0.06122471
000360 56 83 86 3d 38 a6 57 be f0 db 05 be b3 87 23 3e
       0.06568019 -0.21059501 -0.13072181 0.15969734
000370 c1 90 0e 3e 8b 6f 57 bd 66 fd c5 3d 50 a9 ef bc
       0.13922407 -0.05259661 0.096674725 -0.02925554
000380 c1 75 22 3d 1a a1 9a bd 02 e6 c2 3d 0d 18 94 bd
       0.03966308 -0.07550259 0.09516527 -0.0723115
000390 3b 59 ea 3b 0c 27 e7 bd bb ef 27 3d 05 97 37 3b
       0.0071517504 -0.112867445 0.04100011 0.0028013599
0003a0 69 33 17 be 4e 78 38 3d 04 27 51 3c da bd b3 3d
       -0.14765705 0.045036606 0.01276565 0.08776446
0003b0 7d 55 01 3e 8f 7f 0e 3e 4b 74 b5 bd 7a ce 10 bd
       0.12630267 0.13915847 -0.08860072 -0.03535316
0003c0 5e 59 d5 bd 3e 9f 11 be a7 1d 94 bd c0 35 38 be
       -0.10417436 -0.14220902 -0.07232218 -0.17989254
0003d0 43 39 0f be 85 b6 33 be 0d 18 bf 3c 38 64 3c be
       -0.13986687 -0.17550094 0.023326898 -0.18397605
0003e0 01 36 e4 3c 8f ba d6 3d a1 22 7c bd 62 ee c0 3c
       0.027857782 0.10484802 -0.061556462 0.02355117
0003f0 04 55 4d bd fa 60 a1 3d 8f 94 c9 3d f9 91 23 be
       -0.050129905 0.07879825 0.098427884 -0.15973653

encBlocks.0.conv1.bias f4 [16]
000000 df f4 29 3e 6b 1f cd 3d a0 39 0d be c5 f3 15 3e
       0.16597317 0.10015758 -0.13791513 0.14643772
000010 92 86 5c bd f8 79 1a be a6 f5 99 3d 5d b0 97 bd
       -0.053839274 -0.1508559 0.07517557 -0.074066855
000020 cf 49 8a bd 19 fe 61 3d cf be 0e be a8 ae ed bd
       -0.06752359 0.055173967 -0.13939975 -0.11605579
000030 66 40 0f 3e a9 a3 26 3e 6c a7 8c 3d fc e5 4b be
       0.1398941 0.16273369 0.06867871 -0.19911951

encBlocks.0.conv2.weight f4 [16, 16, 3, 3]
000000 89 66 f7 bc d1 4f 02 bb ae 97 47 3c 2a 42 00 bd
       -0.03020026 -0.0019884 0.012182159 -0.0313131
000010 8e 1a 24 3d 57 d2 0d 3d 61 ef 95 3d 7c 74 82 3d
       0.040064387 0.034624424 0.073210485 0.06369874
000020 75 93 79 3d 07 c7 0a bd 8a 6d cb bd 14 10 4f bd
       0.06093164 -0.033881214 -0.09933002 -0.050552443
000030 35 f8 b8 bd 36 49 b5 bc e2 a3 db bd 57 07 b8 bd
       -0.09031717 -0.022129636 -0.107246175 -0.08985775
000040 d6 fe ef bd ad 8d fb bd 15 1e 80 bd a2 25 8f bd
       -0.11718528 -0.12282882 -0.06255738 -0.069896
000050 4a 27 c2 bc f1 97 ae bc 28 81 9b bd 06 13 cb bb
       -0.023700375 -0.021312686 -0.07592994 -0.006197336
000060 05 cd 8d bd 0d cd 68 3d 97 dd a2 bc fe 55 15 bc
       -0.0692387 0.056836177 -0.019881053 -0.00911474
000070 54 26 67 bd 1a 64 c0 3c cc 8d 9f bc 61 e4 9d bd
       -0.056433037 0.023485232 -0.019476794 -0.077095754
000080 48 ac a8 bc 71 17 33 3d cc 32 a5 bc f5 af 99 3d
       -0.020589963 0.043723527 -0.020165823 0.07504264
000090 dc 87 a0 bc 6d 4e 1d bd ad 7e 40 3d 6f 16 a6 bd
       -0.019596033 -0.03840487 0.046995807 -0.081097476
0000a0 4e df 3d bc bc 6b ef 3c df 8b 00 bd f9 6d 28 3d
       -0.0115888845 0.029226176 -0.03138339 0.041120503
0000b0 b3 56 b5 3d e4 e8 89 bc fd b0 b0 3c 66 f6 30 bd
       0.08854427 -0.016834684 0.02156877 -0.043203734
0000c0 02 22 d1 bd 45 ae f4 bc e9 c5 cd bc bc af 9e bd
       -0.102115646 -0.029868254 -0.025118785 -0.077483624
0000d0 62 15 ca bd 5e 72 9e bd 95 60 96 3d 8f 81 13 3d
       -0.0986736 -0.077366576 0.0734264 0.03601223
0000e0 4b cb d1 3c 3a f0 d6 3c 92 0d 86 bd c7 0b 02 bd
       0.025609633 0.026237596 -0.06545557 -0.031749513
0000f0 34 35 5c bd ae a5 e0 3c 17 04 a5 bd 5d 25 06 bd
       -0.053761676 0.027422752 -0.08057421 -0.032750476
000100 b5 74 7b bd 69 c2 95 3c cf 34 0e bc 1c 61 c1 3b
       -0.061390597 0.018281179 -0.008679583 0.005901469
000110 e8 f7 cd bc ed b0 c1 bc f1 5b 24 3d 36 9b 6d 3d
       -0.025142625 -0.023643935 0.040126745 0.05800935
000120 80 4b 0a 3d ae 24 11 bc 84 bc 55 3c 03 31 90 bd
       0.03376341 -0.008858843 0.013045434 -0.07040598
000130 c7 c4 d9 bd 62 9c 32 3d b8 41 00 3b f3 a6 56 3d
       -0.106332354 0.04360617 0.0019570421 0.05240531
000140 ec 9f 63 3d d8 33 d6 3c b9 9c 48 3d 81 5b 22 3d
       0.055572435 0.026147768 0.048977587 0.039638046
000150 07 50 9b 3c 84 c4 86 bd 73 90 a2 ba 05 c4 0e bd
       0.018959058 -0.06580451 -0.0012402668 -0.034854908
000160 e2 9e ad 38 bb 84 33 3c 5b fc 91 3b 0a f7 11 bd
       8.278877e-05 0.010956938 0.004455132 -0.035635985
000170 af d7 8b 3c f9 4a ae bc 4a 96 7a 3d 1b 71 25 bd
       0.01707062 -0.021275984 0.061178483 -0.04039107
000180 9a 04 8a bd 56 c7 7a bb 49 10 71 3d 4b 20 fa bb
       -0.06739159 -0.0038265786 0.05885342 -0.007633244
000190 a9 dc db 3c 09 f6 ab 3d f1 c5 bc bc 0c 23 0e bc
       0.026838617 0.08396537 -0.023043605 -0.008675348
0001a0 f2 c7 0f bc d2 ff 07 bd 97 60 82 b9 7a 6e 62 3b
       -0.008775698 -0.033202954 -0.00024867497 0.0034550712
0001b0 9d db 70 3b 0a 05 90 3d f5 a5 51 3d 81 05 09 bd
       0.0036751993 0.07032211 0.05118366 -0.033452515
0001c0 36 88 19 bd 6a 79 15 bd 0e 9d c8 bc 1a 25 39 bd
       -0.037483416 -0.036492743 -0.024488952 -0.0452014
0001d0 df 83 43 3b 59 59 56 bd 50 83 a6 bd 76 9e 07 3d
       0.002983324 -0.052331302 -0.081305146 0.033110105
0001e0 68 81 13 bd ca 4d 04 3d 65 44 68 3d 88 7c 37 bd
       -0.036012083 0.032300748 0.05670585 -0.044796497
0001f0 f9 20 53 bd 6b 3a 82 bd 5e 57 81 bc 4b 10 b5 bd
       -0.051545117 -0.063587986 -0.01578873 -0.08840998
000200 90 29 a4 bd 70 ae 10 bd 92 d4 48 3d 20 08 b2 bc
       -0.0801574 -0.035322607 0.049030848 -0.02173239
000210 78 85 24 3d a6 c0 4a bc 64 63 34 ba 06 2c a8 bd
       0.04016635 -0.0123750325 -0.00068812654 -0.08211522
000220 2f 43 6d bc 12 80 2d 3d a8 c2 92 bc e7 7d 86 3d
       -0.01448135 0.042358465 -0.017915085 0.06566983
000230 a7 8e 35 3d 13 8b 92 3d 33 e9 b3 3d 2b d7 f4 3c
       0.044325497 0.071554326 0.087847136 0.029887756
000240 d4 af f1 3b 22 44 5f 3d c0 d3 5e 3d 8a 27 7a bd
       0.0073756967 0.054508336 0.05440116 -0.061072864
000250 65 33 2a 3d 02 da 38 3d 66 3f 7a bc 7e 75 d4 bc
       0.04155292 0.045129783 -0.015273904 -0.02593493
000260 90 51 11 3c e4 88 ea bc 76 ac 66 bc 2a 28 5f bd
       0.008869544 -0.028629728 -0.014079204 -0.054481663
000270 39 a3 20 bd 5a a8 19 bc ab 28 55 bb 5a b1 02 3d
       -0.03921816 -0.009378517 -0.003252546 0.031907417
000280 7b e3 92 bb 0c d8 de 3b 6f 02 d0 bc 5f ac 5d bd
       -0.004482684 0.006800657 -0.025391785 -0.054119464
000290 94 cc 5a bd 30 7a ba bc 79 f8 76 3d 07 e3 89 3c
       -0.053417757 -0.022763342 0.060295556 0.016831888
0002a0 59 91 03 3c fd 00 a9 3d f4 72 8c bd 07 8f 93 3c
       0.008030259 0.082521416 -0.06857863 0.018012537
0002b0 84 73 62 bc df e0 2e 3d 80 23 6a ba 37 d6 4c 3d
       -0.013821486 0.042694923 -0.00089316815 0.05000898
0002c0 ea 6d ef 3c c0 35 17 3d 75 db bc bc 68 ed 8b 3d
       0.029227216 0.036916494 -0.023053864 0.06832391
0002d0 75 10 90 3d ec 8e a8 3d 6e 29 14 3c ea cf c2 bc
       0.07034389 0.08230385 0.009043081 -0.023780782
0002e0 b9 d8 37 3d 7e 65 9d bd eb e7 ee bc 47 8d 8d bc
       0.044884417 -0.07685374 -0.029163321 -0.01727928
0002f0 28 88 c2 bd d9 ed e9 bc 5e 77 be 3c e6 80 b9 bb
       -0.09498626 -0.028555797 0.023250278 -0.005661118
000300 25 0e 6e 3b a7 11 0c bd c6 30 96 bd 0f 40 02 3d
       0.0036324349 -0.034196522 -0.073335215 0.031799372
000310 a7 60 96 bc c8 32 16 bd 04 6e ad 3d 82 e6 69 bd
       -0.018356634 -0.036669523 0.084682494 -0.057104595
000320 33 60 c8 3d d6 14 d6 3d 8f 2b 4a 3c d6 9a 0c bd
       0.097839735 0.10453193 0.012339487 -0.03432735
000330 cd dd fc bc 25 95 c1 3d 41 bc ae 3d 89 63 8f 3c
       -0.030867482 0.09452275 0.08532 0.017503517
000340 86 ed c7 3c c7 30 45 bd 0e b0 18 3e e3 99 85 3d
       0.024405252 -0.04814222 0.1491091 0.06523492
000350 3e 22 ef 3c 5a 20 b1 3b 37 a9 fb bb 97 d8 94 3d
       0.029191133 0.005405468 -0.007680084 0.07267874
000360 42 3c 05 bd 3d 70 87 3d 73 8c 7d bc bf 61 05 bd
       -0.03252817 0.06613205 -0.01547538 -0.03256392
000370 1e 3f f7 bc 8e 7b 15 3c 80 3f 11 3d c8 2f 9c 3d
       -0.030181464 0.009123696 0.03546095 0.07626301
000380 0e 0e f6 3c b4 3d 9d bd b2 75 18 3d 1d 22 82 3d
       0.030035999 -0.076777846 0.037221618 0.06354163
000390 49 2e 52 3d 3f 09 14 3c 9c 0c 88 bd 82 1a 33 3d
       0.051313672 0.009035408 -0.0664303 0.04372645
0003a0 cc b7 32 bd e4 4c 87 bd 67 e2 ef bc c0 20 d4 bd
       -0.043632314 -0.066064626 -0.029282762 -0.10357809
0003b0 0c af 9b bd c2 b8 0f bd ac 44 83 bd 4c e4 ac bd
       -0.07601747 -0.03508831 -0.064095825 -0.08441982
0003c0 48 6c ce 3c 0e ff cd 3b 4a ce 0d 3d d6 ee 2e 3d
       0.025198117 0.0062865084 0.03462056 0.04270824
0003d0 8b 70 ce 3c 42 4f 9e 3c 4c b0 2b 3d e8 ea 30 bd
       0.025200149 0.019324902 0.041916177 -0.043192774
0003e0 c0 77 eb bc a6 e8 4c 3b 1b e7 8c 3c a8 b4 8b bd
       -0.028743625 0.00312666 0.017200043 -0.06821567
0003f0 f0 3b ae 3d c9 f0 55 3d 1d 91 35 bd 4a d3 b6 bc
       0.08507526 0.052231584 -0.044327844 -0.022317547

encBlocks.0.conv2.bias f4 [16]
000000 2a 5d 04 3d 64 58 64 3c 0a 85 0a bd 19 0b 9d bc
       0.03231541 0.01393709 -0.033818282 -0.01917033
000010 4e a6 b3 3d ae ae 5b bd ff 0b e9 bc 29 84 f4 3c
       0.087719545 -0.053633384 -0.028448103 0.029848175
000020 07 cf 0b bd 4d df bc ba d8 81 2a 3d fc 90 02 be
       -0.034132984 -0.001440981 0.041627735 -0.1275062
000030 f4 ef 9c bd 59 69 06 3d ba 95 a2 3c a3 20 8e 3d
       -0.07662955 0.03281531 0.019846786 0.06939819

encBlocks.0.BN1.weight f4 [16]
000000 f4 75 68 3f 89 2f 85 3f a1 2b 7e 3f eb 47 7f 3f
       0.9080498 1.0405132 0.9928532 0.99719113
000010 01 d3 7b 3f e8 36 82 3f 55 ce 80 3f eb d6 73 3f
       0.9836884 1.0173006 1.0062968 0.95249814
000020 0f 28 6e 3f a7 5b 74 3f b6 b5 83 3f b8 e9 7a 3f
       0.93029875 0.9545235 1.0289829 0.98012877
000030 e4 69 7f 3f 0d c9 7d 3f e2 7d 83 3f 81 c6 80 3f
       0.9977095 0.99134904 1.0272791 1.0060579

encBlocks.0.BN1.bias f4 [16]
000000 a6 2e 95 bd 9e 4a 22 3d e6 3e f4 bb d6 55 1d 3c
       -0.07284288 0.03962194 -0.007453787 0.009602984
000010 28 08 ec bc 12 ba c6 bc bb 28 a2 bd c0 18 89 3c
       -0.028812483 -0.024258647 -0.07917925 0.016735435
000020 6b a1 c0 3c 07 50 ba bc 06 91 13 bc cb 75 f9 bc
       0.02351447 -0.022743238 -0.009006744 -0.030451676
000030 9b ef 8c 3c 82 59 de bd cd d2 32 3c c6 82 45 bb
       0.017204097 -0.10856916 0.010914517 -0.0030137761

encBlocks.0.BN1.running_mean f4 [16]
000000 9c a3 13 be 11 db 64 be ea 77 d0 3e 20 20 2c 3f
       -0.14417881 -0.22349192 0.40716487 0.6723652
000010 0c 34 11 3e cc 91 18 bf 41 97 3e 3f 75 07 af be
       0.1418001 -0.5959747 0.74449545 -0.34185377
000020 a8 68 53 be 71 ac ce be 2b 13 ce bd 61 eb da be
       -0.20645392 -0.40365937 -0.1006225 -0.42757705
000030 e4 30 3b 3f b7 23 1c bf 0d 6c 45 3d ab 0d ca bc
       0.73121476 -0.60991997 0.04819875 -0.02466472

encBlocks.0.BN1.running_var f4 [16]
000000 1a 8e 34 3d 7d 69 8b 3d 42 42 19 3e fb 04 c1 3d
       0.04408083 0.0680723 0.14966682 0.09424778
000010 54 fe ef 3c a8 cc 09 3e 0f 8d 1e 3e 84 d7 15 3d
       0.029296078 0.13456976 0.15483497 0.036582485
000020 12 af af 3c e6 b5 b2 3d 77 fa ed 3c 2e 83 3c 3d
       0.021445785 0.087261006 0.029050095 0.04602354
000030 14 72 fe 3d d2 3c 49 3e f3 99 fa 3c 0d d8 20 3d
       0.124241024 0.19652107 0.030590987 0.039268542

encBlocks.0.BN2.weight f4 [16]
000000 f1 4d 85 3f b0 a7 78 3f 42 24 7d 3f 36 f1 84 3f
       1.0414411 0.9713087 0.9888345 1.0386112
000010 82 3a 7c 3f c9 7c 7a 3f c7 7c 7b 3f c3 af 78 3f
       0.98526776 0.9784666 0.9823727 0.9714319
000020 da 0b 82 3f d9 72 77 3f cf 1b 83 3f 11 29 85 3f
       1.0159867 0.9665962 1.0242862 1.0403157
000030 10 6e 7e 3f 32 3b 7a 3f 6a 82 7f 3f e4 94 79 3f
       0.9938669 0.97746575 0.9980837 0.97492814

encBlocks.0.BN2.bias f4 [16]
000000 fd 37 6f bd c1 c5 11 3d f6 47 d2 bd 69 2e 65 bd
       -0.058403004 0.035588983 -0.10267632 -0.055952463
000010 71 d1 70 3d c3 d4 03 3d e8 bf 75 bd 48 e3 bd bc
       0.05879349 0.032185327 -0.05999747 -0.023179665
000020 de b1 99 bb 04 0e eb bd 7b 59 7c 3d 4f c6 00 be
       -0.004690393 -0.11477283 0.061608773 -0.12575649
000030 b4 90 37 bd d4 4c 71 bc 9d 3b 84 bc 5e 9e 03 3d
       -0.044815734 -0.01472779 -0.016141707 0.032133453

encBlocks.0.BN2.running_mean f4 [16]
000000 57 07 19 bf 74 ba cc 3e 37 d7 2b 3f 73 e1 88 3e
       -0.59776825 0.39986002 0.67125267 0.26734504
000010 62 36 e0 3c 74 92 86 3e 00 e6 3f 3e 23 9d 0a 3e
       0.027369682 0.2628361 0.18740082 0.13536505
000020 80 3f 3f 3f f2 08 f7 be 2c 8e 13 be 22 eb 9d 3e
       0.7470627 -0.48249012 -0.14409703 0.30843455
000030 a3 2a 36 3f f8 e4 0a bf 53 8d 47 3e 29 ca 3f be
       0.7115881 -0.5425563 0.19487505 -0.18729462

encBlocks.0.BN2.running_var f4 [16]
000000 f4 74 4c 3e 16 53 a5 3e 10 ec 90 3e 0b 9a 2d 3e
       0.19966489 0.32289952 0.283051 0.16953294
000010 68 c5 05 3f 41 b9 bc 3e 89 54 85 3e 7a a9 3c 3e
       0.52254343 0.36860088 0.26041058 0.18424025
000020 c4 43 16 3f c3 b3 8b 3d 17 3b 77 3e 4a 9f dc 3d
       0.5869715 0.06821396 0.24143635 0.107725695
000030 ff 06 29 3e 8c cb 51 3e 74 67 bf 3d d0 67 11 3e
       0.16506575 0.20487803 0.09345904 0.14199758

encBlocks.1.conv1.weight f4 [16, 16, 3, 3]
000000 cf 30 f1 3b 13 81 8b 3d 49 fb 28 bd 69 14 6d 3d
       0.0073605548 0.06811728 -0.04125527 0.057880793
000010 51 de 3f bd a5 4c bc bd cd 24 9d bc 6c 76 5e bd
       -0.046842877 -0.09194306 -0.019182587 -0.054312155
000020 64 e7 c7 bd 82 81 55 3d a4 8a 21 bd 07 bb 3a bd
       -0.09760931 0.05212546 -0.03943886 -0.04558852
000030 3f e1 eb bc 7d 71 cf 3d f9 2d f8 bc ff 95 95 3d
       -0.02879393 0.10129068 -0.030295359 0.07304
000040 7c 6c 84 3b b5 01 15 3d 36 28 63 bd 7f 10 6d 3d
       0.0040412527 0.03637858 -0.05545827 0.05787706
000050 96 82 25 bd 55 b8 54 3c 66 ed 5a bc b6 1e 5a bc
       -0.04040774 0.012983401 -0.013362264 -0.013312986
000060 54 b6 d4 bd a9 40 f6 bc 5d 96 ef 3c 81 53 b3 bd
       -0.10386339 -0.03006013 0.029246503 -0.087561615
000070 07 5d 57 3d e0 5e 94 3c c8 53 d2 bc 30 93 02 bd
       0.052578952 0.018111646 -0.025674716 -0.03187865
000080 dd 7f 4f 3d 85 00 d3 3c 98 ba a7 bd 0d b5 ed bd
       0.05065905 0.025757084 -0.08189887 -0.11606798
000090 cb f6 98 3d 93 c4 0b 3d b0 35 09 bd 2a 23 47 bc
       0.07468947 0.034123015 -0.033498466 -0.01215438
0000a0 c8 a7 4e bc 6b 5f a0 bd 4a 88 4e 3d 7a f7 50 3d
       -0.012613244 -0.078306995 0.050422944 0.051017262
0000b0 26 44 a8 3d 7c 21 dc 3c 27 e3 5a bd fe d0 f3 3c
       0.08216123 0.026871435 -0.053439286 0.029762741
0000c0 65 aa 04 3d 78 7f 0b bd 49 05 8d 3d b1 56 2c 3b
       0.032389063 -0.03405711 0.06885774 0.002629679
0000d0 33 4a 4f bc 05 33 17 bc cf 5f 9a bd 64 92 6f 3d
       -0.012651968 -0.009228473 -0.07537805 0.05848922
0000e0 8a 34 74 3d c8 9d 39 bd b6 ea 78 bd 5c e0 10 bd
       0.059620418 -0.045316488 -0.060770713 -0.035370216
0000f0 cf 0b 92 3d d8 d7 83 bd 75 4c 39 bd 16 5c a0 bd
       0.071311586 -0.06437653 -0.04523893 -0.07830064
000100 38 28 2a bd b6 47 48 bd 8f 9e 85 bd 48 ab 6a bc
       -0.04154226 -0.048896514 -0.06524383 -0.014323063
000110 7c 60 02 3d 7d 6a 26 bd 7e 98 7b bc 52 93 9e ba
       0.031830296 -0.0406289 -0.015356181 -0.0012098348
000120 db ba 7f bd b0 23 3d 3d 1c 42 a1 bc 6e f3 c4 3c
       -0.06243406 0.046176612 -0.019684844 0.024041858
000130 5a fe b2 bd 6b e9 c0 bb 9c 35 7e bd 20 b2 5b bd
       -0.0873992 -0.0058872006 -0.062062845 -0.05363667
000140 52 59 07 bd 9e 67 3d 3d 96 d4 1b 3c c1 f4 bd bd
       -0.033044167 0.046241395 0.009511134 -0.09275199
000150 8e 5f 56 3d 47 e7 a6 3c d0 14 8f bd 2b 9a 71 3b
       0.05233722 0.020373954 -0.069863915 0.0036865573
000160 37 0e a3 bd 2d 89 8b bd 01 79 9d 3b 1e 21 0b 3d
       -0.07961696 -0.068132736 0.0048056846 0.03396713
000170 4c 27 7e bd 4e fe 6c bd ea 66 e1 bc af 8f 9d 3d
       -0.062049195 -0.05785971 -0.027514894 0.07693421
000180 6a 15 22 bd e2 4a bc 3c 74 af 8b bd 4e f0 f2 3c
       -0.039571203 0.022984926 -0.068205744 0.029655602
000190 0d 62 39 bd 15 d6 d4 3d 84 7b 90 3d a9 87 be bd
       -0.045259524 0.103923954 0.07054809 -0.09303219
0001a0 13 67 61 3d 53 46 45 bb f1 32 9e bd b7 c9 eb bc
       0.05502994 -0.003010173 -0.0772456 -0.028782709
0001b0 a0 9a 3e 3d 43 f8 3d 3d f8 ac 2b 3d 3e d7 71 ba
       0.04653418 0.04637934 0.041913003 -0.0009225494
0001c0 79 ab 36 3c df 9e b9 bc 05 69 0c 3d 3c dc 40 3d
       0.011149281 -0.022658763 0.034279842 0.047085032
0001d0 dd 96 72 3d fa 50 95 3d 1e e0 21 3c a4 3f aa 3d
       0.059225906 0.07290836 0.009880094 0.0831292
0001e0 44 b8 ef 3c 55 e3 21 3d d4 85 fb b8 6d c0 78 3d
       0.02926267 0.03952344 -0.0001199354 0.060730387
0001f0 9c 42 a7 3c c6 54 1d 3d 7a 3e 7c 3d b5 e0 9e 3d
       0.020417504 0.038410924 0.06158302 0.07757703
000200 1c b9 1a bd 27 dd 9d 3d 97 13 dc 3c 01 ce 24 bd
       -0.03777419 0.07708197 0.02686481 -0.040235523
000210 34 f3 3a bd 2c 22 8e 3d 9f ff 71 3d 4b 01 76 bb
       -0.045642093 0.069401115 0.05908167 -0.0037537392
000220 88 8e 50 3d 58 11 95 bc d9 44 ec 3c ed 61 18 3d
       0.05091718 -0.018196747 0.028841423 0.037202764
000230 24 65 7e bd fd bd e4 bc fd f0 c9 bd 40 a0 62 3c
       -0.062108174 -0.027922625 -0.09860418 0.013832152
000240 12 33 c4 3d 68 dc ad 3d e1 b6 ac bd 6a 78 a8 3d
       0.095800534 0.08489305 -0.08433319 0.08226092
000250 e8 ea 65 3d ce 18 08 3c 64 a3 99 3d e6 f6 28 bd
       0.056132227 0.008306695 0.075018674 -0.041251086
000260 6d ac de bd f6 6c 09 bd cf f0 4f bd 89 ff 83 3c
       -0.10872731 -0.03355118 -0.050766762 0.01611306
000270 f4 ad 57 bd 94 f1 97 3d 9a 1e 4e 3d e8 d6 42 3c
       -0.05265613 0.07419124 0.050322153 0.011892058
000280 9c 20 49 bd 70 b2 89 bd 40 a3 d0 bd e7 13 8d 3d
       -0.049103364 -0.067234874 -0.101873875 0.06888562
000290 6e 18 21 bd 02 4a 4e bd 21 22 33 bd 81 76 26 bd
       -0.03932994 -0.050363548 -0.04373372 -0.040640358
0002a0 50 e6 35 bc 70 32 04 bd 49 4a 9d 3d d3 86 8d bd
       -0.011102274 -0.032274663 0.076801844 -0.06910481
0002b0 d8 bb e8 3b 6a 87 f0 ba 73 9a c9 3d fd 4b 89 3d
       0.007102471 -0.0018350903 0.09843912 0.06703947
0002c0 2e 6c 12 3c ec bf c9 3c 60 85 3c bc 5e 57 18 bd
       0.008936925 0.024627648 -0.011506408 -0.037192695
0002d0 e8 a7 51 bd 6e a6 85 3d 90 e6 48 3d 08 92 8d 3d
       -0.05118552 0.065258846 0.049048007 0.06912619
0002e0 d8 f1 82 3d 5d 45 31 3d 8d c6 6c bd 11 2c dc ba
       0.06393784 0.04327904 -0.05780654 -0.0016797801
0002f0 1d 61 65 3c 7b a9 08 3d 2d 46 20 3d 09 c6 79 3d
       0.014000204 0.033364754 0.039129425 0.060979877
000300 26 63 b2 bc d0 54 ea bc 38 43 6c bd 20 27 bc 3d
       -0.021775793 -0.028604895 -0.057681292 0.0918715
000310 fb b6 c1 3c 83 fc 2f 3c c1 b8 27 3d 08 c3 bb bd
       0.023646822 0.010741356 0.04094768 -0.09168059
000320 34 0b 8a bd b2 17 10 3d 6e 9a 81 bd 58 34 b4 bd
       -0.06740418 0.035178848 -0.06328283 -0.08799046
000330 61 b5 5d 3b 09 6d 79 bc 4a 5d 2a 3c 0e 7a 4b bd
       0.0033830034 -0.01522375 0.010398218 -0.049676947
000340 d3 e5 5e 3c 44 90 32 bd f0 77 9a bc 35 e4 28 3c
       0.013604599 -0.043594614 -0.018856019 0.010308315
000350 e4 c4 22 3d cf bc bc bd 47 3d ae 3c b8 a4 8f bc
       0.03973855 -0.092157 0.021269454 -0.017534599
000360 4d 09 80 b9 67 d3 9b bc 26 82 57 3d 39 2d 7e 3c
       -0.00024420992 -0.019021703 0.052614354 0.015513712
000370 35 f5 c8 bc 9a d7 94 bd 03 c5 9a 3c 37 a7 9b bd
       -0.024530986 -0.07267685 0.01889277 -0.07600253
000380 52 22 64 3d b3 36 14 bd 31 e7 77 3d 62 30 83 bd
       0.055696793 -0.036184978 0.060523216 -0.06405713
000390 9f e9 70 3d 70 81 34 3c 13 8e 1b bd 2c ba 2a bc
       0.05881655 0.011017188 -0.03797729 -0.010420363
0003a0 57 47 4e 3d 21 d3 47 3d 32 c7 43 bd 21 58 68 3c
       0.050361004 0.048785333 -0.04779739 0.014181168
0003b0 f1 ad 79 3d 42 0d 60 3d 64 71 42 bd b4 fd bc 3b
       0.0609569 0.054700144 -0.04747142 0.0057675485
0003c0 07 30 c2 bc 4d a1 2c 3d 86 c1 69 bd ea fc 4b bc
       -0.023704542 0.042146016 -0.057069324 -0.012450436
0003d0 45 4e 37 bd 56 57 48 3d a6 4d d0 3c 93 92 03 3c
       -0.044752378 0.048911415 0.02542765 0.0080305515
0003e0 3d 35 3a bd a0 22 0b 3d e6 fd 8d 3d 53 ef b7 3b
       -0.04546093 0.033968568 0.06933193 0.0056132465
0003f0 f4 6d ef 3c ce df 42 3d b3 f2 e4 3c 8d 39 e0 3b
       0.029227234 0.047576718 0.02794776 0.006842798

encBlocks.1.conv1.bias f4 [16]
000000 6a a1 89 3c 0b 1b b0 3a 8c 62 8f 3d 47 a9 48 3c
       0.016800601 0.0013435794 0.07001218 0.01224739
000010 ec d6 02 3d 1a a1 d8 bc ae 15 72 bd 22 15 84 3d
       0.031943247 -0.026444007 -0.059102707 0.06449343
000020 16 ac 43 bd 8f ca 67 3b 7b cd 2b 3d c9 15 15 3d
       -0.047771536 0.0035368537 0.04194401 0.03639773
000030 bc 16 f0 bc f5 f8 59 bd d8 f7 8a bc f7 6d 0c bd
       -0.029307716 -0.05321594 -0.016963884 -0.03428456

encBlocks.1.conv2.weight f4 [16, 16, 3, 3]
000000 88 c5 0d 3d c3 1d 42 ba c2 9e 12 bc aa d6 3e bd
       0.03461221 -0.00074049475 -0.008948984 -0.04659144
000010 ca c1 a6 3d 3d 58 af bb 97 bb 58 bd 58 e6 48 bd
       0.08142431 -0.005351095 -0.052913275 -0.049047798
000020 0b 03 90 3c 86 32 33 bd eb 31 89 bd bc ce 3e 3c
       0.017579576 -0.043749355 -0.06698974 0.011645969
000030 8f 8e 01 3d 82 22 b5 bd 73 9c 88 bc ea 3c 01 bd
       0.031630095 -0.088444725 -0.016676163 -0.031552233
000040 68 b7 d3 3b c1 71 43 bd 55 c2 ea bb 77 78 ad bc
       0.0064610727 -0.047715906 -0.0071642795 -0.021175606
000050 62 b2 01 bc 71 a7 1d bd 06 8d 24 3d 19 d9 77 3d
       -0.007916065 -0.038489763 0.040173553 0.060509775
000060 ef 31 d7 bd 76 01 03 3c 0a 4a c8 ba f9 0b 49 3c
       -0.10507571 0.007995954 -0.0015280854 0.012270921
000070 52 12 d0 3a 15 ac da bc 6d 37 8a bd 06 11 ac 3d
       0.00158746 -0.026693383 -0.06748853 0.084016845
000080 6a b1 aa bc 64 d4 5d bd 80 68 a1 3d ff ce bd bc
       -0.02083655 -0.05415763 0.0788126 -0.023169992
000090 37 1b 0a bb 44 6d 33 3d cf 33 72 3d d6 3e 66 bd
       -0.002107335 0.043805376 0.05913144 -0.05621227
0000a0 30 db ee bc 75 e7 bb 3d e8 17 a4 bd b1 d8 8c bd
       -0.029157251 0.09175006 -0.08012372 -0.06877268
0000b0 85 b4 0e bd 81 ec b9 3d 0b b3 c1 bd 52 35 c1 3b
       -0.034840126 0.09078313 -0.09457978 0.005896249
0000c0 a0 4b 93 bc 6c e1 90 bc e6 b9 01 bd 58 e9 ba 3c
       -0.017980397 -0.017685615 -0.031671427 0.022816345
0000d0 2c f9 87 bc 41 8e 99 bd c8 c0 9e b8 af 50 fd 3c
       -0.016598307 -0.07497836 -7.5699354e-05 0.030922262
0000e0 71 c3 71 bd 00 49 a3 bd d0 31 7c bc fc 96 05 3c
       -0.059024278 -0.07972908 -0.015392736 0.008153673
0000f0 ad 5a c6 bd e4 da a0 bc 22 5d 2b 3d 6f 32 d8 bc
       -0.09685264 -0.019635625 0.041836865 -0.026391236
000100 de 6e 70 bd c4 68 66 3b da 16 19 bd 32 55 af 3c
       -0.05869948 0.003515766 -0.03737531 0.021402929
000110 45 01 28 3d fd ce 99 3c 84 4a 94 3d f4 9a ba 3d
       0.041016836 0.018775458 0.07240775 0.09111586
000120 63 c8 8d 3d 22 5c 86 bd da ff 02 bc 9f 2d 17 3d
       0.06922986 -0.06560542 -0.00799557 0.036908742
000130 05 2e ae bb 5d 4a 6f bd 3c b6 a7 bd f8 ee 2b bd
       -0.0053155445 -0.058420528 -0.08189055 -0.041975945
000140 b6 88 8e 3d 87 db 87 3d 95 ea d9 bc 4f 61 13 bd
       0.06959669 0.066336684 -0.026601115 -0.035981473
000150 54 4d 0c bd e6 61 93 bd a0 2d 81 bd 66 2e 4c 3c
       -0.034253433 -0.07196407 -0.063075304 0.012462234
000160 92 d9 9d 3d 6f 62 38 3d 9c ad 7a 3d 3c 07 14 3d
       0.07707514 0.04501575 0.061200723 0.03613971
000170 0d 6b 57 3d ad 43 f9 bc 27 3b 42 3d 3a 17 65 3d
       0.052592326 -0.030427778 0.047419693 0.055930354
000180 59 a1 c4 3c 49 23 53 bb 8c 24 52 3d 46 b2 13 3d
       0.024002718 -0.0032217077 0.051304385 0.036058687
000190 25 91 d3 3c f2 a1 96 bc 00 24 10 bd 81 91 4a 3d
       0.025826046 -0.018387768 -0.035190582 0.04945517
0001a0 a3 70 88 bd 6e 26 a2 3d ea 56 f1 3c 99 be e0 3c
       -0.06662109 0.07917486 0.02946039 0.027434634
0001b0 dc 29 c4 bd 65 d7 e7 bc c1 e7 dc 3b dd 60 9b bd
       -0.095782965 -0.02830095 0.0067414944 -0.075868346
0001c0 1c e6 94 bc c8 dc ac bd 32 7d 3e be c0 3b a9 bd
       -0.018176131 -0.08440548 -0.18602446 -0.082633495
0001d0 3c 6f d2 3c f3 38 bb 3c fe 8b 99 bd 03 44 41 bb
       0.025687806 0.022854304 -0.074974045 -0.002949
0001e0 6e 6c 84 bd b9 d8 46 38 5b 2d db 3a da 11 90 3d
       -0.06465994 4.7408717e-05 0.0016721891 0.07034655
0001f0 1e aa 24 bc a1 62 06 bd e5 b4 3d 3d 0c 0b 54 bc
       -0.010050325 -0.032808904 0.046315093 -0.012942087
000200 ca 54 18 3d c6 64 80 bc f4 78 09 3d ae 49 e4 3a
       0.037190236 -0.015673053 0.033562616 0.0017416978
000210 62 11 5f 3d 3b 13 91 3d c8 69 f5 3c c3 57 14 bd
       0.054459937 0.07083746 0.029957667 -0.03621651
000220 c4 ad 65 3a f6 a6 2c ba e5 47 21 3d 1f f4 f3 bb
       0.000876155 -0.00065861584 0.039375205 -0.007444873
000230 87 c9 2e 3d ba 7f cb bc 5a 85 00 3a f1 6f 23 bd
       0.04267266 -0.024841178 0.00049026834 -0.039901678
000240 19 2c 3b 3c 7f 24 b9 bc 43 23 c7 bc ce 2f b4 bc
       0.011424088 -0.02260041 -0.024308806 -0.021995451
000250 2c 42 3d 3d 6e ea b4 bd 79 1e 58 bd 12 c5 21 bd
       0.046205685 -0.088337764 -0.052763436 -0.03949458
000260 b9 f3 95 bd f8 e0 45 bd 8e 90 28 3d eb f1 8b 3d
       -0.07321877 -0.04831025 0.041153483 0.068332516
000270 62 bc 52 bd f4 38 80 3c 9e fd 5c 3d 17 63 2f 3d
       -0.051449187 0.015652157 0.053952806 0.04281911
000280 b6 a1 95 3c be 43 5c bd 63 1a 0d bd c6 75 28 3d
       0.018265586 -0.05377554 -0.034448992 0.041127943
000290 3a ce 59 3d fc c1 e9 3d 19 32 52 3c b1 9c b4 3c
       0.05317519 0.11413953 0.012829327 0.022047373
0002a0 e3 93 4e 3d 19 4f 7d 3d bf f4 a2 bb 94 12 43 bc
       0.050434005 0.06184301 -0.0049730237 -0.011906285
0002b0 d7 3e f8 bc d2 34 a5 bd a5 25 0c 3d da d9 4d bd
       -0.030303402 -0.08066715 0.034215588 -0.050256588
0002c0 38 b3 53 bc 8e f4 c7 3a 2b a3 07 bd e1 a7 24 bd
       -0.012921147 0.0015255378 -0.033114593 -0.040199164
0002d0 92 d2 99 bc 27 4a 84 3b 88 e7 a8 3c 96 c0 ac 3d
       -0.018777166 0.00403716 0.020618215 0.0843517
0002e0 a2 eb 9c 3c 86 01 0d 3d 8a b2 1a 3d f1 a6 b0 bb
       0.019155327 0.03442528 0.037767924 -0.0053909947
0002f0 6a 2d 0b bd 99 44 a7 3d c4 6e b8 3d 89 ac 44 3d
       -0.033978857 0.08167381 0.09005502 0.048016105
000300 1e 7c 4a 3d bc fa c8 bc d4 15 00 bc 27 56 8f 3c
       0.049434774 -0.024533622 -0.007817704 0.017497135
000310 29 fa 9d 3d 56 f4 4f bd d3 0d 5c 3d 96 ca a8 bd
       0.0771373 -0.050770126 0.05372412 -0.08241765
000320 ce 2b e0 bc ec 9e 41 3d ee b3 28 bd 05 72 e9 bb
       -0.027364638 0.0472707 -0.04118722 -0.007124188
000330 f9 eb 99 bc a2 fe 56 bd 42 f6 28 bc 29 19 54 bc
       -0.018789278 -0.05248893 -0.010312619 -0.012945452
000340 28 4e 1a 3d 35 9e fc bc e2 49 1d bc ec 30 81 bd
       0.03767219 -0.030837158 -0.009600135 -0.06308159
000350 93 5a f0 bc 90 cf 28 3c f1 2e 12 3d 44 e6 87 3d
       -0.029340064 0.010303393 0.035689298 0.066357166
000360 9e c1 81 3d 42 23 15 bd 75 ec 70 bd e4 44 00 bd
       0.06335758 -0.036410578 -0.058819253 -0.0313157
000370 b4 61 b8 bd 24 00 f6 bb 1a 30 81 3d 8a ac 69 3d
       -0.090030104 -0.007507341 0.06308003 0.05704931
000380 f4 19 0b bd 12 66 15 bd fd 1c 49 bb 31 8f 89 3d
       -0.033960298 -0.036474295 -0.0030687444 0.06716765
000390 7f 81 76 bd 40 60 ce bd 95 75 5f bd 31 a8 3e bd
       -0.06018209 -0.10076952 -0.054555494 -0.04654712
0003a0 63 a1 af bd 70 a1 ce bc 7d a2 12 bd 52 2c 7e bd
       -0.08575704 -0.025223464 -0.035799492 -0.062053986
0003b0 36 3b 50 bd a3 c9 f8 3c b0 f8 1b 3d f3 e0 dd bd
       -0.050837718 0.030369585 0.038078964 -0.10833921
0003c0 db 4b 68 3c 69 a9 6c bd 98 e3 98 3c 31 0e f8 ba
       0.014178242 -0.05777875 0.018663213 -0.0018925128
0003d0 2e d8 14 3d fc a9 6f 3d a2 98 ef bc 13 60 7d 3c
       0.036338978 0.05851172 -0.029247586 0.0154648
0003e0 38 94 5d 3d 1e f8 72 bc 33 6a a1 bd 34 aa 17 bc
       0.05409643 -0.014829664 -0.07881584 -0.009256888
0003f0 04 d3 8c 3d d7 b5 a8 3d ba 19 26 3d 73 1b 28 bd
       0.068761855 0.08237808 0.04055188 -0.041041803

encBlocks.1.conv2.bias f4 [16]
000000 d1 a4 5c 3d 41 39 66 bc dc 6e a2 3b 6d 50 83 bd
       0.05386812 -0.014051736 0.004957063 -0.064118244
000010 6a 54 2c bd f1 0d 86 bc b9 ee 80 bc 6d c8 9e bb
       -0.04207269 -0.01636407 -0.015738832 -0.00484567
000020 01 20 a1 bd b9 14 19 bc 18 2f 8e 3d b9 e6 b3 bb
       -0.078674324 -0.00934332 0.06942576 -0.005490151
000030 b7 8e 93 bc 6f f6 40 3d 16 2d 24 3d 52 d7 90 3d
       -0.018012388 0.047110017 0.04008206 0.07072319

encBlocks.1.BN1.weight f4 [16]
000000 a7 9d 82 3f ba de 80 3f 25 85 7c 3f 01 56 83 3f
       1.0204362 1.0067971 0.9864066 1.0260621
000010 06 b9 85 3f e4 42 80 3f d1 ac 76 3f 6c a1 6f 3f
       1.044709 1.0020413 0.96357447 0.93605685
000020 61 fe 81 3f 04 40 86 3f b0 21 88 3f c6 57 72 3f
       1.0155755 1.0488286 1.0635281 0.9466518
000030 b2 19 7c 3f f7 1b 7f 3f eb 04 85 3f 34 83 76 3f
       0.9847671 0.99652046 1.0392126 0.9629395

encBlocks.1.BN1.bias f4 [16]
000000 3b 2c 33 bd 4a 10 a3 bc c7 52 bf bc 82 96 c0 3c
       -0.043743353 -0.019905228 -0.023354901 0.023509268
000010 80 7f 91 bb c0 a4 6f bd c3 d2 e7 bc bc cb 4d bd
       -0.004440248 -0.058506727 -0.028298741 -0.050243124
000020 30 fa f9 ba 44 6d 7a bd 04 82 d3 bd 86 b0 38 bd
       -0.0019071754 -0.06113936 -0.10327533 -0.04509022
000030 58 b0 d5 3c 2f 7f 08 bc 3d 77 17 bd 7b bd a5 bc
       0.026085064 -0.008331104 -0.03697895 -0.020231953

encBlocks.1.BN1.running_mean f4 [16]
000000 16 cf 1d bd 1d 1c 30 3e da 92 53 bf cc 32 90 3c
       -0.03852757 0.17198224 -0.8264595 0.017602347
000010 c2 6a b7 be e3 56 ae 3e 9c 0a 8b bf 53 2b 21 bf
       -0.35823637 0.34050664 -1.0862613 -0.6295673
000020 7c 37 22 3d 88 f7 c5 bd f9 ff c4 be 54 c6 78 bd
       0.039603695 -0.096663535 -0.38476542 -0.060736015
000030 6a 13 86 bf 78 45 91 3c 8f d0 e5 3e d6 87 4c bf
       -1.0474675 0.01773332 0.4488568 -0.7989477

encBlocks.1.BN1.running_var f4 [16]
000000 ea 2a 96 3f ad 43 9f 3f f5 ac fe 3f 39 a9 f3 3e
       1.1731846 1.2442528 1.9896532 0.47590044
000010 01 89 7f 3f e1 23 59 3f 53 1a f9 3f 25 26 7a 3f
       0.99818426 0.8482037 1.9461159 0.97714454
000020 d6 e8 07 3f 8a c4 4b 3f d6 30 77 3f b8 ed 09 3f
       0.53089654 0.7959677 0.9655889 0.53878355
000030 ae 2e e7 3f 32 32 be 3e 2d cf 30 40 6d 85 0e 40
       1.806112 0.3714767 2.762645 2.2268937

encBlocks.1.BN2.weight f4 [16]
000000 c4 4d 6f 3f 71 be 80 3f dd 5a 80 3f 76 5c 7b 3f
       0.93478036 1.0058118 1.0027729 0.9818796
000010 58 01 82 3f b8 34 83 3f 80 7c 80 3f 14 11 7a 3f
       1.015666 1.0250463 1.0037994 0.9768231
000020 af d2 80 3f 0b a3 77 3f d6 b4 7f 3f bf 15 80 3f
       1.0064296 0.9673316 0.9988531 1.0006636
000030 41 ea 85 3f 3a fc 7e 3f 0b a7 81 3f f1 9a 7c 3f
       1.0462114 0.9960362 1.0129102 0.9867392

encBlocks.1.BN2.bias f4 [16]
000000 53 18 31 be ca ac 37 3c 6f 30 7a bc 74 16 11 be
       -0.17294435 0.01121063 -0.0152703365 -0.14168721
000010 98 0b 11 be 05 2e 63 bd 6f 2c 9b bd d7 0e be 3d
       -0.14164579 -0.05546381 -0.075768344 0.09280174
000020 08 45 4a be 28 3f 03 3e cd d2 06 3e f9 78 ee bd
       -0.19752896 0.12817061 0.13166352 -0.116441675
000030 f5 39 ff bd 82 49 80 3d 3e 7c c3 39 6a ff d9 3d
       -0.12462226 0.062640205 0.00037285866 0.106444195

encBlocks.1.BN2.running_mean f4 [16]
000000 40 4c 8c be 0c 33 e1 bd 8e 1d 68 3e 89 a5 13 bf
       -0.27401924 -0.109960645 0.22667524 -0.5767446
000010 c0 44 c0 3e c7 a4 07 be f8 08 f2 3d 35 ac 89 3e
       0.37552452 -0.13246451 0.11818117 0.26889196
000020 f5 15 87 3e 20 64 16 3f ca 4b 3b 3d 6e 3a ec bb
       0.2638394 0.5874653 0.045726575 -0.007209114
000030 d8 4a e0 be 57 63 71 3d fe 7a 00 3f 78 7f 90 3e
       -0.438071 0.05893263 0.5018767 0.2822225

encBlocks.1.BN2.running_var f4 [16]
000000 d2 88 9f 3d c1 69 74 3e 50 d1 fc 3d 63 25 d4 3d
       0.07789768 0.23868467 0.12344611 0.103586935
000010 c0 a0 61 3e 1d 3f ef 3d 30 36 86 3e a8 d2 57 3e
       0.22033978 0.1168196 0.26213217 0.21076453
000020 f2 05 4a 3e de 4d 7f 3e 70 eb 03 3e 03 de 07 3e
       0.1972883 0.24932048 0.12882781 0.13268284
000030 06 43 d4 3d 4e 95 1e 3e 28 8f 2b 3e d3 ae 82 3e
       0.10364346 0.15486643 0.16753829 0.25524005

encBlocks.2.conv1.weight f4 [1, 16, 3, 3]
000000 f2 18 91 3d 7c 68 c7 3b f5 34 41 bd cd 21 49 3d
       0.07084836 0.0060854536 -0.047169644 0.0491045
000010 cc 3b 82 bc 7a cd 76 bd 0d 92 8b 3d c2 77 6a 3d
       -0.015897654 -0.06025455 0.06814966 0.057243116
000020 5c e1 a3 bb fa b2 a3 bd 0f 4c 1c bd c0 bf dc 3c
       -0.00500123 -0.079931214 -0.038158473 0.026946902
000030 51 46 6e bd ac 0c 09 bd 4d d7 60 bd 55 e9 c3 3c
       -0.058172528 -0.03345935 -0.054892827 0.023914972
000040 22 f6 6d bd 4e 28 1b bd 19 ea 48 3d 19 4f 53 bd
       -0.05809606 -0.037880234 0.049051378 -0.051589105
000050 6a f8 a5 3d 6a 90 ff 3c e5 a5 73 3d 52 0c 1b 3c
       0.08104022 0.031196792 0.05948438 0.009463387
000060 ff e1 05 3b a4 d1 e6 bb 62 69 ba 3c 0b 4d a8 3d
       0.0020428894 -0.007044034 0.022755329 0.0821782
000070 a9 62 0b bd 43 d3 8e bc 5f 53 78 3d 43 2e 52 3d
       -0.034029637 -0.017434722 0.060626384 0.05131365
000080 28 95 ac 3c 35 d6 ab bd 7a 80 9d 3d e9 da bb bc
       0.021067217 -0.08390466 0.076905206 -0.022931533
000090 49 2f 80 3d c9 6c aa 3d 25 bd a9 3b d9 93 d8 3b
       0.06259019 0.0832153 0.0051800185 0.0066094217
0000a0 a2 52 4c 3d 45 4d 9f 3d 38 ad b1 bc 87 5e bd 3d
       0.049883492 0.0777841 -0.021689042 0.09246545
0000b0 fe 0b 4b 3d 68 37 9d 3c c6 42 a5 3d 85 c9 e2 3d
       0.049571984 0.019191459 0.08069377 0.11073593
0000c0 0e 18 0b bd b6 6c 7b 3d 6d 22 8b 3d 38 37 87 bc
       -0.033958487 0.06138297 0.067936756 -0.016505823
0000d0 5a 37 5a bd 3a 0c 64 bd 99 75 21 3d 1a c1 8d 3d
       -0.053275444 -0.055675723 0.03941879 0.06921597
0000e0 f1 23 7e 3d ac f7 94 3d 1c 70 21 bd 30 58 58 bd
       0.062045995 0.07273802 -0.039413556 -0.052818477
0000f0 4e 38 77 bd 9e 6f 93 3d a5 5f 98 3d 0c 51 45 bd
       -0.06035643 0.07199024 0.07440118 -0.048172995
000100 b4 e6 7c 3d c8 14 58 3d 92 69 40 3d 4c be 12 bb
       0.061743453 0.052754194 0.04697568 -0.0022391258
000110 e8 9a 5f bd a2 a7 4a bd ca ac 98 bd 02 05 a5 bd
       -0.05459109 -0.049476273 -0.07454832 -0.08057596
000120 24 47 98 3d 23 8f 25 3d be 24 43 3d b4 c1 64 3d
       0.07435444 0.04041971 0.047642462 0.055848792
000130 51 7f 89 3c 00 2a 29 3d 83 c3 4a 3d 51 a0 67 3c
       0.016784342 0.04129982 0.04950286 0.0141373435
000140 ce 20 41 3d d4 9e 53 bd e2 1d ee 3c a5 15 05 3c
       0.047150426 -0.051665142 0.029066984 0.008122836
000150 bd 90 d5 3c d2 4b 05 3c 71 70 19 bd 5b f9 7b bd
       0.026069993 0.008135753 -0.037460748 -0.0615171
000160 80 71 97 3d e2 bf e9 bc b1 c4 78 bd a3 5b 97 bb
       0.07394695 -0.02853388 -0.060734455 -0.0046190782
000170 70 2f 48 bc 60 4a 97 bd 74 06 44 3d 97 73 66 bc
       -0.012218341 -0.07387233 0.047857717 -0.014065645
000180 87 28 b0 bd 71 21 b3 bc 34 2a 97 bd 51 35 2f 3b
       -0.0860148 -0.021866532 -0.073810965 0.002673466
000190 87 c3 a6 3d 65 3d 48 3d 1c 1c 9b bd 8a 04 04 3c
       0.08142763 0.048886675 -0.07573721 0.008057723
0001a0 f8 21 6e 3b d5 ae 67 3d cf 5c a7 3c c6 1d 20 3d
       0.0036336165 0.056563217 0.020429997 0.039090894
0001b0 28 00 cb bd 61 49 99 3d 54 ae f4 bc 39 be 1a 3d
       -0.09912139 0.07484699 -0.029868282 0.037779067
0001c0 dd ea e4 3b e8 6e d7 3c 11 05 e7 bb 68 f0 a1 bb
       0.0069860057 0.026298001 -0.0070501645 -0.0049419887
0001d0 a4 f0 df 3c 8b 8b 82 bd 2f 77 8a 39 9c d6 27 bb
       0.027336426 -0.06374272 0.0002641021 -0.0025610095
0001e0 76 b8 13 bd 39 66 8f 3b 3c e7 49 bd 9c e4 82 bd
       -0.036064588 0.0043761996 -0.049292788 -0.0639126
0001f0 17 16 b4 bd 9d 65 a5 bd 55 75 6d bc 28 bb 6b 3d
       -0.08793276 -0.08076022 -0.014493306 0.057551533
000200 19 6e 3d 3c e3 0b 74 3d c8 26 99 bd 35 9f cd 3c
       0.011561894 0.05958165 -0.074781 0.02510033
000210 78 57 f1 3c 0f 4c 4e bc 83 28 6b 3d 35 cb 93 bd
       0.029460654 -0.012591376 0.05741168 -0.07216493
000220 78 c1 ea bc 8e ea aa bc 8a af 53 bb 6b 1e 34 bd
       -0.028656706 -0.020863798 -0.0032300674 -0.04397432
000230 4a dc a0 bd a9 35 8b 3c 27 42 a1 bd e8 c8 ad bd
       -0.07854517 0.01699336 -0.07873946 -0.084855855

encBlocks.2.conv2.weight f4 [1, 1, 3, 3]
000000 20 2c 88 bd ea d5 2d 3e 29 60 78 bd 16 2f be 3e
       -0.06649041 0.16976133 -0.06063858 0.371453
000010 1d 84 28 be e5 de 5f 3e 42 75 78 bd 1c 46 34 3e
       -0.16456647 0.21862371 -0.0606587 0.1760487
000020 25 59 83 bc
       -0.016033718
