Model_params/test_small_macro_epoch_10.pt (torch, 44071 bytes, 26 tensors)

encBlocks.0.conv1.weight f4 [16, 3, 3, 3]
000000 8b 80 4e 3d 8d 68 33 3e 03 0f e3 bc 6b 7a 46 3e
       0.050415557 0.17520352 -0.02771712 0.19382636
000010 6a ee 3a 3e a4 2a 1b 3e 73 2e 19 3e ab a2 bd bd
       0.1825501 0.15152985 0.14959125 -0.09259542
000020 ed e0 3d bb d2 27 03 be a9 36 0a be cd d8 4a be
       -0.0028973178 -0.12808159 -0.13497414 -0.19809265
000030 d8 84 cf bd 09 e4 1e be 35 74 e4 bd 70 cb 7e bd
       -0.1013276 -0.15516676 -0.11154977 -0.062205732
000040 73 d2 55 bc 61 f3 01 3e a6 79 be bc 2c 90 64 3d
       -0.013050663 0.12690498 -0.023251366 0.055801556
000050 59 d3 08 3e 48 1c be bd 94 8f 9a bc 51 99 08 bd
       0.13361873 -0.09282738 -0.018867292 -0.03334934
000060 2b c1 71 3c d2 8c 45 bd d0 66 4c bd d0 56 a8 3d
       0.0147555275 -0.04823 -0.049902737 0.08219683
000070 8c e8 3a 3e ce ef dc bd 20 c5 1e be f5 b9 92 bc
       0.18252772 -0.107879266 -0.15504885 -0.017910937
000080 88 17 5f 3d a5 6d 4c be d6 cf f4 bd c6 f9 a7 3d
       0.0544658 -0.19963701 -0.11953704 0.082019374
000090 88 9e 22 bc d0 f1 06 3e d9 b0 b3 3d 0c e5 13 3e
       -0.009925492 0.13178182 0.087739654 0.14442843
0000a0 d8 46 27 be 1b 28 3b 3d 66 c8 0c be 74 b2 23 be
       -0.16335618 0.045692544 -0.13748321 -0.15986043
0000b0 fb 73 00 bd 7d 67 90 bd e6 a6 ab 3d 06 11 89 3d
       -0.031360608 -0.07050989 0.08381443 0.066927
0000c0 cf 8a d1 3d 09 2b 33 3e 75 77 6d bd 1b dc d5 3d
       0.10231554 0.17496885 -0.05797525 0.104423724
0000d0 a7 a0 23 be 1a 5f f8 3c 95 b5 45 3e 17 55 cc bd
       -0.15979253 0.030318785 0.1930755 -0.09977167
0000e0 c3 a1 75 bd 30 f9 d4 3d f2 7c 11 bb 58 f1 35 3d
       -0.05996872 0.10399091 -0.0022199717 0.044419616
0000f0 52 95 0a bd b6 79 18 be a5 e8 a5 3d c5 91 ff 3c
       -0.03383381 -0.14890179 0.08101014 0.031197438
000100 56 cf 22 be c7 36 b9 bd 61 56 40 3e 01 2d 32 bc
       -0.15899405 -0.09043651 0.18782951 -0.010874988
000110 02 12 ac bd 49 1f 25 be 53 98 c4 bd db 76 44 bd
       -0.08401872 -0.16125216 -0.09599366 -0.047964912
000120 24 aa 06 3d 87 90 2e be 0d 72 22 be cf d0 ee 3d
       0.032877102 -0.1704732 -0.1586382 0.11660921
000130 6e 36 48 3d a2 33 20 3e 93 8a 0c bb 08 5b fa 3c
       0.048880033 0.15644696 -0.0021444901 0.030560985
000140 be b1 d1 bd 76 b1 08 3e 8f be da 3d f9 e2 44 3e
       -0.1023898 0.13348946 0.106808774 0.19227208
000150 0e 93 c5 bd 88 15 f3 3d 31 32 3b 3e 86 5e 81 bd
       -0.09647189 0.11869341 0.18280865 -0.06316857
000160 1a 0f 41 bc 39 20 d6 3d 07 61 8c bd b0 e9 26 3d
       -0.011783386 0.10455365 -0.06854444 0.040750206
000170 9c 16 d4 bd d9 5b 90 3c 1b ec 87 3d f0 26 f2 bd
       -0.10355875 0.017621921 0.066368304 -0.11823833
000180 76 d8 89 3d 10 cb ab 3d fb 1b 35 3e 24 82 3a 3d
       0.0673074 0.083883405 0.17686455 0.045534268
000190 ea e1 ce bd 17 3e 38 ba 44 52 fe 3d da fc 5e 3d
       -0.101016834 -0.0007028295 0.12418035 0.054440357
0001a0 4e b6 58 3c ba 99 af bc a0 f6 01 3e 23 b1 05 bc
       0.013227059 -0.021435607 0.12691736 -0.0081599085
0001b0 a5 a3 34 3e 23 22 0c 3e 9d ee 13 3e 97 16 0e be
       0.1764055 0.13684897 0.14446492 -0.13875805
0001c0 ef 59 24 be d3 34 24 be 1d 73 ba 3b 88 0b 4c 3e
       -0.16049932 -0.16035776 0.005689992 0.19926274
0001d0 e9 4c 84 bd ef cd ea 3d 8f 0b c9 3d 20 95 10 3e
       -0.06459982 0.1146506 0.09816658 0.14119387
0001e0 d6 4c a1 3d 1b 0e 6e 3d 8f fb 28 be 9c 33 9a bd
       0.078759834 0.05811892 -0.16502212 -0.07529375
0001f0 38 80 31 be f0 95 11 3d 8b d2 23 bc 13 f3 8f 3d
       -0.17334068 0.035543382 -0.009998928 0.070287846
000200 58 37 20 be e8 6c c0 3a ac 8a 0f 3e a5 af 8a bd
       -0.15646112 0.0014680894 0.14017743 -0.06771783
000210 1f 4b 92 3d 91 df 31 3d 0a 58 f2 bd 7d 30 f6 3d
       0.071432345 0.0434261 -0.11833198 0.12020967
000220 08 98 1a 3e 52 90 63 3d 9e 3a 11 be 1a b3 3b 3d
       0.15097058 0.055557556 -0.14182517 0.0458251
000230 20 55 40 3e 14 c7 84 3d 2e e7 4a 3e fa 17 e4 bd
       0.18782473 0.06483284 0.1981475 -0.11137386
000240 94 a1 39 be b6 ad 24 3e d8 eb 32 be 8f de 08 bd
       -0.18128043 0.1608189 -0.1747278 -0.033415373
000250 33 2a 11 be dd 2c 09 be a5 45 2e 3e bf f9 3a be
       -0.14176254 -0.1339602 0.17018755 -0.18259333
000260 e9 e1 0e be 05 ee 74 bd 6b d3 f0 3c 3f 86 b6 bc
       -0.13953365 -0.059797306 0.029397687 -0.02228081
000270 76 5d 8e 3c ff 1d 0e 3e 3a 68 4b bd f3 d8 31 3d
       0.01737855 0.1387863 -0.049659945 0.04341979
000280 6f 89 d1 bd 3b 88 ed bd 0d ed 4a be a0 1f 26 be
       -0.102312915 -0.115982495 -0.1981699 -0.16223001
000290 c1 5b 61 3d 22 62 c6 bc ee 89 36 3e f7 8b 8f 3c
       0.055019144 -0.024216715 0.17826054 0.017522795
0002a0 0c d1 3e be 46 9e 43 3e c2 51 30 3d ca fe d5 3d
       -0.18634433 0.19103345 0.04304672 0.10448988
0002b0 bc 3b ef bd fe 0d 05 3c 4b e8 3c 3e 22 ff 08 be
       -0.11681315 0.008121012 0.18447988 -0.13378575
0002c0 29 ef 2b 3d fc 50 32 be 93 3c 29 3e 13 ef 31 be
       0.041976128 -0.17413706 0.16527013 -0.17376356
0002d0 77 0d 03 be 70 22 73 ba ca 3f d1 bd c7 23 ae 3d
       -0.12798105 -0.0009274846 -0.10217245 0.08502918
0002e0 ef 00 32 3e 34 22 e5 3d 1e 28 28 bd 74 05 20 3e
       0.17383169 0.11188164 -0.041053884 0.1562708
0002f0 69 7e 66 bd 97 12 4f be 3d 8b 7f bd 27 50 58 be
       -0.056272898 -0.20221935 -0.062388647 -0.21124326
000300 14 42 41 3c f6 62 81 3d bf 46 3d be e2 1e 57 bc
       0.011795539 0.063177034 -0.18484019 -0.013129922
000310 e7 d7 95 3d 1f f9 0f be 53 e6 b2 bd 2f 38 0e 3d
       0.07316571 -0.14059876 -0.08735337 0.03472155
000320 c1 b6 34 bd 3b 46 2a be 95 84 8e bd c2 11 12 3d
       -0.0441196 -0.16628353 -0.06958882 0.035661466
000330 50 d9 1e be 41 40 38 3d 75 0a d4 3d f7 c7 0f 3e
       -0.15512586 0.044983152 0.10353557 0.14041124
000340 37 91 37 3e c7 64 28 3e b6 64 fe 3d 06 0d 99 bd
       0.17926489 0.16444694 0.12421553 -0.07473187
000350 43 0d c5 3d 7c ab d4 bd 1c ca 8b 3d 55 7c f6 3d
       0.0962167 -0.103842705 0.06825659 0.12035433
000360 2a 6b 91 3c 4d 0c 24 3e f5 ab 14 3e 6e 67 30 3d
       0.017751295 0.16020317 0.14518721 0.04306739
000370 c9 54 a0 3c 4b 8f fe bd ad 5f 3a 3e eb 4d 1d be
       0.019571679 -0.12429675 0.1820056 -0.15361755
000380 fd 02 66 3c 36 ad 09 3d d2 b6 2c 3e 1f 2f c9 bd
       0.014038798 0.033612452 0.16866615 -0.09823441
000390 33 04 df bc 23 31 05 bd 50 8d 11 3e 4c 29 17 3e
       -0.027223682 -0.032517564 0.14214063 0.14761847
0003a0 48 90 1c 3e c1 09 9e 3d a1 12 ae 3c 49 46 28 3e
       0.15289414 0.07716704 0.021249117 0.16433062
0003b0 df 3f ca 3d 2a 13 fc bd d6 8f b1 bd c2 b8 28 bd
       0.09875464 -0.12308343 -0.08670013 -0.041191824
0003c0 ad 31 b7 3d 00 3c 40 bc bc cb c9 3d d8 3e ef bd
       0.08945022 -0.011733055 0.098533124 -0.11681908
0003d0 5f dd de 3d 52 54 98 bd ae 75 17 3d 52 45 4a 3e
       0.10882067 -0.07437958 0.036977462 0.19753006
0003e0 6d a9 ce bc 9c b8 fa 3d 58 c3 4c bd b3 cd 1c 3c
       -0.025227273 0.12242243 -0.04999098 0.009570527
0003f0 a7 a6 30 3d 4d d6 14 be 59 10 f2 bd 74 59 14 3d
       0.043127682 -0.14534874 -0.11819524 0.03621812

encBlocks.0.conv1.bias f4 [16]
000000 a8 5b 0a be d1 0c fc 3d 4c 60 26 3e 96 df a6 bd
       -0.13511527 0.12307132 0.16247672 -0.081481144
000010 d7 08 0a be 34 4d 33 be c6 66 f4 bd c0 60 f8 bd
       -0.13479935 -0.1750992 -0.11933665 -0.121278286
000020 c8 e0 34 3e 33 58 8d 3d 1e 7a 0b 3e fa b5 90 3d
       0.17663872 0.06901588 0.13620803 0.07065959
000030 a2 dc 2a 3e 91 32 f3 bc 15 f6 1e be df 43 f3 bd
       0.16685727 -0.029687198 -0.1552356 -0.1187818

encBlocks.0.conv2.weight f4 [16, 16, 3, 3]
000000 62 46 26 3b c5 50 c0 3c 48 c0 0b bb d0 ad af bd
       0.0025371541 0.023476014 -0.0021324325 -0.08578074
000010 ec 1d 92 3d ce c5 e0 bc 64 3b 9a bd 81 b9 bf 3b
       0.071346134 -0.02743807 -0.07530859 0.005850971
000020 e4 1c 0f bc 8c bc 87 bc da 87 57 bb 40 c2 81 3d
       -0.008734915 -0.016569398 -0.003288737 0.06335878
000030 6d 3c 59 3d 00 c4 84 bb e0 98 58 3d 21 cd 77 bd
       0.053036142 -0.0040516853 0.052880168 -0.06049836
000040 0c fe c7 bc 8a 5e 6d bd 26 00 40 bd 9d bf 23 3c
       -0.024413131 -0.057951488 -0.04687514 0.009994415
000050 f8 aa 03 bb 7a fe 55 bd 5f 1d d2 3b 7b 14 aa 3d
       -0.002009092 -0.05224464 0.0064121927 0.083046876
000060 36 d4 26 3d 90 68 69 3d b4 7b b1 bd e2 80 48 bd
       0.040729724 0.056984484 -0.086661726 -0.048951037
000070 aa cc 06 3d dd 7d 80 3d 7d 53 81 bd 8f ef a0 bd
       0.032910027 0.062740065 -0.06314752 -0.07858192
000080 ed 0e 51 3d 2c c2 93 bd 6b b5 96 bd 8e 59 89 bd
       0.051039625 -0.0721477 -0.073588215 -0.06706534
000090 bf 4b cc bb af 60 49 bd 7a 65 57 3d 31 58 81 bc
       -0.0062346156 -0.04916447 0.05258701 -0.015789123
0000a0 39 59 8a 3d 24 5b 85 3d 61 0f 31 3d 79 ec a2 3c
       0.06755299 0.06511524 0.043227557 0.01988815
0000b0 2e 86 5e 3d 2a 16 a5 bd 44 89 fe ba 55 4a 5d 3d
       0.054327182 -0.08060868 -0.001941957 0.054025967
0000c0 59 10 a6 bd 76 b9 8c bc 9f 4d 00 3d 14 ba 8e 3d
       -0.08108587 -0.017178278 0.031324025 0.06969085
0000d0 76 12 c1 bd 33 ac 07 3d 99 48 ff bc cc 5c 77 3d
       -0.09427349 0.033123206 -0.031162547 0.060391232
0000e0 92 e0 41 3d 55 27 d0 bc 2a d0 3f ba cc 67 51 bd
       0.047333308 -0.02540938 -0.00073170906 -0.05112438
0000f0 8a 30 a8 bd fc cd 19 3d e8 18 48 3d eb 66 aa 3c
       -0.08212383 0.037549958 0.048851877 0.020801028
000100 24 f7 77 bd a2 c3 31 bd ec d0 15 bc 21 72 96 3d
       -0.060538426 -0.04339946 -0.009144049 0.07345987
000110 04 ac a1 3c 94 18 ae bd 6d f0 b9 bc 40 04 0f bd
       0.019735344 -0.08500782 -0.022697652 -0.034916162
000120 18 40 da 3c b7 d4 18 bd c1 d6 31 bd 21 1f 8d 3d
       0.02664189 -0.037312236 -0.043417696 0.06890703
000130 ba 9d 32 bd 07 c8 9c bd a7 df 29 bd 40 3c 63 bd
       -0.04360745 -0.0765534 -0.041473057 -0.05547738
000140 54 59 2b 3b 69 83 3b bd d3 0d 28 3d 5a f6 6d bd
       0.0026145773 -0.04577962 0.04102881 -0.058096267
000150 6d ce 0c 3d da c8 0e 3c 00 e9 68 3d a1 20 27 bd
       0.03437655 0.008714879 0.05686283 -0.0408026
000160 03 64 9f bb 11 9f 87 3d 4c a2 2d bd e0 74 83 3d
       -0.0048642172 0.066221364 -0.042391106 0.064187765
000170 41 9a 01 3d a2 5d b8 3c 59 b0 09 bd 19 b2 04 bd
       0.03164125 0.022505585 -0.033615444 -0.03239641
000180 49 8c 97 bd 73 f2 0f bc 8b db 79 3d 48 8f 88 bd
       -0.07399804 -0.008785832 0.061000388 -0.06667954
000190 72 13 18 bd 18 b1 cf bb f4 6e 5c 3d d1 ff 83 3d
       -0.03712792 -0.00633825 0.05381675 0.064452775
0001a0 33 69 46 3d da 37 a2 bd a5 a4 9f 3d 00 86 cd 3c
       0.04844017 -0.07920809 0.07795075 0.02508831
0001b0 11 76 24 3b 06 ff 7b 3b b3 3e 2d 3d 76 e6 f4 3c
       0.0025094787 0.0038451566 0.042296123 0.029895049
0001c0 33 dc 85 3b 7f d4 19 3d 5d 26 07 bd 27 51 f3 bc
       0.0040850877 0.037556168 -0.03299557 -0.029701782
0001d0 b4 fc 5a 3d 90 c1 99 3d 62 47 96 3d 07 10 84 bc
       0.053463653 0.07507622 0.07337834 -0.016120924
0001e0 73 0e 0c 3d 9b 0e 8b bd 12 38 9e bc bc 9a 04 bc
       0.034193467 -0.06789895 -0.019313846 -0.008093532
0001f0 cc 0c 85 bd fd f7 62 bd 01 09 98 3d 92 48 34 3d
       -0.064965814 -0.05541228 0.07423592 0.04401452
000200 9c f4 1f bd 04 4f b3 bd de 55 28 bd c6 eb c1 3c
       -0.039051637 -0.087553054 -0.041097514 0.023671996
000210 ed 25 71 3d 70 ff 46 3d 57 7d 1a 3d 6e 21 8d 3d
       0.05887406 0.048583448 0.03771719 0.06891142
000220 c6 11 87 3d 2f 27 87 3c f4 98 0b bd d4 56 52 bd
       0.06595187 0.016498176 -0.034081414 -0.051352337
000230 b5 c0 62 3d 81 00 2c bd 43 81 14 bd ea 9c 08 3d
       0.05535956 -0.041992668 -0.036256086 0.03335277
000240 e1 2c 8c bd 0e 7b 79 3d b5 5b 2a 3b e1 d3 69 3c
       -0.068444975 0.06090837 0.0025994603 0.014271707
000250 f3 40 0a 3d 64 31 c0 bc 82 14 3a 3d e7 d8 8a bb
       0.033753347 -0.023461051 0.045429714 -0.0042372826
000260 86 7d 94 3c 39 03 9f 3d 1f 45 81 bd 40 13 96 3d
       0.01812626 0.077642865 -0.06312012 0.073278904
000270 7c c1 80 bd 1e 16 53 bd a1 4d 82 bc bd 87 64 3d
       -0.06286904 -0.051534764 -0.015906157 0.055793513
000280 f8 9a f5 bb 2d 39 aa bc 05 9c 13 bd 7f 70 7e 3d
       -0.0074952804 -0.020779217 -0.036037464 0.062119003
000290 eb 40 86 3d 6d 30 d7 3c d2 22 b8 bc bf 8c f4 bd
       0.06555351 0.026268208 -0.022477541 -0.11940908
0002a0 53 ee 7f bd b3 ad 60 3d bb 4d bd bd a7 d0 26 3c
       -0.062483143 0.054853152 -0.092433415 0.0101815825
0002b0 19 a0 7a 3c f2 12 b4 3d 81 63 97 bb 77 2a 90 bd
       0.015296959 0.08792676 -0.004620016 -0.070393495
0002c0 5d 6a 9f 3d e5 1b 91 3d 35 25 6e bc 67 18 6d bd
       0.07783959 0.070853986 -0.014535238 -0.0578846
0002d0 d0 66 37 3d 00 b4 ad 3d d8 9f 55 bc d8 d9 99 bd
       0.044775784 0.08481598 -0.013038598 -0.075122535
0002e0 4c 97 3a 3d 5b d8 22 3c cf 95 03 3d 12 08 2e 3d
       0.045554444 0.0099392785 0.03212529 0.042488165
0002f0 3f 8d 95 3d 2e b9 aa bd ad 8f be 3c 8a 8a 12 bd
       0.07302331 -0.083361015 0.02326187 -0.035776652
000300 90 50 e8 3c 93 17 a3 bc e2 b1 1f 3d a5 86 27 3d
       0.028358728 -0.019908702 0.038988 0.04089989
000310 53 63 4e bd 05 67 5d bd 3d 8d 99 39 f3 61 56 bd
       -0.05038769 -0.054053325 0.00029287665 -0.052339505
000320 35 d7 9c 3d 8d 63 54 3d a4 a7 53 3c 6e 81 0c 3d
       0.07658235 0.05185275 0.012918387 0.03430312
000330 75 e1 14 3d db d4 25 3d a1 44 04 3c 13 85 62 bd
       0.036347825 0.040486198 0.008073003 -0.05530269
000340 c0 6a c9 3d 65 09 80 3d 80 05 58 bd c8 61 f0 3b
       0.09834814 0.06251792 -0.05273962 0.007335875
000350 d5 11 30 bd 14 1e 43 bd a0 b8 ae 3d a9 d9 5b bd
       -0.042985756 -0.047636107 0.08531308 -0.053674374
000360 ab 40 45 3d f4 48 78 bd 87 11 45 3d 25 19 13 3d
       0.048157375 -0.06061645 0.04811242 0.03591265
000370 e4 39 23 3d 1a 52 2b bb 91 38 7f 3d bf c4 c4 3a
       0.03985013 -0.0026141466 0.062309805 0.0015012248
000380 44 b3 74 bd a1 3f 89 3d 01 38 99 bd 2c 8e 06 bd
       -0.059741274 0.067015894 -0.07481385 -0.03285043
000390 d8 b1 55 bd 5f 68 87 3d a6 eb 55 bd 45 f0 d0 3b
       -0.05217156 0.06611704 -0.052226685 0.0063762986
0003a0 9d 9f 38 3d 7b 26 6f bd ae 17 ce bc 96 bf da bc
       0.045074094 -0.058386307 -0.025157776 -0.026702683
0003b0 a6 8f f9 3b c8 88 84 3c f0 68 75 bb 74 8f 31 3b
       0.007616001 0.016178504 -0.003744658 0.0027093561
0003c0 e0 76 d3 bd 45 a4 39 bc bf 39 e0 bb ed c2 ac 3d
       -0.10325408 -0.011330669 -0.0068428214 0.08435617
0003d0 0b 17 89 bd bc 6f 25 3d a5 f9 51 bc cd 45 82 bd
       -0.06693848 0.04038976 -0.012815868 -0.0636097
0003e0 e2 99 ac 3d 1d 31 52 bd 12 bd cf 3c 52 c8 c1 bb
       0.08427788 -0.05131637 0.02535871 -0.0059137726
0003f0 ee 8b 2c bc 1a 84 a4 3c ea bc e3 bc 00 86 6e 3d
       -0.010531409 0.020082522 -0.027800042 0.05823326

encBlocks.0.conv2.bias f4 [16]
000000 e2 72 bd bc cb 89 78 3d 7f e6 a2 bd 25 9b 86 bd
       -0.02312607 0.060678285 -0.0795412 -0.0657256
000010 d1 44 96 bd ad a5 cf 3c 95 d6 96 3c 46 37 24 3d
       -0.073373444 0.025347555 0.018412868 0.040091775
000020 be 95 1a 3d 46 cd 4e bb b0 82 8d bc cc 11 7b bc
       0.03774046 -0.0031555458 -0.01727423 -0.015324067
000030 74 2c a2 bd 51 25 71 3d cb 3e cf 3c c4 4c c6 3c
       -0.07918635 0.05887348 0.025298497 0.024206527

encBlocks.0.BN1.weight f4 [16]
000000 74 0e 82 3f ba 27 7e 3f ac 21 7c 3f d3 ef 80 3f
       1.0160661 0.9927937 0.9848888 1.0073189
000010 0b 34 80 3f 3f 10 7f 3f 16 18 7d 3f 56 bb 7e 3f
       1.0015882 0.99634165 0.9886488 0.995046
000020 60 4b 7e 3f 05 5b 7d 3f 23 63 7e 3f 2d 20 82 3f
       0.99333763 0.9896701 0.9937002 1.0166069
000030 65 ab 80 3f 7e a1 7a 3f 8f 63 7e 3f f5 92 80 3f
       1.0052305 0.9790267 0.99370664 1.0044848

encBlocks.0.BN1.bias f4 [16]
000000 9a f4 84 bc d4 a1 00 bc bf 9b 0c bc 95 15 1a 3c
       -0.016229916 -0.007851083 -0.008582055 0.00940456
000010 07 00 44 bc 6c e8 18 bc b7 93 2d bc fa 07 33 bc
       -0.011962897 -0.009332757 -0.0105943 -0.010927195
000020 26 a0 06 bc 0a 18 02 bc 25 70 95 bb 36 03 30 bb
       -0.008216893 -0.007940302 -0.004560488 -0.0026857383
000030 3c 02 2c 3c eb 6c 77 bc d1 e3 8b bb cc 64 eb bb
       0.01049858 -0.015101652 -0.004269101 -0.007183647

encBlocks.0.BN1.running_mean f4 [16]
000000 39 c2 87 be fe 78 0f 3e 01 21 a4 bd a7 bd dd 3e
       -0.26515368 0.14010999 -0.080141075 0.43308756
000010 d0 d2 f2 bc 90 37 c0 be ef ea d0 bd fc 40 05 be
       -0.029641539 -0.3754239 -0.1020106 -0.13013071
000020 dc d2 3d 3f e6 1e 57 3e 6b 20 f3 be 8e 33 b5 3e
       0.7414987 0.2100788 -0.4748567 0.35390896
000030 b6 89 b6 3e a5 13 8d bd fe b8 cb 3d f5 af c3 3d
       0.3565194 -0.068885125 0.09947394 0.095550455

encBlocks.0.BN1.running_var f4 [16]
000000 88 00 25 3d d7 e9 ba 3c 0a 36 16 3d 6e 06 db 3d
       0.04028371 0.022816582 0.03667263 0.10694586
000010 6c d9 d9 3c 36 1f 31 3d 7d 2b d3 3c 87 81 02 3d
       0.026592933 0.043242656 0.025777573 0.03186181
000020 e2 31 e9 3d 50 f3 d9 3c c0 39 0c 3e a8 cc 53 3d
       0.113864675 0.026605278 0.13693905 0.051708847
000030 26 86 d2 3c 7b a1 7d 3c 80 25 0b 3d 34 9c 11 3d
       0.025698733 0.0154803945 0.03397131 0.035549358

encBlocks.0.BN2.weight f4 [16]
000000 74 c9 7d 3f a3 14 80 3f 43 2b 7e 3f 8b 11 81 3f
       0.9913552 1.0006298 0.9928476 1.0083479
000010 6e d1 7c 3f 7b a1 82 3f dd 2e 81 3f df e9 80 3f
       0.98757064 1.020553 1.0092427 1.0071372
000020 0c 57 82 3f 92 18 7f 3f ed 90 80 3f ae 2d 7f 3f
       1.0182815 0.99646866 1.0044228 0.99679077
000030 45 19 81 3f 21 ed 7d 3f bb 16 7d 3f e5 f4 7d 3f
       1.0085837 0.99189955 0.9886281 0.99201804

encBlocks.0.BN2.bias f4 [16]
000000 9f f6 94 bc 19 50 bc bc 49 ae d7 bc e7 f3 a3 3b
       -0.018184004 -0.022987412 -0.026328223 0.0050034407
000010 9c 5a 1d 3c 39 4f 10 bc db 9e de bb 0f 51 84 bb
       0.0096041225 -0.008807951 -0.0067938394 -0.0040379832
000020 3e ca 02 bc c7 5b 56 3a df 60 27 bc 53 01 4b bc
       -0.007982789 0.0008177128 -0.010215967 -0.012390452
000030 b2 5f 8d bb 2a a5 10 bc 0f 7a 43 bc 31 dc e3 bc
       -0.0043143863 -0.008828441 -0.0119309565 -0.027814956

encBlocks.0.BN2.running_mean f4 [16]
000000 e5 2d 9c bd 2a 1c 57 3e be 14 83 be 72 fa 0d 3e
       -0.07625941 0.21006837 -0.25601763 0.13865069
000010 3c 74 a3 3e 80 17 a1 3e 47 bf f2 3d 94 72 67 3e
       0.31924617 0.31463242 0.118528895 0.22602302
000020 19 1c e0 3e 27 ef ab bd 95 28 d2 3e a4 03 e8 be
       0.43771437 -0.08395224 0.41046587 -0.45315278
000030 8d 1f 94 3d 97 e0 a2 3e ff 2f 2d 3d a3 f9 af bd
       0.0723258 0.31811973 0.0422821 -0.08592536

encBlocks.0.BN2.running_var f4 [16]
000000 1e 65 ad 3d 9a 58 5f 3e a3 25 0e 3e d1 3f 76 3e
       0.08466552 0.21811143 0.13881545 0.24047782
000010 56 c2 a1 3e 27 6d 0e 3e 80 ca bd 3d 72 24 99 3e
       0.3159358 0.13908826 0.092671394 0.29910618
000020 a4 cc 36 3e 1c 34 f8 3d 25 3b f2 3d b5 df 79 3e
       0.17851502 0.12119314 0.11827687 0.24401744
000030 bb 53 2d 3e c2 16 d9 3d 10 aa a2 3d 7f 55 66 3e
       0.16926472 0.10600044 0.07942593 0.22493552

encBlocks.1.conv1.weight f4 [16, 16, 3, 3]
000000 88 16 81 bd e8 e0 98 bc b9 92 82 bd 31 49 9f 3d
       -0.063031256 -0.018661931 -0.063756414 0.07777632
000010 d2 39 94 bd 4d 54 39 bd 36 51 47 bc 97 ec ee bc
       -0.07237591 -0.04524641 -0.012165358 -0.02916555
000020 68 cd 50 3d 54 1a 9a bd 9c e1 42 bc bd 72 ad bc
       0.05097714 -0.07524553 -0.01189461 -0.021172876
000030 9b bf b4 bd 2d 30 a1 bd a1 90 42 3d 16 d7 9d bd
       -0.08825608 -0.07870517 0.04750121 -0.0770704
000040 8e 78 b5 3c db 1b 1d bd a0 cc 2a 3d a0 61 d2 bb
       0.022152212 -0.038356643 0.04169905 -0.006420329
000050 57 0c 80 bd c3 5e 72 bd f2 c4 5a bd 37 d4 12 3d
       -0.06252354 -0.059172403 -0.053410478 0.035846915
000060 7c ba ab ba 88 9c 5b bd e1 70 db bc 8f f9 29 bd
       -0.0013101841 -0.053616077 -0.026787223 -0.041497763
000070 c7 80 0d bd f2 4c 3d 3d 72 8e 51 bd b0 3d 66 3d
       -0.03454664 0.04621596 -0.051161237 0.056211174
000080 43 a2 23 3d 8f 57 80 bd 0a ec 91 3b 0a ac 1f 3d
       0.039949667 -0.062667005 0.004453187 0.03898243
000090 c4 db 56 3c 25 b4 7c bd 92 b4 ab bd 78 94 cc bd
       0.01311392 -0.061695237 -0.083840504 -0.09989256
0000a0 41 75 af 3c 2d 58 70 ba 65 54 24 bd d5 78 1b 3d
       0.021418216 -0.00091684127 -0.040119547 0.03795703
0000b0 7e d6 3e 3d 06 0e 86 3d 9a e1 8f bd 3b 05 86 bd
       0.046591274 0.065456435 -0.07025452 -0.065439664
0000c0 b0 a2 1f 3d e4 dd 83 bd 0e 25 11 3d e8 c9 50 3d
       0.03897351 -0.06438807 0.03543573 0.050973803
0000d0 77 96 a9 bd 4c 42 d7 3c 43 63 b3 bd f4 c0 bf 3c
       -0.08280652 0.02627673 -0.08759167 0.023407437
0000e0 79 39 aa bd 11 ce 33 3d db e9 6f bd 0e e9 8b bd
       -0.08311743 0.043897692 -0.05857263 -0.06831561
0000f0 f1 c6 98 bd 8a ba ea 3c 59 66 92 3d 87 22 63 bd
       -0.0745982 0.028653402 0.071484275 -0.05545285
000100 35 00 57 3d 58 c7 84 bd 44 3c 2c 3d e6 a9 89 bd
       0.05249043 -0.06483334 0.04204966 -0.06721859
000110 b2 a9 a0 bc 87 4f be bd 68 90 2b 3d 42 6d dd 3c
       -0.019612167 -0.092925124 0.041885763 0.027029637
000120 3d 99 63 bd 70 37 6e bd d0 71 50 3c 83 a5 d9 bc
       -0.05556606 -0.058158338 0.0127224475 -0.02656818
000130 1b de bc bd 89 2b 79 bd 38 d7 29 3d 53 5c 40 bd
       -0.09222051 -0.060832534 0.041465014 -0.046963047
000140 4e 52 9c b9 55 02 0c 3d e9 15 c3 bd 35 33 40 bd
       -0.0002981596 0.03418191 -0.095256634 -0.046923835
000150 86 a8 ba bd b5 ed 63 ba 8e 46 50 bd d0 fa 66 bd
       -0.091141745 -0.0008694784 -0.050848536 -0.056391537
000160 aa b6 87 3c 4e 72 0f bd f9 d5 1a bd 9c 73 32 3d
       0.016566593 -0.03502112 -0.037801716 0.043567285
000170 1c 4e a0 bd a2 2f 8e 3c d6 ad 88 3c 5f f3 3c 3d
       -0.07827398 0.017356697 0.016684454 0.046130534
000180 7e 45 89 bd b6 fd 94 bd 01 64 b1 bd b5 5a d3 3a
       -0.06702708 -0.07274954 -0.08661652 0.0016125055
000190 9d 06 81 3c be 04 b7 bc ae ac b9 bc 8f 39 0e 3d
       0.015750224 -0.022341128 -0.022665348 0.03472286
0001a0 d5 06 99 3d 83 59 57 3d ea 11 1a bc b4 43 82 3d
       0.07472006 0.0525756 -0.009403685 0.063605696
0001b0 97 0b 18 3d 8c 97 3e 3c 25 5a d1 3c 6b 18 73 bb
       0.037120428 0.011632811 0.02555568 -0.0037093412
0001c0 77 6f bf bd e1 70 e0 bc 07 83 50 bd b4 c7 bc 3c
       -0.09347432 -0.027397575 -0.050906207 0.023044445
0001d0 42 e1 0e bd 7d 4e 12 bd 00 f7 03 3c b9 46 af bd
       -0.03488279 -0.035719384 0.008054495 -0.08558411
0001e0 ab df a7 ba b2 45 3e bd 73 b4 0d 3d c6 31 34 3d
       -0.0012807747 -0.046453185 0.034595918 0.04399278
0001f0 4e 2c b8 3c 08 a8 70 bc 90 77 e5 3c 79 24 6c 3d
       0.022482064 -0.014688499 0.028011113 0.05765197
000200 34 68 02 3d 5e 07 90 bb f9 7e 5f bd af 33 3e 3d
       0.031837657 -0.0043954095 -0.05456445 0.046436008
000210 41 67 19 3d 8d ad 86 bd eb 76 a0 bc 61 6d 93 bd
       0.037451986 -0.06576071 -0.019587955 -0.07198597
000220 bb bd 7e 3d 97 c5 88 3c f3 e0 9b bd 47 2a 82 bd
       0.06219266 0.01669578 -0.07611265 -0.0635572
000230 e0 4e 8c bb 7c d2 19 bd 28 21 7f ba 2b ca 52 bd
       -0.0042818636 -0.03755425 -0.00097324187 -0.051462334
000240 a4 b6 2a 3d 4b 27 8f bc b0 e1 44 bd 89 d7 02 bd
       0.041678086 -0.017474791 -0.048066795 -0.03194383
000250 49 6b f7 3b cf 27 aa bd 2c c7 8b 3d 89 f3 8c bc
       0.007550631 -0.08308374 0.068250984 -0.01720597
000260 09 99 02 3c fa e7 5d 3c a5 d5 73 bc 00 16 99 bd
       0.007971057 0.013544077 -0.01488248 -0.07474899
000270 6b f8 87 3d be e0 b2 bd 1c c2 70 3d 35 bd 13 3d
       0.06639179 -0.087342724 0.058778867 0.036069114
000280 05 25 2b bd 2f 10 ba 3c dc 2b dd bc b0 01 91 bc
       -0.04178335 0.022712795 -0.026998453 -0.017701
000290 e6 a4 cb bb fb 03 bc bb 64 95 4e bd fc 22 80 bd
       -0.006214726 -0.005737779 -0.05043544 -0.06256673
0002a0 ec f6 3c 3c 1e f9 63 3c 50 73 08 3d f0 f8 93 bd
       0.01153348 0.013914375 0.033313096 -0.072252154
0002b0 ab 1f 94 bd 1c 5d 9a bd f8 c9 31 3d a1 2b ab 3c
       -0.07232603 -0.075372905 0.043405503 0.020894827
0002c0 58 89 2f 3c 08 f8 a5 bc cc 79 13 bd 38 2b 10 bd
       0.010713898 -0.020259872 -0.036004826 -0.035197467
0002d0 b4 90 47 bd 7b 6f 00 bd d8 c5 8a 3c a7 fd 9d bd
       -0.048721984 -0.031356316 0.016940042 -0.07714396
0002e0 46 5d 4f 3d 10 2f 9c 3c 87 4c 3d bd 18 e1 31 3c
       0.05062606 0.01906541 -0.04621556 0.010856889
0002f0 b6 bd 40 bd 30 32 8c 3d 4a 0a 9a bd 57 8e 61 bb
       -0.047055922 0.0684551 -0.07521494 -0.0034417117
000300 84 bc 2f bd 5c 9c 97 bd f8 94 6d bd 5e 3c a5 bd
       -0.042904392 -0.0740287 -0.058003396 -0.08068155
000310 e1 1e 58 bd b4 a6 6a 3d e7 9d b4 bd a0 6f 4b 3d
       -0.052763823 0.057287887 -0.0881918 0.049667
000320 c1 c5 36 3d d4 9f eb 3c 6a 5a 8a bd d1 11 a5 bd
       0.044622187 0.028762735 -0.06755526 -0.08060039
000330 82 d7 91 3d e6 b5 23 bc a6 ae 0d 3d 8a f3 b3 bd
       0.07121183 -0.009992098 0.034590386 -0.08786686
000340 ca 01 b8 bd c0 72 d2 3c 0b 5d 25 bd 14 3f 6e bd
       -0.08984716 0.025689483 -0.040371936 -0.058165625
000350 3e 82 c2 3c fd ef eb bc 4b dc 23 3d 12 90 2a bb
       0.023743745 -0.028800959 0.04000501 -0.0026025814
000360 b4 5e ac bb 57 1a 9a bd 81 f8 9d 3c 57 62 47 3d
       -0.005260313 -0.07524555 0.019283535 0.04867777
000370 61 4d 54 3c be d4 09 ba a2 09 a8 bd c5 cb 58 3d
       0.012957902 -0.00052578363 -0.08204962 0.052928705
000380 d7 a3 1b bd 3f f4 e4 bc 41 81 18 3c c3 c1 9a bc
       -0.037998047 -0.027948497 0.00930816 -0.01889122
000390 ac 76 6d 3d 0d 20 8a 3c f4 a3 4b bd 56 60 36 3d
       0.057974502 0.016860986 -0.049716905 0.044525467
0003a0 f5 8d 26 bc d4 c6 6b bc b7 a6 33 3d 07 00 89 3c
       -0.010165681 -0.014390666 0.043860164 0.016723646
0003b0 ee e0 c5 3c 27 9d 71 bb b8 89 ba 3c bf f9 8c bc
       0.024155106 -0.0036867352 0.022770748 -0.017208932
0003c0 87 72 c0 3c f1 64 1c 3d 59 20 a9 bd ef 41 7f 3c
       0.02349211 0.038182203 -0.08258123 0.015579685
0003d0 b0 0e 9e bd e6 e3 7c 3d 6e 49 99 3d 3a 5a 63 bc
       -0.07717645 0.06174078 0.07484709 -0.013876492
0003e0 d7 19 81 bc 6d 74 0a 3d 75 da 76 bd a0 f0 82 3d
       -0.015759392 0.03380244 -0.06026693 0.06393552
0003f0 79 17 92 bd e2 dc 60 3c 42 e3 cd bc 6e 52 a7 bd
       -0.07133383 0.013724538 -0.025132779 -0.08170019

encBlocks.1.conv1.bias f4 [16]
000000 fc 1b b9 bc a8 19 aa bc 60 f5 02 3d 86 d4 4b 3c
       -0.022596352 -0.020764187 0.03197229 0.012440806
000010 de 5f 27 bd 43 13 70 bd d0 c2 40 bd c6 f5 da 3a
       -0.04086291 -0.05861212 -0.047060788 0.0016705326
000020 5f d9 1f 3d 92 b8 d6 3c 92 c9 8a 3c 16 fc 45 3d
       0.03902566 0.026211057 0.01694182 0.04833611
000030 a3 4a 91 3d 30 ee a0 bd 3e f4 84 bd ce a8 5a bd
       0.07094314 -0.07857931 -0.06491898 -0.05338364

encBlocks.1.conv2.weight f4 [16, 16, 3, 3]
000000 da 3e 23 3d b2 31 b2 3d 58 22 b1 3d 53 2c bc bc
       0.03985486 0.08700885 0.08649129 -0.022970354
000010 dd ee 45 bd d3 04 47 bd 98 91 c4 bc dc 12 26 bd
       -0.0483235 -0.048588585 -0.023995206 -0.04054533
000020 58 2a 79 3a cf 74 00 3d 74 02 85 bc e0 ca 4a bd
       0.0009504906 0.031361397 -0.016236521 -0.049509883
000030 ac be 11 bd 88 82 8d 3d 5f d0 8d 3d 8b 0f 9b 3d
       -0.03558223 0.069096625 0.06924509 0.07571324
000040 f6 d8 d1 3c f5 10 8c bd d3 a8 92 bd 14 e3 8e 3d
       0.02561615 -0.06839172 -0.07161107 0.069769055
000050 3b d1 98 bd d2 cf 88 3c c0 fa 86 bc c1 8f e5 bc
       -0.074617825 0.016700659 -0.016476989 -0.028022649
000060 12 91 5e bd c9 30 93 bd b3 bc 1c 3a 43 b7 06 bb
       -0.05433757 -0.071870394 0.0005979046 -0.002055601
000070 86 22 e1 bc a3 ed 94 3d 8e 43 8f bd e7 8e 22 3d
       -0.027482282 0.07271888 -0.06995307 0.039687064
000080 46 09 23 3d 8f 0e 3d 3d 4a 67 a6 bc 87 89 16 bc
       0.039803766 0.046156462 -0.020312924 -0.0091880625
000090 a7 a0 86 3d 92 f9 95 bd db e1 6e bd 3c b1 c0 bc
       0.06573611 -0.073229924 -0.05832086 -0.023522012
0000a0 12 fd 0d bd 06 4b 92 3d 7d 47 9e bb ef 19 26 3d
       -0.034665175 0.07143216 -0.0048302994 0.040552076
0000b0 1c be b4 3d b4 e1 7e 3a 79 22 5a bd 6c 4e 52 bd
       0.08825323 0.00097229634 -0.053255532 -0.05134432
0000c0 2e c7 a3 bd 39 dc 51 bd 5f 80 df 3c 51 ed 8f 3c
       -0.07996975 -0.05123541 0.027282892 0.017569216
0000d0 f7 d3 37 3c f1 30 4a bc a4 dd 85 ba 27 f4 b8 3c
       0.01121997 -0.01234077 -0.0010213149 0.022577358
0000e0 4f 8f 65 3c 1a 4b 30 bd 61 8e d0 3c f2 6b 44 3c
       0.014011218 -0.043040372 0.025458517 0.011988627
0000f0 f9 d0 40 bd b8 b5 d1 bc cd 22 47 bd 44 ab 5d bc
       -0.04707429 -0.025599346 -0.048617173 -0.013529602
000100 87 ca 85 bc 44 26 1e 3d 54 f4 20 3c 03 a0 98 bd
       -0.016331924 0.03861071 0.009823877 -0.07452395
000110 84 7f 26 bd 23 ea 12 3c b6 7c 82 3d d5 af 8c 3d
       -0.040648952 0.008966955 0.06371443 0.06869475
000120 9a 52 8f 3d 78 2b 21 3d 66 47 97 3d 11 dd 03 3c
       0.06998177 0.039348096 0.07386665 0.008048312
000130 1f c6 6c 3d 03 b8 46 3d b3 0c ba bc ab 5c 80 3d
       0.05780613 0.04851533 -0.022711134 0.06267675
000140 6e 05 60 3d ee 89 58 bb 66 52 5b bd 68 10 5b bd
       0.05469268 -0.0033041197 -0.05354538 -0.053482443
000150 6a 4d 56 3c eb d7 97 bd 25 de 5c bd 61 43 73 bc
       0.01307998 -0.0741423 -0.05392279 -0.014847607
000160 7d 52 a7 3d ac 04 2d 3b 54 50 01 3d 5d 49 3e 3d
       0.0817003 0.002640049 0.031570747 0.046456683
000170 f2 62 b7 bd d0 f0 b5 bd 19 a3 71 bd e7 3c e0 bb
       -0.08954419 -0.08883822 -0.058993433 -0.0068431976
000180 85 aa 64 3d ae 79 88 bc 7b 72 94 bd bf 3d ad 3b
       0.055826683 -0.016659584 -0.07248398 0.0052869017
000190 b5 7a a9 bd c5 c1 97 bd f0 16 f6 bc 41 6a 8f 3d
       -0.08275358 -0.074100055 -0.030040234 0.07002688
0001a0 1a 74 69 3c 57 2d 06 bd 2f 41 7b bc 6c bb 94 3d
       0.014248872 -0.032758083 -0.015335365 0.072623104
0001b0 95 35 47 bc c1 46 84 3d 70 8b 03 3c 1d 5f 5c bd
       -0.012158771 0.06458808 0.00802885 -0.053801645
0001c0 af e0 64 3c 6e 8f 01 3b 87 d7 4c bc f4 ac 27 3d
       0.013969584 0.0019769329 -0.012502558 0.040936425
0001d0 0b e9 03 3d 22 66 7d bb 05 84 8b 3b 34 b8 2f bd
       0.03220467 -0.0038665612 0.0042576813 -0.04290028
0001e0 f9 7f 28 3d c4 8a 2c bd 8c 43 a7 3d 23 fc 61 bc
       0.04113767 -0.042124525 0.081671804 -0.013793024
0001f0 8d 65 ff 3c 22 82 c9 ba ec d7 63 3c ef 79 5b bd
       0.031176353 -0.0015373866 0.01390646 -0.05358308
000200 64 60 5d bc fc 1b 44 bd 00 3e d9 bb f4 8f eb bc
       -0.013511751 -0.04787825 -0.0066297054 -0.028755166
000210 a0 0d a6 3d 13 7b 89 3d 4d 98 1d ba a8 9a 9a bd
       0.081080675 0.06712928 -0.00060117693 -0.075490296
000220 a2 08 96 bd 92 6e 70 bd 0a b4 87 3d e8 3e d7 bc
       -0.07325865 -0.058699198 0.066261366 -0.026275113
000230 9f e0 97 3c fd 1c 41 bd 5a 8f 3a bc 85 e2 16 3d
       0.018539725 -0.047146786 -0.011386717 0.03683712
000240 93 54 95 bd 3b 37 94 3d 58 73 41 bd 16 e2 9f 3c
       -0.07291522 0.07237097 -0.04722914 0.019516986
000250 11 b2 1c 3d 96 73 33 bd 0e 21 dd 3c 21 74 d2 3c
       0.038255755 -0.043811403 0.0269933 0.02569014
000260 3e 89 3d 3c 83 fc 62 bd d7 00 18 3c 6c 0c 9c 3d
       0.011568366 -0.055416595 0.009277544 0.07619557
000270 09 ba 80 bc b2 25 58 bd 22 d7 a4 bc e3 de 4d 3d
       -0.015713708 -0.052770324 -0.020122115 0.05026139
000280 c5 9c 6b 3d dd ec a7 bc fe 33 05 3d de c6 21 bd
       0.057522554 -0.020498687 0.032520287 -0.039496295
000290 71 d1 48 bd 3b 36 82 3d 2f b9 2a 3d 96 b5 52 bd
       -0.049027864 0.06358 0.04168051 -0.051442705
0002a0 00 e7 e8 3b b1 74 4e bb b8 66 63 3c 92 06 92 bc
       0.0071076155 -0.003150266 0.0138794705 -0.017825399
0002b0 65 fe 0f bd 06 96 55 bd 7e 3d 06 bd c9 df af bc
       -0.03515472 -0.052145027 -0.032773487 -0.021469014
0002c0 07 41 95 bd 69 b1 8e bd 5e a0 31 bd 76 6b 64 3d
       -0.072877936 -0.06967432 -0.04336583 0.055766545
0002d0 47 c4 02 3d d5 bd a8 bd 7a ef 41 3d f6 f9 f7 bc
       0.031925466 -0.082393326 0.047347523 -0.030270558
0002e0 6b 42 8d 3c 2d 8d 4f 3d 9b 6d 05 3d b1 05 21 bd
       0.017243585 0.050671745 0.03257523 -0.03931207
0002f0 f4 7b 64 3d ae 6f 91 3d e0 75 35 bd b5 f8 70 bd
       0.055782273 0.07101379 -0.044301867 -0.058830936
000300 e6 c2 1e 3d 84 01 5a 3d ef 78 47 3d ca c3 00 3d
       0.03876009 0.0532241 0.048699316 0.03143672
000310 c9 ec 26 bd 36 b8 ad bd 96 2e d7 3b ab 38 0d 3c
       -0.04075316 -0.08482401 0.006566833 0.008619468
000320 0f ad 85 bd ed f0 47 bd 5f de a8 bd 56 83 8b bc
       -0.06527149 -0.04881375 -0.08245539 -0.0170304
000330 7b 64 e7 3c 61 d5 03 3d c3 e2 17 bd 68 d5 b0 bd
       0.028246155 0.032185916 -0.03708149 -0.08634454
000340 00 5e a6 bd f9 55 aa 3c b2 39 af bc 8e 61 01 bd
       -0.08123398 0.020792948 -0.021389816 -0.031587176
000350 5d 8c 0e 3d bd e3 3c bc 19 86 22 bd 5c 5c a4 bc
       0.03480183 -0.011528906 -0.039678667 -0.020063572
000360 35 01 b6 3c bd d7 67 3c 96 70 90 bb cc df 3c 3d
       0.022217372 0.014150557 -0.0044079525 0.046111867
000370 99 12 71 bd 4e e9 3a bd 3d 9b e8 3c 53 f4 c2 3c
       -0.058855627 -0.045632653 0.028394336 0.023798143
000380 e9 c3 b5 3d 48 fe ec bc 10 d8 9c 3c fb 23 19 bc
       0.088752575 -0.028929844 0.019145995 -0.009346957
000390 f2 69 73 3d 12 4a 0a bd 4b b2 78 bd 9f 02 b5 bb
       0.05942721 -0.033762045 -0.06071691 -0.005523994
0003a0 52 b0 42 3d 98 05 96 bc 78 92 96 3d eb fd 90 bc
       0.047531433 -0.018313214 0.073521554 -0.017699203
0003b0 07 c9 8d bd 02 05 9b 3d b6 1d 23 bd ae c3 9b 3d
       -0.069231085 0.075693145 -0.039823256 0.07605682
0003c0 20 d9 b0 3d 0a b0 0a bc cf 2e 8a bc 03 fc 72 bd
       0.08635163 -0.008464823 -0.016868023 -0.05932237
0003d0 16 62 58 bc 48 02 ae bd 89 6a 5b bc ba 8a 41 3d
       -0.013206979 -0.08496529 -0.013392099 0.04725144
0003e0 3c 42 25 bd 55 a0 38 3d 12 a8 4b bd a0 a6 7a bb
       -0.04034637 0.04507478 -0.04972083 -0.003824629
0003f0 5a 9e 0c bd 3b 9d 7a 3d 63 64 d9 bb 62 b5 45 bb
       -0.034330703 0.061185103 -0.0066342815 -0.0030167927

encBlocks.1.conv2.bias f4 [16]
000000 62 f4 99 bd ec 5e d1 ba 0a 4f 9f 3d 57 fa c1 bc
       -0.075173154 -0.0015973723 0.077787474 -0.023678942
000010 45 f5 f7 bc 84 b7 76 3d 25 84 00 bc 6b d7 4c 3d
       -0.03026832 0.060233608 -0.007844006 0.050010126
000020 cd bc 5e 3b fb 95 a6 bd 54 a5 a3 3d 5b 96 4a bd
       0.0033987046 -0.08134075 0.07990518 -0.049459796
000030 d0 31 26 bd 09 24 12 3d f2 51 96 3d 5f 03 6b bd
       -0.04057485 0.035678897 0.073398486 -0.05737626

encBlocks.1.BN1.weight f4 [16]
000000 18 13 7d 3f 06 05 7e 3f 1b c8 81 3f 5b c5 81 3f
       0.9885726 0.99226415 1.0139192 1.0138353
000010 a2 a1 7d 3f 0b a7 80 3f 1f 48 7e 3f 8e fd 80 3f
       0.9907476 1.0050977 0.993288 1.0077379
000020 64 b1 7d 3f 71 8c 80 3f 59 c6 80 3f 34 b2 7f 3f
       0.990988 1.0042859 1.0060531 0.9988129
000030 36 b7 80 3f 03 c7 7d 3f 71 20 80 3f 2b 7e 7d 3f
       1.0055912 0.9913179 1.00099 0.9902064

encBlocks.1.BN1.bias f4 [16]
000000 01 ac 0b bc 43 6b 1b 39 1a 1f 56 bc 14 8b e7 3c
       -0.008524896 0.0001482191 -0.013068939 0.02826456
000010 b8 76 1a bc bc db 85 3c 48 bd 09 3c d2 18 ef 3c
       -0.009427719 0.01634013 0.008406945 0.02918664
000020 c6 cb 84 bc d3 ab 96 b9 a4 03 5d 3c bb 2a 19 bc
       -0.016210448 -0.00028738249 0.0134896375 -0.009348567
000030 d8 28 e3 3c 7a 22 f8 bb 1c a9 8a bc e2 a9 2e bc
       0.027729437 -0.0075724693 -0.01692634 -0.01066062

encBlocks.1.BN1.running_mean f4 [16]
000000 90 87 a9 bf 1c 44 1b bf 8f 14 a7 bc f3 3c 91 bf
       -1.3244495 -0.606508 -0.020395545 -1.1346725
000010 6f 24 c6 bf 2d 92 d7 3e b1 f2 42 bf b1 ec 25 bf
       -1.5479869 0.4210371 -0.7615157 -0.6481429
000020 12 c5 e6 3c 41 a5 c3 3e 64 3f 6e 3f e2 2e 3c 3f
       0.028170142 0.38212016 0.93065476 0.7350904
000030 13 a9 33 3f ff 2d bc 3e 96 28 26 bd 96 02 07 3d
       0.7017986 0.36753842 -0.04056605 0.03296145

encBlocks.1.BN1.running_var f4 [16]
000000 8d c7 2e 40 b8 a6 aa 3f eb 77 6c 3e c2 e0 15 40
       2.7309296 1.3332129 0.2309262 2.3418431
000010 11 aa 29 40 40 5d df 3f cd 6c 03 40 5f 3c d8 3f
       2.651005 1.7450333 2.0535157 1.6893424
000020 2d c1 96 3e ea 9f d6 3e dd 04 76 3f 81 3e 8e 3f
       0.29444256 0.4191888 0.9610117 1.1112825
000030 3c db 9a 3f 47 51 31 3f 1e 12 84 3e 36 73 a2 3e
       1.2098155 0.69264644 0.25795072 0.31728524

encBlocks.1.BN2.weight f4 [16]
000000 a8 1f 7b 3f 9b 2d 81 3f 3e a2 7e 3f d8 13 81 3f
       0.9809518 1.0092043 0.9946631 1.0084181
000010 83 a8 81 3f 47 48 7f 3f c2 3f 7d 3f 69 36 7d 3f
       1.0129551 0.9971966 0.9892541 0.9891115
000020 2e c4 78 3f 81 07 7d 3f 6c cc 7c 3f f7 51 81 3f
       0.97174346 0.98839575 0.98749423 1.0103139
000030 ea 5a 83 3f ae 7e 80 3f f8 47 7a 3f 5b a7 80 3f
       1.026212 1.003866 0.97766066 1.0051073

encBlocks.1.BN2.bias f4 [16]
000000 e4 e9 93 bc 55 c1 d9 3a 4a b1 5c bc 4d 4b cf bc
       -0.018055864 0.0016613404 -0.013470003 -0.02530446
000010 e2 06 0a 3d 6c f5 6b bc dc 90 08 bd b0 91 14 bc
       0.03369797 -0.014401775 -0.033341274 -0.009067938
000020 d3 ea 28 bd 40 84 a3 bc 43 7e 14 3b 9d d0 f0 bc
       -0.04123957 -0.019960523 0.0022658266 -0.02939635
000030 02 e4 17 bd 28 bc 45 3b e3 b9 b5 bc 74 e9 85 bc
       -0.03708268 0.0030171964 -0.022183364 -0.01634667

encBlocks.1.BN2.running_mean f4 [16]
000000 80 6e 3e be 82 3a 0f bd 7e 05 c6 be 1f 05 83 be
       -0.1859684 -0.034967907 -0.38676065 -0.25589845
000010 b7 ec 13 3d 58 b4 f7 3e 71 ef d8 3d 97 3d 7e be
       0.03611442 0.4837978 0.10592545 -0.24828182
000020 fa ef f6 be 0d ee af bd 8a f6 a5 3d 6a 1b fe bd
       -0.48229963 -0.085903265 0.08103664 -0.124075726
000030 1d a0 6d be 29 4c ed bd af be 40 be 3e 93 a4 3e
       -0.2320561 -0.11586792 -0.1882274 0.32143587

encBlocks.1.BN2.running_var f4 [16]
000000 3d f1 11 3e 78 c8 19 3e 76 2c d2 3d 59 b5 74 3e
       0.14252181 0.15017879 0.102623865 0.23897304
000010 b8 f5 d8 3e 9d de 12 3e cd fc aa 3e d2 13 6c 3e
       0.4237497 0.14342733 0.33395997 0.23054436
000020 a3 a6 2e 3f c8 94 c9 3e a0 63 82 3e f8 c1 4f 3e
       0.6822302 0.39371324 0.25466633 0.20288837
000030 7f dd 86 3e 3c a5 36 3f d7 73 67 3e b4 5d 43 3f
       0.26340863 0.7134588 0.22602783 0.76314855

encBlocks.2.conv1.weight f4 [1, 16, 3, 3]
000000 0f 7a ee 3c 71 a5 86 bd 76 98 6a bc 3a 05 54 3d
       0.029110936 -0.06574524 -0.014318576 0.051762797
000010 af c0 9e 3d a8 a4 56 bd 39 bf 89 3c c0 c2 4a bd
       0.07751595 -0.052403122 0.016814815 -0.049502134
000020 16 35 4a 3c d6 ae 6d 3c ea 2e ec bc 9d 28 09 3c
       0.012341758 0.014507016 -0.028830964 0.008371499
000030 83 5a 03 3a 2c 29 0d 3d 38 37 fe 3c 99 1b dc bb
       0.0005010741 0.034463093 0.03103219 -0.006717157
000040 0f 3f 98 3d 09 31 31 bd f7 34 cc bc c6 d1 6b 3d
       0.074339025 -0.043259654 -0.0249276 0.057573102
000050 ce 78 8b bd ee f1 89 3d a4 dd 5a 3b 80 95 73 3d
       -0.06810151 0.067355976 0.0033396268 0.059468746
000060 93 04 7c bd 18 38 e6 3c eb b0 81 3c 4c 08 b3 bc
       -0.0615278 0.02810292 0.015831431 -0.021854542
000070 4b 9e 9b bc f5 20 ae 3d 93 83 9c 3d fd 44 8e bd
       -0.018996378 0.0850238 0.07642283 -0.06946752
000080 f8 aa 30 bd 7a 1c b4 3d d5 30 24 3d a3 e3 8a 3d
       -0.0431318 0.08794494 0.040085632 0.067816995
000090 42 bb b0 bc 86 9c 55 bb 22 0e 05 bd 14 97 8f 3d
       -0.021573666 -0.0032594516 -0.03248418 0.07011238
0000a0 51 71 db 3c eb 2c 05 bd 28 3b de bb 1d 3c 68 3d
       0.026787432 -0.03251354 -0.0067819543 0.056697953
0000b0 bc 1d 2a 3d 5b 3e 1d 3d df 08 9e bc 87 dc 1d 3d
       0.041532263 0.038389545 -0.01929134 0.03854039
0000c0 07 90 f8 3c 54 14 91 bb 72 08 b0 bd c0 1c d0 bc
       0.030342115 -0.004427472 -0.08595361 -0.025404334
0000d0 df 2b 13 bd e2 83 1f bb a2 af d8 3c 79 cb 38 3d
       -0.03593051 -0.0024340083 0.026450936 0.04511592
0000e0 26 51 8c 3c bc 0b 13 bd 7d a4 80 3c e6 a9 ae 3d
       0.017128538 -0.035899863 0.015703434 0.08528499
0000f0 2e 51 88 bc 20 74 95 bd 05 c0 c3 bc 5d ca 9a bc
       -0.016640272 -0.0729754 -0.023895273 -0.018895322
000100 99 4b 0d 3d 22 9c 3f bd c4 0a 9e bd 0f ae 8d 3c
       0.034495924 -0.04677976 -0.07716897 0.017294912
000110 2b bb aa 3d 06 7e 70 bd 0e cc 55 3d c4 1f 7d 3d
       0.08336481 -0.058713935 0.052196555 0.061797872
000120 be 05 35 3c 4c fe 74 3d 37 6f 70 3d 08 41 a7 bc
       0.011048732 0.05981283 0.058699813 -0.020416752
000130 d0 f4 d4 bb 07 b8 9b 3b e2 2b 03 bd f1 ec 0d bd
       -0.0064989105 0.0047521624 -0.03202427 -0.034649793
000140 95 db 21 3c ff 79 1a 3d 8b 50 a1 bc 82 bf cd bc
       0.009879013 0.037714 -0.019691726 -0.025115732
000150 03 01 52 bd bd a8 01 bd 2d 62 a1 bd 2e 59 85 3d
       -0.051270496 -0.031655062 -0.07880054 0.0651115
000160 b3 d3 48 bd 01 31 a1 3d e7 4b 71 bd 4c 1e 6f 3b
       -0.049030017 0.07870675 -0.058910277 0.0036486564
000170 6e 75 2b bd 0e 02 73 3d 02 bc 82 bd 78 c8 15 bd
       -0.041860037 0.05932813 -0.06383516 -0.036568135
000180 ff e4 34 3d 00 f0 92 3d 75 49 81 3d 1e 58 15 3c
       0.0441637 0.071746826 0.06312839 0.009115247
000190 51 06 96 3d 06 d7 73 3d ea bb 4c 3c 04 d0 e4 3c
       0.073254235 0.059531234 0.012495974 0.02793122
0001a0 91 b5 83 bd 5a f3 8b 3d 78 4c 8e bd 73 1c 5a 3d
       -0.064311154 0.06833525 -0.06948179 0.053249788
0001b0 df c6 38 3d 54 3a 0c bd fd e3 97 3d 5d ce b4 3d
       0.045111533 -0.034235314 0.07416532 0.08828423
0001c0 34 2f 59 3c 89 39 12 3c af 74 46 3b 47 9a 35 bb
       0.013255883 0.00892485 0.0030281951 -0.0027710365
0001d0 61 ea b1 bb 3d a6 ae bd b8 6d 9c 3c 1d 5e 63 bd
       -0.0054295515 -0.08527801 0.019095287 -0.055509675
0001e0 be cf 20 3d 25 ae 94 bd 72 0b 00 3d 3b 41 37 bd
       0.03926062 -0.07259778 0.031260915 -0.044739943
0001f0 b8 7c 73 b7 bc 0a ef bc 42 74 dd 3c 66 c9 a7 bc
       -1.4512967e-05 -0.029179923 0.027032975 -0.020481776
000200 e2 98 b5 bc 71 5c 5e 3b 88 e3 d9 bc 37 41 1e 3d
       -0.022167627 0.003392961 -0.026597753 0.038636412
000210 63 98 ab 3d 5f b0 81 bd c8 a1 9c 3c 6d 03 8c 3c
       0.08378675 -0.06332468 0.019120112 0.017091477
000220 19 80 8e bb 1b ee 63 3d a5 f3 a3 3d d9 d0 5d bc
       -0.0043487665 0.055646997 0.08005456 -0.013538563
000230 8f 61 95 bd f2 c0 19 bd d7 95 88 bb 1b 3d a8 3d
       -0.072939985 -0.037537523 -0.004168253 0.0821478

encBlocks.2.conv2.weight f4 [1, 1, 3, 3]
000000 d7 c4 13 3e 9f 3d 8b 3d cb 9f 96 3e f3 6f 61 be
       0.14430557 0.06798863 0.29418787 -0.22015361
000010 c7 05 a1 3e 08 a3 1e bc 70 ed 22 3e 74 ca 55 3e
       0.3144972 -0.009682424 0.15910888 0.20878011
000020 22 5b 5b be
       -0.21421483
