Model_params/test_3_macro_epoch_5.pt (torch, 44071 bytes, 26 tensors)

encBlocks.0.conv1.weight f4 [16, 3, 3, 3]
-0.12556079 0.17533101 -0.0033633455 -0.05066648 -0.16562276 -0.11255988 0.115917854 0.07100551
0.001438856 -0.14268908 0.07032358 -0.0921234 0.121604525 -0.18542992 0.022028381 0.087152295
-0.044938635 0.030552913 -0.024438802 0.064993575 0.073357835 -0.10003755 -0.034379203 -0.16778043
0.1261304 -0.11708745 -0.14554381 -0.13403319 -0.14135918 0.028333845 -0.028378917 -0.10168753
0.085959345 -0.15950428 0.080430865 -0.12662072 -0.064316005 0.06477442 0.0009011078 -0.022582002
-0.12141661 -0.036416173 -0.03893666 -0.10543592 -0.1356614 0.12884898 -0.0056595504 0.10404916
0.06634975 -0.06877062 0.0067874426 -0.045143805 0.029400436 -0.055862915 0.04552699 0.10679372
0.13834473 0.05116692 0.1643347 0.17703177 0.15437151 0.06438267 -0.07170802 0.0070008636
-0.07351209 0.17826459 0.08285034 -0.1190625 -0.024068994 0.18396279 0.17445527 0.19397587
-0.15213738 0.0015790781 0.17923291 -0.07162053 -0.16443846 -0.07952066 0.067329556 -0.037658688
0.17136127 -0.057255358 -0.05698458 0.09454096 0.010965842 0.08781675 -0.060990516 -0.04057338
0.0022320878 -0.004222361 -0.02022446 0.11043684 -0.11014788 0.031434625 -0.0940583 -0.07838796
0.12085917 0.102678224 -0.030170627 0.051706016 0.1163316 0.015360127 0.0873629 0.14377967
-0.17897828 -0.07584364 0.03258476 0.16003032 0.07236193 -0.12306943 -0.057197306 0.036277078
-0.010244384 0.19009185 0.03147983 0.11699409 -0.10281726 0.14839286 -0.12816583 -0.09365485
0.054040782 -0.055029258 0.035254247 -0.1138661 0.165074 0.049521904 -0.014625926 -0.13770553
-0.020267287 0.14905745 0.15674466 0.099317774 -0.16673057 0.0106904805 -0.012694251 -0.008650764
0.11595107 -0.08660146 -0.19074039 -0.17553045 -0.09075813 -0.10893214 -0.11403502 -0.19132417
0.014010687 -0.0846462 -0.14791657 0.038577303 -0.17039785 0.16814932 -0.14730334 0.1083592
0.15473126 -0.022992054 0.12838201 0.008780696 -0.15108411 -0.05615985 0.04896755 0.07103441
-0.16233301 0.17722096 0.12401097 0.1103237 -0.1471097 0.10177252 -0.13150346 -0.12713602
0.0691864 -0.15511186 0.008005145 0.10832788 0.15430744 0.061383992 0.19202249 0.14893523
-0.07777202 -0.05578287 -0.021074815 -0.14713222 -0.12464907 0.16253486 0.14450677 0.16498652
0.0665649 -0.05317704 -0.14782736 0.1003678 0.16813968 -0.025179053 0.08289416 0.19182117
0.103940345 -0.05185439 0.12600517 -0.0525546 -0.05751647 -0.11838696 0.00064777886 0.0024712502
0.0019300048 0.045950778 0.0861602 -0.12459138 0.036223993 0.02603149 -0.11604123 0.014655756
-0.10649367 -0.17817312 0.18466404 -0.14358683 0.08579189 -0.024730783 -0.07660982 0.08924755
0.06082666 -0.1939672 -0.08541055 0.13606569 0.14631794 -0.040219743 0.058771376 -0.037589747
0.047693364 -0.08656401 0.103068136 -0.07950739 -0.001134463 -0.11537221 0.0392868 -0.012200252
-0.16011961 0.04436219 0.0020123895 0.08863355 0.12894554 0.12726247 -0.09870646 -0.046407945
-0.14198582 -0.16428165 -0.08780639 -0.13806275 -0.08691549 -0.14763568 -0.006679462 -0.16854613
0.06387831 0.033062372 -0.087107204 -0.01611841 -0.057390418 0.09034948 0.098143935 -0.18249936
00000000: 0293 00be f989 333e 936b 5cbb a887 4fbd
00000010: 0399 29be cb85 e6bd 5766 ed3d 566b 913d
00000020: ff97 bc3a 161d 12be cf05 903d 31ab bcbd
00000030: cb0b f93d 57e1 3dbe dd74 b43c e77c b23d
00000040: 9311 38bd 1a4a fa3c e233 c8bc 5a1b 853d
00000050: a23c 963d 7de0 ccbd 35d1 0cbd a2ce 2bbe
00000060: 5428 013e 8ccb efbd 7009 15be ff3f 09be
00000070: 76c0 10be 611c e83c e77a e8bc 8d41 d0bd
00000080: 740b b03d 1755 23be f0b8 a43d dda8 01be
00000090: 1cb8 83bd 73a8 843d 5238 6c3a e4fd b8bc
000000a0: 46a9 f8bd 2029 15bd 0c7c 1fbd caee d7bd
000000b0: d2ea 0abe fdf0 033e c073 b9bb ba17 d53d
000000c0: 61e2 873d 9cd7 8cbd 3269 de3b b6e8 38bd
000000d0: 2fd9 f03c 83d0 64bd 827a 3a3d aab6 da3d
000000e0: 3eaa 0d3e 6894 513d 5b47 283e d147 353e
000000f0: 9113 1e3e 10db 833d a8db 92bd 8067 e53b
00000100: 828d 96bd fe8a 363e 70ad a93d 0ad7 f3bd
00000110: 572c c5bc be60 3c3e 67a4 323e 9ca1 463e
00000120: e7c9 1bbe 12f9 ce3a d588 373e c9ad 92bd
00000130: 8e62 28be badb a2bd 14e4 893d ff3f 1abd
00000140: 5479 2f3e 9884 6abd aa68 69bd b19e c13d
00000150: 13aa 333c 45d9 b33d 31d1 79bd 4630 26bd
00000160: 3848 123b bb5b 8abb c4ad a5bc b62c e23d
00000170: 3695 e1bd 98c1 003d a3a1 c0bd de89 a0bd
00000180: 0385 f73d f648 d23d 6428 f7bc b0c9 533d
00000190: 433f ee3d 0ba9 7b3c 52eb b23d fa3a 133e
000001a0: 1546 37be e953 9bbd 9977 053d fdde 233e
000001b0: 7e32 943d d30b fcbd b947 6abd 4697 143d
000001c0: 10d8 27bc 70a7 423e fff0 003d 999a ef3d
000001d0: db91 d2bd 4cf4 173e e73d 03be 1dce bfbd
000001e0: de59 5d3d 5c66 61bd c266 103d a132 e9bd
000001f0: 2909 293e 7bd7 4a3d 94a1 6fbc ae02 0dbe
00000200: 9507 a6bc 84a2 183e ac81 203e 1e67 cb3d
00000210: 6bbb 2abe 2027 2f3c 8cfb 4fbc efbb 0dbc
00000220: c177 ed3d 1b5c b1bd 7351 43be 41be 33be
00000230: 66df b9bd d017 dfbd 318b e9bd 7cea 43be
00000240: 158d 653c fd5a adbd 7177 17be 3c03 1e3d
00000250: c67c 2ebe 562f 2c3e b0d6 16be 6eeb dd3d
00000260: df71 1e3e d559 bcbc 9376 033e e9dc 0f3c
00000270: cbb5 1abe df07 66bd 3392 483d 7d7a 913d
00000280: a03a 26be 6979 353e 77f9 fd3d 64f1 e13d
00000290: eda3 16be 1c6e d03d d8a8 06be f22f 02be
000002a0: 99b1 8d3d a5d5 1ebe 0328 033c 02db dd3d
000002b0: c502 1e3e c86d 7b3d 8ba1 443e 7a82 183e
000002c0: f046 9fbd 947c 64bd 17a5 acbc d4a9 16be
000002d0: 0348 ffbd 8a6f 263e 95f9 133e 3af2 283e
000002e0: 2e53 883d 2bd0 59bd 0e60 17be a28d cd3d
000002f0: cf2c 2c3e 4d44 cebc 6ac4 a93d c56c 443e
00000300: adde d43d 4565 54bd 8007 013e 7e43 57bd
00000310: 6496 6bbd dd74 f2bd b4cf 293a b3f4 213b
00000320: 37f8 fc3a e236 3c3d c274 b03d c429 ffbd
00000330: 9c5f 143d fe3f d53c 06a7 edbd b21e 703c
00000340: 5a19 dabd 0473 36be 9218 3d3e 6d08 13be
00000350: a9b3 af3d 3698 cabc 9ce5 9cbd 6bc7 b63d
00000360: 6025 793d 569f 46be baeb aebd ce54 0b3e
00000370: 5fd4 153e 75bd 24bd 41ba 703d b5f7 19bd
00000380: 1e5a 433d 7948 b1bd 6315 d33d c5d4 a2bd
00000390: 43b2 94ba 4448 ecbd 32eb 203d 91e3 47bc
000003a0: 65f6 23be 21b5 353d 4be2 033b 8285 b53d
000003b0: 4d0a 043e 1851 023e 9d26 cabd 4216 3ebd
000003c0: bb64 11be 7339 28be d6d3 b3bd 5260 0dbe
000003d0: c000 b2bd cf2d 17be 63df dabb 5b97 2cbe
000003e0: a2d2 823d 696c 073d 4365 b2bd c10a 84bc
000003f0: 3712 6bbd 2609 b93d b0ff c83d 1de1 3abe

encBlocks.0.conv1.bias f4 [16]
0.14369245 0.06074327 -0.15583518 0.14108738 -0.08306769 -0.1291278 0.110841416 -0.0780647
-0.023067802 0.084697485 -0.15961449 -0.11215126 0.11062662 0.1488713 0.045556948 -0.18039761
00000000: 1d24 133e efcd 783d 4293 1fbe 3679 103e
00000010: 651f aabd 143a 04be d300 e33d 63e0 9fbd
00000020: b0f8 bcbc e075 ad3d fb71 23be 8faf e5bd
00000030: 3690 e23d b871 183e ec99 3a3d 27ba 38be

encBlocks.0.conv2.weight f4 [16, 16, 3, 3]
-0.011505348 0.052161895 -0.00034739717 -0.050299685 0.03195109 0.06971889 0.08496113 0.060560822
0.07904943 0.024703305 -0.050033323 -0.046266135 0.006716158 0.06667812 -0.05644104 0.005210781
-0.03300953 -0.06313315 -0.050807796 -0.056360677 -0.035027392 0.0023187986 -0.06617631 -0.01670554
-0.08081811 0.044483315 -0.043155435 -0.020980388 -0.06433385 0.015261361 -0.026937619 -0.08865036
-0.01698018 0.035346527 -0.03443689 0.06832507 -0.029102042 -0.04870904 0.04576467 -0.083240665
-0.02812954 0.011771586 -0.06307055 0.036990065 0.06722668 0.041917354 0.0796851 -0.02084075
-0.019624136 0.023336183 0.016103141 0.028366039 -0.014358477 -0.005348297 0.052324552 0.033456806
0.021597117 0.02758461 -0.067681186 -0.040031902 -0.05719842 0.030644909 -0.08417337 -0.020818362
-0.07264958 -0.0031246915 0.017100547 0.023839643 -0.04969801 -0.0024094232 0.05232378 0.038787264
0.08869588 -0.015767615 0.0024218122 -0.05064725 -0.07880515 0.050034303 0.02314569 0.042647768
0.056227706 0.06085413 0.06432258 0.023024919 0.07044442 -0.055070262 0.0010022685 -0.016856065
0.033139437 0.041961297 0.024643717 -0.047010195 -0.008416594 -0.014452802 0.075408 -0.04375941
-0.061545085 0.003322395 0.06752786 -0.006663684 0.01229407 0.060792733 0.031358432 -0.031748023
-0.029005013 -0.014124909 -0.001429636 0.034522336 -0.013336014 0.06616378 0.05211645 -0.033835202
-0.02712954 -0.03501364 -0.01695995 -0.036965616 -0.0054457253 -0.0072405725 -0.055529065 0.054502506
-0.006297031 0.07186302 0.08345476 -0.01511882 -0.03011489 -0.059657667 0.016630372 -0.09150895
-0.052437138 -0.009516093 0.06339874 -0.02383826 0.01593084 -0.04145642 -0.0029815533 -0.06607295
-0.004858184 0.04721181 -0.006576325 0.05685357 0.04935378 0.08523361 0.06692969 0.03252633
0.019185897 0.059088726 0.061869014 -0.05935501 0.033303015 0.05510365 -0.022985527 -0.031915754
0.0110033285 -0.01077313 0.011433998 -0.03895668 -0.02990814 0.0035833116 0.0052359314 0.032538965
0.0024253118 0.015904251 -0.043890636 -0.060698852 -0.058378838 -0.022796964 0.056854866 0.020892687
0.014862136 0.086787336 -0.06128809 0.013724532 -0.009653283 0.0512865 -0.004173595 0.0427513
0.02014044 0.03092452 -0.023646723 0.07385736 0.06283764 0.06755661 0.0038346571 -0.03535391
0.06648052 -0.08002072 0.004500971 0.0037090734 -0.08185052 0.0029260789 0.055101577 0.011562546
0.03131848 -0.013022012 -0.052477147 0.045286 -0.01636817 -0.029029865 0.07402669 -0.060544297
0.098374054 0.088043556 0.0025332076 -0.046529427 -0.051121607 0.09106233 0.08824884 -0.07586737
-0.0049362923 -0.08268589 0.08148222 0.045877706 0.016140621 -0.045549728 -0.027283072 0.05666309
-0.041668687 0.069295645 -0.0421875 -0.04862685 -0.06019044 -0.03033277 0.025835227 0.05962959
0.0331121 -0.05859838 0.058093894 0.07049813 0.064100236 0.014548994 -0.06821933 0.045680627
-0.03527 -0.061237685 0.02067827 -0.072890304 -0.051345337 -0.02480643 -0.04337713 -0.07153433
0.03955578 0.02596884 0.07182071 0.063317634 0.038921088 0.013854958 0.05464437 -0.04067665
-0.035799135 0.0038279432 0.010941272 -0.062047563 0.07331583 0.028785229 -0.051160756 -0.042531487
00000000: ed80 3cbc b6a7 553d dc22 b6b9 0b07 4ebd
00000010: 25df 023d c7c8 8e3d 1a00 ae3d a00e 783d
00000020: abe4 a13d 965e ca3c beef 4cbd 8f81 3dbd
00000030: 3713 dc3b 8a8e 883d b82e 67bd 33bf aa3b
00000040: 0035 07bd f44b 81bd d61b 50bd 74da 66bd
00000050: e278 0fbd fcf6 173b 7287 87bd 0eda 88bc
00000060: f783 a5bd 2334 363d c1c3 30bd 10df abbc
00000070: 77c1 83bd ca0a 7a3c 48ac dcbc 528e b5bd
00000080: 051a 8bbc 85c7 103d b20d 0dbd 04ee 8b3d
00000090: 6867 eebc 2183 47bd bc73 3b3d 157a aabd
000000a0: ec6f e6bc 9cdd 403c 222b 81bd e582 173d
000000b0: 24ae 893d 88b1 2b3d f131 a33d 38ba aabc
000000c0: ccc2 a0bc 862b bf3c bcea 833c e55f e83c
000000d0: d13f 6bbc c440 afbb 4552 563d 010a 093d
000000e0: 70ec b03c 1ff9 e13c 6f9c 8abd 7ef8 23bd
000000f0: e448 6abd 080b fb3c 1663 acbd 458b aabc
00000100: 4ec9 94bd a0c7 4cbb 7216 8c3c 5b4b c33c
00000110: 2490 4bbd 6ae7 1dbb 7651 563d 65df 1e3d
00000120: 2fa6 b53d 162b 81bc 44b7 1e3b 7e73 4fbd
00000130: 9864 a1bd c5f0 4c3d 089c bd3c 6daf 2e3d
00000140: 064f 663d 2e42 793d 8fbb 833d c19e bc3c
00000150: 2a45 903d 5b91 61bd 8d5e 833a bb15 8abc
00000160: 38bd 073d 9cdf 2b3d 9fe1 c93c c38d 40bd
00000170: c1e5 09bc 72cb 6cbc 826f 9a3d 113d 33bd
00000180: b316 7cbd 8abc 593b 0c4c 8a3d 085b dabb
00000190: 116d 493c cd01 793d b371 003d 370a 02bd
000001a0: ec9b edbc 2a6c 67bc a062 bbba 4b67 0d3d
000001b0: 4c7f 5abc e080 873d 0f78 553d c896 0abd
000001c0: c53e debc 766a 0fbd 98ef 8abc 4269 17bd
000001d0: 0e72 b2bb 5342 edbb 7272 63bd 053e 5f3d
000001e0: 5357 cebb eb2c 933d 54ea aa3d edb4 77bc
000001f0: 80b3 f6bc 995b 74bd 6b3c 883c 0b69 bbbd
00000200: 53c8 56bd 63e9 1bbc 33d7 813d 7448 c3bc
00000210: 6581 823c 35ce 29bd 2a66 43bb 4151 87bd
00000220: 6731 9fbb 2c61 413d 367e d7bb 4adf 683d
00000230: 3027 4a3d f58e ae3d 6f12 893d 543a 053d
00000240: be2b 9d3c 0507 723d 5d6a 7d3d 3d1e 73bd
00000250: be68 083d 5db4 613d 254c bcbc 18ba 02bd
00000260: 4e47 343c c881 30bc aa55 3b3c 0a91 1fbd
00000270: ea01 f5bc fed5 6a3b 2d92 ab3b 9447 053d
00000280: fbf1 1e3b a249 823c abc6 33bd 5c9f 78bd
00000290: a61e 6fbd b3c0 babc a6e0 683d 2427 ab3c
000002a0: 5180 733c 8fbd b13d 3809 7bbd dcdc 603c
000002b0: ce28 1ebc cb11 523d a7c2 88bb fd1b 2f3d
000002c0: 90fd a43c 6b55 fd3c c6b6 c1bc 8742 973d
000002d0: 05b1 803d 1f5b 8a3d df4e 7b3b 43cf 10bd
000002e0: f026 883d e7e1 a3bd e27c 933b ed13 733b
000002f0: 3fa1 a7bd 75c3 3f3b 31b2 613d d570 3d3c
00000300: ce47 003d 475a 55bc 47f2 56bd d07d 393d
00000310: 8a16 86bc 0ad0 edbc 4e9b 973d 4cfd 77bd
00000320: 5678 c93d 2e50 b43d 2c04 263b a495 3ebd
00000330: e464 51bd e37e ba3d cfbb b43d 5a60 9bbd
00000340: 9fc0 a1bb 3857 a9bd 26e0 a63d 43ea 3b3d
00000350: 5639 843c 5a92 3abd c080 dfbc 8e17 683d
00000360: c9ac 2abd e0ea 8d3d cdcc 2cbd f32c 47bd
00000370: 408a 76bd 6e7c f8bc 66a4 d33c 283e 743d
00000380: 8ea0 073d db04 70bd ddf3 6d3d 5361 903d
00000390: fc46 833d e75e 6e3c 93b6 8bbd 9c1b 3b3d
000003a0: 4777 10bd 5ed4 7abd 7a65 a93c 8347 95bd
000003b0: 7d4f 52bd db36 cbbc 38ac 31bd 9780 92bd
000003c0: 3e05 223d 9bbc d43c bd16 933d adac 813d
000003d0: b86b 1f3d e8ff 623c c6d2 5f3d 8f9c 26bd
000003e0: 1da2 12bd 3bde 7a3b 0543 333c 9625 7ebd
000003f0: 9c26 963d 00cf eb3c f18d 51bd 7f35 2ebd

encBlocks.0.conv2.bias f4 [16]
0.016807545 0.043165673 -0.050567627 -0.022662254 0.07780782 -0.03444376 -0.043770205 0.008012136
-0.04609205 -0.00031519867 0.034746144 -0.07160535 -0.06052553 0.035749663 0.036924247 0.058519118
00000000: faaf 893c 7dce 303d 0020 4fbd 31a6 b9bc
00000010: b559 9f3d e614 0dbd 6348 33bd 5645 033c
00000020: 04cb 3cbd 4041 a5b9 f951 0e3d d3a5 92bd
00000030: 9ee9 77bd 3d6e 123d e13d 173d beb1 6f3d

encBlocks.0.BN1.weight f4 [16]
0.9831942 1.0017344 1.0029217 1.0175686 1.0155729 0.9880582 1.0149652 1.0048814
0.99853104 0.98927605 0.9921003 0.985828 1.0141441 0.9879708 1.0098457 0.9891736
00000000: 9db2 7b3f d538 803f bd5f 803f b03f 823f
00000010: 4bfe 813f 62f1 7c3f 61ea 813f f49f 803f
00000020: bb9f 7f3f 3241 7d3f 49fa 7d3f 395f 7c3f
00000030: 79cf 813f a8eb 7c3f a042 813f 7b3a 7d3f

encBlocks.0.BN1.bias f4 [16]
-0.007144864 -0.0009923916 -0.0021400042 -0.0019615665 -0.0017759814 -0.011148435 0.0017320274 -0.00044288064
0.0027798025 -0.0055017215 -0.00908664 -0.011100611 -0.0047126827 -0.009502073 0.00023150662 -0.01110851
00000000: 771f eabb 2313 82ba 503f 0cbb a08d 00bb
00000010: 0cc8 e8ba eda7 36bc 3205 e33a 6f32 e8b9
00000020: 592d 363b c947 b4bb 21e0 14bc 56df 35bc
00000030: d96c 9abb 95ae 1bbc 96c0 7239 7800 36bc

encBlocks.0.BN1.running_mean f4 [16]
-0.15427914 -0.30316266 0.4692991 0.33924276 0.036790915 -0.4735542 0.52475154 -0.12288845
-0.23693646 -0.32155168 -0.0901122 -0.21654509 0.27418512 -0.4904364 0.30779225 -0.3018677
00000000: 5afb 1dbe 2338 9bbe f947 f03e 3ab1 ad3e
00000010: 12b2 163d b275 f2be 1e56 063f f1ac fbbd
00000020: 799f 72be 6ca2 a4be bf8c b8bd ffbd 5dbe
00000030: fe61 8c3e 7b1a fbbe f296 9d3e 678e 9abe

encBlocks.0.BN1.running_var f4 [16]
0.066582665 0.082161725 0.18338268 0.047316387 0.044628195 0.1031313 0.09846929 0.04050518
0.053549904 0.0970153 0.049683116 0.042148504 0.051107835 0.15928453 0.066741355 0.052924044
00000000: 7e5c 883d 6844 a83d abc8 3b3e d4ce 413d
00000010: 0ecc 363d 8136 d33d 44aa c93d c2e8 253d
00000020: 2557 5b3d f5af c63d 8680 4b3d e9a3 2c3d
00000030: 7356 513d 7c1b 233e b1af 883d e2c6 583d

encBlocks.0.BN2.weight f4 [16]
0.9834906 0.99496734 1.0003754 0.99274564 1.0127326 1.0126114 0.99496967 0.9981985
0.99594957 0.9883305 0.9978853 1.0091298 0.99756396 1.0013915 1.0167377 0.9876264
00000000: 0ac6 7b3f 2eb6 7e3f 4d0c 803f 9424 7e3f
00000010: 39a1 813f 409d 813f 55b6 7e3f f089 7f3f
00000020: 8df6 7e3f 3a03 7d3f 6975 7f3f 2a2b 813f
00000030: 5a60 7f3f 992d 803f 7624 823f 15d5 7c3f

encBlocks.0.BN2.bias f4 [16]
-0.017860465 -0.006717234 -0.0039999885 -0.012232818 0.014324239 0.01298091 -0.006225163 -0.002940531
-0.008898977 -0.019353807 -0.003577151 0.023751002 -0.012502416 0.0103064915 -0.0009935427 0.018227078
00000000: 1c50 92bc 3e1c dcbb 5612 83bb 286c 48bc
00000010: 37b0 6a3c e2ad 543c 74fc cbbb ecb5 40bb
00000020: 04cd 11bc e08b 9ebc a36e 6abb 7691 c23c
00000030: efd6 4cbc 8fdc 283c c339 82ba f450 953c

encBlocks.0.BN2.running_mean f4 [16]
0.08839814 0.35396513 -0.44461086 0.25623685 0.21386796 -0.054518763 -0.19481789 -0.28948143
0.09881114 0.07560076 -0.2127266 0.18805368 -0.21909414 -0.3323165 -0.13546856 0.16248164
00000000: 160a b53d eb3a b53e 09a4 e3be 7a31 833e
00000010: 3400 5b3e 114f 5fbd 577e 47be e936 94be
00000020: 7f5d ca3d 92d4 9a3d 00d5 59be 2591 403e
00000030: 375a 60be 6325 aabe 45b8 0abe 9661 263e

encBlocks.0.BN2.running_var f4 [16]
0.41249156 0.1307821 0.119399965 0.14412785 0.32364196 0.32013154 0.09617419 0.2984052
0.11571366 0.1489308 0.12007496 0.2147751 0.10301413 0.20494412 0.19746044 0.13905904
00000000: 1832 d33e beeb 053e f887 f43d 4096 133e
00000010: 66b4 a53e 48e8 a33e f9f6 c43d 91c8 983e
00000020: 49fb ec3d 5181 183e dce9 f53d 01ee 5b3e
00000030: 12f9 d23d dfdc 513e 1233 4a3e 7e65 0e3e

encBlocks.1.conv1.weight f4 [16, 16, 3, 3]
0.0113244075 0.07501684 -0.0020255428 0.054097947 -0.038330257 -0.045147188 -0.0565263 -0.06359057
-0.0552672 0.046395797 -0.04739009 -0.061047714 -0.029551413 0.09493408 -0.02090935 0.069052175
0.0077888197 0.08375707 -0.0587007 0.060608175 -0.08033922 0.04322418 -0.016574368 -0.054749556
-0.07979407 0.022355992 0.043881465 -0.07842366 0.055691984 0.024290683 0.0007022914 -0.0067459056
0.0757329 0.0053368583 -0.04610103 -0.03471617 0.06380408 0.02581589 -0.036492717 -0.024030289
-0.008906675 -0.072032005 0.053447857 0.064180635 0.0886082 0.0013772368 -0.07959073 0.004677834
0.023509555 -0.037618525 0.06725565 0.0015794021 -0.008336488 -0.0034602436 -0.04798991 0.072152995
0.025481116 -0.04000639 -0.049707554 -0.049589675 0.06669231 -0.06593313 -0.048690878 -0.06454085
-0.024144776 -0.05607255 -0.05792543 -0.011105011 0.020075142 -0.042430155 -0.005443024 -0.0025622514
-0.059050538 0.06312217 -0.00851236 0.057536162 -0.07078144 -0.0066041104 -0.051829882 -0.009818561
0.0077776625 0.06372145 0.01996082 -0.07441694 0.078090146 0.03572862 -0.034937304 0.028553432
-0.05137801 -0.035835646 -0.0050795227 0.0516523 -0.069897674 -0.03674528 -0.0046974556 0.07735054
-0.037088588 0.032253806 -0.065523386 0.03146914 -0.07757918 0.07666633 0.07998541 -0.084471054
0.051502187 -0.0058440934 -0.05402362 0.0012706179 0.054054383 0.053309355 0.022821428 -0.0016367558
0.025894053 -0.04028294 0.051156193 0.07298957 0.04396941 0.06699849 -0.0031088504 0.062357847
0.037873235 0.03905545 -0.025007393 0.07058584 0.013684657 0.03167182 0.049052466 0.06999426
-0.047729768 0.06719708 0.014590684 -0.062044144 -0.06262718 0.07446892 0.04357557 0.0059672827
0.05310153 -0.011867154 0.047216266 0.041514833 -0.07765089 -0.030843131 -0.08833864 0.018804433
0.06723995 0.06555197 -0.07318572 0.056741253 0.03528542 0.028511798 0.074078105 -0.038074616
-0.066861115 -0.025777003 -0.061847232 0.019584715 -0.043515906 0.076824635 0.03901833 0.011511636
-0.049072262 -0.07235017 -0.08151849 0.062609605 -0.047842402 -0.019910676 -0.056494996 -0.06802248
-0.0067229047 -0.03002178 0.08211668 -0.07750972 0.008839121 0.007166458 0.06296487 0.0638565
0.0059217964 0.00071913295 -0.00435667 0.007110214 -0.05532182 0.06184673 0.060263194 0.07765785
0.061991606 0.044118967 -0.05643318 -0.0009517186 0.012715714 0.042667363 0.053957332 0.07815878
-0.02035034 -0.02849852 -0.04938223 0.08089667 0.014401494 0.0047703953 0.048561573 -0.06434291
-0.07111973 0.05588729 -0.04162543 -0.06325703 0.015286249 -0.015187259 0.0089806635 -0.035455525
0.027970774 -0.044353753 0.013742295 0.031312723 0.048482373 -0.07271806 0.043349303 -0.015317025
0.03163263 -0.0036954423 0.057831936 0.04760691 0.010330536 -0.08878238 0.039429877 -0.052007478
0.077778615 -0.03745652 0.04359774 -0.059323806 0.058557376 -0.009242563 -0.03171557 -0.02112079
0.053981327 0.06717402 -0.06562917 0.006475361 0.06256323 0.054094944 -0.043693066 0.0011928807
-0.02588166 0.033417854 -0.06698534 -0.0014164748 -0.024147969 0.07156483 0.021690514 0.017054431
-0.027374579 0.010542837 0.053282324 0.013127775 0.01329624 0.03499158 0.022027599 0.011901361
00000000: 028a 393c 6ea2 993d f8be 04bb cf95 5d3d
00000010: 3000 1dbd 42ec 38bd 1f88 67bd c63b 82bd
00000020: dc5f 62bd 8509 3e3d 1c1c 42bd 2b0d 7abd
00000030: ce15 f2bc cd6c c23d 164a abbc 3a6b 8d3d
00000040: 5b39 ff3b d488 ab3d 2570 70bd 4740 783d
00000050: e488 a4bd d60b 313d f8c6 87bc 1241 60bd
00000060: 136b a3bd ea23 b73c 0dbd 333d 959c a0bd
00000070: 471d 643d 41fd c63c fa19 383a c20c ddbb
00000080: da19 9b3d d0e0 ae3b 6fd4 3cbd 8b32 0ebd
00000090: b7ab 823d d87b d33c 6379 15bd 2bdb c4bc
000000a0: 4ded 11bc 8485 93bd 24ec 5a3d 2371 833d
000000b0: 3778 b53d 6684 b43a 7700 a3bd 8448 993b
000000c0: 1c97 c03c e215 1abd 55bd 893d f103 cf3a
000000d0: c495 08bc 41c5 62bb 1191 44bd f3c4 933d
000000e0: c6bd d03c bedd 23bd 269a 4bbd 8b1e 4bbd
000000f0: fa95 883d f307 87bd 1670 47bd fe2d 84bd
00000100: 44cb c5bc 55ac 65bd 3743 6dbd cbf1 35bc
00000110: a074 a43c 3ecb 2dbd 655b b2bb 72eb 27bb
00000120: fade 71bd 3246 813d 6d77 0bbc 0aab 6b3d
00000130: dcf5 90bd 4b67 d8bb 924b 54bd 08de 20bc
00000140: c3db fe3b 6480 823d e084 a33c e967 98bd
00000150: baed 9f3d 2c58 123d 6b1a 0fbd e3e8 e93c
00000160: c071 52bd 66c8 12bd 2072 a6bb 5d91 533d
00000170: 8326 8fbd 3882 16bd 1ded 99bb f669 9e3d
00000180: 34ea 17bd 911c 043d 2031 86bd c9e5 003d
00000190: d5e1 9ebd 3d03 9d3d 64cf a33d 29ff acbd
000001a0: f5f3 523d cf7f bfbb df47 5dbd dd8a a63a
000001b0: 2168 5d3d e95a 5a3d 01f4 ba3c 6988 d6ba
000001c0: c41f d43c b9ff 24bd 2889 513d 8e7b 953d
000001d0: 4519 343d 8136 893d dbbd 4bbb f16a 7f3d
000001e0: f720 1b3d 9cf8 1f3d 4edc ccbc 4f8f 903d
000001f0: 9d35 603c 4fba 013d 3deb 483d 2759 8f3d
00000200: 4a80 43bd 9f9e 893d c40d 6f3c 0022 7ebd
00000210: ae42 80bd 2983 983d 4c7c 323d 3289 c33b
00000220: fd80 593d 746e 42bc d865 413d 750b 2a3d
00000230: 6e07 9fbd bcaa fcbc e4ea b4bd c10b 9a3c
00000240: 19b5 893d 1c40 863d 65e2 95bd 8469 683d
00000250: 7287 103d 9391 e93c 43b6 973d 21f4 1bbd
00000260: 7bee 88bd 4b2a d3bc 8653 7dbd 2070 a03c
00000270: bc3d 32bd 3c56 9d3d afd1 1f3d 4d9b 3c3c
00000280: ffff 48bd 532c 94bd 2bf3 a6bd 7739 803d
00000290: 65f6 43bd b71b a3bc 4c67 67bd 5f4f 8bbd
000002a0: d04b dcbb 3cf0 f5bc ca2c a83d 6bbd 9ebd
000002b0: f6d1 103c 9bd4 ea3b baf3 803d 32c7 823d
000002c0: a10b c23b 3284 3c3a 66c2 8ebb ccfc e83b
000002d0: 2299 62bd ff52 7d3d 8ad6 763d 140b 9f3d
000002e0: e9ea 7d3d 17b6 343d 7a26 67bd c17c 79ba
000002f0: 9255 503c f9c3 2e3d 5d02 5d3d b611 a03d
00000300: c2b5 a6bc ba75 e9bc 0545 4abd 27ad a53d
00000310: 3ef4 6b3c fa50 9c3b 80e8 463d 37c6 83bd
00000320: 39a7 91bd 12ea 643d 6d7f 2abd e78c 81bd
00000330: 2d73 7a3c fbd3 78bc a223 133c d039 11bd
00000340: f722 e53c 48ac 35bd 5d27 613c c541 003d
00000350: 7495 463d 35ed 94bd 0a8f 313d 42f4 7abc
00000360: 3791 013d 3c2f 72bb 2ee1 6c3d 77ff 423d
00000370: 6941 293c 89d3 b5bd 3981 213d cb05 55bd
00000380: 654a 9f3d 026c 19bd 8b93 323d 85fd 72bd
00000390: dcd9 6f3d 1e6e 17bc 2fe8 01bd 8205 adbc
000003a0: 861b 5d3d 8892 893d 9668 86bd 442f d43b
000003b0: 2721 803d a992 5d3d 80f7 32bd 6f5a 9c3a
000003c0: c605 d4bc 29e1 083d 9c2f 89bd 02a9 b9ba
000003d0: f6d1 c5bc 9590 923d 4eb0 b13c bcb5 8b3c
000003e0: a740 e0bc ddbb 2c3c 913e 5a3d e115 573c
000003f0: 79d8 593c 5553 0f3d 3973 b43c edfd 423c

encBlocks.1.conv1.bias f4 [16]
0.023700787 0.003832377 0.072513424 0.036182262 0.032982834 -0.02548756 -0.06431027 0.065850824
-0.056845073 -0.007106508 0.06353414 0.04849134 -0.051855505 -0.069748685 -0.022168744 -0.038048986
00000000: 2728 c23c 9e28 7b3b eb81 943d da33 143d
00000010: 0219 073d 4acb d0bc 1ab5 83bd ccdc 863d
00000020: 61d6 68bd b6dd e8bb 301e 823d db9e 463d
00000030: 7066 54bd 66d8 8ebd 3a9b b5bc 41d9 1bbd

encBlocks.1.conv2.weight f4 [16, 16, 3, 3]
0.033733923 -0.0035676667 -0.011898487 -0.059405103 0.0823696 -0.022497362 -0.076226085 -0.07904999
-0.014864897 -0.043018162 -0.05244511 0.02655545 0.045886494 -0.07876619 -0.0155244395 -0.021190645
-0.012253053 -0.06337298 0.036561776 0.020556007 -0.002843231 0.033628363 0.052338105 0.049374234
-0.034002475 0.015362838 -0.012493573 0.052124437 -0.031458244 -0.03244593 -0.026481204 0.06364112
-0.023193998 -0.017819436 0.050565243 -0.037298813 0.079969354 0.066913515 0.03748929 0.025454521
-0.015509798 0.05767479 0.015630545 -0.02571174 -0.02330566 0.073176295 -0.06796624 0.03365596
-0.028551878 0.003888743 -0.0111582875 0.012962576 0.014499724 -0.054930314 0.057301383 0.04947873
-0.059078425 -0.044230778 -0.0016991951 0.020213287 -0.06472354 -0.025008434 0.046763156 0.0040834853
-0.05062317 -0.00078328187 -0.024359481 0.018285843 0.032276325 0.040554505 0.08247913 0.0850893
0.07271313 -0.061103195 -0.026472451 0.028905032 -0.020144835 -0.09399469 -0.07695431 -0.06782861
0.014591262 0.06340584 -0.026882643 -0.0009028818 -0.018280335 -0.07226116 -0.054797266 0.0069844318
0.0573245 0.01940096 -0.0051028193 -0.031531435 0.07822049 -0.0799488 0.0017494739 0.04025112
0.010191493 -0.052248128 -0.001297973 0.007372119 0.04304821 0.009873347 -0.07816331 0.079519495
-0.033231057 0.04995175 0.05703539 0.0634825 -0.012565289 0.013429909 0.05461834 0.020279493
0.015374719 -0.054713972 -0.06246695 -0.029932713 0.06750124 0.04086246 -0.049094055 0.014847536
-0.07102854 0.039567586 0.0015081199 0.04391474 0.012251922 -0.021348476 0.046296936 -0.03747432
0.01595278 -0.012890409 -0.0034129256 -0.02967504 0.038038593 0.02730096 -0.03211479 -0.005125593
0.028407931 0.015083006 0.07341825 0.019980654 0.067394316 -0.020229466 -0.00030901306 -0.02580572
0.038841806 0.0023252177 -0.019556418 -0.0053211106 0.074012436 -0.07272797 -0.05259035 -0.03717171
-0.07516129 -0.025000656 0.056983132 0.083556764 -0.037255317 0.03138195 0.062727384 0.058199536
0.030303786 -0.049817197 -0.063991085 0.01696275 0.033468764 0.08418528 -0.01626555 0.0008957215
0.018892543 0.02835698 -0.03748106 0.020265033 -0.0030713028 -0.073138125 0.06769476 -0.021399152
0.009373829 0.021845067 -0.010440191 -0.025075164 -0.057439342 -0.026414813 -0.011142712 0.049422476
-0.0077482127 0.0075773075 0.0023835022 -0.03763729 -0.06808064 0.07444578 0.079739004 0.03039061
0.055697978 -0.030176962 -0.019154154 0.024027225 0.08009775 -0.056843862 0.05317132 -0.08162989
-0.022788156 0.042343244 -0.04612408 -0.010830795 -0.031590495 -0.059678264 -0.015032492 -0.010235196
0.04904208 -0.013011591 -0.010145842 -0.0547556 -0.022391157 0.0075180433 0.042894725 0.07652419
0.08125945 -0.026495785 -0.061063834 -0.013507741 -0.0683523 0.0038489404 0.07541449 0.07437976
-0.030928837 -0.019881207 -0.009290064 0.056983285 -0.029186537 -0.07800567 -0.05547871 -0.040080212
-0.08135252 -0.02352769 0.0042202533 -0.045030974 -0.03446724 0.06533168 0.060975228 -0.07814804
0.04544182 -0.028775012 0.046051852 0.0054164827 0.042393822 0.06096559 -0.038498666 0.014237921
0.048337128 -0.0375296 -0.08155773 -0.009559111 0.0441532 0.056754004 0.010003963 -0.06506859
00000000: 952c 0a3d 84cf 69bb dff1 42bc c452 73bd
00000010: 65b1 a83d 634c b8bc 6c1c 9cbd f6e4 a1bd
00000020: e68b 73bc d033 30bd afd0 56bd d18a d93c
00000030: 7af3 3b3d 2b50 a1bd 385a 7ebc 0198 adbc
00000040: 07c1 48bc b1c9 81bd cdc1 153d 1265 a83c
00000050: 8055 3abb e5bd 093d 7b60 563d a33c 4a3d
00000060: 2e46 0bbd 6ab4 7b3c d8b1 4cbc 6f80 553d
00000070: 5cda 00bd 06e6 04bd 1cef d8bc 4756 823d
00000080: 5701 bebc 11fa 91bc 801d 4f3d a4c6 18bd
00000090: f9c6 a33d f409 893d 5f8e 193d 0086 d03c
000000a0: cf1c 7ebc 673c 6c3d a10b 803c 6da1 d2bc
000000b0: 83eb bebc 74dd 953d e231 8bbd d5da 093d
000000c0: a1e5 e9bc 48da 7e3b 40d1 36bc fc60 543c
000000d0: 4090 6d3c 9cfe 60bd dbb4 6a3d 35aa 4a3d
000000e0: 38fc 71bd 552b 35bd 87b7 deba 5696 a53c
000000f0: c68d 84bd 7dde ccbc b98a 3f3d c2ce 853b
00000100: 3e5a 4fbd 2855 4dba 898d c7bc 31cc 953c
00000110: 2e34 043d 7b1c 263d d1ea a83d 4d43 ae3d
00000120: 9fea 943d 5847 7abd c1dc d8bc 3fca ec3c
00000130: c806 a5bc 4a80 c0bd 399a 9dbd bae9 8abd
00000140: 3010 6f3c ecda 813d fd38 dcbc 5faf 6cba
00000150: a4c0 95bc a9fd 93bd 1973 60bd a9dd e43b
00000160: 18cd 6a3d c3ee 9e3c 8d35 a7bb 1b27 01bd
00000170: 1032 a03d 32bc a3bd 9a4e e53a 5cde 243d
00000180: 38fa 263c 2202 56bd bf20 aaba d191 f13b
00000190: 5253 303d d2c3 213c 1614 a0bd 1edb a23d
000001a0: 4a1d 08bd 359a 4c3d f19d 693d 1d03 823d
000001b0: a4de 4dbc 1f09 5c3c 7bb7 5f3d 2e21 a63c
000001c0: 3fe6 7b3c c21b 60bd 58dd 7fbd 7335 f5bc
000001d0: 173e 8a3d 655f 273d d916 49bd 1443 733c
000001e0: 6977 91bd 9f11 223d 1bac c53a f1df 333d
000001f0: 49bc 483c 00e3 aebc dba1 3d3d ac7e 19bd
00000200: 68af 823c 4b32 53bc 64ab 5fbb 1219 f3bc
00000210: 5bce 1b3d 43a6 df3c cc8a 03bd 97f4 a7bb
00000220: c0b7 e83c b61e 773c 4f5c 963d 78ae a33c
00000230: 0806 8a3d 44b8 a5bc 0803 a2b9 8466 d3bc
00000240: 9618 1f3d ae62 183b c834 a0bc b65c aebb
00000250: d593 973d 67f2 94bd fb68 57bd 5d41 18bd
00000260: 2aee 99bd 2dce ccbc 2567 693d cf1f ab3d
00000270: 0899 18bd 5c8a 003d 3777 803d a362 6e3d
00000280: a53f f83c 1e0d 4cbd c20d 83bd 77f5 8a3c
00000290: 8b16 093d 5569 ac3d 553f 85bc dace 6a3a
000002a0: 89c4 9a3c e64c e83c bd85 19bd db02 a63c
000002b0: e947 49bb 71c9 95bd 8da3 8a3d 464d afbc
000002c0: b094 193c 6df4 b23c 560d 2bbc 6e6a cdbc
000002d0: 8445 6bbd e163 d8bc ec8f 36bc 396f 4a3d
000002e0: b8e4 fdbb 104b f83b 8834 1c3b 8f29 1abd
000002f0: dd6d 8bbd 0777 983d 344e a33d bbf5 f83c
00000300: 9023 643d ad35 f7bc 2ce9 9cbc bed4 c43c
00000310: 4a0a a43d 1cd5 68bd 2cca 593d 922d a7bd
00000320: 3aae babc 1c70 2d3d 9aec 3cbd a673 31bc
00000330: 0965 01bd 3271 74bd d74a 76bc 86b1 27bc
00000340: 59e0 483d 912e 55bc bf3a 26bc 6847 60bd
00000350: a96d b7bc eb59 f63b 61b2 2f3d b7b8 9c3d
00000360: 5b6b a63d b00d d9bc 121e 7abd 924f 5dbc
00000370: 4afc 8bbd 813e 7c3b ea72 9a3d 6a54 983d
00000380: 795e fdbc eadd a2bc 5a35 18bc 4e67 693d
00000390: 9b18 efbc 70c1 9fbd a53d 63bd 262b 24bd
000003a0: 269c a6bd 24bd c0bc 0d4a 8a3b 6672 38bd
000003b0: 852d 0dbd 9ecc 853d 29c1 793d 140c a0bd
000003c0: 3421 3a3d 93b9 ebbc dea0 3c3d c07c b13b
000003d0: 25a5 2d3d 0eb7 793d c7b0 1dbd 2b46 693c
000003e0: 27fd 453d a3b8 19bd bd07 a7bd d19d 1cbc
000003f0: fcd9 343d e376 683d a9e7 233c ae42 85bd

encBlocks.1.conv2.bias f4 [16]
0.059298966 -0.02688652 0.011227573 -0.07732889 -0.035116702 -0.014821549 -0.022042772 -0.0075596254
-0.07593786 -0.009434549 0.0750161 0.0023814044 -0.015230189 0.05573581 0.057563733 0.053421773
00000000: 79e3 723d 1f41 dcbc dbf3 373c 9c5e 9ebd
00000010: 88d6 0fbd 15d6 72bc 0b93 b4bc bcb6 f7bb
00000020: 4f85 9bbd 5e93 1abc 0ba2 993d 5611 1c3b
00000030: 0b88 79bc 3c4b 643d f3c7 6b3d cad0 5a3d

encBlocks.1.BN1.weight f4 [16]
1.0254929 1.0237616 0.98426664 1.0019948 0.9831422 1.0050421 0.9779751 0.9807025
1.0130086 1.0087591 1.0092239 1.0015556 0.9800131 1.0048168 1.0240128 0.9828286
00000000: 5a43 833f 9f0a 833f e6f8 7b3f 5e41 803f
00000010: 35af 7b3f 38a5 803f 935c 7a3f 520f 7b3f
00000020: 44aa 813f 051f 813f 402e 813f f932 803f
00000030: 23e2 7a3f d69d 803f da12 833f a89a 7b3f

encBlocks.1.BN1.bias f4 [16]
0.01003959 -0.006742847 -0.014797384 -0.0051935846 -0.009494285 -0.012960569 -0.018951923 -0.019390754
-0.005254375 -0.010589547 -0.01278093 -0.0021105492 -0.019425118 -0.0059464215 0.007947197 -0.018497158
00000000: 187d 243c 1af3 dcbb ba70 72bc f22e aabb
00000010: eb8d 1bbc 9158 54bc 1041 9bbc 5cd9 9ebc
00000020: e42c acbb c87f 2dbc 1b67 51bc 2451 0abb
00000030: 6d21 9fbc 33da c2bb f634 023c 5a87 97bc

encBlocks.1.BN1.running_mean f4 [16]
0.23192284 0.22340609 -0.74559015 0.6647721 -0.38644025 -0.05441958 -0.91368955 -0.8286492
0.19259667 -0.18149476 0.356103 0.16181447 -1.537928 0.25117868 0.28834176 -0.8946453
00000000: 2e7d 6d3e 91c4 643e ffde 3ebf 812e 2a3f
00000010: 7fdb c5be 11e7 5ebd 8fe7 69bf 5b22 54bf
00000020: 1038 453e c3d9 39be 2253 b63e b1b2 253e
00000030: d3da c4bf 7e9a 803e 88a1 933e 7907 65bf

encBlocks.1.BN1.running_var f4 [16]
0.35126305 0.36690852 2.4390333 1.4060199 1.4648921 0.31116533 1.1104903 1.7511754
1.0272617 0.32121417 0.5620426 1.2031962 3.3781242 0.62660116 0.34736544 2.0461597
00000000: c0d8 b33e 6fdb bb3e 1f19 1c40 76f8 b33f
00000010: 9681 bb3f 1051 9f3e 8c24 8e3f 8426 e03f
00000020: 507d 833f 2f76 a43e 06e2 0f3f 5502 9a3f
00000030: 3033 5840 ef68 203f e2d9 b13e 48f4 0240

encBlocks.1.BN2.weight f4 [16]
0.9882375 1.0019525 0.99921346 0.99474066 1.0095298 0.99386775 1.0076135 1.0009392
0.9971409 1.0054498 0.9963172 0.9967969 1.0246513 0.98398435 1.009535 0.9935603
00000000: 22fd 7c3f fb3f 803f 74cc 7f3f 53a7 7e3f
00000010: 4638 813f 1e6e 7e3f 7bf9 803f c71e 803f
00000020: a044 7f3f 94b2 803f a50e 7f3f 152e 7f3f
00000030: c627 833f 66e6 7b3f 7138 813f f859 7e3f

encBlocks.1.BN2.bias f4 [16]
-0.03088229 -0.0035391373 0.015979147 -0.01980665 -0.021997254 0.00393188 -0.010287824 0.01462812
-0.014649203 0.014318681 0.0050388984 -0.01835507 0.011471282 -0.005649544 -0.00057480787 0.0028472105
00000000: dbfc fcbc dff0 67bb b3e6 823c 8e41 a2bc
00000010: 9633 b4bc 00d7 803b 438e 28bc c8aa 6f3c
00000020: 3603 70bc e798 6a3c 581d a53b 5f5d 96bc
00000030: 0bf2 3b3c cf1f b9bb b4ae 16ba 4498 3a3b

encBlocks.1.BN2.running_mean f4 [16]
0.14019608 -0.047095537 0.29978457 -0.07964303 0.4553969 0.19548145 -0.0047566006 0.034885816
0.38169664 0.16649812 -0.07835741 -0.1718029 0.03808519 -0.5549881 0.3495068 -0.042062774
00000000: 908f 0f3e 40e7 40bd 5d7d 993e e31b a3bd
00000010: c829 e93e 4a2c 483e 42dd 9bbb 6ee4 0e3d
00000020: be6d c33e 7c7e 2a3e da79 a0bd 19ed 2fbe
00000030: 37ff 1b3d b313 0ebf 8ef2 b23e 044a 2cbd

encBlocks.1.BN2.running_var f4 [16]
0.5097514 0.10833956 0.21719746 0.072150536 0.2134985 0.20908284 0.08755002 0.2281659
0.51810616 0.13556744 0.2996679 0.10093962 0.09288358 0.42979807 0.13909528 0.3415528
00000000: 117f 023f 22e1 dd3d 0369 5e3e a9c3 933d
00000010: 5a9f 5a3e d019 563e 6d4d b33d 52a4 693e
00000020: 9ba2 043f 31d2 0a3e 126e 993e 6eb9 ce3d
00000030: bf39 be3d 7e0e dc3e fe6e 0e3e 02e0 ae3e

encBlocks.2.conv1.weight f4 [1, 16, 3, 3]
0.071346186 0.002021261 -0.074224494 0.04102592 -0.036292445 -0.05982 0.04798603 0.0705647
-0.036604512 -0.07206262 -0.018309463 0.052397527 -0.01964542 -0.015086706 -0.044603392 0.07093747
-0.03912631 -0.03860972 0.029306026 -0.064129695 0.06935132 0.027463391 0.04908426 -0.00073324575
-0.004521588 -0.032887552 0.015718022 0.06187356 -0.06357796 -0.057666663 0.05669121 0.03653983
-0.0075826216 -0.08009303 0.074523985 -0.022373948 0.034960374 0.07731619 -0.037636742 0.004652362
0.02886768 0.07361423 -0.050889432 0.090753816 0.031834383 -0.018835902 0.061086066 0.07753939
-0.05305365 0.059846517 0.05712297 0.002856312 -0.07446658 -0.06758551 0.024972007 0.06640898
0.047148447 0.07002706 -0.05014214 -0.066963814 -0.07986084 0.05569374 0.072772145 -0.05942637
0.072474316 0.06046643 0.05792684 -0.0019615872 -0.062996894 -0.047531404 -0.07274961 -0.0740407
0.048471462 0.028397143 0.021180509 0.050391197 -0.036469594 0.053521432 0.0068687354 0.041330643
-0.011471146 -0.06357555 0.0367211 -0.0052259676 0.034221224 0.003020624 -0.04274558 -0.06870348
0.07317528 -0.034504984 -0.013854048 0.006869498 0.019714482 -0.0789718 0.06133598 -0.017230902
-0.078927934 -0.01082755 -0.07477781 0.011866576 0.058386985 0.03205768 -0.07312332 -0.010550224
-0.014490043 0.07624445 -0.02056963 0.015464696 -0.07783943 0.04781158 -0.039301887 0.043997597
-0.0035636388 0.005387108 0.011176927 0.007040877 0.036884002 -0.062842615 0.05117831 0.04353431
0.0114555415 0.032917354 -0.010830782 -0.029714257 -0.06412515 -0.053933997 -0.018801747 0.0450714
-0.0054443013 0.057923466 -0.07612134 0.016571986 0.0290343 -0.018838834 0.05049692 -0.08913739
0.012566508 -0.015360199 0.03831877 -0.03864062 -0.06254849 0.062126227 -0.068575725 -0.0688337
00000000: f31d 923d 2277 043b 0303 98bd cc0a 283d
00000010: 63a7 14bd d105 75bd 008d 443d 3a84 903d
00000020: 9dee 15bd 9195 93bd bafd 95bc ca9e 563d
00000030: 6fef a0bc 3b2e 77bc 0cb2 36bd aa47 913d
00000040: e942 20bd 3a25 1ebd 3113 f03c 6e56 83bd
00000050: 1108 8e3d e8fa e03c 940c 493d 4a37 40ba
00000060: d429 94bb 19b5 06bd 15c3 803c 216f 7d3d
00000070: 2935 82bd e133 6cbd 0b35 683d caaa 153d
00000080: a477 f8bb d107 a4bd 08a0 983d 9249 b7bc
00000090: 9c32 0f3d f357 9e3d fc28 1abd d772 983b
000000a0: ea7b ec3c 0fc3 963d 7071 50bd 23dd b93d
000000b0: c564 023d c04d 9abc 6235 7a3d f9cc 9e3d
000000c0: c94e 59bd 9f21 753d c7f9 693d f730 3b3b
000000d0: ef81 98bd 466a 8abd 1892 cc3c 6e01 883d
000000e0: bb1e 413d 596a 8f3d d861 4dbd 5324 89bd
000000f0: 158e a3bd 1e1f 643d 9009 953d 1169 73bd
00000100: 6a6d 943d a6ab 773d b244 6d3d f98d 00bb
00000110: 8404 81bd 4ab0 42bd bffd 94bd a7a2 97bd
00000120: 038a 463d 20a1 e83c bf82 ad3c 0067 4e3d
00000130: 2461 15bd 4a39 5b3d 2113 e13b 524a 293d
00000140: 79f1 3bbc e633 82bd dd68 163d 983e abbb
00000150: 8e2b 0c3d a9f5 453b fd15 2fbd 69b4 8cbd
00000160: ecdc 953d 1955 0dbd 17fc 62bc 8719 e13b
00000170: 4480 a13c f8bb a1bd 703b 7b3d d227 8dbc
00000180: f8a4 a1bd 0966 31bc 1c25 99bd 076c 423c
00000190: 3127 6f3d ea4e 033d aec1 95bd d9da 2cbc
000001a0: a567 6dbc 0d26 9c3d a481 a8bc a35f 7d3c
000001b0: 476a 9fbd 13d6 433d 04fb 20bd d336 343d
000001c0: f08b 69bb 5686 b03b 6e1f 373c 28b7 e63b
000001d0: ae13 173d a1b3 80bd 59a0 513d 0851 323d
000001e0: 06b0 3b3c 59d4 063d 9873 31bc 506b f3bc
000001f0: 0c54 83bd e5e9 5cbd 1f06 9abc ca9c 383d
00000200: 1c66 b2bb 2841 6d3d 81e5 9bbd f9c1 873c
00000210: 57d9 ed3c e653 9abc dcd5 4e3d aa8d b6bd
00000220: c1e3 4d3c 58a9 7bbc 24f4 1c3d a045 1ebd
00000230: 6c19 80bd 1278 7e3d 6e71 8cbd aff8 8cbd

encBlocks.2.conv2.weight f4 [1, 1, 3, 3]
-0.17966129 0.065086246 -0.20644331 0.30514824 -0.24811506 0.122042574 -0.12841277 0.120037936
-0.11027106
00000000: 21f9 37be f04b 853d e065 53be 643c 9c3e
00000010: e011 7ebe 75f1 f93d a37e 03be 73d6 f53d
00000020: cbd5 e1bd
