Model_params/test_15_macro_epoch_5.pt (torch, 320551 bytes, 26 tensors)

encBlocks.0.conv1.weight f4 [16, 3, 15, 15]
0.023097126 -0.03331522 -0.041551374 0.021977559 -0.01342386 0.0040089637 -0.012401285 0.007546104
0.023190895 -0.02771988 0.008332398 -0.040735558 -0.018673608 -0.034245253 -0.002196316 0.017054709
-0.022045476 -0.006830424 -0.039848372 -0.03548679 0.002756084 -0.027192619 -0.03855071 -0.019876579
-0.012042795 -0.014614292 -0.024497554 -0.024189185 0.015690558 -0.024540188 0.018048283 -0.018509632
-0.0125516215 0.021632431 -0.039090738 -0.0049853995 0.0043678437 -0.015595941 -0.035978206 -0.035247345
-0.040487774 0.016187334 0.0247393 -0.025678398 -0.037455946 -0.005399278 -0.013726797 0.0052250163
0.010291168 -0.03731176 0.013511588 0.02352089 0.007765389 -0.00894745 -0.025842516 0.011786218
-0.010362244 -0.0023184684 0.022869345 0.031638745 -0.00964195 0.018669205 0.01774678 -0.0048618177
-0.019154947 0.018356597 -0.015477678 -0.039923735 -0.03484824 -0.035473272 -0.0066967634 -0.03879897
-0.041417923 -0.025951503 0.013917131 -0.015736338 -0.03131888 0.002512197 -0.018984515 0.031999968
-0.0023865383 0.010863611 -0.013007423 -0.014483733 -0.014957159 -0.006000305 -0.030249316 -0.0013294413
0.021119688 0.02688689 -0.0073781363 0.02428812 -0.042071007 0.012558982 -0.04254005 -0.026086641
-0.035114266 -0.018276291 0.031554643 0.01988371 -0.030609699 -0.03598998 0.027263435 0.010269397
0.029509451 -0.0161839 0.0270926 -0.036710106 0.013437909 -0.00432392 -0.015004752 0.028580923
-0.02573652 -0.023086075 -0.03832088 0.009887052 -0.01390507 -0.0028087054 -0.01991087 0.0026952394
0.0063770283 -0.008183486 -0.010560981 0.011211059 -0.029726746 -0.0018190489 0.0049958145 0.014394129
0.01742899 0.006538021 0.031821884 0.011866093 0.008039075 0.031214198 0.02741257 -0.027133092
-0.03245776 -0.034960296 0.004988239 0.02532767 -0.027903968 -0.029338613 -0.015814885 0.02198027
0.016868409 -0.034831952 0.026045747 -0.029347653 -0.03504846 -0.006808473 0.013177442 0.0035726351
0.0174685 -0.03301442 -0.03186789 0.02560545 0.018687166 -0.022325762 -0.04184879 0.00090404507
0.023301495 -0.022023603 0.0006001747 -0.014229643 -0.017471708 -0.032332253 -0.020516807 -0.04068687
-0.027752372 0.00063941814 -0.031521697 0.003995399 -0.028820533 -0.018328594 -0.0013675038 0.018077178
0.01515273 0.0039077667 -0.017602926 0.008687344 0.02230901 -0.028259883 0.0102447765 -0.036629796
-0.011871812 0.0006196322 0.018769693 -0.014828216 0.0063565015 0.022164784 -0.022897825 -0.041932195
-0.038936574 0.022876749 -0.018925317 -0.03581413 0.0040732906 0.017793199 -0.01683497 -0.005371271
0.022039108 -0.034058683 -0.009486601 -0.006923457 0.027061665 -0.0041135107 -0.03396863 -0.002209756
0.022958558 0.012175876 0.03118201 -0.019381313 0.006363579 0.0207472 -0.009733227 0.008208778
0.020117406 -0.018314617 -0.021867927 -0.04375157 0.026084498 0.02080018 -0.018293988 0.008668458
-0.021328613 -0.027546357 -0.020370938 -0.0056361854 0.0006276558 0.024694657 0.011501766 -0.031655457
-0.007910548 -0.0017623287 -0.016970461 -0.020580033 -0.029177347 0.0006463145 -0.0112181585 -0.030265637
0.02277617 -0.0057131266 -0.044152286 -0.04530812 0.010094795 0.020494279 0.0037452944 0.029745113
-0.03269528 -0.017380027 0.00050651573 -0.016942386 0.037485868 -0.020931862 0.021229528 0.0032537999
00000000: 2f36 bd3c 8a75 08bd c631 2abd 480a b43c
00000010: c0ef 5bbc a05d 833b c22e 4bbc 4f45 f73b
00000020: d5fa bd3c cd14 e3bc 9c84 083c 54da 26bd
00000030: 65f9 98bc c044 0cbd 11f0 0fbb 51b6 8b3c
00000040: b798 b4bc c0d1 dfbb 0c38 23bd 995a 11bd
00000050: 6b9f 343b 0ec3 debc 59e7 1dbd 35d4 a2bc
00000060: 254f 45bc c970 6fbc 18af c8bc 6628 c6bc
00000070: 7c89 803c 8108 c9bc fed9 933c 83a1 97bc
00000080: 51a5 4dbc 7f36 b13c 9c1d 20bd 905c a3bb
00000090: 2120 8f3b 1e86 7fbc e25d 13bd 855f 10bd
000000a0: 82d6 25bd 4d9b 843c 13aa ca3c 815b d2bc
000000b0: 686b 19bd 6dec b0bb 5ce6 60bc 9d36 ab3b
000000c0: 499c 283c 37d4 18bd b55f 5d3c e2ae c03c
000000d0: ce74 fe3b 5398 12bc afb3 d3bc fb1a 413c
000000e0: 67c6 29bc 72f1 17bb 7e58 bb3c a197 013d
000000f0: 45f9 1dbc 29f0 983c b261 913c e24f 9fbb
00000100: d6ea 9cbc 9360 963c 1696 7dbc 1287 23bd
00000110: 07bd 0ebd 6c4c 11bd 8670 dbbb abeb 1ebd
00000120: d7a5 29bd 3f98 d4bc ae04 643c 7ee9 80bc
00000130: 3a48 00bd aca3 243b 6a85 9bbc 6612 033d
00000140: 7867 1cbb 49fd 313c 161d 55bc 2e4d 6dbc
00000150: df0e 75bc 359e c4bb 6acd f7bc a640 aeba
00000160: 3203 ad3c e541 dc3c 4bc4 f1bb e1f7 c63c
00000170: a652 2cbd 30c4 4d3c 7a3e 2ebd a7b3 d5bc
00000180: fad3 0fbd 29b8 95bc 713f 013d 2ae3 a23c
00000190: 31c1 fabc 3b6a 13bd 9157 df3c f940 283c
000001a0: cebd f13c 1994 84bc 4df1 dd3c 565d 16bd
000001b0: ad2a 5c3c abaf 8dbb 7ed6 75bc 8a22 ea3c
000001c0: 65d5 d2bc 021f bdbc 5bf6 1cbd 4dfd 213c
000001d0: 17d2 63bc 4212 38bb 1f1c a3bc 9da2 303b
000001e0: 64f6 d03b 0714 06bc f707 2dbc 97ae 373c
000001f0: 8185 f3bc 276d eeba eeb3 a33b 5ad5 6b3c
00000200: 3ec7 8e3c e53c d63b aa57 023d 006a 423c
00000210: 53b6 033c ebb4 ff3c 5390 e03c 3846 debc
00000220: 6ef2 04bd 8732 0fbd 6274 a33b f97b cf3c
00000230: dd96 e4bc 8857 f0bc 388e 81bc f80f b43c
00000240: 9e2f 8a3c f3ab 0ebd e45d d53c 7d6a f0bc
00000250: f98e 0fbd 9c19 dfbb 33e6 573c df22 6a3b
00000260: 1a1a 8f3c 213a 07bd e887 02bd 85c2 d13c
00000270: d415 993c 84e4 b6bc a369 2bbd 70fd 6c3a
00000280: c7e2 be3c d86a b4bc 0b55 1d3a 7323 69bc
00000290: d420 8fbc d36e 04bd dd12 a8bc 47a7 26bd
000002a0: f158 e3bc a09e 273a e51c 01bd d6eb 823b
000002b0: 0a19 ecbc d925 96bc d03d b3ba 9716 943c
000002c0: 2843 783c b90c 803b 0334 90bc 5d55 0e3c
000002d0: 63c1 b63c 4581 e7bc b5d9 273c 2009 16bd
000002e0: fd81 42bc d06e 223a e6c2 993c 0cf2 72bc
000002f0: 334a d03b ec92 b53c 3894 bbbc 18c1 2bbd
00000300: f57b 1fbd 0568 bb3c 4409 9bbc d6b1 12bd
00000310: 3d79 853b 0bc3 913c 7ee9 89bc 7d01 b0bb
00000320: 5c8b b43c 1e81 0bbd b06d 1bbc 2bde e2bb
00000330: 6db0 dd3c a1ca 86bb b122 0bbd 8ed1 10bb
00000340: 9613 bc3c 537d 473c 6a71 ff3c 8fc5 9ebc
00000350: 9285 d03b 08f6 a93c 1d78 1fbc 1c7e 063c
00000360: 42cd a43c 8908 96bc 5e24 b3bc d934 33bd
00000370: 28af d53c 2465 aa3c 46dd 95bc 2606 0e3c
00000380: 58b9 aebc e6a8 e1bc f4e0 a6bc c0af b8bb
00000390: 4589 243a 734c ca3c e771 3c3c 27a9 01bd
000003a0: 3e9b 01bc f0fd e6ba a305 8bbc 7597 a8bc
000003b0: 5505 efbc 6f6d 293a 5ecc 37bc a4ef f7bc
000003c0: 1795 ba3c 2e35 bbbb 07d9 34bd 0295 39bd
000003d0: a464 253c 9ee3 a73c 9d73 753b 06ac f33c
000003e0: 7ceb 05bd 8f60 8ebc b2c7 043a c2ca 8abc
000003f0: c88a 193d 4c79 abbc 8ce9 ad3c b43d 553b

encBlocks.0.conv1.bias f4 [16]
0.021706238 0.032424156 -0.013594321 0.016062526 0.010571554 -0.011187585 0.0032137192 -0.03999727
0.018448843 -0.016689751 0.0041562067 0.00716095 -0.033547364 0.027311843 -0.009216274 0.017861696
00000000: 48d1 b13c 31cf 043d b7ba 5ebc 8f95 833c
00000010: 5034 2d3c 224c 37bc 439d 523b 2dd4 23bd
00000020: 0722 973c f2b8 88bc ca30 883b 67a6 ea3b
00000030: f668 09bd 16bd df3c dbff 16bc b152 923c

encBlocks.0.conv2.weight f4 [16, 16, 3, 3]
-0.0785858 -0.0073356563 0.044274047 0.021456867 0.003939532 -0.028296912 -0.052097764 0.0025821994
-0.04815973 0.031366512 0.028673481 -0.029809842 -0.04546659 0.008155492 0.05719939 0.07312601
-0.0094372975 0.013556479 -0.07794753 0.08670963 -0.062193166 -0.057336763 0.078807004 -0.050531298
0.07176677 0.025953216 -0.0060880883 0.0124865575 -0.08243664 0.052725457 0.029238686 -0.073826306
0.014813853 -0.055445917 -0.024959132 -0.04009808 0.034233835 0.006371334 0.062911615 -0.090801075
0.048770092 -0.08910602 0.0137867285 0.045274958 -0.0712381 0.05699999 0.026604047 -0.0118251005
-0.06409734 0.0033469654 0.01928128 -0.015438807 0.03314123 0.02788135 0.08765527 0.016639141
0.077200055 -0.042324543 0.07841682 -0.019311149 -0.00686293 -0.05066619 0.06585511 0.047884837
-0.074115686 0.0021581538 -0.054173004 0.040779617 0.078948945 0.050442044 0.058835626 0.018169813
0.0031879186 -0.0028406014 -0.049797393 0.026504124 0.07479862 0.008894709 0.054787476 0.005283502
-0.070041075 0.0037505503 -0.029251397 0.06285203 -0.03941989 0.013341828 0.012223551 0.07657829
-0.066549055 -0.027608786 0.03453661 -0.01750165 0.0525288 0.02782079 0.048591528 0.042841136
-0.026913503 -0.03505626 -0.027198927 -0.025237946 0.036203463 -0.07857739 0.04896828 0.023394637
-0.062180735 0.03243784 -0.057038866 -0.023148838 -0.031637385 0.069860935 0.027588954 -0.0045967586
-0.06542836 -0.0005899557 0.057481334 -0.076968424 0.0046005766 -0.037510887 -0.04186008 0.07135224
-0.041403253 -0.005526794 0.04501921 0.08485437 -0.06903873 0.02501943 -0.009566717 0.056206908
0.02622424 0.059039652 -0.07163479 -0.044925313 0.021781443 -0.010278048 -0.03558058 0.031736013
0.039176147 0.041708402 -0.039434902 0.06946932 -0.02943221 0.02855558 0.08219686 0.039081383
0.041964106 0.0115956245 0.06370554 -0.023324031 0.06194514 0.039452028 0.04987088 0.07741576
0.041305546 0.023810694 0.022763938 -0.06598511 0.07849324 -0.031319197 0.08203736 0.026456151
-0.07088337 0.059844192 0.076836154 -0.0689413 0.0019829012 0.0644159 -0.006264166 0.0058738715
-0.00074315444 0.04932915 -0.022928147 0.0024388935 0.038215127 -0.056784082 0.041340806 0.018914677
0.009437699 0.036120616 -0.040416487 0.008238189 -0.07574971 0.057114724 0.009665834 -0.0057353135
-0.042916287 0.018969255 0.0066256146 -0.035070375 0.0043662544 -0.02188449 -0.021764675 0.021924961
-0.0020344988 0.06789376 0.07612891 -0.046387352 -0.06694323 -0.06944249 -0.054218046 -0.074750036
-0.0023933821 -0.07516977 -0.034773815 0.033472884 -0.08826248 -0.063673936 -0.070942104 0.029959114
-0.058665935 -0.008651451 -0.01401947 0.04944477 -0.042761263 0.014270377 -0.07327841 0.024326857
-0.05487944 0.06802141 0.071909785 -0.005090824 -0.010314357 -0.048622575 0.055639535 0.026141597
-0.06488585 0.060340866 -0.05793751 -0.004358974 -0.0055320603 0.056035392 -0.0244506 -0.06961366
-0.07329224 0.016218742 0.046620987 -0.072334 -0.069156006 0.05643761 -0.030680863 -0.08617301
-0.024658456 0.061854534 0.026885556 0.024315787 -0.06986611 0.055734143 0.053550653 0.033983786
-0.018929427 0.0076813586 0.010897614 0.034690388 0.003389495 0.02164245 0.020910252 -0.045823537
00000000: 98f1 a0bd f25f f0bb b458 353d 50c6 af3c
00000010: 3117 813b edce e7bc 7764 55bd 1e3a 293b
00000020: 2343 45bd 2c7a 003d a6e4 ea3c c533 f4bc
00000030: 2d3b 3abd 9d9e 053c e849 6a3d 17c3 953d
00000040: e59e 1abc fe1b 5e3c f4a2 9fbd d294 b13d
00000050: 43be 7ebd f4d9 6abd 9165 a13d e8f9 4ebd
00000060: 75fa 923d d79b d43c 967e c7bb 6b94 4c3c
00000070: 8bd4 a8bd a6f6 573d f885 ef3c 3f32 97bd
00000080: ceb5 723c 421b 63bd 1877 ccbc e23d 24bd
00000090: c738 0c3d a0c6 d03b ced7 803d eaf5 b9bd
000000a0: 26c3 473d 387d b6bd bbe1 613c 3c72 393d
000000b0: 48e5 91bd d278 693d bbf0 d93c 11be 41bc
000000c0: 7745 83bd c358 5b3b c6f3 9d3c 0df3 7cbc
000000d0: 19bf 073d 6e67 e43c 9b84 b33d cf4e 883c
000000e0: 101b 9e3d 805c 2dbd ff98 a03d 6a32 9ebc
000000f0: 6ee2 e0bb 5a87 4fbd 0bdf 863d e422 443d
00000100: f7c9 97bd d06f 0d3b 83e4 5dbd 8708 273d
00000110: fcaf a13d 519c 4e3d a0fd 703d dcd8 943c
00000120: 66ec 503b 6229 3abb 5af8 4bbd 2d1f d93c
00000130: 0530 993d 1dbb 113c d568 603d 3a21 ad3b
00000140: b271 8fbd cbcb 753b a0a0 efbc 91b8 803d
00000150: c076 21bd af97 5a3c 4a45 483c 14d5 9c3d
00000160: df4a 88bd d22b e2bc 4376 0d3d 9f5f 8fbc
00000170: 7028 573d 6de8 e33c e907 473d 307a 2f3d
00000180: b579 dcbc 2797 0fbd 49d0 debc cfbf cebc
00000190: 154a 143d 2fed a0bd f792 483d 1ca6 bf3c
000001a0: 3ab1 7ebd 8add 043d 96a1 69bd a2a2 bdbc
000001b0: 3496 01bd 4013 8f3d 3b02 e23c 68a0 96bb
000001c0: 4eff 85bd 42a7 1aba 8c71 6b3d 9fa1 9dbd
000001d0: 6fc0 963b 04a5 19bd 7a75 2bbd 2021 923d
000001e0: 7596 29bd 1c1a b5bb 1066 383d 21c8 ad3d
000001f0: 2d64 8dbd 8cf5 cc3c b8bd 1cbc 3739 663d
00000200: 38d4 d63c 90d3 713d 43b5 92bd 9b03 38bd
00000210: ff6e b23c 4265 28bc f1bc 11bd 9ffd 013d
00000220: 2b77 203d 6ed6 2a3d 7e86 21bd ee45 8e3d
00000230: d11b f1bc 64ed e93c d456 a83d cd13 203d
00000240: 8ee2 2b3d 93fb 3d3c 0d78 823d 0a12 bfbc
00000250: 30ba 7d3d 7398 213d 6845 4c3d 278c 9e3d
00000260: 0130 293d a50e c33c 707b ba3c 3423 87bd
00000270: 10c1 a03d 8f48 00bd 3403 a83d 92ba d83c
00000280: 4d2b 91bd 2f1f 753d 465c 9d3d 1931 8dbd
00000290: 90f3 013b 7cec 833d a243 cdbb 9b79 c03b
000002a0: 40d0 42ba 5d0d 4a3d cfd3 bbbc d8d5 1f3b
000002b0: 7787 1c3d 6d96 68bd fa54 293d f4f2 9a3c
000002c0: 94a0 1a3c 36f3 133d c28b 25bd 78f9 063c
000002d0: aa22 9bbd 21f1 693d 725d 1e3c 4cef bbbb
000002e0: fdc8 2fbd 6965 9b3c af1b d93b f4a5 0fbd
000002f0: cc12 8f3b 1a47 b3bc d54b b2bc fa9b b33c
00000300: 3a55 05bb e20b 8b3d 79e9 9b3d aa00 3ebd
00000310: 8819 89bd dd37 8ebd be13 5ebd 8c16 99bd
00000320: 4ada 1cbb 9cf2 99bd fd6e 0ebd dd1a 093d
00000330: f6c2 b4bd 7b67 82bd 184a 91bd d16c f53c
00000340: b14b 70bd d1be 0dbc ebb1 65bc 9986 4a3d
00000350: 6f26 2fbd 4dce 693c fe12 96bd 1e49 c73c
00000360: 44c9 60bd cf4e 8b3d 7045 933d edd0 a6bb
00000370: 8cfd 28bc 7728 47bd 48e6 633d e726 d63c
00000380: dfe2 84bd fc27 773d e24f 6dbd b9d5 8ebb
00000390: 4946 b5bb 5e85 653d a04c c8bc 9b91 8ebd
000003a0: 3e1a 96bd 2bdd 843c a6f5 3e3d d923 94bd
000003b0: aaa1 8dbd 202b 673d 6f56 fbbc 7a7b b0bd
000003c0: 8800 cabc 2e5b 7d3d 193f dc3c e731 c73c
000003d0: f715 8fbd 7c49 643d ee57 5b3d 9532 0b3d
000003e0: e311 9bbc e8b3 fb3b e88b 323c 8217 0e3d
000003f0: 4a22 5e3b 824b b13c fa4b ab3c 76b1 3bbd

encBlocks.0.conv2.bias f4 [16]
0.05541602 -0.07231385 -0.013007413 0.008061223 -0.06954791 0.0048571676 0.02186965 0.011294332
-0.04718326 0.0883661 -0.036059532 0.006407486 0.043585572 -0.09283767 -0.0036533885 -0.07243198
00000000: e9fb 623d 4919 94bd 0b1d 55bc 3813 043c
00000010: 226f 8ebd e028 9f3b fb27 b33c dd0b 393c
00000020: 3c43 41bd 49f9 b43d 29b3 13bd e3f5 d13b
00000030: c986 323d ad21 bebd b06d 6fbb 3857 94bd

encBlocks.0.BN1.weight f4 [16]
1.012036 0.9899024 0.99697614 0.99327195 1.0149845 1.0051543 1.0055372 1.0084162
1.0047483 0.9885357 1.0078914 0.9946823 0.9930458 0.9992461 0.99446285 0.9958063
00000000: 658a 813f 3e6a 7d3f d439 7f3f 1247 7e3f
00000010: 03eb 813f e5a8 803f 71b5 803f c813 813f
00000020: 989b 803f ad10 7d3f 9602 813f 80a3 7e3f
00000030: 4038 7e3f 98ce 7f3f 1e95 7e3f 29ed 7e3f

encBlocks.0.BN1.bias f4 [16]
0.012261962 -0.015189405 -0.0074488046 0.0073232204 0.013855714 0.017679404 -0.005964048 0.0024341969
0.00030109717 -0.01320863 0.0054176003 -0.00816288 -0.0071525746 -0.015203933 -0.0043802527 -0.0044926684
00000000: 65e6 483c fbdc 78bc 1a15 f4bb a0f7 ef3b
00000010: 1403 633c 66d4 903c 106e c3bb 0c87 1f3b
00000020: 94dc 9d39 0269 58bc 2086 b13b 9abd 05bc
00000030: 2560 eabb eb19 79bc 3988 8fbb 3c37 93bb

encBlocks.0.BN1.running_mean f4 [16]
-2.0687778 -0.51586133 0.07406383 -1.1253968 -2.0622225 1.5891215 1.3820527 0.19062786
-0.16031168 0.5611964 1.7365674 0.543205 0.3555514 1.652507 1.4250904 1.2506998
00000000: db66 04c0 7d0f 04bf c7ae 973d 010d 90bf
00000010: 74fb 03c0 5568 cb3f 1ae7 b03f f333 433e
00000020: bf28 24be 91aa 0f3f d747 de3f 7c0f 0b3f
00000030: d50a b63e 5985 d33f 5d69 b63f ee16 a03f

encBlocks.0.BN1.running_var f4 [16]
1.4523473 0.17509289 0.11540006 0.48033804 1.3727553 0.847749 0.64805746 0.12952812
0.13062368 0.1632267 0.9848347 0.17135608 0.102998115 0.9041618 0.69695187 0.5285349
00000000: 84e6 b93f 8d4b 333e de56 ec3d deee f53e
00000010: 72b6 af3f 1406 593f 18e7 253f 05a3 043e
00000020: 37c2 053e e624 273e 201e 7c3f f877 2f3e
00000030: adf0 d23d 2677 673f 706b 323f 104e 073f

encBlocks.0.BN2.weight f4 [16]
1.0091774 0.99124014 1.0060928 1.0036956 0.9974619 1.0041387 0.9918186 1.0075644
0.99116236 1.0033492 1.0054119 1.0085577 0.9944815 0.9938004 0.9947964 1.0010071
00000000: ba2c 813f eac1 7d3f a6c7 803f 1979 803f
00000010: aa59 7f3f 9e87 803f d3e7 7d3f dff7 803f
00000020: d1bc 7d3f bf6d 803f 56b1 803f 6b18 813f
00000030: 5796 7e3f b469 7e3f faaa 7e3f 0021 803f

encBlocks.0.BN2.bias f4 [16]
-0.0029351905 -0.0022877932 -0.0017816552 0.0014000534 -0.0013587829 0.0042054746 0.0006139047 -0.0044604647
-0.003841568 0.0049895905 -0.007335772 -0.0031882483 -0.0029362387 0.013649876 -0.0062692245 -0.0068933037
00000000: 535c 40bb cdee 15bb 6e86 e9ba ff81 b73a
00000010: 3019 b2ba 14ce 893b 72ee 203a 1729 92bb
00000020: d1c2 7bbb b87f a33b ea60 f0bb eef1 50bb
00000030: e96d 40bb bba3 5f3c 116e cdbb 39e1 e1bb

encBlocks.0.BN2.running_mean f4 [16]
0.2521966 -0.10566387 -0.2468184 0.051980525 -0.21898465 0.17287277 0.17035179 0.27612737
-0.66137534 0.144131 0.49721527 0.07777975 0.133675 0.280693 0.044662558 -0.19441122
00000000: ea1f 813e 4d66 d8bd f6bd 7cbe 88e9 543d
00000010: 833d 60be 8f05 313e b370 2e3e 9160 8d3e
00000020: e54f 29bf 1497 133e 0093 fe3e fd4a 9f3d
00000030: 19e2 083e feb6 8f3e 16f0 363d bc13 47be

encBlocks.0.BN2.running_var f4 [16]
0.19744457 0.33272696 0.11221719 0.15803078 0.31391567 0.27303818 0.074572496 0.3507083
0.3319888 0.1157513 0.22809447 0.4778733 0.39705825 0.13927177 0.31201103 0.37602448
00000000: e92e 4a3e 305b aa3e 20d2 e53d d2d2 213e
00000010: 8eb9 a03e a9cb 8b3e 77b9 983d 0a90 b33e
00000020: 70fa a93e 040f ed3d 9991 693e cfab f43e
00000030: 384b cb3e 429d 0e3e e9bf 9f3e 4886 c03e

encBlocks.1.conv1.weight f4 [16, 16, 15, 15]
0.017312579 0.005665534 -0.0070285164 0.013613004 0.005220486 -0.00024965237 -0.006040726 -0.009884553
-0.015070345 -0.010291384 -0.0075627184 0.0104730185 -0.012592292 -0.00022593286 -0.015041074 -0.003054645
0.016264876 0.01589714 -0.0028334998 -0.008845601 -0.0047389306 -0.015722275 -0.013132393 -0.009475933
-0.011021474 0.0092268 -0.005001269 -0.009460366 0.011100302 -0.011133312 -0.0057236915 0.012203671
-0.011453992 0.010108519 -0.008480657 -0.015721176 -0.0035719725 -0.015275708 0.004879999 -0.014579961
0.011193323 -0.001900153 -0.0006871166 0.012873544 -0.0077758757 0.014760316 0.020411216 0.00996215
0.017487554 0.00043687903 -0.0142066 0.0041983845 0.0027581174 -0.012984117 0.0008465271 -0.018497426
-0.011494187 -0.0098449625 0.010777388 -0.006328875 -0.0048352573 0.007798655 -0.0027763962 0.011817757
0.015095645 -0.015604938 8.7319546e-05 -0.009343837 0.014410043 0.006097828 -0.009720526 -0.0065593664
-0.016388817 0.008083851 -0.010079267 -0.015903424 0.013515772 -0.004414556 0.006787866 0.004432027
0.013897188 0.008539343 0.0068607954 0.008014526 0.008655415 -0.012895239 -0.01050033 0.0068251723
-0.0028755479 0.0032544255 0.01495682 0.011704759 0.019872881 0.0075876922 0.015709331 -0.0071082218
-0.009354377 -0.014709875 -0.011866414 0.00055778824 -0.010445965 0.00071003335 -0.014405608 -0.010690873
0.008951204 -0.0018168001 -0.007197069 0.018758763 0.008597692 -0.009514317 0.011860599 -0.0017581371
-0.001455866 0.009340372 0.0075817364 -0.0047166604 -0.009858625 0.013065342 0.0010718245 -0.005059384
-0.010979458 0.0063125556 -0.011909318 0.017058847 0.010850929 -0.006300851 0.012765518 0.009889466
0.004821423 -0.012693962 0.0057828515 -0.0031832424 0.013892119 0.016809803 0.009476877 0.019062782
0.025107369 0.0022704916 0.0119094 0.011463757 0.018798543 -0.0040617893 0.013151362 -0.010574139
-0.0039267596 0.015039407 -0.0022203885 0.0083811525 -0.006844284 0.013315391 -0.008228706 -0.009760105
0.001563014 -0.0061521647 -0.0015423989 0.016256526 0.00246009 -0.012956637 0.006487024 0.0069651385
0.014341328 0.01036118 0.011747157 -0.00024016785 0.019176422 0.00197968 0.00904694 0.024511889
0.006353689 -0.002604167 0.018327054 -0.0009270909 -0.0038664483 -0.0069958703 -0.009213656 0.0081715165
0.008937773 -0.00963344 -0.011733269 0.018914219 0.012541659 0.0132953795 9.858053e-05 0.00969112
0.021677809 0.0027698851 0.013964128 0.013920383 0.011286481 -0.00436149 0.017045075 0.01909443
-0.004554111 0.023534182 -0.0016687011 -0.005689118 0.020925038 -0.011118093 0.012722841 0.020582367
-0.0044545964 0.0035018886 0.0005542261 -0.0062652878 0.0047492753 -0.0050175004 -0.0022360303 0.0014595946
0.0034515609 0.006292408 0.0075509083 0.019422906 0.0071518067 0.005311035 -0.011549116 0.018860659
0.013308486 0.017055016 0.005319737 0.02224308 0.0031575721 0.01731297 -0.005334879 -0.0050057904
-0.001311979 -0.020207623 -0.0026550468 -0.019432727 0.0070081 -0.026147692 0.003138263 -0.015878638
-0.003282957 -0.011812856 -0.0018251739 -0.001086004 0.00027061274 -0.012526536 -0.0058652274 -0.00013706637
-0.018346353 -0.025340479 0.0062091667 0.0027460568 0.004808968 0.005739459 0.0004896234 -0.02239749
-0.015847476 -0.020980604 0.00033166437 0.00069069094 -0.012865838 -0.0030421375 -0.0046043405 -0.005598504
00000000: 1cd3 8d3c f2a5 b93b 784f e6bb 1409 5f3c
00000010: 9c10 ab3b c6e3 82b9 48f1 c5bb d2f2 21bc
00000020: 9ce9 76bc 319d 28bc aed0 f7bb 0697 2b3c
00000030: e74f 4ebc 64e8 6cb9 d66e 76bc 7030 48bb
00000040: eb3d 853c b83a 823c 3db2 39bb 24ed 10bc
00000050: 0849 9bbb 00cc 80bc 4029 57bc f240 1bbc
00000060: 6a93 34bc 012c 173c afe1 a3bb a7ff 1abc
00000070: 0bde 353c 7f68 36bc ce8d bbbb e8f1 473c
00000080: 86a9 3bbc 349e 253c 74f2 0abc b2c9 80bc
00000090: c117 6abb f746 7abc 66e8 9f3b cae0 6ebc
000000a0: 3364 373c 8e0e f9ba 9d1f 34ba 8feb 523c
000000b0: c6cc febb 41d5 713c 6c35 a73c 4938 233c
000000c0: 0f42 8f3c e90c e539 cdc2 68bc 9a92 893b
000000d0: 88c1 343b 55bb 54bc 79e9 5d3a ea87 97bc
000000e0: 1d52 3cbc c44c 21bc a493 303c 7462 cfbb
000000f0: 1471 9ebb dc8b ff3b 33f4 35bb 449f 413c
00000100: b953 773c dbab 7fbc 531f b738 e516 19bc
00000110: 1a18 6c3c 4ad0 c73b d742 1fbc f4ef d6bb
00000120: d741 86bc 2172 043c 8323 25bc e647 82bc
00000130: 4271 5d3c fba7 90bb bf6c de3b 8a3a 913b
00000140: 08b1 633c 9ae8 0b3c 86d0 e03b 5c4f 033c
00000150: 71cf 0d3c 8d46 53bc 9309 2cbc b2a5 df3b
00000160: b073 3cbb 3348 553b 730d 753c 51c5 3f3c
00000170: 74cc a23c 2da2 f83b dbb0 803c 16ec e8bb
00000180: 1a43 19bc b001 71bc 596b 42bc 8938 123a
00000190: 8e25 2bbc 8821 3a3a 8005 6cbc c528 2fbc
000001a0: 12a8 123c b221 eeba 64d5 ebbb faab 993c
000001b0: 55dd 0c3c f0e1 1bbc f552 423c 4b71 e6ba
000001c0: c2d2 beba 5c08 193c 3770 f83b 378e 9abb
000001d0: 1286 21bc 0410 563c 767c 8c3a 30c9 a5bb
000001e0: 2fe3 33bc 8ed9 ce3b 4d1f 43bc ffbe 8b3c
000001f0: 18c8 313c 5e77 cebb 7726 513c 6d07 223c
00000200: 07fd 9d3b 56fa 4fbc 137e bd3b f29d 50bb
00000210: c59b 633c b6b4 893c e744 1b3c 8d29 9c3c
00000220: f8ad cd3c 87cc 143b a51f 433c 7bd2 3b3c
00000230: 67ff 993c c218 85bb cf78 573c 273f 2dbc
00000240: 0cac 80bb d867 763c f083 11bb 1a51 093c
00000250: 0446 e0bb cc28 5a3c b2d1 06bc d9e8 1fbc
00000260: 0cde cc3a 1998 c9bb 522a caba 682c 853c
00000270: 7639 213b 1348 54bc 1a91 d43b d13b e43b
00000280: e4f7 6a3c f0c1 293c 2677 403c 91d5 7bb9
00000290: df17 9d3c 85bd 013b 9e39 143c 28cd c83c
000002a0: 9b32 d03b acaa 2abb 9e22 963c 0408 73ba
000002b0: 3d64 7dbb 9d3d e5bb e0f4 16bc d3e1 053c
000002c0: bd6f 123c 93d5 1dbc e63c 40bc fef1 9a3c
000002d0: 887b 4d3c ddd4 593c 05bd ce38 81c7 1e3c
000002e0: a995 b13c f686 353b ccc9 643c 5112 643c
000002f0: efea 383c d4ea 8ebb 1da2 8b3c ec6b 9c3c
00000300: a73a 95bb c2ca c03c 51b8 daba c86b babb
00000310: fc6a ab3c a928 36bc 7773 503c 5a9c a83c
00000320: ddf7 91bb f17f 653b 7c49 113a 0b4d cdbb
00000330: cf9f 9b3b d869 a4bb 5d8a 12bb de4f bf3a
00000340: 9533 623b 8b30 ce3b 9c6d f73b c91c 9f3c
00000350: b459 ea3b 3108 ae3b 8138 3dbc ab81 9a3c
00000360: d60b 5a3c f6b6 8b3c 3051 ae3b 1f37 b63c
00000370: 45ef 4e3b eed3 8d3c 35d0 aebb 9d07 a4bb
00000380: b6f6 abba 758a a5bc 4b00 2ebb 6231 9fbc
00000390: 34a4 e53b af33 d6bc 51ab 4d3b eb13 82bc
000003a0: e126 57bb b68a 41bc ac3a efba 3f58 8eba
000003b0: 07e1 8d39 1a3c 4dbc 1831 c0bb 79b9 0fb9
000003c0: 174b 96bc d696 cfbc 4476 cb3b 30f7 333b
000003d0: 8c94 9d3b 1212 bc3b 125a 003a f17a b7bc
000003e0: 91d2 81bc 84df abbc 3de3 ad39 7c0f 353a
000003f0: 3ccb 52bc 995e 47bb 02e0 96bb a873 b7bb

encBlocks.1.conv1.bias f4 [16]
-0.0051611834 0.008287823 -0.01147726 0.0025360417 0.017765278 -0.01787387 -0.014231078 0.0029370475
-0.017396213 0.014602987 0.015174061 0.0044180267 0.0008951815 0.0013835423 0.010390298 -0.0020672905
00000000: 251f a9bb a6c9 073c 1e0b 3cbc b833 263b
00000010: 7d88 913c 396c 92bc 7829 69bc 7b7b 403b
00000020: 8182 8ebc 5e41 6f3c a09c 783c 18c5 903b
00000030: 9daa 6a3a fa57 b53a 123c 2a3c 617b 07bb

encBlocks.1.conv2.weight f4 [16, 16, 3, 3]
-0.072685294 0.029680692 0.028309314 0.057979874 0.023574986 -0.0698838 -0.039576177 -0.076261334
-0.032817777 0.08199927 -0.031730074 0.016995605 -0.004997532 0.026021432 -0.06366269 0.032433797
-0.0677811 -0.031108692 -0.053652935 0.00022593018 0.019449921 -0.00069615315 -0.052847255 -0.056645703
-0.025421971 -0.07574213 -0.0013929598 -0.054314777 0.045652814 -0.0042646537 0.07148111 0.042848494
0.044992622 0.055583358 -0.043262597 -0.06520925 -0.064103805 -0.047183808 -0.067434795 0.04229644
-0.047935188 -0.04987898 -0.05084557 0.04074325 0.06289507 0.015444894 0.07432373 -0.04719789
-0.01801473 0.0044741407 0.02478111 -0.0478235 -0.0838139 -0.049830016 0.022051973 -0.025845606
-0.03969813 0.051613454 -0.01705851 -0.044903196 0.033296864 0.06442188 -0.05031609 0.071742475
0.07450699 -0.05773087 0.037022725 0.038917746 0.05275492 -0.051305078 -0.019994607 -0.0489544
-0.0012875547 0.020910623 -0.057760365 -0.048669852 0.048761155 -0.010274966 -0.040541593 0.04295326
0.06683473 -0.06563276 -0.010418785 0.05488351 0.03281831 -0.08426517 -0.05491495 -0.05700533
0.061025497 0.021731056 0.050390862 0.07824946 0.061992668 -0.079034284 -0.07141881 0.046603557
0.00280598 0.08342606 0.012148441 -0.011533994 0.042744383 0.0022036391 0.069307506 -0.011737622
-0.0053862957 -0.04365932 0.05541996 -0.09054192 0.03825306 0.028843017 -0.008498874 0.051369827
-0.06287285 -0.010605746 0.022862194 -0.04608238 0.045863003 -0.04397675 0.0017451807 0.044380568
0.06927209 -0.032711707 -0.037301216 -0.05010619 -0.02111796 0.02637973 0.029214509 0.08259077
-0.053779818 -0.055960327 0.06267132 -0.07099837 0.060676828 -0.066295736 -0.0062801414 -0.04822251
0.082278095 -0.046559576 -0.03718603 0.024155444 0.0039095455 -0.043187685 -0.04881736 0.058128487
0.013919255 -0.037670836 -0.012188302 0.06135448 0.058094796 -0.014282136 -0.030861387 0.061687015
-0.008730646 -0.06902465 -0.016312059 -0.04955815 0.017720573 -0.055444624 0.068311125 0.053196173
0.046256986 -0.04702176 -0.017682008 0.05477301 0.027211126 0.05033607 -0.060582995 0.0065869344
0.027229583 -0.07226006 0.03199127 0.054482732 0.002306097 -0.010962229 -0.038930878 0.077359304
0.016952308 0.08754278 0.019103477 -0.0550887 -0.015162755 -0.03502851 -0.004280995 -0.06185782
-0.076769486 0.028096665 0.025169501 0.021641385 0.052691136 -0.01214496 0.022727802 -0.05794542
0.071493104 0.04392068 -0.03301611 0.04592396 -0.08686596 0.039225075 0.054206695 -0.033332653
0.03299069 -0.07952304 -0.08600214 0.05314436 0.014230725 -0.005439671 0.03485114 0.003354546
0.06557963 -0.0011261505 0.0145489015 -0.025739908 -0.056901596 0.009536782 -0.0814484 0.07397284
0.0033293173 0.057546675 -0.06887024 -0.006928848 0.032214057 0.052907515 -0.08928296 0.04011433
-0.0012244848 -0.03599401 -0.057168543 0.036408406 -0.08646234 0.047589827 0.007077995 -0.0775844
-0.006521552 -0.062465258 0.005561556 0.05062094 -0.06110674 -0.073334284 -0.010471586 -0.061574575
0.06791446 0.047003943 -0.067079514 0.013243855 -0.0053334082 -0.043760892 -0.0873333 -0.036820576
0.014752141 0.0025227482 -0.03082573 -0.082618184 -0.012441634 -0.0071236882 -0.039391708 -0.001072458
00000000: 07dc 94bd ec24 f33c efe8 e73c 4e7c 6d3d
00000010: 5420 c13c 3d1f 8fbd a11a 22bd e72e 9cbd
00000020: ef6b 06bd 3cef a73d 65f7 01bd 5e3a 8b3c
00000030: 56c2 a3bb e62a d53c 9661 82bd 4dd9 043d
00000040: d1d0 8abd a8d7 febc 2ec3 5bbd ace7 6c39
00000050: 7155 9f3c 0c7e 36ba 5d76 58bd 5305 68bd
00000060: bd41 d0bc b11e 9bbd fa93 b6ba 2c79 5ebd
00000070: 72fe 3a3d 82be 8bbb b064 923d e781 2f3d
00000080: 2f4a 383d 60ab 633d 1f34 31bd 6d8c 85bd
00000090: db48 83bd cf43 41bd 411b 8abd 083f 2d3d
000000a0: b057 44bd e74d 4cbd 7243 50bd 65e2 263d
000000b0: 21cf 803d 950c 7d3c 0a37 983d 9352 41bd
000000c0: a193 93bc d09b 923b c101 cb3c 93e2 43bd
000000d0: 9fa6 abbd 8f1a 4cbd 57a6 b43c 2aba d3bc
000000e0: 829a 22bd a168 533d 4abe 8bbc 6aec 37bd
000000f0: 4b62 083d 9eef 833d 3f18 4ebd b8ed 923d
00000100: 1f97 983d 3477 6cbd 24a5 173d 3768 1f3d
00000110: 8b15 583d 4625 52bd bbcb a3bc 6984 48bd
00000120: 2bc3 a8ba c14c ab3c 2296 6cbd 0a5a 47bd
00000130: c7b9 473d 5558 28bc f10e 26bd c2ef 2f3d
00000140: a6e0 883d 786a 86bd 8db3 2abc 88cd 603d
00000150: 7e6c 063d 3893 acbd 80ee 60bd 6c7e 69bd
00000160: dff5 793d 5405 b23c a666 4e3d 4141 a03d
00000170: 06ec 7d3d badc a1bd 0644 92bd 5fe3 3e3d
00000180: 88e4 373b 48db aa3d 410a 473c 14f9 3cbc
00000190: bc14 2f3d ee6a 103b 18f1 8d3d 284f 40bc
000001a0: 867f b0bb 1dd4 32bd 0a00 633d 0b6e b9bd
000001b0: 3eaf 1c3d 3148 ec3c dc3e 0bbc 2b69 523d
000001c0: 7bc3 80bd b9c3 2dbc 7f49 bb3c e1c0 3cbd
000001d0: d8da 3b3d f720 34bd 8cbe e43a 66c8 353d
000001e0: 87de 8d3d b6fc 05bd 29c9 18bd 263c 4dbd
000001f0: 92ff acbc 4e1a d83c 4453 ef3c 5a25 a93d
00000200: 3a48 5cbd a836 65bd d259 803d 9867 91bd
00000210: 4488 783d 0fc6 87bd a5c9 cdbb f784 45bd
00000220: 6b81 a83d 41b5 3ebd 6150 18bd a3e1 c53c
00000230: a51b 803b 92e5 30bd b6f4 47bd 2318 6e3d
00000240: 960d 643c bc4c 1abd 72b1 47bc d64e 7b3d
00000250: cff4 6d3d 9fff 69bc 05d1 fcbc 86ab 7c3d
00000260: fc0a 0fbc cc5c 8dbd dea0 85bc 7dfd 4abd
00000270: bc2a 913c e719 63bd b4e6 8b3d 3be4 593d
00000280: f777 3d3d e499 40bd dcd9 90bc aa59 603d
00000290: dee9 de3c 322d 4e3d e025 78bd 36d7 d73b
000002a0: 9310 df3c 15fd 93bd 4709 033d 4929 5f3d
000002b0: e321 173b ec9a 33bc fc75 1fbd 8e6e 9e3d
000002c0: 91df 8a3c a149 b33d e57e 9c3c b0a4 61bd
000002d0: 346d 78bc 0e7a 0fbd 9747 8cbb a05e 7dbd
000002e0: 5239 9dbd fa2a e63c 4530 ce3c 4649 b13c
000002f0: a9d2 573d a8fb 46bc a82f ba3c 2d58 6dbd
00000300: fa6a 923d 2ce6 333d e73b 07bd c31a 3c3d
00000310: c8e6 b1bd 79aa 203d d707 5e3d d287 08bd
00000320: 3f21 073d fadc a2bd e421 b0bd e7ad 593d
00000330: fd27 693c 453f b2bb 12c0 0e3d f1d7 5b3b
00000340: 9d4e 863d 579b 93ba 845e 6e3c 80dc d2bc
00000350: a611 69bd 2a40 1c3c 6bce a6bd 137f 973d
00000360: ad30 5a3b 10b6 6b3d d70b 8dbd 640b e3bb
00000370: e3f2 033d 8db5 583d fcd9 b6bd ec4e 243d
00000380: e47e a0ba 746e 13bd 9029 6abd fb20 153d
00000390: 2b13 b1bd 8ded 423d 87ee e73b 92e4 9ebd
000003a0: beb2 d5bb 92db 7fbd b73d b63b e757 4f3d
000003b0: 104b 7abd 4930 96bd 0491 2bbc 9f35 7cbd
000003c0: bd16 8b3d 3587 403d fc60 89bd c1fc 583c
000003d0: dfc3 aebb 9f3e 33bd cddb b2bd 2cd1 16bd
000003e0: f7b2 713c b154 253b 3e86 fcbc b933 a9bd
000003f0: ffd7 4bbc d46d e9bb 3359 21bd b891 8cba

encBlocks.1.conv2.bias f4 [16]
-0.07881509 -0.07674678 -0.052088547 0.02393434 0.01783214 -0.03233425 0.018138167 0.038190316
-0.0412724 -0.038928967 -0.0044358433 0.07619341 0.01171905 -0.016154526 0.03607578 0.05861099
00000000: ce69 a1bd 6a2d 9dbd cd5a 55bd f311 c43c
00000010: b514 923c eb70 04bd 7e96 943c 736d 1c3d
00000020: 400d 29bd fb73 1fbd 8d5a 91bb 4a0b 9c3d
00000030: 4201 403c 7f56 84bc 32c4 133d 1412 703d

encBlocks.1.BN1.weight f4 [16]
0.98173124 1.0070211 1.0097588 0.99270177 1.0066609 1.0007966 0.9920265 1.0028023
1.0063074 0.99277544 1.006259 0.99345946 1.0143092 0.9969278 0.9928681 1.0072358
00000000: bd52 7b3f 11e6 803f c73f 813f b421 7e3f
00000010: 44da 803f 1a1a 803f 73f5 7d3f d35b 803f
00000020: aece 803f 8826 7e3f 18cd 803f 5c53 7e3f
00000030: e2d4 813f a936 7f3f 9b2c 7e3f 1aed 803f

encBlocks.1.BN1.bias f4 [16]
-0.0090234885 0.0031871519 0.02154847 -0.009096704 0.009882807 0.010614547 -0.007837085 0.003982376
0.020602457 -0.0047943755 0.009935139 -0.008345763 0.004850023 0.014724604 -0.0057955175 0.015484628
00000000: 41d7 13bc 89df 503b 6b86 b03c 580a 15bc
00000010: 7feb 213c a3e8 2d3c 1e67 00bc 977e 823b
00000020: 7cc6 a83c 231a 9dbb fec6 223c abbc 08bc
00000030: f1ec 9e3b 773f 713c 53e8 bdbb 3db3 7d3c

encBlocks.1.BN1.running_mean f4 [16]
-0.2902122 1.3059886 1.8982254 -0.2424713 1.4920675 -1.762203 0.11319077 1.0958514
0.8491557 -0.8622797 0.4403107 -0.78615224 0.3446005 -1.3569281 1.2041749 1.3838954
00000000: b296 94be a22a a73f 0df9 f23f 654a 78be
00000010: 11fc be3f de8f e1bf 90d0 e73d dc44 8c3f
00000020: 4562 593f 5dbe 5cbf 6770 e13e 4641 49bf
00000030: 7a6f b03e d2af adbf 6722 9a3f 7c23 b13f

encBlocks.1.BN1.running_var f4 [16]
7.980676 58.808186 57.839962 13.109646 44.619354 61.56092 18.437962 51.86592
55.1776 29.02158 29.513628 33.731956 19.899069 46.873005 35.700798 57.592735
00000000: b361 ff40 953b 6b42 1f5c 6742 1cc1 5141
00000010: 387a 3242 623e 7642 f280 9341 b476 4f42
00000020: ddb5 5c42 322c e841 e91b ec41 86ed 0642
00000030: 4b31 9f41 f57d 3b42 9ecd 0e42 f65e 6642

encBlocks.1.BN2.weight f4 [16]
1.0069505 0.9941637 1.0051736 1.0095543 0.99551404 0.9923089 0.9987853 0.993969
0.9956586 1.0069158 1.0169114 0.9985749 1.0032085 0.99588263 0.99365145 1.0016911
00000000: c1e3 803f 8381 7e3f 87a9 803f 1339 813f
00000010: 02da 7e3f f507 7e3f 65b0 7f3f c174 7e3f
00000020: 7be3 7e3f 9ee2 803f 272a 823f 9ba2 7f3f
00000030: 2369 803f 2af2 7e3f f15f 7e3f 6a37 803f

encBlocks.1.BN2.bias f4 [16]
-0.022033826 -0.023261815 -0.021835651 0.0055187843 -0.010128411 -0.014474373 -0.009868434 -0.0020726095
-0.012810795 -0.01910003 -0.017655617 -0.0059498646 -0.017124943 -0.016225379 -0.02394274 0.017925613
00000000: 4880 b4bc 908f bebc aee0 b2bc ebd6 b43b
00000010: a3f1 25bc ec25 6dbc 36af 21bc 9ed4 07bb
00000020: 5ee4 51bc ab77 9cbc 83a2 90bc 15f7 c2bb
00000030: 9c49 8cbc 16eb 84bc 9123 c4bc bcd8 923c

encBlocks.1.BN2.running_mean f4 [16]
-0.29717863 -0.21294323 -0.19461738 0.30995053 -0.16960745 -0.060152728 -0.03061698 -0.35694426
-0.18262762 0.28495562 -0.16721907 0.20511833 0.3902563 0.2561923 0.04838203 -0.5174091
00000000: cc27 98be ca0d 5abe c749 47be d6b1 9e3e
00000010: 93ad 2dbe b562 76bd 76d0 fabc 66c1 b6be
00000020: bc02 3bbe b4e5 913e 7a3b 2bbe 8a0a 523e
00000030: accf c73e a32b 833e 3c2c 463d ec74 04bf

encBlocks.1.BN2.running_var f4 [16]
0.046611287 0.10616641 0.10469652 0.12329584 0.33318603 0.052350063 0.108358994 0.07787286
0.05066348 1.0872483 0.040218297 0.12591965 0.8712972 0.5462549 0.29729632 0.43332005
00000000: 7aeb 3e3d c66d d93d 216b d63d 8882 fc3d
00000010: 5c97 aa3e 056d 563d 52eb dd3d ce7b 9f3d
00000020: 8284 4f3d f42a 8b3f f1bb 243d 15f1 003e
00000030: 550d 5f3f 5cd7 0b3f 3937 983e 20dc dd3e

encBlocks.2.conv1.weight f4 [1, 16, 15, 15]
-0.010881524 0.011828698 -0.009187 -0.0018463256 0.004552536 0.005907668 -0.0024681096 0.004445944
-0.0017957923 -0.009447089 0.017270686 -0.0017526067 0.016086163 -0.014834463 -0.009543346 -0.0082636345
-0.004269329 0.0057612914 0.013804171 0.008624322 -0.0010362377 0.00925669 0.023017688 0.016257659
0.008294261 0.0078116586 0.0034732784 0.019494733 0.0034937824 0.0033622375 0.014082037 0.013203966
0.0050601894 0.0050558043 -0.005907114 0.008829915 -0.010845492 0.010568254 0.009091755 -0.007021289
-0.012058222 0.020188972 -0.005463005 0.014066401 0.0019634787 0.0038247174 0.02900479 0.0111245
0.024315026 0.00866616 0.013468704 -0.004626315 0.019976981 -0.008189047 0.012067555 -0.007387432
0.014580011 -0.0029134382 0.013327193 -0.0090770535 0.010414104 0.025046721 0.020746298 -0.0012650712
0.0054406645 -0.0013183088 0.0047893426 0.0012023035 0.008601446 0.001735841 0.0028717602 -0.0077105714
0.0024965436 0.0098575875 -0.015183744 0.004355655 0.021079788 -0.006417351 0.009200762 -0.0050094584
0.014939023 -0.011291715 0.009237921 -0.004795201 0.015457877 -0.0070090215 -0.00828748 0.015252888
0.004417616 -0.00047762677 0.0219375 0.022495352 0.021124244 -0.00233841 -0.0038550464 -0.0049018287
-0.01119218 0.021491637 0.0070538176 0.0030050352 -0.00265444 -0.008918157 -0.001319499 -0.00018172768
0.0054737623 0.027390836 0.019234786 0.0076553165 0.0130430395 0.009386702 -0.007433536 0.020101866
0.011144295 -0.0017679293 0.012967451 0.0074999803 0.025028795 0.01773477 0.009891346 -0.011309858
0.020675289 0.0076673124 0.022335071 -0.007226924 -0.0065687266 -0.01091245 0.019779652 0.021435915
-0.0005513927 0.016620856 -0.0014855858 0.009315957 0.019396558 -0.016373036 0.010636569 -0.0031397548
0.0279005 0.0104554035 -0.0080633145 0.016200094 -0.015415546 -0.008081036 0.014858909 -0.01121898
-0.005962569 -0.00095908827 0.00046117508 0.02101388 -0.0015615916 0.017404944 0.0031843432 0.033189636
-0.0046537803 -0.008160175 0.012642305 -0.0013528157 0.01939029 0.012750969 0.01569831 0.006233287
0.012614263 0.0011981353 0.013472328 -0.009922523 -0.0062775193 -0.003942002 0.013434124 0.0042937994
0.01368831 0.0072868974 0.010640065 0.0065813367 -0.0022143857 0.008565103 -0.01295774 -0.0067020888
0.018322114 0.015843868 -0.013686835 0.018521229 0.006694807 0.0023260328 0.008288801 0.0005724455
0.013884003 0.020175114 0.0025257666 0.016926194 -0.008377256 -0.0027689645 0.0066375337 0.021644609
0.01406276 -0.014619835 -0.0013215409 -0.0004941251 0.0067335214 0.0116860075 -0.0003379152 -0.0061076824
-0.002983439 -0.002461804 0.008108896 0.0050614267 -0.009345598 0.003868399 0.015921643 0.022250278
0.0008140321 0.0066861883 -0.0095232 0.0060963547 0.020643596 0.008462638 0.008149356 -0.0024379026
0.01217879 0.014831803 0.01412919 0.005992643 -0.0049933204 0.012702809 0.0118753165 0.017288655
-0.0046819644 0.008795433 0.009585566 -0.0020129748 0.009926428 0.0051824185 0.015443925 0.010434615
0.022977907 0.014994153 0.020674488 0.004096002 -0.008966049 -0.0009882563 0.01168427 0.007437799
-0.009165459 0.008614748 0.005123383 0.014531038 0.0022651749 -0.00760957 -0.0058786375 -0.0037833466
0.00010986638 0.016105648 -0.005168438 0.016562367 0.0166541 -0.0050508906 0.0069146384 0.019739408
00000000: 6b48 32bc 28cd 413c 1285 16bc 6800 f2ba
00000010: 712d 953b 1c95 c13b 02c0 21bb 48af 913b
00000020: ca60 ebba f7c7 1abc 417b 8d3c b9b7 e5ba
00000030: 21c7 833c 3f0c 73bc b25b 1cbc 3264 07bc
00000040: bae5 8bbb 37c9 bc3b e42a 623c 074d 0d3c
00000050: 5ed2 87ba 5fa9 173c 978f bc3c c82e 853c
00000060: a7e4 073c f1f8 ff3b f19f 633b 6bb3 9f3c
00000070: f1f7 643b fc58 5c3b 58b8 663c 7355 583c
00000080: f2cf a53b 29ab a53b 7790 c1bb 59ab 103c
00000090: 4ab1 31bc 7826 2d3c 96f5 143c d712 e6bb
000000a0: d98f 45bc 5863 a53c 0203 b3bb c376 663c
000000b0: b5ad 003b 1ca8 7a3b 749b ed3c 8943 363c
000000c0: 4e30 c73c 82fc 0d3c d7ab 5c3c 5898 97bb
000000d0: c4a6 a33c 5a2b 06bc ffb6 453c 4512 f2bb
000000e0: 00e1 6e3c 62ef 3ebb 4d5a 5a3c ecb7 14bc
000000f0: eb9f 2a3c c82e cd3c 24f4 a93c bfd0 a5ba
00000100: 9a47 b23b 1acb acba ebef 9c3b 9c96 9d3a
00000110: 14ed 0c3c 2985 e33a 2434 3c3b f6a8 fcbb
00000120: 0d9d 233b b881 213c 3dc5 78bc e2b9 8e3b
00000130: 85af ac3c a448 d2bb cbbe 163c 6226 a4bb
00000140: cec2 743c e300 39bc a65a 173c 1021 9dbb
00000150: 0943 7d3c efab e5bb 36c8 07bc 40e7 793c
00000160: a6c1 903b fb69 fab9 46b6 b33c 2c48 b83c
00000170: c00c ad3c 0240 19bb f2a4 7cbb 859f a0bb
00000180: 685f 37bc 3b0f b03c b623 e73b 20f0 443b
00000190: 1df6 2dbb 761d 12bc 0af3 acba 278e 3eb9
000001a0: 3f5d b33b bf62 e03c 4592 9d3c 73d9 fa3b
000001b0: 79b2 553c afca 193c 0595 f3bb abac a43c
000001c0: 9096 363c ddb9 e7ba 6e75 543c 65c2 f53b
000001d0: 3009 cd3c 8248 913c 500f 223c fc4c 39bc
000001e0: 395f a93c 143e fb3b 0af8 b63c d5cf ecbb
000001f0: 793e d7bb 22ca 32bc f008 a23c 5f9a af3c
00000200: 568b 10ba 7628 883c fdb7 c2ba f5a1 183c
00000210: 88e5 9e3c bf20 86bc 0145 2e3c 58c4 4dbb
00000220: 978f e43c 244d 2b3c fe1b 04bc 0fb6 843c
00000230: 7c91 7cbc 5266 04bc c872 733c d0cf 37bc
00000240: a761 c3bb 536b 7bba dfc9 f139 4d25 ac3c
00000250: 52ae ccba d094 8e3c 6ab0 503b dbf1 073d
00000260: bd7e 98bb 41b2 05bc ac21 4f3c f650 b1ba
00000270: 63d8 9e3c 71e9 503c be99 803c 9a40 cc3b
00000280: 0eac 4e3c c00a 9d3a 0abb 5c3c 1492 22bc
00000290: a6b3 cdbb e92b 81bb cd1a 5c3c 00b3 8c3b
000002a0: ef44 603c edc6 ee3b ab53 2e3c 41a8 d73b
000002b0: 3a1f 11bb a554 0c3c b34c 54bc 329d dbbb
000002c0: 4218 963c 00cb 813c bf3e 60bc d5b9 973c
000002d0: 1d60 db3b 5b70 183b c0cd 073c 2b10 163a
000002e0: bb79 633c 4846 a53c 5587 253b cda8 8a3c
000002f0: c240 09bc 8477 35bb ab7f d93b 0950 b13c
00000300: 7e67 663c 0888 6fbc 8e37 adba 2d88 01ba
00000310: dfa4 dc3b ab76 3f3c 362a b1b9 f422 c8bb
00000320: cd85 43bb 3856 21bb 2ddb 043c 53da a53b
00000330: 471e 19bc f784 7d3b 1b6e 823c 3746 b63c
00000340: c564 553a d017 db3b 3207 1cbc eec3 c73b
00000350: c21c a93c e0a6 0a3c e084 053c 38c5 1fbb
00000360: 8c89 473c 1701 733c 1e7e 673c ef5d c43b
00000370: 029f a3bb 711f 503c b090 423c f0a0 8d3c
00000380: 2a6b 99bb b81a 103c c70c 1d3c 1dec 03bb
00000390: 75a2 223c 47d1 a93b 8408 7d3c f3f5 2a3c
000003a0: 2a3c bc3c 09aa 753c 8b5d a93c c137 863b
000003b0: 56e6 12bc 6188 81ba 616f 3f3c c8b8 f33b
000003c0: b92a 16bc df24 0d3c 0de2 a73b 9713 6e3c
000003d0: 5473 143b b359 f9bb 96a1 c0bb 06f2 77bb
000003e0: 1068 e638 feef 833c 005c a9bb cdad 873c
000003f0: 2e6e 883c f181 a5bb 3194 e23b 8ab4 a13c

encBlocks.2.conv2.weight f4 [1, 1, 3, 3]
-0.08911194 0.057105247 0.12902173 -0.18989925 0.25669047 0.31264523 -0.08726271 0.07860668
-0.13569519
00000000: 5280 b6bd 31e7 693d 461e 043e f374 42be
00000010: ef6c 833e 0913 a03e cbb6 b2bd 8afc a03d
00000020: aef3 0abe
