Model_params/test_small_macro_best.pt (torch, 44071 bytes, 26 tensors)

encBlocks.0.conv1.weight f4 [16, 3, 3, 3]
0	0x3d7ee31d	0.06222831
1	0x3e38cb22	0.18046239
2	0xbcfb51b2	-0.030678604
3	0x3e529c20	0.2056737
4	0x3e4780d3	0.19482736
5	0x3e03529c	0.12824482
6	0x3e08ab67	0.13346635
7	0xbdc284e3	-0.094980024
8	0xbd2ff4d1	-0.042958084
9	0xbdff62e3	-0.12470033
10	0xbe058630	-0.1303947
11	0xbe410a25	-0.18851526
12	0xbdda8d84	-0.10671523
13	0xbe20ef33	-0.15716247
14	0xbde7d76d	-0.11320386
15	0xbd9d028f	-0.07666504
16	0xbcfc6ae5	-0.03081269
17	0x3dcf494d	0.10121403
18	0xbd39bf4b	-0.045348447
19	0x3cf20df6	0.029547673
20	0x3dd55b6a	0.104178265
21	0xbdef582e	-0.11686741
22	0xbd3189a9	-0.043344174
23	0xbd5f8ab4	-0.054575637
24	0xbc7b25d3	-0.015328842
25	0xbd8d41ce	-0.06897317
26	0xbd8c35b7	-0.06846183
27	0x3db5eff5	0.08883659
28	0x3e431bc6	0.19053563
29	0xbdbdf49b	-0.092751704
30	0xbe2e3a4d	-0.17014427
31	0xbcffbda9	-0.031218367
32	0x3d43afc0	0.04777503
33	0xbe650023	-0.22363333
34	0xbe0f8fc0	-0.1401968
35	0x3d727eb4	0.059202865
36	0xbbd9c66e	-0.006645969
37	0x3e0c2c11	0.13688685
38	0x3dbb158e	0.091349706
39	0x3e0f8b91	0.14018084
40	0xbe0c2d3e	-0.13689134
41	0x3d3f1baf	0.04665726
42	0xbe02a4d0	-0.12758183
43	0xbe18cc83	-0.14921765
44	0xbcd75523	-0.026285714
45	0xbd8dbb5d	-0.06920502
46	0x3dac5a8f	0.0841571
47	0x3d91c6e5	0.07118014
48	0x3dcb0065	0.099121846
49	0x3e34e91d	0.1766705
50	0xbd62704d	-0.05528288
51	0x3dd045f6	0.10169594
52	0xbe1bdcad	-0.152209
53	0x3cdef809	0.027217882
54	0x3e3dde5c	0.18541855
55	0xbdc0ebb1	-0.094199546
56	0xbd1e1fd1	-0.03860456
57	0x3dbb79a6	0.09154062
58	0xbb6f5987	-0.0036521868
59	0x3d5eb3d3	0.054370712
60	0xbd1893bb	-0.03725026
61	0xbe15eb24	-0.1464048
62	0x3da84a3a	0.082172826
63	0x3cac0bc9	0.021001713
64	0xbe3ee585	-0.18642242
65	0xbdcbe0ed	-0.099550106
66	0x3e3e0029	0.18554749
67	0xbcbc969b	-0.023021033
68	0xbdbd8620	-0.09254098
69	0xbe2a70d4	-0.16644603
70	0xbdf4c797	-0.11952131
71	0xbd79d25d	-0.060991634
72	0x3d1d80ab	0.038452785
73	0xbe2bb86e	-0.16769573
74	0xbe14e3cc	-0.14540023
75	0x3df2a0a1	0.11847044
76	0x3d3436e4	0.04399766
77	0x3e2486c9	0.16067041
78	0xbbe288a3	-0.006913261
79	0x3cbc74ca	0.023004908
80	0xbdcf5f0b	-0.1012555
81	0x3e129a65	0.1431671
82	0x3e0e1f66	0.13879165
83	0x3e6dabb2	0.23210028
84	0xbdd2feba	-0.103024915
85	0x3e0ee22b	0.13953464
86	0x3e52a954	0.20572406
87	0xbde1c96b	-0.110247456
88	0xbd546a20	-0.05185902
89	0x3d8b99db	0.06816455
90	0xbd853408	-0.06504065
91	0x3d11bc77	0.035580125
92	0xbdc8980f	-0.09794628
93	0x3bca8776	0.006180699
94	0x3d59ea32	0.05320186
95	0xbde74926	-0.11293249
96	0x3d6afac1	0.057368044
97	0x3d834bcf	0.06410944
98	0x3e21742a	0.1576697
99	0x3d0db945	0.034600515
100	0xbde8088c	-0.11329755
101	0xbc013ec0	-0.007888496
102	0x3dd5062f	0.1040157
103	0x3d0f3c66	0.03496971
104	0xbaf0090c	-0.0018313243
105	0xbd1e6468	-0.038669974
106	0x3dc9edaf	0.09859788
107	0xbccc0f60	-0.024909675
108	0x3e38df06	0.18053827
109	0x3e0d863b	0.13820736
110	0x3e184589	0.14870276
111	0xbe106197	-0.14099728
112	0xbe23f1dc	-0.16010231
113	0xbe2256a3	-0.15853362
114	0x3c015694	0.007894177
115	0x3e4f23bd	0.20228477
116	0xbd807923	-0.06273105
117	0x3de8ef0d	0.1137372
118	0x3dc7029b	0.09717294
119	0x3e0f2c97	0.13981853
120	0x3d9d4312	0.07678808
121	0x3d66acab	0.056317013
122	0xbe2a595b	-0.16635649
123	0xbda129d0	-0.07869303
124	0xbe30908e	-0.17242643
125	0x3d091e4f	0.03347617
126	0xbc429375	-0.011875977
127	0x3d8f4cb0	0.06997049
128	0xbe1ecf9e	-0.15508887
129	0x399b112e	0.00029576704
130	0x3e0e9b56	0.13926443
131	0xbd89de5c	-0.06731865
132	0x3d8e8b0a	0.06960113
133	0x3d2f941b	0.042865854
134	0xbdee1ddf	-0.11626791
135	0x3dcf1363	0.101111196
136	0x3e1681b0	0.1469791
137	0x3d77a866	0.06046333
138	0xbe1318f7	-0.14364992
139	0x3d8286c3	0.0637336
140	0x3e577123	0.21039252
141	0x3d95e829	0.07319672
142	0x3e57302d	0.21014471
143	0xbdd838c0	-0.10557699
144	0xbe37add5	-0.17937405
145	0x3e0d76ce	0.13814852
146	0xbe20f8ea	-0.15719953
147	0xbd2aad6c	-0.041669294
148	0xbe18f12e	-0.14935753
149	0xbe111d22	-0.1417127
150	0x3e0ede4c	0.13951987
151	0xbe45b943	-0.19308953
152	0xbe157b16	-0.14597735
153	0xbdaf8b1d	-0.08571456
154	0x3b341e05	0.0027483713
155	0xbd4d8f55	-0.05018552
156	0xbcb5cc65	-0.02219219
157	0x3de29ee4	0.11065462
158	0xbd9f790b	-0.07786759
159	0x3c9aabb3	0.0188807
160	0xbdf4b552	-0.119486466
161	0xbe0049b8	-0.12528121
162	0xbe64b6ef	-0.22335409
163	0xbe3a8b4c	-0.182172
164	0x3d1ed6e8	0.03877917
165	0xbd2f4b53	-0.042796444
166	0x3e3ca800	0.18423462
167	0x3d08ccbc	0.033398375
168	0xbe303bc4	-0.17210299
169	0x3e67ce38	0.2263726
170	0x3daeceda	0.085355476
171	0x3dc42b64	0.095785886
172	0xbddbb664	-0.107281476
173	0x3bc16b0c	0.0059026536
174	0x3e322edb	0.17400686
175	0xbdfeb474	-0.124367625
176	0x3d2c3fc6	0.042053007
177	0xbe2760bf	-0.163455
178	0x3e1e3fae	0.1545398
179	0xbe2a287b	-0.16617005
180	0xbe09acf4	-0.13444883
181	0xbbe60012	-0.0070190514
182	0xbddcd571	-0.10782898
183	0x3d8f27ba	0.06989999
184	0x3e272862	0.16323999
185	0x3dc954e0	0.09830642
186	0xbd526118	-0.051362127
187	0x3e141cc9	0.14464106
188	0xbd8754d2	-0.06607975
189	0xbe78fed4	-0.24315959
190	0xbe0637fd	-0.13107295
191	0xbe902b14	-0.28157866
192	0xbc96c06f	-0.018402306
193	0x3c45fdc3	0.012084427
194	0xbe777922	-0.24167302
195	0xbc8105b6	-0.015749793
196	0x3d3f310a	0.046677627
197	0xbe276c26	-0.16349849
198	0xbda3a85c	-0.079910964
199	0x3cf1ee5a	0.0295326
200	0xbd71468d	-0.058905173
201	0xbe102cec	-0.14079636
202	0xbd818e9e	-0.0632603
203	0x3ca4aa5f	0.02010077
204	0xbe0d0be1	-0.13774063
205	0x3d20ce6d	0.039259363
206	0x3da5fe33	0.08105125
207	0x3e04efd7	0.12982117
208	0x3e240ce4	0.16020542
209	0x3e0bdfb4	0.13659555
210	0x3df46cf5	0.119348444
211	0xbdab7cab	-0.08373388
212	0x3d8ffcbc	0.07030627
213	0xbdc80ec8	-0.09768444
214	0x3d63d214	0.055620268
215	0x3dbde039	0.09271283
216	0x3cc3bb12	0.023892913
217	0x3e142842	0.14468482
218	0x3e2568ca	0.16153255
219	0x3d88218b	0.06647023
220	0x3d5ca0e6	0.053864382
221	0xbdeae31a	-0.114690974
222	0x3e40e5da	0.18837681
223	0xbe04210c	-0.12903231
224	0x3cf88d1d	0.030340726
225	0x3d026ca7	0.0318419
226	0x3e2e1837	0.17001425
227	0xbdbb44f5	-0.09144012
228	0xbc82da86	-0.01597334
229	0xbd1d63cf	-0.038425263
230	0x3e179382	0.14802364
231	0x3e2353b8	0.15949905
232	0x3e179656	0.14803442
233	0x3dd1758f	0.10227501
234	0x3cc99e1d	0.024611527
235	0x3e23dd51	0.16002394
236	0x3dd3452a	0.103159264
237	0xbdf471c8	-0.119357646
238	0xbda9a78a	-0.08283909
239	0xbd14582c	-0.0362169
240	0x3dd26412	0.10272993
241	0xbbf9119b	-0.0076009757
242	0x3df5f106	0.12008862
243	0xbde9c9b8	-0.11415428
244	0x3dd5e849	0.104446955
245	0xbd9d1af8	-0.076711595
246	0x3d1bbdea	0.038022913
247	0x3e47c3f0	0.19508338
248	0xbcff9b1c	-0.031201892
249	0x3e025022	0.1272588
250	0xbd668266	-0.0562767
251	0x3bb8b224	0.0056364704
252	0x3d0084e6	0.03137674
253	0xbe16ba44	-0.14719492
254	0xbe02155c	-0.1270346
255	0x3d139ec6	0.03604009

encBlocks.0.conv1.bias f4 [16]
0	0xbdfa5423	-0.12223079
1	0x3e041599	0.12898864
2	0x3e1d46db	0.1535906
3	0xbdc0d45b	-0.094155036
4	0xbe017ad2	-0.12644508
5	0xbe2f7798	-0.17135465
6	0xbe00cecc	-0.12578887
7	0xbdf676c0	-0.120343685
8	0x3e2e5072	0.17022875
9	0x3d8cfb42	0.06883861
10	0x3e004a1d	0.12528272
11	0x3d92cc56	0.0716788
12	0x3e2533e1	0.16133071
13	0xbd34ba5e	-0.044123046
14	0xbe2c3201	-0.1681595
15	0xbdecc683	-0.115613006

encBlocks.0.conv2.weight f4 [16, 16, 3, 3]
0	0xbaf85d43	-0.0018948693
1	0x3c9f7323	0.019464081
2	0xbc036017	-0.008018515
3	0xbdb9d056	-0.0907294
4	0x3d84e5e1	0.064891584
5	0xbd04fb64	-0.032466307
6	0xbda570dd	-0.080781676
7	0xba956514	-0.0011397921
8	0xbc5671a7	-0.01308862
9	0xbc8ff126	-0.017571043
10	0xbbfa0b7e	-0.0076307645
11	0x3d7c5acb	0.061610024
12	0x3d5bfc8d	0.053707648
13	0x3a1be76e	0.00059472665
14	0x3d4c5a07	0.049890544
15	0xbd5e0da0	-0.054212213
16	0xbca2f641	-0.019892814
17	0xbd5f671f	-0.054541703
18	0xbd735c32	-0.059414096
19	0x3c8e8490	0.017397195
20	0xbc010e05	-0.007876878
21	0xbd83f729	-0.064436264
22	0x3b9cdcf6	0.004787083
23	0x3d95ceb1	0.07314814
24	0x3ca60b56	0.020269077
25	0x3d681023	0.056656014
26	0xbdd76c30	-0.10518682
27	0xbd55c1c2	-0.052186735
28	0x3ce7891d	0.028263623
29	0x3d7644f0	0.060124338
30	0xbd83dee4	-0.064389974
31	0xbda6bc4e	-0.08141385
32	0x3d4a6bec	0.04941933
33	0xbd98b450	-0.07456267
34	0xbd9a56e1	-0.07536102
35	0xbd8d17ab	-0.0688928
36	0x3b658000	0.003501892
37	0xbd4acd8e	-0.04951244
38	0x3cb72bba	0.022359718
39	0x3b54af26	0.003245303
40	0x3d9b92cd	0.075963594
41	0x3d46d423	0.048542153
42	0x3d804072	0.06262292
43	0x3d0bd7c3	0.034141313
44	0x3d6a5389	0.05720857
45	0xbda31c4f	-0.07964384
46	0xbc68e6dc	-0.014215197
47	0x3d26721e	0.040636174
48	0xbdbf20e4	-0.09332445
49	0xbce0c35b	-0.027436903
50	0x3ca52d59	0.020163225
51	0x3d8c05ab	0.068370186
52	0xbdc904a9	-0.09815342
53	0x3cba0226	0.022706103
54	0xbcda28d7	-0.026630802
55	0x3d77aed1	0.060469452
56	0x3d419dd9	0.047269676
57	0xbcb03726	-0.021510672
58	0xbb80b792	-0.0039281333
59	0xbd5cfad0	-0.05395013
60	0xbdac8d40	-0.08425379
61	0x3d18ac3f	0.03727364
62	0x3d5e7a83	0.054316055
63	0x3b0635fa	0.002047895
64	0xbd9948f8	-0.07484621
65	0xbd5f0c16	-0.054454885
66	0xbccd69c0	-0.02507484
67	0x3d7e1b02	0.062037475
68	0x3c252601	0.010079862
69	0xbdb8605c	-0.09002754
70	0xbcea53af	-0.028604357
71	0xbd36ff98	-0.044677347
72	0x3ca65ba2	0.020307366
73	0xbd316498	-0.043308824
74	0xbd46a87b	-0.04850052
75	0x3d872278	0.06598371
76	0xbd4382f2	-0.0477323
77	0xbda12fd3	-0.0787045
78	0xbd35334c	-0.044238374
79	0xbd715885	-0.05892231
80	0x3976a896	0.00023523191
81	0xbd17039a	-0.03686867
82	0x3d3db4d9	0.046315048
83	0xbd87fe34	-0.06640282
84	0x3d2a9888	0.04164937
85	0x3c360266	0.01110897
86	0x3d434bb9	0.047679637
87	0xbd0e1831	-0.03469104
88	0xba2c5af3	-0.0006574832
89	0x3d6e977c	0.058249936
90	0xbd5e7b34	-0.054316714
91	0x3d5717b8	0.052512854
92	0x3caaca3c	0.020848386
93	0x3c2503b8	0.010071687
94	0xbd511651	-0.051046673
95	0xbd2a899e	-0.04163515
96	0xbdabafd5	-0.08383147
97	0xbcced912	-0.025249992
98	0x3d3d4bfa	0.046215035
99	0xbd8a7093	-0.06759753
100	0xbd16278d	-0.036658812
101	0xbbf4abca	-0.007466768
102	0x3d5c816c	0.053834364
103	0x3d843c75	0.06456844
104	0x3d450376	0.048099004
105	0xbda1be84	-0.07897666
106	0x3da12114	0.07867637
107	0x3cc483d3	0.02398864
108	0xbacac016	-0.0015468623
109	0x3a226b6b	0.0006195816
110	0x3d24971e	0.04018318
111	0x3ceab026	0.028648447
112	0x3a560979	0.00081648637
113	0x3d0bf761	0.034171466
114	0xbd17c2f4	-0.037051156
115	0xbd072059	-0.032989834
116	0x3d6383b0	0.05554551
117	0x3d79eba2	0.061015733
118	0x3d839c10	0.06426251
119	0xbca72739	-0.020404445
120	0x3cc6e4c3	0.024279004
121	0xbd980692	-0.07423128
122	0xbcb31f2a	-0.021865446
123	0xbc48280b	-0.012216578
124	0xbd89f039	-0.06735272
125	0xbd60efbc	-0.05491613
126	0x3d90f9c6	0.070788905
127	0x3d204f93	0.039138388
128	0xbd2a7e81	-0.04162455
129	0xbdb66044	-0.0890508
130	0xbd2c8edb	-0.042128425
131	0x3cb38e59	0.021918463
132	0x3d6c2949	0.05765656
133	0x3d3c5199	0.045976255
134	0x3d184501	0.037175182
135	0x3d82220e	0.06354152
136	0x3d7abaf4	0.06121345
137	0x3c848df3	0.016180968
138	0xbd0b1bba	-0.03396199
139	0xbd654251	-0.055971447
140	0x3d5dca3f	0.054147955
141	0xbd2c08a7	-0.04200044
142	0xbd1cea14	-0.03830917
143	0x3d15e54d	0.03659563
144	0xbd8930a2	-0.06698729
145	0x3d7aba32	0.061212726
146	0x3a547dfc	0.00081059313
147	0x3c8ec382	0.01742721
148	0x3d1ad576	0.03780123
149	0xbcc050f6	-0.023476105
150	0x3d5532a6	0.052050255
151	0x3b3e8613	0.0029071614
152	0x3c98606c	0.018600665
153	0x3d9f2d76	0.07772343
154	0xbd7d161a	-0.061788656
155	0x3d930530	0.07178724
156	0xbd83333f	-0.06406259
157	0xbd5b32d2	-0.053515263
158	0xbc920112	-0.017822776
159	0x3d518414	0.05115135
160	0xbc3dedda	-0.011592353
161	0xbca2978a	-0.01984765
162	0xbd2a61bd	-0.041597117
163	0x3d5cdfe5	0.05392446
164	0x3d61647b	0.055027466
165	0x3ca39e18	0.019972846
166	0xbce836e2	-0.028346483
167	0xbe12efc0	-0.1434927
168	0xbd896fa2	-0.067107454
169	0x3d5b6ba2	0.053569444
170	0xbdd695ec	-0.10477814
171	0x3c2cc6ac	0.010545414
172	0x3c79bea5	0.015243207
173	0x3db4403c	0.08801314
174	0xbb9a8ce6	-0.0047165034
175	0xbd903d00	-0.07042885
176	0x3d9fb070	0.07797325
177	0x3d925c71	0.07146538
178	0xbc6a594a	-0.014303515
179	0xbd6e1a7e	-0.058130734
180	0x3d29e5b0	0.041478813
181	0x3db57b0c	0.0886136
182	0xbc489aa1	-0.012243898
183	0xbda31784	-0.079634696
184	0x3d68a889	0.056801353
185	0x3ba6911d	0.005083217
186	0x3ca0898c	0.019596837
187	0x3d40889a	0.047005273
188	0x3d82a3bd	0.06378887
189	0xbdb204dc	-0.08692333
190	0x3ccd2f9a	0.025047112
191	0xbd37ff89	-0.04492143
192	0x3cf934e2	0.030420724
193	0xbc2f9fe5	-0.010719274
194	0x3d0a782a	0.033806004
195	0x3d2eb55c	0.042653427
196	0xbd22ec58	-0.039776176
197	0xbd68f2bb	-0.05687211
198	0xb9459f82	-0.00018846805
199	0xbd490fd5	-0.049087364
200	0x3d94734a	0.07248552
201	0x3d4aebbd	0.049541224
202	0x3c326694	0.010888714
203	0x3d0f0d74	0.03492494
204	0x3d1e4031	0.038635436
205	0x3d29f326	0.04149165
206	0x3bff49c5	0.0077907764
207	0xbd60483c	-0.054756388
208	0x3dc72864	0.09724501
209	0x3d80e9c4	0.06294587
210	0xbd5a028c	-0.053225085
211	0x3b676762	0.0035309424
212	0xbd33d352	-0.043902703
213	0xbd409639	-0.047018263
214	0x3da35a92	0.07976259
215	0xbd698532	-0.05701179
216	0x3d491568	0.04909268
217	0xbd764584	-0.06012489
218	0x3d4492c7	0.04799154
219	0x3d158097	0.036499586
220	0x3d20f06f	0.039291795
221	0xbb36cf87	-0.0027894692
222	0x3d7e7fd3	0.06213362
223	0x3ab17e68	0.00135417
224	0xbd773503	-0.06035329
225	0x3d822050	0.06353819
226	0xbd94f60d	-0.07273493
227	0xbd1afa7c	-0.037836537
228	0xbd656c8c	-0.05601172
229	0x3d8cf26f	0.06882178
230	0xbd64b261	-0.055834178
231	0x3baac9bf	0.0052120383
232	0x3d45f85a	0.04833255
233	0xbd7c6503	-0.06161977
234	0xbcd95aa3	-0.026532477
235	0xbce8bce2	-0.028410379
236	0x3b809abb	0.0039246953
237	0x3c21d68c	0.009877812
238	0xbc105cdf	-0.008811205
239	0xbb503e04	-0.0031775245
240	0xbde62137	-0.11236804
241	0xbc89fa4d	-0.016842986
242	0xbc58c9f7	-0.013231746
243	0x3dae3fc9	0.0850826
244	0xbd88291a	-0.066484645
245	0x3d23e9b3	0.040017795
246	0xbc236577	-0.009972922
247	0xbd80c114	-0.06286827
248	0x3dabb65a	0.0838439
249	0xbd4617bf	-0.04836249
250	0x3ccff5c2	0.025385741
251	0xbbc76481	-0.006084979
252	0xbc14add6	-0.009074649
253	0x3cac4a6d	0.021031583
254	0xbce65c22	-0.028120104
255	0x3d711c97	0.058865156

encBlocks.0.conv2.bias f4 [16]
0	0xbd41aef3	-0.047285985
1	0x3d55886a	0.052132048
2	0xbda554f5	-0.08072845
3	0xbd95e269	-0.07318575
4	0xbd8e459d	-0.069468714
5	0x3cbf0e0f	0.023322133
6	0x3c8f1c2a	0.017469484
7	0x3d1cf2a0	0.038317323
8	0x3cc2d326	0.023782324
9	0xbc1bf178	-0.00951802
10	0xbc05030f	-0.008118405
11	0xbc984192	-0.018585954
12	0xbd73a2cb	-0.059481423
13	0x3ce3a645	0.027789244
14	0x3d2ddccf	0.042446908
15	0x3c78b055	0.01517876

encBlocks.0.BN1.weight f4 [16]
0	0x3f83925f	1.0279044
1	0x3f7c2701	0.98497015
2	0x3f7d550e	0.9895791
3	0x3f812310	1.0088825
4	0x3f7c2f7f	0.98509973
5	0x3f7fd63b	0.99936265
6	0x3f7a0622	0.9766561
7	0x3f8142f6	1.009856
8	0x3f7cb546	0.987141
9	0x3f7643c1	0.96197134
10	0x3f80ea2d	1.0071465
11	0x3f8150ad	1.0102745
12	0x3f80a317	1.0049771
13	0x3f78bc96	0.9716276
14	0x3f7dba92	0.9911281
15	0x3f7e8182	0.99416363

encBlocks.0.BN1.bias f4 [16]
0	0xbc716572	-0.014733659
1	0xbbe69b41	-0.0070375507
2	0xbcf0f4f1	-0.029413672
3	0x3b543f85	0.0032386493
4	0xbc3d135e	-0.011540262
5	0xbb878213	-0.004135379
6	0xbc9297e7	-0.017894698
7	0xbc844869	-0.01614781
8	0xbc45dc0e	-0.012076391
9	0xbc921dfd	-0.017836565
10	0x3c522ef5	0.012828578
11	0x3bba0900	0.0056773424
12	0x3caf91ea	0.021431882
13	0xbca069d6	-0.019581717
14	0x3b77f29f	0.0037833822
15	0xbcfcfe30	-0.030882925

encBlocks.0.BN1.running_mean f4 [16]
0	0xbee859dd	-0.4538106
1	0x3e1ed948	0.15512574
2	0xbe0ae132	-0.13562468
3	0x3e8fe7b1	0.28106454
4	0xbc83c3a0	-0.016084492
5	0xbf0908e8	-0.53529215
6	0xbe0c589b	-0.13705675
7	0xbec8edb5	-0.39243856
8	0x3f5656b3	0.8372604
9	0x3e4693ba	0.1939229
10	0xbf0e86a6	-0.5567421
11	0x3e91affa	0.28454572
12	0x3ec36947	0.38166258
13	0xbe71db05	-0.23618706
14	0x3dc27935	0.09495775
15	0x3e0f8736	0.14016423

encBlocks.0.BN1.running_var f4 [16]
0	0x3d846832	0.06465186
1	0x3cc1277d	0.0235784
2	0x3d31ef47	0.043441083
3	0x3d92d07d	0.07168672
4	0x3cd6a0b6	0.02619968
5	0x3d90f721	0.07078386
6	0x3cd39d6f	0.025831906
7	0x3d9b909c	0.075959414
8	0x3e1e0e2a	0.1543509
9	0x3cc9b7fe	0.024623867
10	0x3e297d0b	0.16551606
11	0x3d358bd6	0.04432281
12	0x3cf0f478	0.029413447
13	0x3d00dda2	0.031461366
14	0x3d0e16ee	0.034689836
15	0x3d26d060	0.040726066

encBlocks.0.BN2.weight f4 [16]
0	0x3f7cc534	0.9873841
1	0x3f7f032e	0.99614227
2	0x3f7d757a	0.9900738
3	0x3f81f2c7	1.0152215
4	0x3f804ea6	1.0024002
5	0x3f7ecaa5	0.9952796
6	0x3f85949b	1.0435976
7	0x3f80dfae	1.0068262
8	0x3f84474f	1.0334262
9	0x3f80b278	1.0054464
10	0x3f7fa126	0.9985527
11	0x3f7c9292	0.9866115
12	0x3f805464	1.0025754
13	0x3f813716	1.0094936
14	0x3f7ab9fc	0.9794004
15	0x3f7a3f29	0.97752625

encBlocks.0.BN2.bias f4 [16]
0	0xbd320548	-0.043462068
1	0xbd32e5dc	-0.043676242
2	0xbd059a29	-0.03261772
3	0x3b4c1adc	0.003114394
4	0x3c7675a4	0.015042696
5	0xbcf8ee9a	-0.030387212
6	0xbdb38340	-0.08765268
7	0xba3f6da1	-0.0007302408
8	0xbd171710	-0.03688723
9	0xbd24e92b	-0.04026143
10	0xbccbee40	-0.02489388
11	0xbd42baab	-0.0475413
12	0xbb61af90	-0.0034436919
13	0xbd9033a2	-0.07041098
14	0xbc9e713e	-0.019341107
15	0xbdb01d89	-0.085993834

encBlocks.0.BN2.running_mean f4 [16]
0	0xbe99ccb3	-0.30038986
1	0x3e08358d	0.13301678
2	0xbe934586	-0.2876398
3	0xbd6ccb5e	-0.057811134
4	0xbd354b88	-0.044261485
5	0x3ec5a98c	0.38605917
6	0x3f0ecebc	0.557842
7	0x3e25adb0	0.16179538
8	0x3f1047d0	0.5635958
9	0xbe047bce	-0.12937853
10	0x3ed94b68	0.42440343
11	0xbf394a73	-0.72379225
12	0x3d453912	0.04815013
13	0x3ef27896	0.47357625
14	0xbe0db7ed	-0.13839693
15	0xbe86aef2	-0.26305348

encBlocks.0.BN2.running_var f4 [16]
0	0x3e2dc81b	0.16970865
1	0x3e8c9f77	0.27465412
2	0x3e7d807c	0.24756044
3	0x3e67d3b1	0.22639348
4	0x3ea0c1ad	0.31397763
5	0x3db43dd1	0.08800853
6	0x3dac01dd	0.08398793
7	0x3e9939bd	0.29926863
8	0x3e34dd2f	0.176625
9	0x3e1389da	0.14408055
10	0x3e009a46	0.1255885
11	0x3e52e75e	0.20596072
12	0x3e0342e2	0.12818483
13	0x3e0f49aa	0.13992944
14	0x3dfc83e7	0.12329846
15	0x3eb695b9	0.35661104

encBlocks.1.conv1.weight f4 [16, 16, 3, 3]
0	0xbd59adeb	-0.053144377
1	0xbd2d5622	-0.04231847
2	0xbd91e12c	-0.07123026
3	0x3dac6200	0.084171295
4	0xbd9ae3e9	-0.07563002
5	0xbd7083ed	-0.058719564
6	0x3c1bf5f9	0.009519094
7	0xbd13e75f	-0.036109325
8	0x3d0cac72	0.034344144
9	0xbd94ca0f	-0.07265102
10	0xbc9ee44d	-0.019395972
11	0xbd27b4df	-0.040943976
12	0xbdab2799	-0.08357162
13	0xbda63bed	-0.08116899
14	0x3d11b106	0.035569213
15	0xbd8768df	-0.066117994
16	0x3c9749e8	0.018467858
17	0xbd4b8358	-0.049685806
18	0x3d279cfb	0.040921193
19	0x3bf88f61	0.0075854515
20	0xbcf8ac11	-0.030355485
21	0xbd40a5c2	-0.04703308
22	0xbd037222	-0.032091267
23	0x3d990f86	0.07473664
24	0x3c3a0d75	0.0113557475
25	0xbd2a67ed	-0.041603018
26	0x3c3e1e96	0.011603972
27	0xbd30c850	-0.043159783
28	0xbd28a392	-0.041171618
29	0x3cba7ac4	0.022763617
30	0xbd1bb6a0	-0.03801596
31	0x3d72c726	0.059271954
32	0x3cf96d3a	0.030447591
33	0xbd42f703	-0.04759885
34	0x3bdd5a09	0.006755118
35	0x3cf27f6b	0.029601773
36	0x3c3a9ad6	0.011389455
37	0xbd91c896	-0.07118337
38	0xbdea9e81	-0.114560135
39	0xbda79e6d	-0.08184514
40	0x3c719b10	0.014746442
41	0xbc8d9eb8	-0.017287597
42	0xbd084387	-0.033267524
43	0x3d0ff838	0.03514883
44	0x3ccad676	0.024760466
45	0x3d64e28a	0.055880107
46	0xbdac4fb2	-0.08413638
47	0xbdabb736	-0.08384554
48	0x3d1b7f77	0.037963357
49	0xbd6ad469	-0.057331476
50	0x3cd69e9f	0.026198683
51	0x3d2aaed9	0.041670654
52	0xbdb23d91	-0.08703149
53	0x3c2dd3fb	0.010609622
54	0xbddfca2a	-0.109272316
55	0xbc7e08b5	-0.015505006
56	0xbdca50c6	-0.098786876
57	0x3b39f7e4	0.0028376514
58	0xbdafa65c	-0.085766524
59	0xbdbaa903	-0.09114268
60	0xbdf14067	-0.11779862
61	0xbcd4e63a	-0.025988687
62	0x3ccf6ccb	0.025320431
63	0xbd39f733	-0.045401763
64	0x3d4e11a9	0.05030981
65	0xbd9671cc	-0.07345924
66	0x3d4d9ec5	0.050200243
67	0xbd756a08	-0.059915572
68	0xbca2bceb	-0.019865474
69	0xbd9aa103	-0.07550242
70	0x3d2f54cf	0.04280549
71	0x3cb18a41	0.02167237
72	0xbd57fd7c	-0.052731976
73	0xbd5ec6b5	-0.05438872
74	0xb9775238	-0.00023586384
75	0xbbf7247f	-0.0075421925
76	0xbd9f270e	-0.07771121
77	0xbd684231	-0.05670375
78	0x3d634862	0.05548895
79	0xbd1035e5	-0.035207648
80	0x3b957b49	0.004561816
81	0x3ce3ea07	0.027821554
82	0xbdcbaab3	-0.09944668
83	0xbd5f9d41	-0.05459333
84	0xbde0a7fa	-0.10969539
85	0xbcbb20f0	-0.022842854
86	0xbd5cc855	-0.05390199
87	0xbd984502	-0.07435037
88	0xbca5e09c	-0.020248704
89	0xbd849136	-0.06473009
90	0xbd07ff52	-0.033202477
91	0x3d19b119	0.03752241
92	0xbdc14b54	-0.09438196
93	0x3d1446d1	0.03620035
94	0x3ce17ca9	0.027525263
95	0x3d1de830	0.03855151
96	0xbd056635	-0.032568175
97	0xbd67ba6b	-0.056574266
98	0xbd975260	-0.07388759
99	0xbc593485	-0.013257151
100	0x3bafa467	0.0053601745
101	0xbcebcfe9	-0.028785663
102	0xbce3a13c	-0.027786843
103	0x3ca0a877	0.01961158
104	0x3d8f16df	0.06986784
105	0x3d433599	0.047658537
106	0xbc6e3428	-0.014538802
107	0x3d7f5fb6	0.062347136
108	0x3caa0814	0.020755805
109	0xbca759cc	-0.02042856
110	0x3c4f8212	0.0126652885
111	0xbb32f6ec	-0.0027307821
112	0xbdccc4c0	-0.099984646
113	0xbd35bdca	-0.04437045
114	0xbd37338e	-0.0447269
115	0x3c3a9cc0	0.011389911
116	0xbd48fa54	-0.049066857
117	0xbd63aba1	-0.0555836
118	0xbd28470c	-0.04108338
119	0xbdf5eaf3	-0.12007704
120	0xbc09d150	-0.00841172
121	0xbd9c4ffe	-0.07632445
122	0x39dbc410	0.00041917013
123	0x3ce71aac	0.02821096
124	0x3b07ce56	0.002072235
125	0xbcec1023	-0.028816288
126	0x3c81d13b	0.01584684
127	0x3d20cf23	0.03926004
128	0x3c067831	0.008207367
129	0xb98c2802	-0.0002673269
130	0xbd50dcc3	-0.050991785
131	0x3ce3b113	0.027794397
132	0x3d496290	0.049166262
133	0xbd6a45ac	-0.05719535
134	0xbd21a00a	-0.039459266
135	0xbd9a052d	-0.075205185
136	0x3d6be6ec	0.05759327
137	0x3d06cb6e	0.03290885
138	0xbd998b9f	-0.07497334
139	0xbd6e4dce	-0.05817967
140	0x3c5e85b7	0.013581685
141	0xbd225bbb	-0.039638262
142	0x3b954f28	0.0045565553
143	0xbd0033f5	-0.03129955
144	0x3d2d679b	0.042335134
145	0xbc8662c4	-0.016404517
146	0xbd3e4ed1	-0.046461884
147	0xbd02f954	-0.03197606
148	0x3bf510a7	0.0074787918
149	0xbda647e0	-0.08119178
150	0x3d89cd43	0.06728604
151	0xbc928747	-0.01788677
152	0x3c031b55	0.008002122
153	0x3c6fe198	0.014641188
154	0xbc5a6309	-0.013329276
155	0xbd91dd5a	-0.071222976
156	0x3d88ae3c	0.066738576
157	0xbdb23431	-0.08701361
158	0x3d7e1dd3	0.06204016
159	0x3d187cb8	0.037228316
160	0xbd2ad438	-0.041706294
161	0x3cc21a1c	0.02369409
162	0xbcdde556	-0.027086895
163	0xbc9c2ec0	-0.01906526
164	0xbbe2eb89	-0.0069250506
165	0xbbac67b9	-0.005261388
166	0xbd50a4e8	-0.050938517
167	0xbd7ea24d	-0.0621665
168	0x3c4c3c33	0.0124655245
169	0x3c5dc508	0.013535745
170	0x3d08a96b	0.033364695
171	0xbd969ef3	-0.07354536
172	0xbd93b9ec	-0.07213196
173	0xbd96e291	-0.07367433
174	0x3d2c1136	0.0420086
175	0x3ca0c5b3	0.01962552
176	0x3c34cb87	0.011034853
177	0xbcaa5d87	-0.02079655
178	0xbd19ed08	-0.037579566
179	0xbd15bc9b	-0.03655682
180	0xbd4b0e95	-0.049574453
181	0xbcfff320	-0.03124386
182	0x3c97d15d	0.01853245
183	0xbd9f1df2	-0.077693835
184	0x3d4ba0b7	0.049713816
185	0x3ca29658	0.01984708
186	0xbd3ec70a	-0.046576537
187	0x3c1a836f	0.00943075
188	0xbd43dd82	-0.04781867
189	0x3d857df2	0.06518163
190	0xbd9b6ea6	-0.07589464
191	0xbb27fe16	-0.0025633625
192	0xbd2a25bf	-0.041539904
193	0xbd9664c6	-0.0734344
194	0xbd67af1f	-0.056563493
195	0xbd9e3aac	-0.077260345
196	0xbd49dba5	-0.049281735
197	0x3d663e52	0.056211777
198	0xbdb7c80d	-0.089737035
199	0x3d3e5e8e	0.046476893
200	0x3d2715b5	0.040792186
201	0x3ce680c2	0.028137568
202	0xbd8ef913	-0.06981101
203	0xbdac360e	-0.084087476
204	0x3d909199	0.070590205
205	0xbc478e3d	-0.012179908
206	0x3cfc72bb	0.030816427
207	0xbdb3f9d9	-0.08787889
208	0xbdb52ee8	-0.08846837
209	0x3cf16725	0.029468128
210	0xbd215fc2	-0.039397962
211	0xbd6dc98a	-0.05805353
212	0x3cd130a3	0.025535887
213	0xbcd43f7f	-0.025909184
214	0x3d281f99	0.04104576
215	0xbb13987c	-0.0022521308
216	0xbbfd56eb	-0.0077313087
217	0xbd9c549c	-0.076333255
218	0x3ca7eb6b	0.020497998
219	0x3d4624e8	0.04837504
220	0x3c3a73ac	0.011380117
221	0xb99103a8	-0.0002765928
222	0xbda24ac3	-0.07924416
223	0x3d59faac	0.053217575
224	0xbd1e110e	-0.038590483
225	0xbcf2e6b1	-0.029651018
226	0x3bba6aca	0.005689
227	0xbcafbaa1	-0.021451296
228	0x3d6bbaae	0.05755108
229	0x3c6836ba	0.014173204
230	0xbd582db4	-0.05277796
231	0x3d36f56d	0.04466765
232	0xbc421f65	-0.011848305
233	0xbc86259f	-0.016375361
234	0x3d4d9fe3	0.050201308
235	0x3cddf4ee	0.02709433
236	0x3d193a9d	0.037409414
237	0x3add189b	0.0016868295
238	0x3cfbfbc7	0.030759705
239	0xbb8f57cf	-0.0043744813
240	0x3cf83277	0.030297501
241	0x3d42a725	0.047522683
242	0xbd913e9c	-0.0709202
243	0x3bdda920	0.006764546
244	0xbdab7ce9	-0.08373434
245	0x3d5ca9b0	0.053872764
246	0x3d805031	0.06265295
247	0xbcab9d42	-0.02094901
248	0xbcd11ca1	-0.025526347
249	0x3cb29832	0.021801088
250	0xbd919c31	-0.07109869
251	0x3d5943d9	0.05304322
252	0xbd916483	-0.07099249
253	0x3c4c840d	0.012482655
254	0xbcc6fed4	-0.024291433
255	0xbda34ebb	-0.07974001

encBlocks.1.conv1.bias f4 [16]
0	0xbce5b726	-0.028041434
1	0xbc84178a	-0.016124506
2	0x3d495392	0.049151964
3	0xbaa7ad8c	-0.001279281
4	0xbce8fd4a	-0.02844109
5	0xbd72cf16	-0.059279524
6	0xbd4c01f4	-0.04980655
7	0xbca5adfb	-0.020224562
8	0x3d05358b	0.032521766
9	0x3cc90590	0.024538785
10	0x3cac89ee	0.021061864
11	0x3d527140	0.051377535
12	0x3d8f23a8	0.06989223
13	0xbd9ccfaa	-0.07656796
14	0xbd732b2f	-0.059367355
15	0xbd4725b5	-0.048619945

encBlocks.1.conv2.weight f4 [16, 16, 3, 3]
0	0x3caf0b90	0.021367818
1	0x3d6ae423	0.057346474
2	0x3da9da3e	0.082935795
3	0xbd2886de	-0.041144244
4	0xbd53d038	-0.051712245
5	0xbd242712	-0.040076323
6	0xbd1456dd	-0.03621565
7	0xbd3032c1	-0.043017153
8	0x3c49a173	0.012306559
9	0x3c429d51	0.0118783275
10	0xbcec75b2	-0.028864715
11	0xbd415c58	-0.047207206
12	0xbd3e2f23	-0.04643167
13	0x3d72922c	0.05922143
14	0x3d811691	0.06303132
15	0x3d8c2f21	0.068449266
16	0x3ca7657a	0.02043413
17	0xbd7dc91b	-0.061959367
18	0xbd918e79	-0.07107253
19	0x3daabe83	0.083371185
20	0xbd34d8a0	-0.044151902
21	0x3cc75c73	0.024336075
22	0xbc2712b5	-0.010197331
23	0xbce4b187	-0.027916683
24	0xbd32c7c7	-0.043647554
25	0xbda38e07	-0.07986074
26	0xbc6f6cac	-0.014613312
27	0xbca52cf9	-0.020163046
28	0xbd482c84	-0.04887058
29	0x3d7c375e	0.06157624
30	0xbdb45468	-0.08805162
31	0x3caacc8b	0.020849487
32	0x3d202fb0	0.03910798
33	0x3cbb0013	0.022827184
34	0xbd011568	-0.031514555
35	0xbbda207c	-0.0066567045
36	0x3d4a179f	0.049338933
37	0xbdac9b96	-0.08428113
38	0xbd829b0d	-0.0637723
39	0xbd1e55b1	-0.03865594
40	0xbd42e326	-0.047579907
41	0x3d82aa7d	0.06380174
42	0xbc94c2a2	-0.018159214
43	0x3cc13b17	0.023587747
44	0x3d9b7474	0.07590571
45	0xbcc217ae	-0.023692932
46	0xbd3d0e8b	-0.046156447
47	0xbd64e2d0	-0.055880368
48	0xbda298cd	-0.07939301
49	0xbcf32f81	-0.029685738
50	0x3d106910	0.035256445
51	0x3c8dc03c	0.017303579
52	0x3d1231fc	0.0356922
53	0x3be18549	0.006882344
54	0xbd2d7467	-0.042347338
55	0xbbc4bdee	-0.0060040867
56	0x3bfcaef8	0.0077112876
57	0xbd93e941	-0.07222224
58	0xba0fd452	-0.0005486655
59	0x3bf12b2d	0.0073598833
60	0xbd971f67	-0.073790364
61	0xbd2ac508	-0.04169181
62	0xbd4570f0	-0.04820341
63	0xbd2da633	-0.042394828
64	0xbd0a82ed	-0.033816267
65	0x3d359ff1	0.044341985
66	0xbc9c0dc5	-0.019049535
67	0xbd9c50eb	-0.076326214
68	0xbd413399	-0.047168348
69	0xbd033127	-0.032029297
70	0x3cfd8a33	0.030949688
71	0x3d7ace73	0.06123204
72	0x3d692695	0.05692156
73	0x3cfab63e	0.030604478
74	0x3d4ad339	0.049517844
75	0x3cad07f8	0.021121964
76	0x3d8eec46	0.06978659
77	0x3d385ca7	0.045010235
78	0xbcd33f8e	-0.025787141
79	0x3db31486	0.08744149
80	0x3d6b0733	0.057379913
81	0xbd29267b	-0.041296463
82	0xbd4fbe5b	-0.050718646
83	0xbd893db9	-0.06701226
84	0xbd1aae72	-0.03776402
85	0xbd65ca51	-0.056101147
86	0xbd48551a	-0.048909284
87	0xbd89eb89	-0.06734378
88	0x3db40f69	0.08792002
89	0x3cb8d19e	0.02256089
90	0x3cd2075c	0.025638275
91	0x3d38a854	0.045082405
92	0xbdb7b7ec	-0.08970627
93	0xbdd79555	-0.1052653
94	0xbd6fb1bf	-0.05851912
95	0x39e33326	0.00043334923
96	0x3cff5642	0.03116906
97	0xbca1c3a3	-0.019746607
98	0xbd67776c	-0.056510374
99	0xbc479caf	-0.012183352
100	0xbddd9c08	-0.10820776
101	0xbd8b71c5	-0.06808809
102	0xbd1d8c3d	-0.03846382
103	0x3d62e627	0.05539527
104	0x3ce276e4	0.027644582
105	0x3ba73290	0.005102463
106	0xbb0600e8	-0.0020447318
107	0x3dd14ac7	0.10219341
108	0xbc9b7ed7	-0.01898138
109	0x3d94eebd	0.07272098
110	0x3c628e9e	0.013827948
111	0xbd696d33	-0.056988906
112	0x3cf7a985	0.0302322
113	0x3a75f1a2	0.00093820144
114	0xbc8a472a	-0.016879637
115	0x3d837019	0.06417865
116	0x3d16f3f4	0.036853746
117	0x3ca9871d	0.02069431
118	0x3c716afd	0.014734981
119	0xbcfd33b1	-0.030908437
120	0x3d4bce9d	0.04975759
121	0xbd16fbbb	-0.036861163
122	0x3da6e888	0.081498206
123	0xbcc19053	-0.02362839
124	0x3c85f86f	0.016353814
125	0xbc0c31a6	-0.008556759
126	0xbc054722	-0.008134635
127	0xbd74e68a	-0.05979017
128	0x3c8bad48	0.0170504
129	0xbd2fe69c	-0.042944536
130	0xbc8d27a2	-0.017230812
131	0x3b134328	0.0022470448
132	0x3db144a1	0.08655668
133	0x3d6d07a1	0.057868604
134	0x3bd5f408	0.006529335
135	0xbdab9742	-0.083784595
136	0xbd8c4371	-0.06848801
137	0xbd9aecbf	-0.07564687
138	0x3d3b3ba1	0.045711163
139	0xbccb562f	-0.024821369
140	0xb9988764	-0.00029092573
141	0xbd34f626	-0.044180058
142	0xbb6402d6	-0.003479173
143	0x3cd3372e	0.025783148
144	0xbda428e2	-0.0801561
145	0x3d79e4d4	0.061009243
146	0xbd4496bd	-0.047995318
147	0x3be70741	0.0070504253
148	0x3cdd8bb1	0.02704415
149	0xbd4393b3	-0.04774828
150	0x3cce0384	0.02514816
151	0x3cb9e44d	0.02269187
152	0x3c6304c2	0.013856115
153	0xbd6be6e4	-0.05759324
154	0x3c1d485e	0.009599773
155	0x3d9619fa	0.073291734
156	0xbce977f5	-0.028499583
157	0xbd6429db	-0.05570398
158	0xbcc0e443	-0.023546344
159	0x3d485a3b	0.048914175
160	0x3d6838f5	0.056694943
161	0xbc88ec1b	-0.016714146
162	0x3d3e128b	0.046404403
163	0xbce57ce8	-0.028013662
164	0xbd3c7f1c	-0.04601966
165	0x3d88b46b	0.06675037
166	0x3d33ffa5	0.043944973
167	0xbd3e3bdc	-0.046443805
168	0x3c441a63	0.011969182
169	0x3bc68319	0.0060581085
170	0x3cbf56dd	0.02335685
171	0xbceddf1d	-0.029037053
172	0xbd306bfb	-0.04307173
173	0xbd666867	-0.05625191
174	0xbd3e62ed	-0.04648106
175	0xbcf735b8	-0.030176982
176	0xbda55ab6	-0.08073942
177	0xbdb2583b	-0.08708235
178	0xbd665c1d	-0.05624019
179	0x3d2857d0	0.04109937
180	0x3c51d13a	0.012806231
181	0xbdbbd6eb	-0.09171852
182	0x3d3381fa	0.043825127
183	0xbd545da3	-0.05184711
184	0x3bb0543f	0.0053811367
185	0x3d3588e4	0.044320002
186	0x3c2726b1	0.010202096
187	0xbd611aae	-0.054957084
188	0x3d4b8b4c	0.04969339
189	0x3d98e552	0.074656144
190	0xbd1ace58	-0.03779444
191	0xbd4e0cb3	-0.05030508
192	0x3d2dec06	0.042461418
193	0x3d79b414	0.06096275
194	0x3d5c85f1	0.053838674
195	0x3d023d1f	0.03179657
196	0xbd2b4a7e	-0.04181909
197	0xbdb105fe	-0.08643721
198	0x3bee86c2	0.007279248
199	0x3c3a02e0	0.0113532245
200	0xbd8517f8	-0.06498712
201	0xbd70a56a	-0.0587515
202	0xbda70078	-0.08154386
203	0xbc81e54c	-0.015856408
204	0x3c7a3476	0.015271297
205	0x3d04d72f	0.032431778
206	0xbd0ea2db	-0.03482328
207	0xbdbb6eb8	-0.09151977
208	0xbdc16f1a	-0.09445019
209	0x3b4fc178	0.003170101
210	0xbd3914cd	-0.045185853
211	0xbd574d8e	-0.052564196
212	0x3cc80e45	0.024420867
213	0xbcfd1b68	-0.030896857
214	0xbd333f92	-0.043761797
215	0xbc4d8097	-0.012542865
216	0x3d13e857	0.03611025
217	0x3ce92de2	0.028464261
218	0x3c1d447d	0.009598848
219	0x3d6a9a70	0.05727619
220	0xbd5fde75	-0.05465551
221	0xbcbe3444	-0.023218282
222	0x3d1f3b05	0.038874645
223	0x3cfe0a87	0.03101088
224	0x3dc67422	0.09690119
225	0xbc87182b	-0.016491016
226	0x3ce83dd7	0.0283498
227	0x3b5d07ff	0.003372669
228	0x3d863537	0.06553119
229	0xbce899fe	-0.028393742
230	0xbd40d2e7	-0.047076132
231	0xbb603e71	-0.0034216905
232	0x3d3b9dbf	0.045804735
233	0xbc8c4ca0	-0.017126381
234	0x3da26af8	0.07930559
235	0xbbf3e4a5	-0.007443028
236	0xbd6d2109	-0.057892833
237	0x3da0edc9	0.07857854
238	0xbd07a8c0	-0.033119917
239	0x3d9eaa60	0.0774734
240	0x3db9ae8d	0.09066496
241	0xbc0bd2e8	-0.008534171
242	0xbcc25e46	-0.023726594
243	0xbd6c6f03	-0.057723057
244	0xbbc8e0fa	-0.006130335
245	0xbda0ab09	-0.07845122
246	0xbc075c0a	-0.00826169
247	0x3d644fab	0.05574004
248	0xbd16c5b8	-0.036809653
249	0x3d43fb91	0.047847334
250	0xbd443e9e	-0.04791128
251	0xbc02f359	-0.007992589
252	0xbcc8931a	-0.024484206
253	0x3d9148b5	0.07093946
254	0xbb2e9092	-0.0026636464
255	0xba8e4697	-0.0010854778

encBlocks.1.conv2.bias f4 [16]
0	0xbd975ad1	-0.07390369
1	0xbc19f46b	-0.009396653
2	0x3dc17674	0.09446421
3	0xbd070e48	-0.032972604
4	0xbd343bae	-0.044002227
5	0x3d78f45b	0.06077991
6	0xbca80c84	-0.02051378
7	0x3d80b427	0.06284361
8	0x3b8b9a2a	0.004260321
9	0xbda80691	-0.082043774
10	0x3d95ecad	0.07320533
11	0xbd61028b	-0.054934066
12	0xbd6c05b0	-0.05762261
13	0x3cf936a7	0.030421568
14	0x3d9b8ed3	0.07595601
15	0xbd7787fb	-0.060432415

encBlocks.1.BN1.weight f4 [16]
0	0x3f7d6d3d	0.9899481
1	0x3f7cb4b0	0.9871321
2	0x3f8236aa	1.0172932
3	0x3f839acb	1.0281614
4	0x3f7e2a02	0.9928285
5	0x3f80574c	1.0026641
6	0x3f7e13f7	0.99249214
7	0x3f824998	1.0178709
8	0x3f7cada9	0.98702484
9	0x3f7fc8eb	0.9991595
10	0x3f80d99f	1.0066413
11	0x3f7fb4bf	0.9988517
12	0x3f7ff89d	0.9998873
13	0x3f7c7e51	0.98630244
14	0x3f81cae1	1.0140039
15	0x3f7c6b35	0.98601085

encBlocks.1.BN1.bias f4 [16]
0	0xbb7a2f26	-0.0038175075
1	0xbca5865b	-0.020205667
2	0xbcbba755	-0.022906939
3	0x3c8df8f3	0.017330622
4	0xbcc93701	-0.02456236
5	0xb9dd9016	-0.00042259757
6	0xbb98f505	-0.0046678805
7	0x3d2051cc	0.039140508
8	0xbd56d757	-0.052451458
9	0xbcda6d64	-0.02666349
10	0x3b7d8df2	0.0038689342
11	0xbac45df9	-0.0014981619
12	0x3bdc5ca5	0.0067249113
13	0xbb354488	-0.0027659256
14	0xbd0b548f	-0.03401619
15	0xbc2463c5	-0.010033553

encBlocks.1.BN1.running_mean f4 [16]
0	0xbfb5016e	-1.4141061
1	0xbf12115e	-0.5705775
2	0x3c921798	0.017833516
3	0xbf7a2bfc	-0.97723365
4	0xbf932902	-1.149689
5	0x3ec7b484	0.3900491
6	0xbf3eecd1	-0.74580103
7	0xbf05be55	-0.5224355
8	0xbef9a3f6	-0.48757905
9	0x3ecceb18	0.40023112
10	0x3f60f30d	0.87870866
11	0x3f4fcf61	0.8117581
12	0x3ef895b4	0.48551714
13	0x3e255a2b	0.16147678
14	0xbf190e1b	-0.5978715
15	0x3d13d8c2	0.03609539

encBlocks.1.BN1.running_var f4 [16]
0	0x405d0b4b	3.4538143
1	0x3f804aee	1.0022867
2	0x3eecfb8e	0.4628567
3	0x3fe375f3	1.777037
4	0x40295195	2.6456044
5	0x3fa5a876	1.2942035
6	0x3fd1d18e	1.6392076
7	0x3f60f228	0.878695
8	0x3f0b5b95	0.5443662
9	0x3f42f4e7	0.7615494
10	0x3fd3b39f	1.6539191
11	0x3f563343	0.8367197
12	0x3f4e15a0	0.8050175
13	0x3f287851	0.6580859
14	0x3f376b97	0.71648544
15	0x3ef18a3b	0.47175774

encBlocks.1.BN2.weight f4 [16]
0	0x3f7c6088	0.98584795
1	0x3f811ffa	1.0087883
2	0x3f7fd815	0.9993909
3	0x3f813226	1.0093429
4	0x3f804546	1.002114
5	0x3f8037d0	1.0017033
6	0x3f79e2bb	0.9761159
7	0x3f7b3e34	0.9814179
8	0x3f776a4c	0.9664657
9	0x3f7c124e	0.9846543
10	0x3f7a2819	0.97717434
11	0x3f8080e0	1.003933
12	0x3f83f295	1.0308405
13	0x3f80f498	1.0074644
14	0x3f789b04	0.97111535
15	0x3f80d999	1.0066406

encBlocks.1.BN2.bias f4 [16]
0	0xbdb90be4	-0.09035471
1	0xbcf552ad	-0.02994665
2	0xbd83986b	-0.06425556
3	0xbdb61138	-0.08890003
4	0xbc59c9be	-0.013292728
5	0x3bc90283	0.0061343326
6	0xbdc4c08c	-0.09607038
7	0xbcf7527c	-0.030190699
8	0xbdf611e1	-0.12015129
9	0xbda7ebc9	-0.08199269
10	0x3b2f85f9	0.0026782735
11	0xbda317b6	-0.07963507
12	0xbe1b2df5	-0.1515425
13	0xbc933d3c	-0.017973535
14	0xbde17ebe	-0.11010502
15	0xbca3893e	-0.019962903

encBlocks.1.BN2.running_mean f4 [16]
0	0xbeec38fa	-0.4613722
1	0xba2a1156	-0.00064875686
2	0xbf0556e4	-0.5208571
3	0xbe928530	-0.2861724
4	0xbdb1d114	-0.086824566
5	0x3f370d3a	0.7150456
6	0x3e90e588	0.28300118
7	0x3d59a097	0.053131666
8	0xbed1c99f	-0.40974137
9	0xbcb52404	-0.0221119
10	0xbc6d8c93	-0.014498848
11	0xbd5da868	-0.054115683
12	0x3d816052	0.063172
13	0x3d8c9785	0.068648376
14	0xbf20d465	-0.6282409
15	0x3df5794f	0.119860284

encBlocks.1.BN2.running_var f4 [16]
0	0x3e28314a	0.16425052
1	0x3e42a03e	0.1900644
2	0x3e37f546	0.17964658
3	0x3e9c5f70	0.30541563
4	0x3ea42151	0.32056668
5	0x3e34759a	0.17622986
6	0x3ea2fa8c	0.31831777
7	0x3db19039	0.086700864
8	0x3e4d4af0	0.20048118
9	0x3e943608	0.28947473
10	0x3e31452e	0.17311546
11	0x3e927f0a	0.28612548
12	0x3e16bd3c	0.14720625
13	0x3ec5014e	0.38477558
14	0x3ef8e7b6	0.4861428
15	0x3f0fb326	0.56132734

encBlocks.2.conv1.weight f4 [1, 16, 3, 3]
0	0x3d1389e4	0.036020175
1	0xbd78dca6	-0.0607573
2	0xbcaeedc2	-0.021353606
3	0x3d7b9bc2	0.06142784
4	0x3da99707	0.08280759
5	0xbd4e94b3	-0.05043478
6	0x3caade82	0.020858053
7	0xbd2ba252	-0.041902848
8	0x3c4682dd	0.012116161
9	0x3cb270f7	0.021782381
10	0xbcc4864e	-0.023989823
11	0x3c1bffcd	0.009521437
12	0x3ba40ac6	0.005006167
13	0x3d138830	0.03601855
14	0x3d058127	0.032593872
15	0xbbb72ad4	-0.0055898223
16	0x3d96cb49	0.07362992
17	0xbd2f36cb	-0.042776864
18	0xbc972a0f	-0.018452672
19	0x3d7b3444	0.06132914
20	0xbd83e904	-0.064409286
21	0x3d951991	0.07280267
22	0x3c1ffa2b	0.009764235
23	0x3d87572b	0.06608423
24	0xbd6c5053	-0.05769379
25	0x3d05e935	0.032693107
26	0x3ca89b48	0.020581856
27	0xbc60fe6e	-0.013732536
28	0xbc5b9762	-0.013402792
29	0x3db5e5b4	0.08881703
30	0x3d9ba799	0.07600326
31	0xbd8edaa2	-0.06975295
32	0xbd3212b2	-0.04347486
33	0x3db5dbc2	0.08879806
34	0x3d224581	0.039617065
35	0x3d8c8afc	0.06862447
36	0xbc85cd6e	-0.016333308
37	0x3a615086	0.0008595068
38	0xbcd20267	-0.025635911
39	0x3d8e2102	0.069398895
40	0x3ce76d54	0.028250374
41	0xbcec989d	-0.028881365
42	0xbc1d577a	-0.009603376
43	0x3d65e1df	0.05612361
44	0x3d322b03	0.04349805
45	0x3d04598b	0.032311957
46	0xbcccb398	-0.02498798
47	0x3d160643	0.036627065
48	0x3cb45ccb	0.022016903
49	0xbc1c512c	-0.009540837
50	0xbdb96093	-0.09051623
51	0xbcffe620	-0.031237662
52	0xbd267060	-0.040634513
53	0xbc0aea5a	-0.008478725
54	0x3cc44f0e	0.023963477
55	0x3d3a9ad9	0.04555783
56	0x3c61e4c9	0.013787457
57	0xbd06d027	-0.032913353
58	0x3cb0472a	0.021518309
59	0x3db25f1a	0.087095454
60	0xbc4f7823	-0.01266292
61	0xbd894ad0	-0.067037225
62	0xbcac7fe9	-0.021057086
63	0xbceafb13	-0.028684175
64	0x3d1ca7f6	0.038246118
65	0xbd47dd43	-0.048794996
66	0xbd91301c	-0.07089254
67	0x3ce3a0a7	0.027786566
68	0x3db01bf6	0.08599083
69	0xbd585a24	-0.05282034
70	0x3d5f5dd3	0.054532837
71	0x3d5e464e	0.054266267
72	0x3c8ede93	0.017440116
73	0x3d6e0b9e	0.058116548
74	0x3d70baf9	0.05877206
75	0xbcad0293	-0.021119392
76	0xbc046838	-0.008081488
77	0x3b946047	0.0045280787
78	0xbd069d15	-0.03286465
79	0xbd0a3c4d	-0.033748914
80	0x3c3cbbb6	0.011519363
81	0x3cf2089e	0.029545125
82	0xbc9ebb7f	-0.019376514
83	0xbcdbe0a2	-0.026840512
84	0xbd4f81c0	-0.05066085
85	0xbce923c1	-0.028459432
86	0xbdab6689	-0.083691664
87	0x3d8db53c	0.06919333
88	0xbd347606	-0.04405787
89	0x3da25d42	0.07927944
90	0xbd7bdfa2	-0.06149257
91	0x3c343610	0.010999218
92	0xbd1af428	-0.0378305
93	0x3d70e9d8	0.05881676
94	0xbd81a4cd	-0.063302614
95	0xbd14a98b	-0.0362945
96	0x3d29f588	0.041493922
97	0x3d8d4b01	0.068990715
98	0x3d79743a	0.060901858
99	0x3c4ffd72	0.012694703
100	0x3d8e61e6	0.069522664
101	0x3d86684d	0.065628625
102	0x3bbf20e1	0.005832777
103	0x3cf9dadc	0.030499868
104	0xbd7ba1a1	-0.06143344
105	0x3d800681	0.062512405
106	0xbd8b45a7	-0.068003945
107	0x3d706ea7	0.058699276
108	0x3d7ec7cd	0.062202264
109	0xbd2d2094	-0.042267397
110	0x3d9764be	0.07392262
111	0x3daaddd2	0.0834309
112	0x3c95887a	0.018253554
113	0x3c91f665	0.017817685
114	0x3b689000	0.0035486221
115	0xbb2f0e54	-0.002671142
116	0x3b4893d6	0.0030605695
117	0xbdba19ed	-0.09086976
118	0x3c7da122	0.015480312
119	0xbd817175	-0.06320468
120	0x3d246fb7	0.040145602
121	0xbd9844f8	-0.0743503
122	0x3ce2c440	0.02768147
123	0xbd31399b	-0.043267827
124	0x3ac1cbef	0.0014785508
125	0xbcee6cbf	-0.029104589
126	0x3d24f370	0.040271223
127	0xbc275993	-0.010214227
128	0xbcb3e5ff	-0.021960257
129	0x3c88a4a3	0.016680067
130	0xbc957d8e	-0.018248346
131	0x3d1d73ac	0.03844039
132	0x3dadbf3f	0.08483743
133	0xbd641746	-0.055686258
134	0x3c8e13dd	0.017343456
135	0x3c9f811b	0.019470742
136	0xbb6b91a7	-0.003594497
137	0x3d7b5b98	0.061366647
138	0x3da22c37	0.079185896
139	0xbc4edc92	-0.01262583
140	0xbd90659a	-0.07050629
141	0xbd1ddf0b	-0.03854279
142	0xbb52e9f1	-0.0032182897
143	0x3daadf6d	0.08343396

encBlocks.2.conv2.weight f4 [1, 1, 3, 3]
0	0x3e41295c	0.18863434
1	0x3d88a11e	0.06671356
2	0x3e82f51a	0.25577623
3	0xbe4eae9d	-0.20183797
4	0x3ea50df6	0.32237214
5	0x3bc00191	0.0058595617
6	0x3e5a0167	0.21289597
7	0x3e7f42d0	0.2492783
8	0xbe2fcbd7	-0.17167602
