Model_params/test_3_macro_epoch_1.pt (torch, 44071 bytes, 26 tensors)

encBlocks.0.conv1.weight f4 [16, 3, 3, 3]
0	0xbe043a7a	-0.12912932
1	0x3e2bb00a	0.16766372
2	0xbc1274e1	-0.008938999
3	0xbd57e0d3	-0.052704643
4	0xbe2d7ea4	-0.16942841
5	0xbdf3f559	-0.11912031
6	0x3dee7152	0.11642708
7	0x3d86cad8	0.06581658
8	0xbbcc1e21	-0.0062291776
9	0xbe0bbe8f	-0.13646911
10	0x3d91eb35	0.0712494
11	0xbdbd743a	-0.09250684
12	0x3dfe382b	0.12413057
13	0xbe37bdd8	-0.17943513
14	0x3ca5177a	0.020152796
15	0x3dbb39db	0.091418944
16	0xbd302547	-0.0430043
17	0x3cf72532	0.030169103
18	0xbc8d764e	-0.017268326
19	0x3d870d95	0.065943874
20	0x3d8d7fc5	0.06909136
21	0xbdc529d4	-0.09627119
22	0xbd1571ad	-0.036485363
23	0xbe2f8e44	-0.17144114
24	0x3e04dd48	0.12975037
25	0xbdeea82f	-0.11653172
26	0xbe13cd95	-0.14433892
27	0xbe0b1943	-0.13583855
28	0xbe1c07e7	-0.1523739
29	0x3ce57342	0.02800906
30	0xbcefcf97	-0.029273791
31	0xbdd866c5	-0.10566477
32	0x3da68616	0.081310436
33	0xbe203887	-0.15646563
34	0x3da5e726	0.08100729
35	0xbe053112	-0.13007
36	0xbd643148	-0.05571106
37	0x3d95917d	0.0730314
38	0x3bf7d140	0.0075627863
39	0xbc7282c0	-0.014801681
40	0xbde7c651	-0.11317123
41	0xbd02e1be	-0.031953566
42	0xbcfa9e31	-0.03059301
43	0xbdc68087	-0.096924834
44	0xbe0471d3	-0.12934045
45	0x3e0b6e88	0.13616383
46	0x3acd2f69	0.0015654388
47	0x3de32ca1	0.11092497
48	0x3d9911dc	0.074741095
49	0xbd7a0e60	-0.061048865
50	0x3c545875	0.012960543
51	0xbd14ff6e	-0.03637641
52	0x3d168df8	0.036756486
53	0xbd495061	-0.04914892
54	0x3d2f37e2	0.042777903
55	0x3dd8fef0	0.105955005
56	0x3e100e68	0.14067996
57	0x3d52d8d5	0.05147632
58	0x3e2b6145	0.16736324
59	0x3e367f46	0.17821988
60	0x3e208bb3	0.15678291
61	0x3d854793	0.06507792
62	0xbd935b0b	-0.071950994
63	0x3bb922a9	0.0056498838
64	0xbd9668b3	-0.073441885
65	0x3e3f4fea	0.18682829
66	0x3d9ae698	0.075635135
67	0xbdfe59a5	-0.12419442
68	0xbcc5c83d	-0.024143333
69	0x3e361594	0.17781669
70	0x3e35219b	0.176886
71	0x3e3d8967	0.18509446
72	0xbe206770	-0.15664458
73	0x3be74154	0.0070573483
74	0x3e3a3b32	0.18186644
75	0xbd8e76b0	-0.069562316
76	0xbe25d9dc	-0.16196388
77	0xbd9ca42d	-0.076485015
78	0x3d6a6ce5	0.057232756
79	0xbd27dca5	-0.040981907
80	0x3e2ac22a	0.1667563
81	0xbd7cb10b	-0.06169228
82	0xbd6fdb59	-0.058558796
83	0x3db44247	0.08801704
84	0x3be967c3	0.007122965
85	0x3dad96d9	0.084760375
86	0xbd85eb98	-0.065390766
87	0xbd3394f4	-0.043843225
88	0xbb4fb670	-0.0031694435
89	0xbc5b747f	-0.013394474
90	0xbcb589a3	-0.022160357
91	0x3de1f8a6	0.11033754
92	0xbdedf71f	-0.116194
93	0x3d023d97	0.031797018
94	0xbdbb5ade	-0.09148191
95	0xbdb41a23	-0.08794048
96	0x3def6c91	0.11690629
97	0x3dcb6978	0.09932226
98	0xbd0c2eae	-0.034224205
99	0x3d4f7ccf	0.050656136
100	0x3de03e44	0.10949376
101	0x3c10b0f9	0.008831256
102	0x3dacdc22	0.084404245
103	0x3e0f8b08	0.1401788
104	0xbe3b797e	-0.18308064
105	0xbd8ea2c5	-0.069646396
106	0x3d03f7ae	0.032218628
107	0x3e1c1ed8	0.15246141
108	0x3d8d8ae4	0.06911257
109	0xbe0167dc	-0.12637275
110	0xbd7de3c0	-0.061984777
111	0x3d009f25	0.031401772
112	0xbc5d74d3	-0.013516623
113	0x3e3fda53	0.18735628
114	0x3ccade28	0.024764135
115	0x3de79d35	0.11309282
116	0xbddeb786	-0.10874848
117	0x3e109e61	0.14122917
118	0xbe082cff	-0.13298415
119	0xbdcabf57	-0.098997764
120	0x3d37d0a4	0.04487671
121	0xbd768d08	-0.06019309
122	0x3ce69fca	0.028152365
123	0xbdfbf1de	-0.12301992
124	0x3e21818e	0.15772077
125	0x3d2f68a7	0.042824414
126	0xbcb71c5e	-0.022352394
127	0xbe1335a4	-0.14375931
128	0xbcd965c2	-0.02653778
129	0x3e11f55e	0.14253756
130	0x3e1aeab8	0.151286
131	0x3dbe3e99	0.09289283
132	0xbe31e655	-0.17373021
133	0x3b489303	0.0030605204
134	0xbc97cf8a	-0.01853158
135	0xbb5b313a	-0.003344609
136	0x3df8fb15	0.12157265
137	0xbdaa5b5e	-0.08318208
138	0xbe3f2c54	-0.18669254
139	0xbe303d99	-0.17210998
140	0xbdaeabe6	-0.08528881
141	0xbdd64fa1	-0.10464407
142	0xbde21c02	-0.11040498
143	0xbe3f0827	-0.18655454
144	0x3c9d88b9	0.019230234
145	0xbda48672	-0.08033456
146	0xbe11edef	-0.1425092
147	0x3d2e3e35	0.042539794
148	0xbe290429	-0.16505493
149	0x3e3166c6	0.17324361
150	0xbe106d40	-0.14104176
151	0x3de95984	0.11394027
152	0x3e24e51c	0.16103023
153	0xbc96cf3c	-0.018409364
154	0x3e085cfc	0.1331672
155	0x3c641f02	0.013923408
156	0xbe189327	-0.14899884
157	0xbd58a18c	-0.052888438
158	0x3d5bdbe8	0.053676516
159	0x3d984e14	0.07436767
160	0xbe216746	-0.15762052
161	0x3e3b4e01	0.18291475
162	0x3dff2878	0.12458891
163	0x3de45928	0.11149818
164	0xbe1a7a89	-0.15085806
165	0x3dd81764	0.105513364
166	0xbe0d17c0	-0.13778591
167	0xbe01987b	-0.12655823
168	0x3d9964a0	0.07489896
169	0xbe1abe70	-0.15111709
170	0x3bbbc655	0.00573043
171	0x3de2de0d	0.11077509
172	0x3e1edcf3	0.15513973
173	0x3d7347dc	0.059394702
174	0x3e42bc3c	0.19017118
175	0x3e171fb9	0.14758195
176	0xbd9e8fe2	-0.07742287
177	0xbd41c198	-0.047303766
178	0xbc8b2303	-0.016984468
179	0xbe202f3f	-0.15643023
180	0xbdf94cc0	-0.12172842
181	0x3e2ba95d	0.16763826
182	0x3e14e9b5	0.14542277
183	0x3e27dc9e	0.16392753
184	0x3d7c5048	0.0616
185	0xbd6662c2	-0.056246527
186	0xbe0f5883	-0.13998608
187	0x3dbbad2f	0.091638915
188	0x3e23f09c	0.16009754
189	0xbcf956ea	-0.030436952
190	0x3d9d4c7d	0.076806046
191	0x3e400bbe	0.1875448
192	0x3dc9dd71	0.0985669
193	0xbd7302a4	-0.05932869
194	0x3df7e641	0.12104464
195	0xbd72cde6	-0.05927839
196	0xbd810565	-0.06299857
197	0xbdfd5a54	-0.12370744
198	0xbafc7488	-0.0019260803
199	0xba974dba	-0.001154355
200	0xba197722	-0.0005854239
201	0x3d35ef32	0.044417568
202	0x3daa582e	0.083176
203	0xbdfef23c	-0.12448546
204	0x3d0b06e3	0.033942115
205	0x3ccecab4	0.02524314
206	0xbdee505a	-0.116364196
207	0x3c54d547	0.012990302
208	0xbddf6023	-0.109070085
209	0xbe3c0c9f	-0.1836419
210	0x3e3bd125	0.18341501
211	0xbe1541a9	-0.14575829
212	0x3dacc472	0.084359065
213	0xbce49b9e	-0.027906235
214	0xbda07471	-0.078347094
215	0x3db3ed71	0.08785523
216	0x3d81ea36	0.063435
217	0xbe458d4d	-0.19292183
218	0xbdabc639	-0.08387417
219	0x3e0de2ba	0.1385602
220	0x3e19457f	0.14967917
221	0xbd1a537d	-0.037677277
222	0x3d7e54c8	0.062092572
223	0xbd0cb03b	-0.034347754
224	0x3d5329fa	0.051553704
225	0xbda8c446	-0.08240561
226	0x3dda4171	0.10657013
227	0xbd9a69d9	-0.0753972
228	0x3b1a4155	0.0023537476
229	0xbde593f6	-0.11209862
230	0x3d2e2f31	0.042525474
231	0xbc08638d	-0.008324516
232	0xbe1faa44	-0.15592295
233	0x3d46d164	0.048539534
234	0x3bb482fa	0.0055087777
235	0x3dbbaed8	0.09164208
236	0x3e07c38b	0.13258187
237	0x3e060341	0.13087179
238	0xbdc2b048	-0.09506279
239	0xbd2d8f44	-0.042372957
240	0xbe0d94ab	-0.13826244
241	0xbe2381fc	-0.15967554
242	0xbdaabf20	-0.083372355
243	0xbe0d3940	-0.1379137
244	0xbdb14fca	-0.08657797
245	0xbe196e17	-0.14983402
246	0xbc43901f	-0.011936217
247	0xbe2a5aa0	-0.16636133
248	0x3d82cfcf	0.063872926
249	0x3cf7faaf	0.030270902
250	0xbdb30b82	-0.08742429
251	0xbc63b3e2	-0.013897868
252	0xbd487544	-0.04893996
253	0x3dc8c9bf	0.09804105
254	0x3dd47126	0.10373144
255	0xbe30b59a	-0.17256775

encBlocks.0.conv1.bias f4 [16]
0	0x3e17a7b1	0.14810063
1	0x3d6a2981	0.057168487
2	0xbe1ca848	-0.15298569
3	0x3e12378b	0.14279
4	0xbd990033	-0.07470741
5	0xbdfbede8	-0.123012364
6	0x3de0b81e	0.109726176
7	0xbd9f400c	-0.07775888
8	0xbcaecf03	-0.021338945
9	0x3db65b47	0.089041285
10	0xbe25685a	-0.16153088
11	0xbde5a898	-0.11213797
12	0x3de02dea	0.109462574
13	0x3e1c0e88	0.15239918
14	0x3d561766	0.05226841
15	0xbe36e188	-0.17859471

encBlocks.0.conv2.weight f4 [16, 16, 3, 3]
0	0xbc83c17d	-0.016083473
1	0x3d406dea	0.046979822
2	0xbbce9c97	-0.006305288
3	0xbd6494e6	-0.055806063
4	0x3cea45d5	0.028597752
5	0x3d882904	0.06648448
6	0x3da7bb4f	0.08190023
7	0x3d674165	0.05645885
8	0x3d9e8780	0.07740688
9	0x3ccd0260	0.025025547
10	0xbd47c9bf	-0.048776384
11	0xbd323728	-0.043509632
12	0x3c548b1b	0.012972618
13	0x3d9ec368	0.077521145
14	0xbd4d7fc8	-0.05017069
15	0x3be3fc40	0.006957561
16	0xbd0b2342	-0.03396917
17	0xbd80fcdd	-0.0629823
18	0xbd448a31	-0.047983352
19	0xbd4b722c	-0.04966943
20	0xbce7b83d	-0.028286094
21	0x3ba0f029	0.004911442
22	0xbd82f41b	-0.06394216
23	0xbc6e2015	-0.014534016
24	0xbd9b9009	-0.07595832
25	0x3d421fa3	0.047393452
26	0xbd2e6daa	-0.042585053
27	0xbc6fd287	-0.014637596
28	0xbd6acdf7	-0.05732533
29	0x3c7724a3	0.0150844185
30	0xbcff73fd	-0.031183237
31	0xbdaa44ea	-0.083139256
32	0xbc58c8de	-0.013231484
33	0x3d252e5c	0.040327415
34	0xbce31a88	-0.027722612
35	0x3d958e21	0.073024996
36	0xbcbaaa9a	-0.022786427
37	0xbd4dce5c	-0.050245628
38	0x3d3f16a8	0.046652466
39	0xbda2d61e	-0.07950996
40	0xbcd7e15e	-0.02635258
41	0x3c94647e	0.018114325
42	0xbd896a85	-0.0670977
43	0x3d0841ab	0.03326575
44	0x3d81fb73	0.06346788
45	0x3d2c0e10	0.0420056
46	0x3da97f7c	0.08276269
47	0xbc9d21ee	-0.019181218
48	0xbcad5cfc	-0.021162502
49	0x3cbfb6c8	0.023402587
50	0x3c8fd6cc	0.017558478
51	0x3cccb9ff	0.024991034
52	0xbc0711ac	-0.008243959
53	0xbb96b4ea	-0.0045992034
54	0x3d66df8e	0.056365542
55	0x3d1a43d6	0.03766235
56	0x3ce39c6b	0.027784547
57	0x3d0d0d48	0.034436494
58	0xbd8112ff	-0.06302451
59	0xbcf17e22	-0.02947909
60	0xbd49c69c	-0.049261674
61	0x3d18138a	0.03712801
62	0xbda511a6	-0.08060007
63	0xbcc3bd17	-0.023893876
64	0xbd942f0a	-0.072355345
65	0xbc0d2d35	-0.008616735
66	0x3cc52a24	0.024067946
67	0x3ca190d5	0.019722382
68	0xbd4c3545	-0.04985549
69	0xba86fec9	-0.001029932
70	0x3d469dd7	0.04849037
71	0x3d078ae6	0.03309145
72	0x3dab85dc	0.08375141
73	0xbcac3190	-0.021019727
74	0xba79990e	-0.0009521403
75	0xbd5b146f	-0.053486284
76	0xbd9e4392	-0.07727732
77	0x3d4170fa	0.047226883
78	0x3cd55db6	0.026045661
79	0x3d1c160c	0.038106963
80	0x3d616454	0.05502732
81	0x3d7a4ea9	0.061110172
82	0x3d828481	0.06372929
83	0x3cbd5e17	0.023116155
84	0x3d9480ea	0.07251151
85	0xbd6532b8	-0.055956572
86	0x3c079e55	0.008277495
87	0xbc9a0d10	-0.018805057
88	0x3d03722d	0.03209131
89	0x3d36be5e	0.044615142
90	0x3cf30972	0.02966759
91	0xbd2ef64f	-0.042715367
92	0xbb81374d	-0.00394336
93	0xbc21738c	-0.009854209
94	0x3d9fb8ec	0.07798943
95	0xbd31e1d9	-0.043428276
96	0xbd84ab72	-0.06478013
97	0x3bdf6503	0.0068174615
98	0x3d95ec30	0.0732044
99	0xbc5240bb	-0.012832816
100	0x3c07905e	0.008274166
101	0x3d6c4448	0.057682306
102	0x3cfaed43	0.030630713
103	0xbd1ef8b0	-0.038811386
104	0xbd0a4115	-0.033753473
105	0xbc82b1ee	-0.015953984
106	0xbbf5e9b0	-0.0075046644
107	0x3d25b65c	0.040457115
108	0xbc5bbfff	-0.013412475
109	0x3d8f1637	0.06986659
110	0x3d580ddf	0.052747604
111	0xbcf8fd28	-0.030394152
112	0xbcad1785	-0.021129379
113	0xbcdac7aa	-0.026706535
114	0xbcb9b8e0	-0.022671163
115	0xbd0e6791	-0.034766737
116	0xba9a3dbd	-0.0011767667
117	0xbc3ea550	-0.011636093
118	0xbd7711d9	-0.060319755
119	0x3d4dd642	0.05025316
120	0xbc2ee558	-0.010674797
121	0x3d913cda	0.07091685
122	0x3da8f0de	0.08249067
123	0xbc8c9ccf	-0.017164616
124	0xbcfbb611	-0.030726464
125	0xbd808cf3	-0.06276884
126	0x3c93ce2a	0.018042643
127	0xbdab3c57	-0.08361118
128	0xbd5b4615	-0.053533632
129	0xbc00dd4f	-0.007865264
130	0x3d858fe8	0.065215886
131	0xbc9ca7a2	-0.019122902
132	0x3ca6a869	0.020343976
133	0xbd2c7caf	-0.042111095
134	0xbbb97d22	-0.005660669
135	0xbd9514ac	-0.072793335
136	0xbc3f6aa7	-0.011683143
137	0x3d272d48	0.040814668
138	0xbc82cb25	-0.015966007
139	0x3d54ae5d	0.0519241
140	0x3d33972a	0.043845333
141	0x3d9fa0e4	0.07794359
142	0x3d7e3ede	0.062071674
143	0x3cd1ce12	0.025610957
144	0x3cd99efb	0.026565066
145	0x3d88eab7	0.06685393
146	0x3d8f96b4	0.07011166
147	0xbd6c80ce	-0.057740025
148	0x3d1b6af7	0.037943806
149	0x3d7d651c	0.061864004
150	0xbc9953ea	-0.018716771
151	0xbcf0b41e	-0.029382762
152	0x3c9507c7	0.018192185
153	0xbc101473	-0.008793938
154	0x3c8119e0	0.015759408
155	0xbd06852f	-0.032841858
156	0xbceb2cf3	-0.028707957
157	0x3bec5108	0.007211808
158	0x3bf628d4	0.0075121913
159	0x3d181d94	0.037137583
160	0x3b833726	0.004004377
161	0x3cacc847	0.021091593
162	0xbd49eac6	-0.049296163
163	0xbd8d70f1	-0.069063075
164	0xbd88d708	-0.06681639
165	0xbd003abd	-0.031306017
166	0x3d43753b	0.04771922
167	0x3c4fcf1d	0.012683657
168	0x3c06833e	0.0082100015
169	0x3da34103	0.079713844
170	0xbd8f2c85	-0.06990913
171	0x3c57364b	0.013135503
172	0xbc5f5981	-0.013632179
173	0x3d2196f2	0.039450593
174	0xbc552faf	-0.013011857
175	0x3d137dab	0.03600852
176	0x3c690e74	0.014224637
177	0x3ce40136	0.027832609
178	0xbcf5d601	-0.030009272
179	0x3d8a11d4	0.06741682
180	0x3d53d501	0.05171681
181	0x3d6a25d6	0.05716499
182	0xbacff122	-0.001586471
183	0xbd1f6ac7	-0.03892019
184	0x3d90ecc7	0.07076412
185	0xbdaa4a77	-0.08314984
186	0xb617c100	-2.2613094e-06
187	0xbbb27b8e	-0.005446858
188	0xbda72498	-0.081612766
189	0x3bd8a2b9	0.006611195
190	0x3d6e1524	0.05812563
191	0x3c9b9e24	0.018996306
192	0x3d0657f4	0.032798722
193	0xbc407d80	-0.0117486715
194	0xbd439ac2	-0.04775501
195	0x3d48f5c4	0.049062505
196	0xbc8cd94a	-0.017193455
197	0xbccbadf0	-0.024863213
198	0x3d903430	0.07041204
199	0xbd872ce9	-0.06600363
200	0x3db2fd1c	0.08739683
201	0x3da368cc	0.07978973
202	0xbbe97f15	-0.007125745
203	0xbd5dadac	-0.054120705
204	0xbd6bd912	-0.05758006
205	0x3daa6bd0	0.08321345
206	0x3d9d22e9	0.07672674
207	0xbd9ce105	-0.076601066
208	0x39405bfe	0.00018344817
209	0xbdab1feb	-0.08355697
210	0x3db15f59	0.08660764
211	0x3d5f46ad	0.05451076
212	0x3cbeae73	0.023276543
213	0xbd5c8ac1	-0.053843264
214	0xbcbaae4d	-0.022788191
215	0x3d700a4a	0.058603562
216	0xbd2f2fcc	-0.042770192
217	0x3d9684df	0.07349562
218	0xbd1b17ac	-0.037864372
219	0xbd4789d1	-0.048715416
220	0xbd6b78af	-0.05748814
221	0xbcdb4778	-0.026767477
222	0x3ccbb71b	0.024867585
223	0x3d8cd046	0.068756625
224	0x3d20043e	0.039066546
225	0xbd5fd98c	-0.05465083
226	0x3d8902dd	0.06689999
227	0x3d9cf2ab	0.07663473
228	0x3d86969c	0.06571695
229	0x3c8f7054	0.017509617
230	0xbd84b8aa	-0.064805344
231	0x3d484f96	0.048904024
232	0xbd015aaf	-0.031580623
233	0xbd67ac8e	-0.056561045
234	0x3ca734a0	0.020410836
235	0xbd9959bc	-0.074878186
236	0xbd5ad9a8	-0.05343023
237	0xbccbe79e	-0.024890717
238	0xbd2e62bd	-0.042574633
239	0xbd972f03	-0.07382014
240	0x3d2f80d2	0.042847462
241	0x3ce0e633	0.027453518
242	0x3d89d91c	0.067308635
243	0x3d937622	0.072002664
244	0x3d51f789	0.05126146
245	0x3c9e04e7	0.019289447
246	0x3d7d3891	0.061821524
247	0xbd07e7ee	-0.03318017
248	0xbce85f7e	-0.028365847
249	0x3c12f438	0.008969359
250	0x3c8ca8f7	0.017170412
251	0xbd668cf6	-0.056286775
252	0x3d8299ea	0.06377013
253	0x3ca6f0f2	0.020378564
254	0xbd69ca11	-0.05707747
255	0xbd271720	-0.040793538

encBlocks.0.conv2.bias f4 [16]
0	0x3c873cc4	0.016508467
1	0x3d375860	0.044762015
2	0xbd44bd4f	-0.0480321
3	0xbca0cff4	-0.01963041
4	0x3d94b222	0.07260539
5	0xbd02fbc7	-0.031978395
6	0xbd23be50	-0.039976418
7	0x3c260c80	0.010134816
8	0xbd29a495	-0.041416723
9	0x3aecd8c2	0.001806997
10	0x3d12639e	0.035739534
11	0xbd9b1b81	-0.07573605
12	0xbd7402de	-0.059573047
13	0x3d1edbdc	0.038783893
14	0x3d0e1eb6	0.034697257
15	0x3d5739e6	0.05254545

encBlocks.0.BN1.weight f4 [16]
0	0x3f7f69bc	0.9977071
1	0x3f8053b3	1.0025543
2	0x3f80064d	1.0001923
3	0x3f80c63a	1.0060494
4	0x3f80bb12	1.0057089
5	0x3f7eec59	0.9957939
6	0x3f807edf	1.0038718
7	0x3f807ba3	1.0037731
8	0x3f7fc11b	0.9990403
9	0x3f7fd289	0.99930626
10	0x3f7f5d6e	0.9975194
11	0x3f7e7ccf	0.9940919
12	0x3f808aae	1.0042322
13	0x3f7e8098	0.9941497
14	0x3f80a39a	1.0049927
15	0x3f7e7d70	0.9941015

encBlocks.0.BN1.bias f4 [16]
0	0xbabfe052	-0.0014638996
1	0x39fc42d2	0.0004811497
2	0xbadc3771	-0.0016801191
3	0xbaaa5ec9	-0.0012998219
4	0xba7f4704	-0.000973806
5	0xbb9205b0	-0.0044562444
6	0xbb08f012	-0.0020895046
7	0x3a6000fd	0.0008545069
8	0xb8bf13dc	-9.111289e-05
9	0xbab0851e	-0.0013467406
10	0xbb440184	-0.002990813
11	0xbbbdb8a8	-0.005789835
12	0xba723b92	-0.0009240444
13	0xbba78483	-0.005112232
14	0x3a6d201f	0.0009045619
15	0xbba7b68f	-0.005118198

encBlocks.0.BN1.running_mean f4 [16]
0	0xbda186a9	-0.078870125
1	0xbdf1cf7b	-0.11807152
2	0x3e8151b9	0.25257662
3	0x3e188297	0.14893566
4	0xbcd94097	-0.026520057
5	0xbe526a4e	-0.20548365
6	0x3e8c662b	0.27421698
7	0xbda7aaf4	-0.081869036
8	0xbdb58a4c	-0.08864269
9	0xbdf1adac	-0.118007034
10	0xbdbeec65	-0.093224324
11	0xbe22f469	-0.15913548
12	0x3df8595c	0.12126419
13	0xbe75e0de	-0.24011561
14	0x3e16fd2a	0.14745012
15	0xbe61e522	-0.22060063

encBlocks.0.BN1.running_var f4 [16]
0	0x3f004578	0.50106
1	0x3f00350a	0.5008093
2	0x3f10c5cf	0.5655183
3	0x3ef96418	0.48709178
4	0x3ef91b9b	0.48653874
5	0x3f02d859	0.5111137
6	0x3f045b90	0.51702213
7	0x3ef95cf0	0.48703718
8	0x3efad93a	0.48993856
9	0x3f019b6f	0.506278
10	0x3efbfbb3	0.4921547
11	0x3efbd9dc	0.4918965
12	0x3efb1942	0.49042708
13	0x3f0b9a04	0.54531884
14	0x3efed7d8	0.4977405
15	0x3eff7133	0.49891052

encBlocks.0.BN2.weight f4 [16]
0	0x3f7ec05d	0.99512273
1	0x3f7ff93e	0.9998969
2	0x3f80a6e5	1.0050932
3	0x3f7e67e5	0.9937728
4	0x3f80c6da	1.0060685
5	0x3f80ce4c	1.0062957
6	0x3f7edddf	0.995573
7	0x3f7f9eff	0.99851984
8	0x3f7eb261	0.99490935
9	0x3f7e7d19	0.99409634
10	0x3f8032d8	1.0015516
11	0x3f80958f	1.0045642
12	0x3f7f2ae5	0.99674827
13	0x3f804f83	1.0024265
14	0x3f80e028	1.0068407
15	0x3f7ed45f	0.995428

encBlocks.0.BN2.bias f4 [16]
0	0xbbc8499c	-0.0061122905
1	0x3a3f4d21	0.0007297565
2	0xbab7f5d8	-0.0014035059
3	0xbb2373a8	-0.0024940763
4	0x3b847f08	0.0040434636
5	0xba4f4a91	-0.00079075346
6	0xbbbe9cce	-0.0058170324
7	0xbbb5fc8f	-0.005553789
8	0xbb276d41	-0.0025547298
9	0xbbd17812	-0.0063924873
10	0xbb49322f	-0.0030700078
11	0x3bca34a2	0.006170825
12	0xbbcbe74a	-0.00622264
13	0xbb977e24	-0.0046231914
14	0xbbc15e58	-0.005901139
15	0x3ba7deb5	0.0051229843

encBlocks.0.BN2.running_mean f4 [16]
0	0x3d40150f	0.046895083
1	0x3e236001	0.15954591
2	0xbe1af7f1	-0.15133645
3	0x3e535202	0.20636752
4	0x3e179dd8	0.14806306
5	0x3c501bc8	0.012701936
6	0xbcc83a99	-0.024442004
7	0xbe03c43e	-0.12867829
8	0xba54b11f	-0.00081135513
9	0xbd7d57ba	-0.06185124
10	0xbd7f3ad4	-0.062311962
11	0x3d369b32	0.0445816
12	0xbe067110	-0.13129067
13	0xbe3a0e67	-0.18169557
14	0xbd25f2d3	-0.04051478
15	0x3db39beb	0.08769973

encBlocks.0.BN2.running_var f4 [16]
0	0x3f1afffd	0.6054686
1	0x3f0923b6	0.53570116
2	0x3f041be6	0.5160507
3	0x3f19b22f	0.6003751
4	0x3f07f083	0.53101367
5	0x3f06ce76	0.52658784
6	0x3f01dfc3	0.5073206
7	0x3f0bf1d2	0.54665864
8	0x3f06ec2b	0.52704114
9	0x3f02abc6	0.51043355
10	0x3f03c130	0.51466656
11	0x3f0d6728	0.5523553
12	0x3f04893a	0.5177189
13	0x3f0a165b	0.5394036
14	0x3f041b7c	0.5160444
15	0x3f0c5081	0.5481034

encBlocks.1.conv1.weight f4 [16, 16, 3, 3]
0	0x3c903519	0.017603444
1	0x3d982da5	0.07430581
2	0x3a129763	0.00055920164
3	0x3d66f133	0.05638237
4	0xbcffa335	-0.031205753
5	0xbd3254ec	-0.04353802
6	0xbd727286	-0.05919125
7	0xbd87613c	-0.06610343
8	0xbd726df9	-0.05918691
9	0x3d403043	0.046921026
10	0xbd301ecf	-0.04299813
11	0xbd8a8d79	-0.06765265
12	0xbd0aa1bb	-0.033845644
13	0x3da74a0c	0.0816842
14	0xbcbf956d	-0.023386681
15	0x3d96ee57	0.073696785
16	0x3c1772dd	0.009243694
17	0x3da6576e	0.08122145
18	0xbd826874	-0.06367579
19	0x3d4e83f1	0.050418798
20	0xbda9a7c5	-0.082839526
21	0x3d4f6846	0.050636552
22	0xbb9275b9	-0.0044696
23	0xbd522765	-0.0513071
24	0xbd95df26	-0.07317953
25	0x3d277e7d	0.040892113
26	0x3d41f48a	0.04735235
27	0xbd869c03	-0.065727256
28	0x3d4faabf	0.050699946
29	0x3caa7585	0.02080799
30	0x3c8c8a41	0.017155768
31	0x3ac4df7b	0.0015020216
32	0x3d9d6e8e	0.07687102
33	0xbb1a5233	-0.002354753
34	0xbcef007e	-0.02917504
35	0xbcb9da58	-0.022687122
36	0x3d6a5235	0.057207305
37	0x3ccff8e0	0.025387228
38	0xbd1bd49b	-0.038044553
39	0xbd033226	-0.032030247
40	0xbc12b625	-0.008954559
41	0xbd8f35bd	-0.06992672
42	0x3d86f534	0.065897375
43	0x3d8253a6	0.06363611
44	0x3daad14c	0.083407015
45	0xba84efbb	-0.0010142246
46	0xbda3d043	-0.07998707
47	0x3b9fc3ae	0.0048756218
48	0x3cf807e0	0.030277193
49	0xbd0c7cf5	-0.034298856
50	0x3d84498b	0.0645934
51	0x3c18123a	0.009281689
52	0xbbef89db	-0.007310135
53	0x3b20f0ce	0.0024557593
54	0xbd0e1897	-0.03469142
55	0x3d8a6343	0.06757214
56	0x3c9f8fa9	0.019477682
57	0xbcdc59ab	-0.026898226
58	0xbd2aaef2	-0.041670747
59	0xbd53afde	-0.051681392
60	0x3d86cbc1	0.06581832
61	0xbd757904	-0.059929863
62	0xbd193992	-0.03740842
63	0xbd9b0898	-0.075699985
64	0xbd129f41	-0.035796408
65	0xbd87929f	-0.06619763
66	0xbd7a7d14	-0.06115444
67	0xbcb2b242	-0.021813516
68	0x3c6bc5f6	0.014390459
69	0xbd2a0dce	-0.04151707
70	0xba88aeec	-0.0010428107
71	0x3a249f04	0.00062797987
72	0xbd8088ee	-0.06276117
73	0x3d573c58	0.052547783
74	0xbc9f8399	-0.01947193
75	0x3d6d86ae	0.05798977
76	0xbd91e5ec	-0.07123932
77	0xbc63d920	-0.013906747
78	0xbd6b7d3a	-0.057492472
79	0x3b3bb6ad	0.0028642819
80	0x3ba708c0	0.0050974786
81	0x3d86b866	0.0657814
82	0x3c652ee2	0.0139882285
83	0xbd9b3f8e	-0.075804815
84	0x3da7ee01	0.081996925
85	0x3d18257b	0.03714512
86	0xbd0dcacb	-0.034617227
87	0x3d1ab2dd	0.037768234
88	0xbd49694c	-0.049172685
89	0xbd3aa186	-0.045564197
90	0x3a79aeb6	0.000952463
91	0x3d556748	0.05210045
92	0xbd928a4e	-0.07155286
93	0xbcdd7979	-0.027035462
94	0x3ba7f384	0.005125465
95	0x3d859298	0.06522101
96	0xbd13bce2	-0.036068805
97	0x3d42199c	0.047387704
98	0xbd6460a9	-0.055756245
99	0x3d12495b	0.03571449
100	0xbd9e7c67	-0.077385716
101	0x3d90cbbb	0.070701085
102	0x3da5805c	0.08081123
103	0xbda57eee	-0.080808505
104	0x3d4f5948	0.050622255
105	0xbbb1759f	-0.005415633
106	0xbd616226	-0.055025242
107	0x3c038b90	0.00802888
108	0x3d41bafa	0.047297455
109	0x3d62bb14	0.055354193
110	0x3cc55607	0.024088873
111	0x3b9fbd16	0.0048748357
112	0x3d25c3e6	0.040470026
113	0xbd359ded	-0.044340063
114	0x3d7a2aa2	0.061075814
115	0x3d9eaae1	0.07747436
116	0x3d14f430	0.036365688
117	0x3d981df8	0.07427591
118	0x3a9ab69c	0.0011803689
119	0x3d722980	0.05912161
120	0x3d3f0260	0.046633124
121	0x3d40a166	0.04702892
122	0xbc95c125	-0.018280575
123	0x3d9fbe95	0.078000225
124	0x3ca7eb73	0.020498013
125	0x3d3590ff	0.044327732
126	0x3d217fe8	0.03942862
127	0x3d862c46	0.06551413
128	0xbd42c7ed	-0.047553945
129	0x3d8332dd	0.06406186
130	0x3c7b3539	0.0153325135
131	0xbd802bff	-0.062583916
132	0xbd547980	-0.051873684
133	0x3da7db18	0.08196086
134	0x3d1f82b0	0.038942993
135	0x3b11104e	0.0022134962
136	0x3d325c12	0.043544836
137	0xbbe2e88f	-0.006924696
138	0x3d4d6436	0.050144397
139	0x3d279793	0.040916037
140	0xbda591db	-0.0808446
141	0xbcc892e8	-0.024484113
142	0xbda2cf5a	-0.079497054
143	0x3c85607f	0.016281364
144	0x3d8fb104	0.07016185
145	0x3d897c91	0.06713212
146	0xbd909090	-0.07058823
147	0x3d755f84	0.059905544
148	0x3d254904	0.040352836
149	0x3d09d086	0.03364613
150	0x3d9f02dd	0.07764218
151	0xbd0ecdbf	-0.034864184
152	0xbd80082f	-0.06251561
153	0xbcde737f	-0.027154682
154	0xbd57dd8b	-0.052701514
155	0x3cc7df3c	0.024398439
156	0xbd003bda	-0.03130708
157	0x3d9ced04	0.07662395
158	0x3d3bf36f	0.045886453
159	0x3c015a7c	0.007895108
160	0xbd35b3e1	-0.044361
161	0xbd8bb354	-0.068213135
162	0xbdaa9e61	-0.0833099
163	0x3d52c67c	0.05145882
164	0xbd75e362	-0.060031302
165	0xbce46418	-0.02787976
166	0xbd7116f7	-0.05885979
167	0xbd9b512b	-0.07583841
168	0xbc15a1c7	-0.009132809
169	0xbd033e8b	-0.032042067
170	0x3da202c4	0.07910684
171	0xbd9d6b96	-0.07686536
172	0x3bd4c670	0.006493382
173	0x3b1141b7	0.0022164413
174	0x3d921b2a	0.071340874
175	0x3d863030	0.0655216
176	0x3c09b88d	0.008405817
177	0xbb9a2390	-0.0047039464
178	0xba05d616	-0.00051054487
179	0x3c9ab319	0.018884229
180	0xbd7082e2	-0.05871857
181	0x3d645f8d	0.055755187
182	0x3d6e2c19	0.058147524
183	0x3d970e4b	0.07375773
184	0x3d75cafa	0.060008027
185	0x3d2b8735	0.04187699
186	0xbd705a68	-0.058679968
187	0xbadc63eb	-0.0016814446
188	0x3bfe959f	0.007769301
189	0x3d189955	0.037255604
190	0x3d5ffc21	0.05468381
191	0x3d9a41c1	0.07532073
192	0xbcb5bffe	-0.022186276
193	0xbcff65f4	-0.031176545
194	0xbd585924	-0.052819386
195	0x3da03cb5	0.07824079
196	0x3bc088c8	0.0058756806
197	0xb9897a81	-0.0002622195
198	0x3d4f6249	0.05063084
199	0xbd83ed6c	-0.06441769
200	0xbda05533	-0.078287505
201	0x3d4db16b	0.050218027
202	0xbd31a499	-0.043369863
203	0xbd5e21d6	-0.054231487
204	0x3c38fca7	0.011290706
205	0xbcdaf8c4	-0.026729949
206	0x3bab4974	0.005227262
207	0xbd0ea52f	-0.0348255
208	0x3cdec9e3	0.027195876
209	0xbd32f209	-0.043687854
210	0x3c923058	0.017845318
211	0x3d0998e0	0.03359306
212	0x3d3b0e31	0.04566783
213	0xbda133d3	-0.07871213
214	0x3d3c045c	0.045902595
215	0xbc412fcf	-0.011791184
216	0x3d00cc76	0.03144499
217	0xbab1d500	-0.0013567507
218	0x3d6c2674	0.05765386
219	0x3d3f92a8	0.04677072
220	0x3c27b45e	0.010235874
221	0xbdaaac19	-0.08333606
222	0x3d10011d	0.03515731
223	0xbd4d0187	-0.050050285
224	0x3da4995e	0.08037065
225	0xbd046670	-0.032324255
226	0x3d3b1b50	0.045680344
227	0xbd644f8f	-0.055739935
228	0x3d78eb27	0.060771134
229	0xbc02e857	-0.007989964
230	0xbcc9d621	-0.024638237
231	0xbca0b3f1	-0.019617053
232	0x3d6d07e3	0.05786885
233	0x3d95c415	0.0731279
234	0xbd955b95	-0.072928585
235	0xbb87a060	-0.0041389912
236	0x3d74dd08	0.059781104
237	0x3d5f839a	0.054568864
238	0xbd3187f3	-0.043342542
239	0xbb0554d8	-0.002034476
240	0xbd076a50	-0.033060372
241	0x3cfaa09a	0.030594159
242	0xbd891a70	-0.06694496
243	0xbb3afdeb	-0.0028532695
244	0xbcc9969d	-0.02460795
245	0x3d900e7b	0.07034012
246	0x3c95a05c	0.018264942
247	0x3c739a5c	0.014868345
248	0xbcef0776	-0.029178362
249	0x3c04d455	0.0081072645
250	0x3d4b93bd	0.04970144
251	0x3c19d4f5	0.009389152
252	0x3c60332b	0.013684074
253	0x3cf752f9	0.030190932
254	0x3c8a1f71	0.016860696
255	0x3bee4278	0.0072711073

encBlocks.1.conv1.bias f4 [16]
0	0x3cafae54	0.02144543
1	0x3b848f12	0.0040453756
2	0x3d9981c7	0.07495456
3	0x3d19f323	0.03758539
4	0x3d091fa6	0.033477448
5	0xbccae02a	-0.024765093
6	0xbd84a7ac	-0.06477293
7	0x3d89aaf5	0.067220606
8	0xbd6f772c	-0.05846326
9	0xbbc24545	-0.0059286677
10	0x3d7d85a7	0.06189504
11	0x3d4abbfa	0.049495675
12	0xbd4e4326	-0.050357006
13	0xbd8bb7d5	-0.068221726
14	0xbcbb85c7	-0.022890938
15	0xbd14a52b	-0.03629033

encBlocks.1.conv2.weight f4 [16, 16, 3, 3]
0	0x3d156cc2	0.036480673
1	0xbb211718	-0.0024580415
2	0x3a146e65	0.0005662202
3	0xbd71c814	-0.0590287
4	0x3db20cb6	0.08693831
5	0xbca9621c	-0.020676665
6	0xbd8944fd	-0.067026116
7	0xbd996748	-0.074904025
8	0xbc718779	-0.014741772
9	0xbd1d60db	-0.038422447
10	0xbd49995d	-0.049218524
11	0x3d1f55cf	0.038900193
12	0x3d376fe8	0.044784456
13	0xbd879b14	-0.06621376
14	0xbc1ce5fc	-0.009576317
15	0xbc847cba	-0.016172756
16	0xbbed983b	-0.0072508133
17	0xbd78594f	-0.060632046
18	0x3d1b439b	0.03790627
19	0x3c7044cc	0.01466484
20	0xba2ee182	-0.00066711765
21	0x3d0740fc	0.03302096
22	0x3d4d2e85	0.050093193
23	0x3d363ce9	0.044491682
24	0xbcfeb530	-0.031092256
25	0x3ca2d3c6	0.019876372
26	0xbc39161f	-0.011296778
27	0x3d5d4b8e	0.054027133
28	0xbcbed6c1	-0.023295762
29	0xbcb58f9e	-0.022163209
30	0xbcb56f74	-0.022147872
31	0x3d84c588	0.064829886
32	0xbc8fcbdc	-0.017553262
33	0xbc6f4a9a	-0.014605189
34	0x3d5dd9f5	0.05416294
35	0xbd101d51	-0.03518421
36	0x3da0cfa4	0.07852104
37	0x3d93ba4a	0.07213266
38	0x3d24dc4c	0.040249154
39	0x3c957b5a	0.018247295
40	0xbcb278f0	-0.021786183
41	0x3d7c6ac2	0.06162525
42	0x3c26f1a0	0.010189444
43	0xbd09e694	-0.033667162
44	0xbcf3629a	-0.029710103
45	0x3d9d06b2	0.07667293
46	0xbd87e5ba	-0.06635614
47	0x3d1b4865	0.037910838
48	0xbcc0a69e	-0.02351695
49	0x3c38c58a	0.011277566
50	0xb9f9c8f2	-0.00047642697
51	0x3c60925e	0.013706772
52	0x3cafd0cb	0.021461865
53	0xbd48226a	-0.048860945
54	0x3d498b02	0.049204834
55	0x3d2008ff	0.03907108
56	0xbd8c1fcf	-0.068420045
57	0xbd5d8d67	-0.05408993
58	0xbc2e2294	-0.010628361
59	0x3c28f37e	0.010311959
60	0xbd88fa9f	-0.06688427
61	0xbd167729	-0.036734734
62	0x3d22cc72	0.039745755
63	0xbb9190e3	-0.0044423207
64	0xbd769a15	-0.060205538
65	0xbbf0da2c	-0.007350227
66	0xbd04f120	-0.032456517
67	0x3c1440e2	0.009048672
68	0x3cde4338	0.027131662
69	0x3d077964	0.03307475
70	0x3da03d60	0.07824206
71	0x3d9cdc37	0.0765919
72	0x3d9de882	0.07710363
73	0xbd6473ac	-0.055774376
74	0xbc8d2bd4	-0.017232813
75	0x3d0e47ce	0.034736447
76	0xbc138306	-0.009003406
77	0xbdafee41	-0.08590365
78	0xbd9324f1	-0.071847804
79	0xbd71e9a3	-0.059060704
80	0x3caa2ab8	0.020772323
81	0x3d78afa9	0.060714398
82	0xbcbaff01	-0.022826673
83	0x3c20092d	0.009767813
84	0xbc80584c	-0.015667103
85	0xbd85dbaf	-0.06536042
86	0xbd316340	-0.043307543
87	0x3c0a7826	0.008451497
88	0x3d5c9b81	0.053859238
89	0x3c9a430b	0.018830797
90	0x3b9d713d	0.004804759
91	0xbce9e8c6	-0.028553378
92	0x3dac7a04	0.0842171
93	0xbd8d4259	-0.068974204
94	0x3c2f6ab7	0.010706595
95	0x3d308a87	0.04310086
96	0x3c67744f	0.014126851
97	0xbd4854de	-0.04890906
98	0xb9cbf7bb	-0.0003890375
99	0x3ab9bc50	0.0014170501
100	0x3d0ba60a	0.034093894
101	0xba6488b1	-0.00087178784
102	0xbda4793e	-0.080309376
103	0x3d95bce7	0.07311421
104	0xbd2fd4a0	-0.042927384
105	0x3d4cc9f3	0.04999728
106	0x3d4f386f	0.05059093
107	0x3d6ade77	0.057341065
108	0xbcb16ad1	-0.02165738
109	0x3bc875ef	0.0061175744
110	0x3d529118	0.051407903
111	0x3ca69d85	0.020338783
112	0x3c3f7d30	0.011687562
113	0xbd70eb3a	-0.05881808
114	0xbd80adc5	-0.06283144
115	0xbd18aa07	-0.037271526
116	0x3d884af1	0.06654919
117	0x3d427c4a	0.047481813
118	0xbd41579d	-0.047202695
119	0x3c853388	0.016259924
120	0xbd992fb2	-0.074798
121	0x3d324ae2	0.043528445
122	0x3c305d98	0.010764502
123	0x3d38ba18	0.045099348
124	0x3c981a24	0.018567152
125	0xbc884f7c	-0.016639464
126	0x3d575a8d	0.05257659
127	0xbd0f092b	-0.034920853
128	0x3ca9299b	0.020649722
129	0xbbb22d7d	-0.0054375515
130	0xbb8bda42	-0.0042679617
131	0xbcd7ee85	-0.026358852
132	0x3d435a8a	0.047693767
133	0x3d066bf6	0.032817803
134	0xbcef64e6	-0.029222917
135	0xbbb59cbd	-0.0055423663
136	0x3cf3b0a6	0.029747318
137	0x3c85e7a9	0.016345816
138	0x3d939d0c	0.07207689
139	0x3c6fd19d	0.014637378
140	0x3d8ad176	0.06778233
141	0xbcdca569	-0.026934342
142	0xbc231e44	-0.009955946
143	0xbd0d27fa	-0.034461953
144	0x3d3fcc7e	0.04682588
145	0x3bf334fb	0.0074220872
146	0xbcd6271f	-0.026141701
147	0xbb7047a3	-0.0036663793
148	0x3d95f869	0.07322771
149	0xbd8a0034	-0.0673832
150	0xbd713bf1	-0.058895055
151	0xbd165b7f	-0.03670835
152	0xbd90dc5c	-0.0707328
153	0xbcd14b02	-0.025548462
154	0x3d5dc228	0.05414024
155	0x3da0a1bf	0.078433506
156	0xbd18bba4	-0.037288323
157	0x3cd9d942	0.026592854
158	0x3d7310b8	0.059342116
159	0x3d61d39a	0.05513344
160	0x3ce229a1	0.02760774
161	0xbd5343d4	-0.051578358
162	0xbd876c65	-0.066124715
163	0x3c7a4562	0.015275331
164	0x3d001007	0.031265285
165	0x3da551e0	0.08072257
166	0xbcbdcbf6	-0.023168545
167	0xbb1ebae6	-0.0024220287
168	0x3c7b924d	0.015354705
169	0x3cc763ba	0.024339546
170	0xbd2e75ea	-0.04259292
171	0x3cb5f090	0.022209436
172	0xbb5ea158	-0.003397068
173	0xbd92d1f3	-0.07168951
174	0x3d8eda7d	0.06975267
175	0xbc817ad1	-0.015805634
176	0x3c5980ed	0.013275367
177	0x3caa26c8	0.020770445
178	0xbbdf4c1a	-0.006814492
179	0xbcb365f7	-0.021899207
180	0xbd892d25	-0.06698064
181	0xbd0fee63	-0.035139453
182	0xbcb039c9	-0.02151193
183	0x3d2d79a8	0.04235235
184	0xbc919d54	-0.017775215
185	0xbbaab855	-0.0052099624
186	0x39e91da5	0.0004446331
187	0xbd2f16f8	-0.042746514
188	0xbda31565	-0.07963065
189	0x3d8cc8d7	0.06874245
190	0x3d9566b6	0.07294981
191	0x3cdf46ae	0.027255382
192	0x3d330af4	0.043711618
193	0xbd0ba246	-0.034090303
194	0xbcbf46fb	-0.023349276
195	0x3cb552a6	0.022134136
196	0x3d9eac04	0.07747653
197	0xbd77017f	-0.06030416
198	0x3d6e834d	0.058230687
199	0xbda441aa	-0.08020337
200	0xbcbf6a7f	-0.023366211
201	0x3d3a7bee	0.045528345
202	0xbd39119a	-0.0451828
203	0xbc2c24c8	-0.010506816
204	0xbce4cd51	-0.027929934
205	0xbd6ad450	-0.057331383
206	0xbc5d25b8	-0.013497762
207	0xbc5df188	-0.013546355
208	0x3d3485c2	0.044072874
209	0xbca524b6	-0.020159107
210	0xbc4cdb30	-0.01250343
211	0xbd78ce0b	-0.060743373
212	0xbd01e1af	-0.03170937
213	0x3bda4455	0.006660978
214	0x3d296317	0.041354265
215	0x3d94a3f9	0.07257838
216	0x3da33d2e	0.079706535
217	0xbcd112ba	-0.025521625
218	0xbd721393	-0.0591007
219	0xbc5a4696	-0.013322493
220	0xbd87b1fa	-0.06625743
221	0x3b977a9d	0.004622771
222	0x3da12308	0.0786801
223	0x3d9bf920	0.07615876
224	0xbcc9a257	-0.024613542
225	0xbc8fbf65	-0.017547319
226	0xbc826e8a	-0.01592185
227	0x3d502fc3	0.0508268
228	0xbcf0b372	-0.029382441
229	0xbda1d261	-0.07901455
230	0xbd736cef	-0.05943006
231	0xbd36c62d	-0.04462259
232	0xbda1f3c6	-0.07907824
233	0xbcbd1047	-0.02307905
234	0x3b880938	0.0041514896
235	0xbd45f538	-0.048329562
236	0xbd0e841e	-0.034793966
237	0x3d821c97	0.06353109
238	0x3d6deb28	0.05808559
239	0xbd9d0c87	-0.07668405
240	0x3d3c6540	0.045994997
241	0xbcf0dc4b	-0.029401919
242	0x3d322e7c	0.043501362
243	0x3bda045a	0.006653351
244	0x3d25e878	0.040504903
245	0x3d5f03d2	0.054447003
246	0xbd13b0ef	-0.03605741
247	0x3c49b6d3	0.012311655
248	0x3d328c20	0.043590665
249	0xbd0d1f64	-0.034453765
250	0xbdad5a94	-0.08464542
251	0xbc56c28d	-0.013107908
252	0x3d39def5	0.045378644
253	0x3d692e5c	0.056928977
254	0x3c11f402	0.008908274
255	0xbd8490f7	-0.06472962

encBlocks.1.conv2.bias f4 [16]
0	0x3d757510	0.059926093
1	0xbcd6bab9	-0.026212083
2	0x3c2e6109	0.010643252
3	0xbda0cd2e	-0.07851635
4	0xbd09b9f3	-0.0336246
5	0xbc63df91	-0.013908283
6	0xbcd87ba2	-0.02642614
7	0xbbb6d589	-0.0055796546
8	0xbd99b857	-0.07505863
9	0xbc3d0840	-0.0115376115
10	0x3d91a05c	0.07110664
11	0x3a996b18	0.001170489
12	0xbc44b69b	-0.012006427
13	0x3d6f14d5	0.058369476
14	0x3d71a81b	0.05899821
15	0x3d4f9b9b	0.050685506

encBlocks.1.BN1.weight f4 [16]
0	0x3f80c3b7	1.0059727
1	0x3f80b585	1.0055395
2	0x3f7e99cd	0.9945343
3	0x3f7ec44c	0.99518275
4	0x3f7e55cd	0.9934967
5	0x3f808e5d	1.0043446
6	0x3f7e83b6	0.99419725
7	0x3f7f40fd	0.9970854
8	0x3f808bf8	1.0042715
9	0x3f7ed034	0.9953644
10	0x3f806d7d	1.0033413
11	0x3f80cd19	1.0062591
12	0x3f7e72c1	0.9939385
13	0x3f806d76	1.0033405
14	0x3f80ca0d	1.0061661
15	0x3f7ef809	0.9959722

encBlocks.1.BN1.bias f4 [16]
0	0x3b817b15	0.00395144
1	0xbbab94e2	-0.005236254
2	0xbb999f9c	-0.0046882164
3	0xbbc410a1	-0.0059834276
4	0xbbaf5ac0	-0.0053513944
5	0xbbc74ec3	-0.006082387
6	0xbbcf6b7f	-0.006329953
7	0xbbbfaccb	-0.005849456
8	0xbb739528	-0.0037167761
9	0xbbc86912	-0.006116041
10	0xbbd44495	-0.006477902
11	0xb8669660	-5.497632e-05
12	0xbbdc369e	-0.006720378
13	0xbad5c85a	-0.001631032
14	0x3b80fcf8	0.003936406
15	0xbbc01d42	-0.005862863

encBlocks.1.BN1.running_mean f4 [16]
0	0x3e536c1b	0.20646708
1	0x3de80d24	0.113306314
2	0xbe6f4576	-0.23366341
3	0x3ecacfc9	0.39611652
4	0xbde8e169	-0.113711186
5	0x3d444371	0.04791588
6	0xbef054f9	-0.4693983
7	0xbe9948bf	-0.29938313
8	0x3d1e6dfc	0.038679108
9	0xbe08020c	-0.13282031
10	0x3e7307c9	0.23733439
11	0x3e67d1c1	0.22638609
12	0xbf4d5ddd	-0.8022135
13	0x3ddc624d	0.10760937
14	0x3e803cdc	0.25046432
15	0xbedf1a0a	-0.43574554

encBlocks.1.BN1.running_var f4 [16]
0	0x3f2b5f5a	0.6694237
1	0x3f19c431	0.6006499
2	0x3f4fd98a	0.81191313
3	0x3f5fc12a	0.8740412
4	0x3f29795c	0.66200805
5	0x3f1c3262	0.6101438
6	0x3f35087b	0.70716065
7	0x3f28fc2d	0.6600979
8	0x3f27a79b	0.6549012
9	0x3f23e468	0.64020395
10	0x3f1f0e18	0.6213088
11	0x3f27c781	0.65538794
12	0x3f866442	1.0499346
13	0x3f1952ff	0.59892267
14	0x3f25ec20	0.64813423
15	0x3f4fb0e2	0.81129277

encBlocks.1.BN2.weight f4 [16]
0	0x3f7e5d26	0.99360883
1	0x3f7f8dd8	0.9982581
2	0x3f7f6242	0.99759305
3	0x3f7f0d3b	0.99629563
4	0x3f80c400	1.0059814
5	0x3f7e5162	0.9934293
6	0x3f8072eb	1.003507
7	0x3f802fb9	1.0014564
8	0x3f803e23	1.0018963
9	0x3f8089f6	1.0042102
10	0x3f7feb27	0.9996819
11	0x3f801e33	1.0009216
12	0x3f80b81a	1.0056183
13	0x3f7ea230	0.9946623
14	0x3f80189a	1.0007508
15	0x3f7fd749	0.99937874

encBlocks.1.BN2.bias f4 [16]
0	0xbbbc6735	-0.005749608
1	0xbbc56a9d	-0.006024672
2	0xba4847ce	-0.0007640094
3	0xbbd323a4	-0.0064434577
4	0xbbbfa3a5	-0.0058483654
5	0xbba5d87c	-0.0050612073
6	0xbbc5ddb9	-0.0060383943
7	0xbab96cac	-0.0014146767
8	0x3b94ae7c	0.0045374017
9	0xbb37271c	-0.0027946895
10	0xbb4cd977	-0.0031257549
11	0xbabef369	-0.0014568391
12	0x3ba56e69	0.0050485623
13	0xbbbf4cc9	-0.005838011
14	0xbbbe5c08	-0.005809311
15	0xbb9b806f	-0.004745535

encBlocks.1.BN2.running_mean f4 [16]
0	0x3dc816e0	0.09769988
1	0xbd5ac89f	-0.053413983
2	0x3d8dd9b3	0.069262885
3	0xbda52acf	-0.08064806
4	0x3e6e7889	0.23288168
5	0x3d88e02e	0.06683384
6	0xbbf9cd74	-0.007623369
7	0xbd1b13f9	-0.037860844
8	0x3e576a1b	0.2103657
9	0x3c84439b	0.016145518
10	0xbd6a515f	-0.057206508
11	0xbd1aafc5	-0.037765283
12	0x3bc287d8	0.005936604
13	0xbe8c697d	-0.2742423
14	0x3e79e3c1	0.24403287
15	0xbd415ca8	-0.047207505

encBlocks.1.BN2.running_var f4 [16]
0	0x3f09bb8e	0.5380181
1	0x3f047e1e	0.5175494
2	0x3f08eb50	0.5348406
3	0x3f0414f2	0.5159446
4	0x3f0cb02b	0.5495631
5	0x3f079a59	0.5296989
6	0x3f044d8e	0.5168084
7	0x3f15088c	0.58216166
8	0x3f174141	0.59083945
9	0x3f05780c	0.521363
10	0x3f06e496	0.52692544
11	0x3f04c220	0.5185871
12	0x3f05d8c2	0.5228387
13	0x3f13fe54	0.5780995
14	0x3f09bac4	0.53800607
15	0x3f0ca43c	0.549381

encBlocks.2.conv1.weight f4 [1, 16, 3, 3]
0	0x3d8fbe50	0.07018721
1	0xba105eb5	-0.00055072765
2	0xbd9b896c	-0.075945705
3	0x3d16abd1	0.03678495
4	0xbd2c53de	-0.04207217
5	0xbd6c42d6	-0.057680927
6	0x3d30036d	0.042972017
7	0x3da0731c	0.07834455
8	0xbd14cc61	-0.036327723
9	0xbd8fd350	-0.070227265
10	0xbc413c79	-0.011794203
11	0x3d4b80f9	0.049683545
12	0xbc3450d2	-0.011005597
13	0xbc3c5417	-0.011494658
14	0xbd286400	-0.041110992
15	0x3d99e370	0.075140834
16	0xbd07614f	-0.033051785
17	0xbd2ac036	-0.041687213
18	0x3d01b8fc	0.031670555
19	0xbd60aa47	-0.05484989
20	0x3d8b52ac	0.06802878
21	0x3d13819b	0.036012273
22	0x3d547e47	0.05187824
23	0x3bd74a54	0.00657014
24	0xba9b0dc2	-0.0011829662
25	0xbcd188a4	-0.02557785
26	0x3c90b43d	0.01766407
27	0x3d81cf35	0.0633835
28	0xbd937941	-0.07200862
29	0xbd884175	-0.0665311
30	0x3d6015fd	0.05470847
31	0x3d1cba3e	0.038263552
32	0xbc3a3a45	-0.011366432
33	0xbd9866bf	-0.07441472
34	0x3d91cad1	0.07118762
35	0xbc8b4576	-0.017000895
36	0x3cf5f022	0.03002173
37	0x3d9037be	0.07041882
38	0xbd33d8cb	-0.04390792
39	0xbb98e024	-0.0046653915
40	0x3cd0d891	0.025493892
41	0x3d8e17d2	0.06938137
42	0xbd6e8b55	-0.058238346
43	0x3daeb3c9	0.08530385
44	0x3cee9435	0.029123405
45	0xbc9430c9	-0.018089669
46	0x3d81e7cf	0.06343042
47	0x3da08722	0.078382745
48	0xbd4f9786	-0.050681613
49	0x3d7352da	0.059405185
50	0x3d62425a	0.05523906
51	0x3acbd0c2	0.0015549886
52	0xbd954a5c	-0.072895736
53	0xbd8ae4ca	-0.06781919
54	0x3cec3a46	0.02883638
55	0x3d85d6a9	0.06535084
56	0x3d40f498	0.047108263
57	0x3d8901f4	0.06689826
58	0xbd33f4e3	-0.043934714
59	0xbd8e0bcf	-0.06935846
60	0xbd9b83f2	-0.07593526
61	0x3d4cb66a	0.04997865
62	0x3d96b080	0.073578835
63	0xbd5acd61	-0.05341852
64	0x3d9dcd58	0.07705182
65	0x3d82ab09	0.063802786
66	0x3d81aa1e	0.063312754
67	0x3b566d38	0.0032718908
68	0xbd8163b3	-0.06317844
69	0xbd25d78b	-0.04048876
70	0xbd8ebdb4	-0.06969777
71	0xbd93f5ba	-0.07224603
72	0x3d39135a	0.04518447
73	0x3cf6e28d	0.030137325
74	0x3caa1127	0.020760132
75	0x3d4e3b18	0.050349325
76	0xbd29babe	-0.041437857
77	0x3d798bee	0.060924463
78	0x3adf78cc	0.001704955
79	0x3d4061a4	0.046968117
80	0xbc54011b	-0.012939717
81	0xbd6d8a3e	-0.057993166
82	0x3d15c5ad	0.03656547
83	0xbbe3a864	-0.006947564
84	0x3d10ed83	0.03538276
85	0x3bd4bd91	0.0064923246
86	0xbd53d00d	-0.051712085
87	0xbd86beb9	-0.06579346
88	0x3d8cae48	0.06869179
89	0xbd1d3251	-0.038378064
90	0xbbd2b7da	-0.006430608
91	0x3c1bc373	0.009507048
92	0x3c9a8e5f	0.018866716
93	0xbd946774	-0.072462946
94	0x3d84712e	0.064669
95	0xbc9d1cd2	-0.019178782
96	0xbd9dead3	-0.07710805
97	0xbc3e90e2	-0.011631222
98	0xbda8f7c0	-0.082503796
99	0x3bab0d0b	0.0052200607
100	0x3d89a125	0.06720189
101	0x3ce4c4cc	0.027925871
102	0xbd99da4f	-0.07512342
103	0xbc7db352	-0.015484648
104	0xbc1e546d	-0.009663683
105	0x3d959978	0.073046625
106	0xbc8aef54	-0.016959824
107	0x3c8879d9	0.016659664
108	0xbd8e45ca	-0.06946905
109	0x3d10df11	0.035368983
110	0xbd13ece2	-0.03611458
111	0x3d1eeffe	0.038803093
112	0x3a7e2671	0.0009695059
113	0xbbbc97db	-0.0057554073
114	0x3c8c12be	0.01709878
115	0x3b4e6af0	0.0031496845
116	0x3d17d4f1	0.03706831
117	0xbd8efa5b	-0.06981345
118	0x3d5c3bb9	0.053767893
119	0x3d1d0dcb	0.038343232
120	0x3cb33db6	0.021880012
121	0x3d091348	0.033465654
122	0xbc2a5e6b	-0.010398488
123	0xbce5ecff	-0.02806711
124	0xbd8ace57	-0.067776375
125	0xbd7d01c2	-0.061769255
126	0xbc95ec62	-0.018301193
127	0x3d0faf64	0.035079375
128	0xbc1baae8	-0.009501196
129	0x3d4be82f	0.049781974
130	0xbd9cee16	-0.07662599
131	0x3bc1aa18	0.0059101693
132	0x3cec1918	0.02882056
133	0xbcdc0122	-0.026856009
134	0x3d3ddb49	0.046351705
135	0xbdaabb23	-0.08336475
136	0x3c84aba1	0.01619512
137	0xbc875ba6	-0.016523194
138	0x3d3cf75c	0.046134338
139	0xbd152ff0	-0.03642267
140	0xbd835eb5	-0.06414548
141	0x3d9157e8	0.07096845
142	0xbd8cf4d6	-0.06882636
143	0xbd93e6eb	-0.072217785

encBlocks.2.conv2.weight f4 [1, 1, 3, 3]
0	0xbe3ebd7f	-0.18626975
1	0x3d5c63a0	0.053805947
2	0xbe67716e	-0.22601864
3	0x3e979111	0.29602864
4	0xbe83b5c2	-0.25724608
5	0x3dd5912d	0.10428081
6	0xbe056dba	-0.13030139
7	0x3de35158	0.110994995
8	0xbe006028	-0.1253668
